trained_models/classification_cnn.pth (torch, 330898 bytes, 9 tensors)

cnn.model.0.weight f4 [8, 2, 5, 5]
000000 c0 94 00 bd 71 27 73 bd 1b fa 92 bd 74 eb af 3d
       -0.03139186 -0.059363786 -0.0717661 0.08589831
000010 6f 6c d6 bc 9e 3f cc 3d ca 40 ab bc 1f a5 4c 3d
       -0.026174752 0.099730715 -0.020904917 0.04996216
000020 61 5d ec bc d7 c3 98 3d 18 a2 57 bd 32 32 2e 3d
       -0.02885312 0.074592285 -0.05264482 0.04252834
000030 27 4e c7 bd a8 49 de bd 4d 73 6b 3c 75 9c 0b bb
       -0.09731703 -0.108538926 0.014370752 -0.0021302972
000040 68 d3 2f be 2a 95 01 3e 76 e3 82 3d 91 76 6f 3e
       -0.17170489 0.12654558 0.06391041 0.23385073
000050 e5 23 2f 3e 27 44 16 3e 18 2d 54 3e eb ea 78 3d
       0.17103536 0.14674436 0.20720327 0.06077091
000060 d2 5c f1 bd 60 92 1e 3c fd ce 03 bd db b8 3b 3e
       -0.11785282 0.009678453 -0.03217982 0.18332236
000070 c0 e4 72 3e 80 1d ba bd e0 b0 a6 3d fd 93 98 3d
       0.23720074 -0.09087658 0.08139205 0.074501015
000080 03 3a 96 3d c2 c1 4e 3e 27 9a a0 3e cc ed b5 bd
       0.073352836 0.201911 0.3136761 -0.08883247
000090 2f fd 13 be 68 49 15 bd 4b b3 a5 3d 64 c3 c8 3d
       -0.1445205 -0.03644696 0.08090838 0.09802893
0000a0 9b e9 81 3c c8 5c 77 bd 56 1c 0d be 90 53 0b 3e
       0.015858462 -0.060391217 -0.1378034 0.13606095
0000b0 00 84 af 3d 8c 6f 0d 3e 1a f4 58 bc 20 14 04 be
       0.08570099 0.13812083 -0.013241792 -0.12898302
0000c0 01 b1 1c 3e 73 78 16 3e f2 8b 1b 3d 79 8d c9 bd
       0.15301897 0.14694385 0.03797526 -0.09841437
0000d0 bc eb ac bc d0 c1 13 3e 71 af 2e bd 15 26 58 bd
       -0.0211085 0.14429402 -0.042647783 -0.052770693
0000e0 09 3b bd bc b0 6c 52 3e 3f 3b 7d 3b 40 85 6f be
       -0.02309944 0.20549273 0.003864005 -0.23390675
0000f0 8c 8d 93 3d 53 23 62 3e de 34 88 bc 4f af 88 be
       0.07204732 0.22083788 -0.016626772 -0.2669625
000100 e7 71 58 be 71 03 e0 3c 77 ef 21 3e e9 89 23 be
       -0.211372 0.027345391 0.15814005 -0.15970577
000110 e6 99 a7 be 5e d3 a6 bd 50 4c a1 3e be 41 2a 3e
       -0.32734603 -0.08145784 0.31503534 0.16626641
000120 16 9d b7 be 3a f0 ae be 60 ce c5 bd 7c db c1 3d
       -0.35862035 -0.34167653 -0.096585035 0.094656914
000130 ac 65 8f bc af 91 2f be 17 e2 38 3d 29 11 e4 3d
       -0.017504536 -0.17145418 0.04513749 0.111360855
000140 f8 cf c1 3d 78 92 f2 bd a2 a3 cf bd e9 9a 22 bc
       0.09463495 -0.11844343 -0.10138632 -0.009924629
000150 8a 21 eb 3c 77 ff 45 be 87 23 3d be 1a e0 74 3c
       0.028702516 -0.19335733 -0.18470584 0.014946008
000160 ee 19 31 3e 75 09 fd 3d 70 5f 4a be 2a e6 da 3c
       0.17295048 0.123553194 -0.19762969 0.026721079
000170 66 30 30 3e fd e8 25 3e ce 57 33 be 9c 77 a8 3a
       0.17205963 0.16202159 -0.17513964 0.0012853029
000180 d3 97 04 3e 50 12 1b 3e 0d 80 ca bd fb 8c 38 be
       0.12948541 0.15143704 -0.09887705 -0.1802253
000190 93 5d 0f 3e a3 e1 5b 3d ab c7 85 3d 7e 81 4f be
       0.1400054 0.05368198 0.06532224 -0.20264241
0001a0 45 02 69 be a8 21 f0 bd 39 c9 0d 3e fe 54 40 3e
       -0.22754772 -0.117251694 0.13846292 0.18782422
0001b0 46 c9 aa bc 1b ad 97 be 82 83 74 bd 14 72 e2 3c
       -0.020847928 -0.29624256 -0.059695728 0.027642287
0001c0 cf 8a 2a 3e 65 2d 8c bd 5f 8d 91 be bc 40 ec bc
       0.16654514 -0.06844596 -0.2842817 -0.028839462
0001d0 cd 94 dd bb d2 58 87 3d c6 23 89 3d 30 f5 cc 3d
       -0.006762123 0.06608738 0.06696276 0.10007703
0001e0 1b a3 99 bd 84 8f b6 3c 37 3f 1a 3e f7 ab 0b 3e
       -0.07501813 0.02228523 0.15063177 0.13639818
0001f0 7a 3c 38 3e 6a 20 88 bd b8 0c 09 3e 03 c8 3d 3e
       0.1799182 -0.066468075 0.13383758 0.1853333
000200 05 5a 42 3e 79 2f 46 3e 26 06 d0 3d 7c fb 15 3e
       0.18979652 0.19354047 0.10157423 0.14646715
000210 e9 3d 56 3d d9 c3 9b bd 08 c8 95 3d 1c 4f ae 3c
       0.052305136 -0.07605714 0.073135436 0.021277957
000220 d4 11 ba bd b7 36 3b be 3e 9b 69 be 2b 63 3d be
       -0.09085432 -0.18282591 -0.22813126 -0.18494861
000230 a7 e8 2f be d8 ff 82 be 35 29 53 be 6f b9 ee bd
       -0.17178594 -0.25585818 -0.20621188 -0.116564624
000240 6a 4f 1a be 80 d3 87 be 65 4f 7a be b6 03 e4 bd
       -0.15069357 -0.2652855 -0.24444349 -0.1113352
000250 80 97 42 be db e3 54 be 43 f5 4c bd fd 3a bb bd
       -0.19003105 -0.20790045 -0.050038587 -0.091421105
000260 79 f6 42 bd 25 c7 02 3e ac a7 b3 3d 2a a4 6d 3c
       -0.047598336 0.1277128 0.08772215 0.014504472
000270 41 b5 0d be 83 5f f9 bd 0a 94 2b be d0 bc 35 3c
       -0.13838674 -0.121764205 -0.16755691 0.01109238
000280 df af a7 3c 4b d8 56 3e b7 7d c7 bb ae 0b 77 3d
       0.020469604 0.20980947 -0.0060879844 0.060313873
000290 50 62 bc 3d 89 4d 65 3e c4 10 0f 3e ee 9c f7 3d
       0.09198439 0.22392859 0.1397124 0.12090479
0002a0 5b ac 20 3c fd 02 1b 3e f4 ba 58 bd b6 21 25 be
       0.009806718 0.15137859 -0.052912667 -0.16126141
0002b0 01 e6 be bd 91 63 a6 bb 0c b9 5e 3d 87 8b 43 be
       -0.093212135 -0.005077787 0.054375693 -0.19096194
0002c0 f7 bd 2a be f1 ed ea bd 4e bb bd 3c e8 7e 0b 3d
       -0.16674028 -0.11471165 0.023160603 0.034056574
0002d0 e2 3b a3 bc 35 76 8d bd d8 f7 17 3c ce 3c e7 bd
       -0.019926015 -0.06907312 0.009275399 -0.112908944
0002e0 ee ad d2 bd f2 f0 d5 bd ae 63 14 be 49 c5 ac 3d
       -0.10287081 -0.10446347 -0.1449115 0.08436067
0002f0 d6 79 ce 3d e9 6a 8d bd 48 ec 51 be ec 00 df bd
       0.10081832 -0.06905157 -0.2050029 -0.10888848
000300 44 d7 ef 3d 2f 77 15 3d f6 71 18 be b6 ab fb bd
       0.117109805 0.036490615 -0.14887223 -0.12288611
000310 a4 25 f6 bd 71 19 6c be 0c 8d c7 bd eb 94 86 bd
       -0.12018898 -0.2305658 -0.097436994 -0.065713726
000320 73 cb 8e bc be 9d 0a 3c 9d 19 9b 3d f6 e5 f2 bb
       -0.017430997 0.00846046 0.07573245 -0.0074126674
000330 94 a5 99 bd 7c fc 69 3d d7 44 23 3e 4f 4d 16 3e
       -0.07502285 0.057125553 0.15944229 0.14677928
000340 db fa 1a 3e eb 45 d1 3d 4e b6 06 bc 22 1a c1 3c
       0.15134756 0.10218414 -0.008222176 0.023572031
000350 be 5b 9b 3d f6 89 77 3b da 7d c1 bc 41 bb 01 be
       0.07585858 0.003777144 -0.023619581 -0.12669088
000360 ef 3a 12 be 69 05 4e be 91 67 08 be 15 f1 b2 3d
       -0.14280294 -0.20119251 -0.13320757 0.08737389
000370 63 09 81 be 45 2f 93 be 80 23 65 be da 26 29 3c
       -0.25202474 -0.28747 -0.22376823 0.010324204
000380 52 bd 69 3e 0c 45 6a 3c 1a 63 2e 3d ca 42 95 bd
       0.22826126 0.014298689 0.04257498 -0.0728813
000390 46 d6 26 3d 7b f2 e3 3c bf 8a 02 3d 2e e5 95 bd
       0.04073169 0.027825585 0.0318706 -0.07319103
0003a0 47 1d 5a be 4b 7a 02 be 4a 08 d6 bc bd 93 1a be
       -0.21300231 -0.12741964 -0.026127 -0.1509542
0003b0 d1 c6 3c be 0e e9 68 be b8 4d 87 be f6 20 ac 3d
       -0.18435217 -0.22745153 -0.26426482 0.08404724
0003c0 77 60 93 3d 3b 43 1b be 21 f1 50 be 9f 28 65 3d
       0.071961336 -0.15162365 -0.20404483 0.055946942
0003d0 df 8d 51 3e a8 43 50 3e cd f8 2c bd 44 ce d4 3c
       0.20464276 0.20338309 -0.042229462 0.025977261
0003e0 81 3f 0e 3e 37 88 ed 3d f0 ab f8 bd b5 67 58 be
       0.13891412 0.115982465 -0.121421695 -0.21133311
0003f0 63 b7 00 bc d2 ab 5b 3c 1f 7f 36 3d 60 6a 50 be
       -0.007856223 0.013407664 0.044554826 -0.20353079

cnn.model.0.bias f4 [8]
000000 dc 40 aa 3d ab ff 22 be 56 00 4e be 30 1b ee bd
       0.08313152 -0.15917842 -0.20117316 -0.11626279
000010 6c a2 3a be 26 ab fa bd a0 6b ce 3c e0 e6 39 be
       -0.18226022 -0.12239675 0.025197804 -0.18154478

cnn.model.3.weight f4 [16, 8, 5, 5]
000000 b2 3f 93 3d aa c7 3f 3d 0f eb 01 bc 5a a9 2c 3d
       0.07189883 0.046821274 -0.0079295775 0.042153694
000010 08 d0 a0 3d 5d 72 2b 3d b8 fb a7 bd 19 93 9a bd
       0.07852179 0.041857112 -0.082023084 -0.07547588
000020 12 35 a7 bd 52 49 bd 3d a2 7b c8 3c 7a e3 c3 bb
       -0.08164419 0.092425 0.024473015 -0.005978045
000030 d8 83 36 3d af d2 d2 bd 51 3d d3 3b a7 af e9 bc
       0.04455933 -0.10294091 0.0064465185 -0.02852614
000040 e6 60 b6 bd af 82 31 bd 3e c5 89 3c a0 30 80 3c
       -0.08905201 -0.04333752 0.016817685 0.015648186
000050 0d 69 b1 3c 62 20 bd bc 9a 77 47 bd 39 b7 8d 3d
       0.021656537 -0.02308673 -0.048698045 0.069197126
000060 ee 23 90 3d b2 60 a6 3c 01 88 c6 3d 8f 31 f5 3d
       0.07038103 0.02030978 0.096939094 0.11972343
000070 ad ac 22 3d 62 33 92 3e e8 04 22 3e 98 b0 bd bb
       0.039715458 0.28554827 0.15822184 -0.005788874
000080 e8 9f 2e bc d6 65 b0 3c 0c 43 22 3c a4 e1 54 3d
       -0.010658242 0.021532934 0.0099036805 0.051973
000090 ba 8c 1c 3c cd 52 8f be 31 f7 31 bb 04 ef 65 bd
       0.009555036 -0.2799286 -0.0027155394 -0.056136146
0000a0 52 a3 0d 3d e6 ce 2b bd 34 ba 5d be 41 9f ac 3d
       0.034579583 -0.04194536 -0.21653062 0.08428813
0000b0 eb 92 ff 3d ee 53 91 3e 4c 2f 86 3d d8 67 a2 3d
       0.12479194 0.28384346 0.0655199 0.07929963
0000c0 02 84 13 3e eb e6 00 3e 8a 3c 91 3b 34 fb 13 3e
       0.14405826 0.12588088 0.0044322656 0.14451295
0000d0 46 41 bb 3d 04 83 ec bd c4 97 29 3c 82 54 7c 3c
       0.09143309 -0.11548427 0.010351125 0.015401008
0000e0 5f 45 c1 3d 68 13 b0 bd fd 8e b5 3d 68 0c 15 3e
       0.094370596 -0.085974514 0.088651635 0.14555514
0000f0 b2 8b 68 3c 05 e7 77 3d 0f 42 42 be b4 41 35 bd
       0.014193462 0.06052305 -0.18970512 -0.044252113
000100 b1 1f bb bc 0e 78 d3 3a 1f 3b 8b be 04 2e 15 be
       -0.02284226 0.0016133802 -0.27193543 -0.14568335
000110 9d 5d e4 bc 58 cd 9b bd 4b 8a c7 3d 8e 00 a8 3d
       -0.02787667 -0.076075256 0.09743174 0.08203231
000120 94 85 2c 3e 15 a8 fa 3d a5 3a 0d 3d 2a 2a 79 3d
       0.16847831 0.1223909 0.034479756 0.060831226
000130 d2 3d cf bd 29 8a 36 bd 50 3b c3 bd bc d8 32 3d
       -0.10119213 -0.044565354 -0.09532797 0.043663725
000140 a3 b4 6e 3d 08 65 99 3c c4 69 ed bc b6 fd aa bd
       0.058277737 0.018724933 -0.028981097 -0.08349173
000150 d7 c2 a3 bc ff b9 fb 3a f6 af 9c bd c4 4d d3 bd
       -0.019990368 0.0019205211 -0.076507494 -0.10317567
000160 6f 3f 78 bd c9 79 b8 bb 9f bd 29 bd 86 77 0a 3b
       -0.06060737 -0.0056297523 -0.041440602 0.002112837
000170 96 e7 96 bd 88 a4 23 bd 69 1c 90 3b df dc 7d 3a
       -0.0736839 -0.03995183 0.004397918 0.00096840964
000180 24 c2 aa bd d7 e4 bc bd b7 74 a1 bd bd 26 d5 3c
       -0.08337811 -0.09223335 -0.0788359 0.026019448
000190 07 88 09 3d 65 4c c5 3d e9 cb f9 3d d5 66 ee 3d
       0.03357699 0.09633712 0.12197096 0.116407074
0001a0 02 45 87 3e a0 56 03 bd c9 94 ce 3d 7a 66 07 3d
       0.26419836 -0.032065034 0.10086972 0.033056714
0001b0 93 6a 43 ba 24 1b 50 3e 0c 2a 0e bd 1c 28 60 bd
       -0.00074545405 0.20322853 -0.034708068 -0.05472575
0001c0 6c e3 f6 bd 1c c6 8e bd e2 a2 6e 3c 46 2e 01 3d
       -0.12055096 -0.0697138 0.0145652015 0.03153827
0001d0 90 5c db bc c0 5d 24 3e 3c ed 16 3e 04 a9 95 3d
       -0.026777536 0.16051388 0.14738935 0.07307628
0001e0 09 04 08 3e dd 10 72 3d 40 9e 2b 3e 0b df 3b 3e
       0.1328279 0.059098113 0.16759586 0.18346803
0001f0 b0 3a 6e 3e e8 0c fe bc e6 15 0d 3c b9 ce 67 bd
       0.23264575 -0.031012014 0.008611178 -0.05659363
000200 29 dc 0f 3e a9 11 e4 3d a4 7a 92 3c 33 5b 0f 3d
       0.14048828 0.11136181 0.017880745 0.034999084
000210 9b 1a fd 3d 72 82 a0 3d 28 68 02 3e 84 b8 f7 3d
       0.1235859 0.078373805 0.12735045 0.120957404
000220 cd 52 ed bc 6f e6 a3 bd 2e cf 54 be 15 56 c6 bd
       -0.028970147 -0.08002936 -0.20782158 -0.096843876
000230 2d f0 99 3d 4a f4 21 bd 95 74 21 be 3b b5 84 bd
       0.07516513 -0.039539613 -0.15767129 -0.064798795
000240 31 ed d5 3d 51 11 1e 3e bc 10 22 3b c7 87 3b 3e
       0.10445631 0.15436293 0.0024729213 0.18313514
000250 d9 05 12 3e 26 e5 dc 3d 94 1e b5 3d 8a 51 7c 3d
       0.14260043 0.10785894 0.08843723 0.0616012
000260 59 94 20 bd 26 1d 21 3d a2 24 f0 3b fc 9e 17 3c
       -0.039203975 0.03933444 0.0073285857 0.009254213
000270 80 b0 2c 3d 85 fc c8 bc 34 d5 8f 3d c9 ed d5 3d
       0.04216051 -0.024534473 0.07023087 0.104457445
000280 5f 99 b5 3d 08 56 d3 3c 37 a1 f8 bd 7c b1 d5 3c
       0.08867144 0.025797859 -0.12140124 0.026085608
000290 6e b8 a0 3c d2 76 c6 3c 5b 60 41 bd 48 b7 b0 bc
       0.019619193 0.02422658 -0.047211032 -0.02157177
0002a0 af d6 7a 3d 25 be 51 bc 1a ec 75 3d ad 52 4b 3c
       0.061239894 -0.012801682 0.060039617 0.012409848
0002b0 a8 e1 80 bd ed e3 ca 3d d5 6e 46 ba 67 53 8d 3d
       -0.062930405 0.09906755 -0.0007569616 0.06900673
0002c0 68 0b 8b bc 39 2a 81 bb ab 54 52 bd 44 e9 e7 3c
       -0.016973212 -0.003941801 -0.051350277 0.028309472
0002d0 55 66 98 3b 3e 23 68 bd 28 db c6 bd 8e 10 00 be
       0.004650871 -0.056674235 -0.097097695 -0.12506315
0002e0 24 e3 01 be a8 53 37 3b bb ca e2 bc 46 58 d4 bc
       -0.12684304 0.0027973447 -0.02768456 -0.025920998
0002f0 bf c8 f0 bc 0b ed 4e bd 92 1d 0f 3d 2b c7 66 bd
       -0.029392598 -0.05051903 0.03494031 -0.056342285
000300 5b f4 a9 bd 1e 91 00 be df c3 ae bd e3 89 ca 3c
       -0.0829856 -0.12555358 -0.08533453 0.024723953
000310 88 8d 84 bc 69 66 36 bc 89 65 02 bd bf 72 a9 3c
       -0.016180769 -0.011132815 -0.031835113 0.020684598
000320 0a 9a b9 bc c7 cf 4d be f7 2d c2 bc 00 28 6e 3d
       -0.02265646 -0.20098792 -0.023703558 0.058143616
000330 f5 fd 9a 3b fe fb f3 bd 8e 3e 1d be 96 fc b4 3b
       0.004729981 -0.11913298 -0.15355894 0.0055232747
000340 93 b6 36 3d f9 1b 64 bc ba a9 12 be 97 dd 2c bd
       0.04460771 -0.013922685 -0.14322558 -0.042203512
000350 81 9b 0a 3d 85 28 b4 bc 3a 99 39 be 18 52 70 be
       0.033839706 -0.021991977 -0.18124858 -0.23468816
000360 b4 81 d3 bb db 8c 62 3d f3 72 17 be 3f 15 b9 be
       -0.006454671 0.05531011 -0.14789943 -0.36149022
000370 09 54 a9 bd c7 60 b0 3c e1 1b 05 3c 09 29 4d be
       -0.082679816 0.021530522 0.008124323 -0.20035185
000380 91 7b 3f be 45 9f f3 be f7 f8 00 bf 44 26 c0 bd
       -0.1869948 -0.4758245 -0.5037989 -0.093822986
000390 f3 34 b3 3d b4 ed 2d 3e 67 d1 fb be 90 f8 05 be
       0.08750334 0.16985208 -0.491832 -0.130831
0003a0 86 d9 97 3d 9f 22 94 3d c4 b3 1a bc 03 63 90 be
       0.07414536 0.07233166 -0.0094422735 -0.2820054
0003b0 a6 95 2e 3e 28 42 db 3c 57 40 c3 3c 23 a4 a6 3b
       0.17049274 0.026764944 0.02383439 0.0050854846
0003c0 51 e0 8a bd d0 da 30 3c 9b 4d 25 3c f1 62 2b 3d
       -0.06781066 0.010794356 0.010089303 0.041842405
0003d0 c2 1e bb 3c 51 23 79 be 6e ef 31 3d e7 ec d4 3d
       0.022841815 -0.24329878 0.04344123 0.10396748
0003e0 9c 74 fb ba 98 f3 83 3d 11 47 0b bf 8e 49 79 be
       -0.0019184533 0.06442946 -0.54405314 -0.24344465
0003f0 eb 5f d1 bd ed 19 2e 3c ea c2 39 be f1 14 19 be
       -0.10223373 0.010626298 -0.1814076 -0.14949395

cnn.model.3.bias f4 [16]
000000 fe 0d 8c bc dc c0 1e bd e0 22 ed bd 98 96 11 be
       -0.017096516 -0.038758144 -0.115789175 -0.14217603
000010 3e 7d 0b 3e 2e e5 b9 bd 32 40 e2 bd 83 aa a6 bb
       0.13621995 -0.09076916 -0.110474005 -0.0050862445
000020 b3 a9 cf 3c 36 e1 1d bd 9a 7f 02 bc 3d 5e 6a bc
       0.025349474 -0.038544856 -0.007964993 -0.014304695
000030 4d 8e 4a 3d 2f 70 96 bd 46 e4 bc bd 72 08 da bc
       0.049452115 -0.07345616 -0.09223227 -0.026615355

fully_connected.0.weight f4 [128, 576]
000000 f0 c3 ac be fd 14 b4 bd d1 8d 75 3d dd e2 b1 3d
       -0.33743238 -0.08793066 0.0599497 0.08685849
000010 0b fd 2a 3e 12 22 de 3d 00 ae 5d bd 84 c5 f2 bc
       0.1669809 0.10846342 -0.054121017 -0.029635198
000020 b7 70 f2 bc 8b e0 9d 3d 25 79 dc 3d 10 fd 64 be
       -0.029594762 0.07708844 0.10765294 -0.2236216
000030 57 2c 1a 3e 8d a9 8c 3c bb c9 9a bd e8 d5 a8 bd
       0.15055977 0.017170692 -0.07558008 -0.082439244
000040 19 61 ef bd 5a e8 0d be 66 59 10 3e a6 52 10 bd
       -0.11688442 -0.13858166 0.14096603 -0.03523507
000050 88 1d fa bd 3c fc 13 be f7 61 f6 bd 8d 38 1a be
       -0.12212664 -0.14451689 -0.12030404 -0.15060635
000060 5b fd 5b bc 79 ca 82 be 80 45 ec bd 14 3a bc 3c
       -0.013427104 -0.255451 -0.115366936 0.022976913
000070 9d 35 18 bb 88 95 1f be ba 31 21 bd b2 d8 a7 3d
       -0.0023225315 -0.15584385 -0.039354064 0.08195628
000080 c9 0e 40 3e 76 94 75 3e 7e f3 11 3e 05 3a 33 bd
       0.1875564 0.23982415 0.14253041 -0.043756504
000090 e1 0d f8 bd 7b ff 20 3d 02 2f 3d be 00 7b 31 be
       -0.12112022 0.039306145 -0.18474963 -0.17332077
0000a0 f2 c4 e0 be 00 59 c7 bd 1f 17 83 be 73 b8 c7 bd
       -0.43900257 -0.09733772 -0.25603577 -0.09751978
0000b0 63 3e ee bd 9c a6 2d be 44 2f 47 be ca 78 42 be
       -0.11632993 -0.16958088 -0.19451624 -0.1899139
0000c0 57 c2 7b bb 41 6a f9 bc 9c 11 62 be 6b 9c 83 3d
       -0.0038415396 -0.030446174 -0.2207703 0.06426319
0000d0 f3 61 77 bd ea 46 02 be ab 15 31 be b6 36 c2 bd
       -0.060396146 -0.12722364 -0.17293422 -0.094830915
0000e0 3c b2 24 bd 66 a3 eb 3c 08 4d fd bd e0 2e 38 3d
       -0.04020904 0.028764438 -0.12368208 0.04496658
0000f0 c5 01 b5 bd 84 b8 77 bd 88 37 9b 3d a5 62 7e 3d
       -0.08838228 -0.060478702 0.07578951 0.062105794
000100 4e 5f 10 be cb ee 2e 3c a6 b2 23 3c 48 3a cd ba
       -0.14098856 0.01067705 0.009991324 -0.0015657628
000110 a5 bf a3 3e 0a e1 c5 3d 6e fa 5f bc 70 43 17 3d
       0.3198215 0.096620634 -0.013670547 0.036929548
000120 b4 55 4b be d2 b4 f2 bd 10 44 99 be 1b 32 03 bc
       -0.19856912 -0.11850895 -0.2993474 -0.008007552
000130 e3 35 c5 bd 79 b3 5d be 98 5d 24 bd ff a6 2d be
       -0.09629419 -0.21650495 -0.04012832 -0.16958235
000140 1c b1 f0 bd 19 2a 23 3c cc 04 80 be 7b fb 6a 3c
       -0.11752531 0.009958767 -0.2500366 0.014342184
000150 9b 60 83 3c 9f 71 0b 3d 9b a9 a9 3d ae ef 03 be
       0.016037276 0.034043904 0.08284303 -0.128844
000160 dc bd aa bd 36 c9 af bd be 4f 69 3d 9e bb 84 3d
       -0.08336994 -0.085833 0.056960814 0.06481098
000170 64 5b 7b be de 9d af be 08 18 77 be fa 6d 7e be
       -0.24546582 -0.3430013 -0.24130261 -0.2484664
000180 15 e3 a4 3c a1 ac 4a be 83 7c 87 bd c9 7b 39 3d
       0.020127812 -0.19792415 -0.066155456 0.045284066
000190 e0 e2 d7 bd 17 23 c8 be fa 99 6b bc 66 a6 bf bd
       -0.1054132 -0.3908927 -0.014379973 -0.0935791
0001a0 f0 fa 23 3d dc 4f c2 3d 01 f5 4b 3d c0 08 90 be
       0.040034235 0.09487888 0.0497942 -0.28131676
0001b0 a4 c6 5f be f0 78 4b be 33 2b 98 be 3d ae 05 be
       -0.21853119 -0.19870353 -0.29720458 -0.13054748
0001c0 87 e5 1f bd 79 71 77 bd 65 7b e5 bd 90 81 9a bd
       -0.039037254 -0.06041095 -0.11205176 -0.07544243
0001d0 47 b3 cf bd f4 28 16 be b9 0f 11 be 7f ab 2d be
       -0.10141616 -0.1466406 -0.14166154 -0.16959952
0001e0 8a 90 79 3c c6 db 82 3b 23 82 24 be 06 77 10 be
       0.015232215 0.003993484 -0.16065268 -0.14107904
0001f0 0b 9c 53 be ee f8 56 be d6 b4 80 be 8b 5c 15 be
       -0.20664994 -0.20993397 -0.25137967 -0.14586084
000200 18 53 3f be d4 c8 44 be 08 3e 20 be 76 ac ba be
       -0.18684042 -0.19217235 -0.15648663 -0.36459702
000210 9f cd a0 bd bd f2 62 be 7d 0f 84 bd 8c b7 53 3d
       -0.07851719 -0.2216291 -0.06448267 0.051688716
000220 b3 cd 20 be 0f 52 43 3d 5f af 5f be 7c a8 35 be
       -0.15703468 0.04768568 -0.21844243 -0.17740053
000230 25 d8 80 be f4 7d ac 3b 06 5c 27 bc ad 7f 0c 3e
       -0.25164905 0.005264038 -0.010214811 0.1372058
000240 88 9d bd bd bc 41 8c bc df db a6 bc 99 12 af 3c
       -0.09258562 -0.017121188 -0.020368515 0.021371173
000250 05 6a 8c 3d b3 66 ec 3d bd 75 da 3c b3 c8 48 3d
       0.06856159 0.11543026 0.02666747 0.049019527
000260 d7 4b 4a bd 31 42 cb 3d 33 49 19 3d eb 1f 26 3d
       -0.049388733 0.099247344 0.037423324 0.040557783
000270 fd 00 08 bd 77 9e 88 bd b9 1e 72 bd 09 d7 e3 3c
       -0.033204067 -0.0667085 -0.05911133 0.027812498
000280 c7 1f c1 3c 89 3c bd 3c 1f bd 12 bd 89 c8 b5 bd
       0.023574723 0.023100154 -0.03582489 -0.0887614
000290 b4 c6 64 bd 89 bd 02 3c 6b 3d a5 3c 1d e8 f9 3d
       -0.05585356 0.007979759 0.020170888 0.12202475
0002a0 f2 8a 15 3d 75 7f 12 bd f7 c8 82 bd 90 d5 13 bd
       0.03650946 -0.035766084 -0.06385987 -0.03609234
0002b0 48 77 9c bd 39 ee 91 bd 69 25 1b b9 ef 6f 14 be
       -0.076399386 -0.071255155 -0.00014795888 -0.14495824
0002c0 ce db 52 be 5c 9f 1f be d3 77 94 bd 67 d0 32 be
       -0.20591661 -0.15588135 -0.07249417 -0.17462312
0002d0 a2 47 4e be 91 00 55 be a2 10 83 be 4d 01 2c be
       -0.20144513 -0.20800997 -0.25598627 -0.16797371
0002e0 57 90 0b be 13 08 0d be 2e e2 23 bd 46 be 6b be
       -0.1362928 -0.13772611 -0.040010624 -0.23021802
0002f0 04 fb 94 be 0a aa 11 be 60 1b f3 bd 37 ac 7d be
       -0.2909776 -0.14225021 -0.11870456 -0.24772726
000300 44 f8 6a bd e8 a0 c3 bd 99 90 f9 bd e0 b4 43 3d
       -0.05736567 -0.09552175 -0.12185783 0.047779918
000310 3f a6 f8 bd 5f c5 02 be d4 f7 88 bd 08 ca c5 bd
       -0.12141084 -0.12770604 -0.066878945 -0.09657675
000320 a8 d0 16 be ce 3d 54 3d 37 d6 95 bd 55 9f 5d be
       -0.14728034 0.051816754 -0.07316249 -0.21642812
000330 88 ea cb bc 1d 6c 60 3d 8c 2f 2c be 4d e6 97 3d
       -0.024892107 0.054790605 -0.16815013 0.07416973
000340 fc 3d f5 3c d3 f8 06 bd e8 9c c0 be 0d cd ba 3d
       0.029936783 -0.03295214 -0.3761971 0.091211416
000350 37 f4 32 3e 94 d5 07 3e 46 de 36 3e a8 99 64 3c
       0.17475973 0.13265067 0.17858228 0.01395265
000360 9c 09 13 3d be 5f 51 be cf 33 dc be 7e 13 a2 3d
       0.035897836 -0.20446679 -0.43008277 0.07913874
000370 b5 5d ea 3d ee 40 04 3e fb c1 16 3c 32 9d ae bd
       0.114436544 0.12915394 0.009201522 -0.085260764
000380 aa b4 74 be c3 76 58 be 5e e6 a1 3d 0b 00 d8 bd
       -0.23897043 -0.21139054 0.07905267 -0.10546883
000390 9b ba 9f bc 30 57 f8 bd 41 1c 92 be cf eb b4 be
       -0.01949816 -0.12126005 -0.2853718 -0.35336158
0003a0 36 27 f7 bd bb 4f e6 3c 71 3c 42 be 86 8a 41 be
       -0.12068026 0.02811419 -0.18968369 -0.18900499
0003b0 17 4b 57 be 80 dc 25 be d2 1b 7c be 39 d6 c3 bd
       -0.21024738 -0.16197395 -0.24619988 -0.09562344
0003c0 d4 9f 65 be 7f a7 3d be fa 10 a4 bd 87 aa 1a 3d
       -0.22424251 -0.18520926 -0.080110505 0.037760284
0003d0 02 e5 6e bd 02 67 57 bd c3 7c 94 bd ce ce b4 3c
       -0.058323868 -0.05258847 -0.07250359 0.022071268
0003e0 d3 35 28 3e 34 d9 3f 3d 04 6f 76 bd 01 5c d6 bd
       0.16426782 0.046838 -0.060164467 -0.10466767
0003f0 7c 26 b7 bc 43 80 48 bd 26 fb 09 3c 4a 07 a2 ba
       -0.022357218 -0.048950445 0.008421695 -0.0012361791

fully_connected.0.bias f4 [128]
000000 39 34 80 bb 09 15 ec bc ef 0e 3c bd d8 e8 0b bc
       -0.0039124754 -0.028818624 -0.04591268 -0.008539401
000010 22 62 37 3d 3d 36 94 bc 83 04 68 3e c7 e5 81 3d
       0.04477132 -0.01809227 0.22657971 0.06342655
000020 50 da 5f 3d 30 a1 65 ba 8a 31 2f bd a0 46 a4 3d
       0.05465156 -0.00087596755 -0.042771854 0.08021283
000030 2c 84 be 3e 74 0c ba 3e ee 1e 38 bc 12 f9 40 3c
       0.37210214 0.36337626 -0.011237843 0.011778133
000040 56 05 93 3d 08 9a 0b 3e 81 20 ba bb 9c c7 bb bc
       0.07178752 0.13632977 -0.0056801443 -0.02292233
000050 bd 92 98 3c fa 57 41 bd 5f fb be 3d fb 52 24 bd
       0.018624658 -0.04720304 0.09325289 -0.0401182
000060 87 53 8a bb 6f e0 cd be fe 3f 7f 3d c4 1d 5e bc
       -0.004221383 -0.40210292 0.062316887 -0.013556901
000070 4e 1e 10 bd ae eb 84 bb d6 a2 20 be 0a 09 6b 3d
       -0.03518515 -0.0040564155 -0.15687117 0.057381667
000080 34 e3 f3 bc e6 7b ae 3d 25 0b e3 3c ba ce 33 bd
       -0.029771425 0.085197255 0.027715275 -0.04389832
000090 70 13 ad 3b 59 27 f1 3d 61 58 35 bc cd 3e 5e 3d
       0.005281858 0.11775083 -0.011068434 0.05425911
0000a0 eb 4d 29 bd 82 31 51 3d b7 9e a9 bb a4 5b ab 3e
       -0.041334074 0.051072605 -0.005176391 0.33468354
0000b0 8d fa ad bc 97 40 7d be 01 0c 41 3d 9c 9a 18 3c
       -0.021237636 -0.2473167 0.04713059 0.0093142055
0000c0 e9 62 27 be ef c3 72 bb de 00 af 3d 1a e3 49 3e
       -0.16346325 -0.0037043055 0.08545087 0.19715539
0000d0 d9 aa a7 bc a2 3d 03 3e bd 20 6e 3c ea 81 60 bd
       -0.020467209 0.1281648 0.014534173 -0.054811396
0000e0 08 d6 35 3e 2c e1 20 bd c8 80 29 3c dc e0 01 3e
       0.17757428 -0.03927724 0.010345645 0.12683433
0000f0 c7 35 e3 bd a1 1b 21 bd a6 dd 87 bd 26 1e 25 bd
       -0.110942416 -0.03933299 -0.06634073 -0.040311955
000100 d7 d3 1c be 4b dd c4 bc 71 06 57 be 9c 09 36 bd
       -0.15315185 -0.024031302 -0.20998551 -0.044442758
000110 7e 6c 1a 3e 95 4e 0c 3e 6c 80 d3 3e 71 90 b6 bc
       0.15080449 0.13701852 0.41308916 -0.022285672
000120 33 99 68 bd b5 4f bf bc fb e0 a1 3c 86 5f 12 3e
       -0.056786727 -0.023353437 0.0197606 0.14294252
000130 52 06 bd bc 26 fd d8 bc af cb 0f bd 30 9f 05 3d
       -0.023074303 -0.026487898 -0.035106357 0.032622516
000140 0e 63 71 3d ce ab 4c 3c b1 88 2b bd 47 4e 0d 3e
       0.058932357 0.012492133 -0.041878406 0.13799392
000150 ac 2a 82 bd dc 60 3e 3c 3b 36 b7 3d f0 d8 c7 bc
       -0.06355795 0.011619773 0.089458905 -0.024395436
000160 13 57 a1 bc cd a4 c4 3e fa ae 17 bb b3 82 ba 3e
       -0.01969484 0.38406983 -0.0023145066 0.3642784
000170 c0 7b 8a bb aa 8b e5 bc cc 18 c2 bc ed 04 d3 bb
       -0.004226178 -0.028020699 -0.023693465 -0.006439796
000180 71 e4 b8 3c c5 dc 18 3d 35 42 17 bd ad 07 e5 3c
       0.022569867 0.037319917 -0.036928374 0.027957762
000190 4e 2a 0f bc 3c 62 ad bd a3 ea 69 bc 76 d8 8b 3c
       -0.008738114 -0.08466002 -0.014277133 0.01707099
0001a0 77 eb c9 3d 5b e4 82 bd 16 c2 bb 3d 7d 03 bb be
       0.098593645 -0.063912116 0.09167878 -0.365261
0001b0 e8 56 ba 3b d2 d9 87 3b 35 67 79 3e 55 2f bb 3d
       0.0056866296 0.0041458393 0.24355777 0.09139887
0001c0 79 e3 1c bf e8 9a 01 3d 7b 39 2a bd 4c ee f2 be
       -0.61284596 0.03164187 -0.041558724 -0.4744743
0001d0 6c 27 cc bd 5d ac e0 3d a8 66 c9 3e 9a f6 df 3d
       -0.099684566 0.10970376 0.39336133 0.109357074
0001e0 0d 2f ad bc 90 2e e5 3d 8c 99 0a 3e 74 fc 09 bd
       -0.0211406 0.11190522 0.13535136 -0.033688024
0001f0 7c 2f db 3d cc 68 18 3d 4b 6d 17 3e ed 89 10 bf
       0.10702416 0.037209317 0.14787786 -0.5646046

fully_connected.2.weight f4 [32, 128]
000000 76 3c c0 be e4 ef 5a bd 33 c6 83 be b5 81 97 bd
       -0.37546128 -0.053451434 -0.25737152 -0.073977865
000010 25 91 35 3c 82 f0 df bd b7 4c f0 3d 93 e0 0f 3d
       0.011081968 -0.10934545 0.11733382 0.03512628
000020 40 55 6c 3d ec 73 4f be f8 e7 a6 bd 2d 3e 27 3e
       0.05769849 -0.20259064 -0.08149713 0.16332312
000030 4c 0a 8e 3d be 46 87 3d ff 01 3a be 6a 48 ea be
       0.06935558 0.0660529 -0.18164824 -0.45758373
000040 76 d1 23 3e 8c 38 45 3e d3 36 46 be a7 28 35 bd
       0.15997872 0.19259852 -0.19356851 -0.044228222
000050 44 f6 61 bc 99 96 2f 3d 1c 92 01 3f 9a 0a 4e 3d
       -0.013791624 0.04286823 0.5061357 0.05030308
000060 0e 6a 89 be 24 c1 45 be 0a a7 00 3e bf 0d 22 be
       -0.26838726 -0.19311959 0.1256372 -0.15825556
000070 f9 26 41 be 79 cf d9 bc 38 f5 8d be cf d4 db bc
       -0.18862523 -0.026588188 -0.2772615 -0.026834873
000080 c8 78 26 be 07 26 de 3e 3b 97 84 3c c7 fd 09 be
       -0.16257012 0.43388388 0.016185394 -0.13475715
000090 61 01 df 3d 5f ea 53 3d 67 06 cc 3c b0 ca 84 3e
       0.10888935 0.051737186 0.024905397 0.25935888
0000a0 c4 5a bf bd 41 90 a0 3d 1c 16 93 bd c3 1d 02 3e
       -0.09343484 0.07840014 -0.071819514 0.12706666
0000b0 b9 65 aa 3c da 71 dd bd 00 a4 f4 3c 6e 20 96 bd
       0.020800458 -0.10812731 0.029863358 -0.07330404
0000c0 1a 45 a2 be 9f 47 4f bd d9 98 f3 3e 7a 35 70 3e
       -0.31693345 -0.050605413 0.4757755 0.234579
0000d0 e9 91 30 be 44 88 d8 3d 98 0b 57 3d 71 20 2f 3d
       -0.1724316 0.105728656 0.05250129 0.042755548
0000e0 16 f7 80 be 64 af 24 bd f5 de d7 bd 74 23 05 3e
       -0.25188512 -0.040206328 -0.105405726 0.13001806
0000f0 7d 30 93 be a9 ab 81 be 98 ba 13 be 19 3f 2c 3e
       -0.2874793 -0.2532628 -0.14426649 0.16820945
000100 ef df af be 62 03 95 3d 05 2c 46 bc e6 fd 09 be
       -0.34350535 0.07276036 -0.012095456 -0.13475761
000110 c7 56 fb 3d 49 cf f8 3d ff 08 69 3d 32 da 9f be
       0.12272411 0.121489115 0.056893345 -0.31221157
000120 e2 c0 54 be 9f 48 25 be e5 f6 13 be b0 f6 b4 3d
       -0.20776704 -0.16140984 -0.14449652 0.088361144
000130 b5 2e 18 3c 49 c9 47 bd 5f 15 d4 bd 79 b3 48 3d
       0.00928848 -0.048775945 -0.10355639 0.048999283
000140 7d b7 3b bf 16 23 15 3d 84 33 20 bd 23 92 17 3e
       -0.73326856 0.036410414 -0.03911163 0.1480184
000150 f9 ce af 3c 28 50 83 3c f3 00 44 3d ac ba 21 be
       0.021460997 0.016029432 0.047852468 -0.15793866
000160 fe d6 1a be 4d 6f ca 3d be 2c d3 bc d1 e6 66 3d
       -0.15121076 0.0988451 -0.02577817 0.056372467
000170 98 48 cc be c9 88 d4 bd 9b 47 ca 3c 9c d1 fc 3c
       -0.39899135 -0.10377652 0.024692347 0.030861668
000180 d8 54 8d bd 32 6d 27 bd 44 1a 00 be 49 d1 87 3b
       -0.06900948 -0.04087562 -0.1251002 0.004144822
000190 11 df 18 be d0 99 49 be 15 f8 11 bd cf 96 8d be
       -0.14928843 -0.19687581 -0.03563698 -0.2765412
0001a0 bc 94 29 3e e7 d4 cb bd d1 e5 8b 3e 2d d1 18 3c
       0.16560644 -0.09952717 0.27323774 0.009327215
0001b0 8e 8a 86 bd 0e b0 35 be 43 05 9d 3c cb ee 53 3d
       -0.06569396 -0.17742941 0.019167548 0.051741403
0001c0 69 0c ac be c6 01 f0 bd 97 f7 23 bc 5c 85 68 be
       -0.33603218 -0.11719088 -0.0100077605 -0.22707123
0001d0 03 3f e2 3c b3 e5 94 3d 1f 64 0c 3e 68 91 c6 3d
       0.027617937 0.07270374 0.13710068 0.09695703
0001e0 6b ea 07 bd e8 9a 52 3c be a8 17 3d ed be 18 be
       -0.033182543 0.012854315 0.03702616 -0.14916582
0001f0 17 a4 7b 3e 67 2b 1d be 1a 16 2c 3e 7c 7d 2c be
       0.24574314 -0.15348588 0.16805306 -0.16844743
000200 6b 72 9e bd 0b f5 64 bd 7c a7 9b 3d 8f 39 d1 3d
       -0.07736667 -0.055897754 0.076003045 0.102160566
000210 40 ed 9a bd 6d d2 d6 bc 56 cf 11 3d b6 5f 18 bd
       -0.07564783 -0.026223386 0.03559812 -0.037200652
000220 cc 85 1e bb ee 78 53 3d e6 73 ad 3d b7 f0 31 be
       -0.0024188636 0.051629 0.084693715 -0.17376982
000230 0c e0 c6 3d 07 b9 1c 3d f0 63 88 3d ce ef af 3d
       0.09710702 0.038262393 0.066596866 0.08590661
000240 50 e2 45 be ce 22 e7 bd 9f 02 97 3d 2b 13 98 3d
       -0.19324613 -0.11285935 0.07373547 0.07425531
000250 bd fa 33 3d 27 ad 1a bd c9 82 dc be 6f a4 a1 3c
       0.043940295 -0.037762787 -0.4306853 0.019731728
000260 72 83 82 3c 40 02 f7 bd e6 dc 8d bd 29 4e e6 3d
       0.015931819 -0.12060976 -0.06926899 0.112453766
000270 a9 91 df 3d ab 02 3c 3d 0f 31 d8 3d 97 65 12 be
       0.10916454 0.045900982 0.10556232 -0.14296566
000280 0d 31 9d 3d b1 59 e1 be b8 21 5e 3d 18 f2 30 3d
       0.07675371 -0.44013742 0.054231375 0.04319963
000290 e9 ec ae bc 7c ad 87 bd d2 19 2f 3d bb 85 4a be
       -0.021353202 -0.066248864 0.042749234 -0.19777577
0002a0 32 9d 0f be a5 23 90 3d 1d b2 2d be c9 ca 83 3d
       -0.14024809 0.07038049 -0.16962476 0.064351626
0002b0 df 68 23 3c bc cc da 3d d0 00 4e bc 20 4a f4 3c
       0.009973734 0.10683581 -0.012573436 0.029820502
0002c0 98 7c 17 3d 60 75 75 3d 72 1f cd be dd 25 74 3d
       0.036984056 0.05992639 -0.40063053 0.05960642
0002d0 0a 59 7f 3d 0d c6 68 bd 5b 65 f5 bd 4a 53 48 bd
       0.062340774 -0.0568295 -0.11982223 -0.048907556
0002e0 b1 b4 af 3b a4 2c b6 3d 24 ae 80 3b 60 ae 77 bd
       0.0053621163 0.08895233 0.003927009 -0.06046903
0002f0 26 13 05 3e 6c c1 68 3b df 72 0d 3e fa 0a 90 be
       0.12995586 0.003551568 0.13813351 -0.28133374
000300 2f 26 09 3e 90 b0 ad 3d a2 fc 8b 3d 0d 9f a7 3c
       0.13393472 0.08480942 0.06835295 0.020461584
000310 d1 44 5c bd 9d 63 e8 bd e6 d6 a9 3d e9 22 18 bc
       -0.053776566 -0.11347125 0.08292942 -0.009285667
000320 03 e9 79 3d a3 b4 80 3d bc c5 10 3d 58 8a b9 3d
       0.061013233 0.06284454 0.035344824 0.0905959
000330 cb 6c 9a bd 1f 12 5c 3c 65 54 a2 3c f3 00 9d 3d
       -0.07540282 0.013432055 0.019815633 0.07666197
000340 34 e2 e0 3d de d6 8d 3d 6b c8 97 3d 2c 93 38 bc
       0.10980645 0.06925748 0.074112736 -0.011265557
000350 48 31 21 bd 2f ad e6 3d 7b dc 0c 3e c1 1d 03 3e
       -0.03935364 0.11263501 0.13755982 0.12804319
000360 23 01 e7 bc 7a e0 b5 3d 9b fd f6 3d 53 0a 1d 3d
       -0.028198784 0.08880706 0.1206009 0.038339924
000370 6d ec 97 3e 88 f6 9f bd 88 1b ab 3d b8 57 53 bc
       0.29672566 -0.07810694 0.083548605 -0.012899332
000380 31 09 7b 3d b7 35 c7 3c ee 2d ad 3d e3 33 ed 3d
       0.061288062 0.024317605 0.08456026 0.11582162
000390 09 8b e3 3d d6 8a 54 3d 60 13 64 3c 42 63 de 3d
       0.11110503 0.051890217 0.013920635 0.10858776
0003a0 fb 0a 7b be 88 28 18 3e 6d 4b 93 be 5e 2a 95 be
       -0.24515907 0.14859211 -0.28768483 -0.29133886
0003b0 68 b9 36 3d ba ab b7 3c c3 6d ec 3d a4 41 9a bd
       0.04461041 0.022420753 0.11544373 -0.07532051
0003c0 10 a6 ec 3d fc 05 c2 3d 62 46 a7 3c 6b fe ae 3d
       0.115551114 0.09473798 0.020419303 0.0854462
0003d0 42 a0 87 bd dd 89 8b bd df 37 58 3c 66 00 79 be
       -0.066223636 -0.06813405 0.013196914 -0.24316558
0003e0 6b 67 07 3e b4 8e d0 bd fa 3c 1f be 53 4a 1f bd
       0.13223045 -0.101834685 -0.15550604 -0.03888924
0003f0 b0 b3 8d be 9a 0a 25 3d 36 cd 01 be 11 12 60 bc
       -0.27676153 0.040293314 -0.12675938 -0.013676182

fully_connected.2.bias f4 [32]
000000 93 2d 21 3e e4 16 d0 3d c1 4b 06 3e 4f 3f 5d bc
       0.15740041 0.10160616 0.13114835 -0.0135038635
000010 cd 18 4f bc df 1a 40 3e 7b 1b 72 be 85 3a a9 bd
       -0.01264019 0.1876025 -0.23643295 -0.08263115
000020 0e ea 1e 3e 10 c8 8c be ba b0 93 3d 96 63 2d 3e
       0.15518972 -0.27496386 0.07211442 0.1693252
000030 79 0b 01 3e 10 55 73 3e 7e 36 01 bf 51 57 b8 bd
       0.12602033 0.23762918 -0.50473773 -0.09001029
000040 6b 5f df 3d c1 e7 3c 3e c0 c4 7c bd bf d3 0f 3d
       0.109068714 0.18447782 -0.061711073 0.035114046
000050 20 69 eb be 09 a0 58 3e f5 b8 98 3d 7c 9e 33 3e
       -0.45978642 0.21154799 0.07457153 0.17540926
000060 11 9f 08 3e cc a6 cd 3c c3 99 b2 3c 68 5e 15 3e
       0.13341929 0.025103949 0.021801835 0.14586794
000070 af fe 8b bd 40 04 b3 3d d7 2e 0c bf 6d e4 1b be
       -0.068356864 0.08741045 -0.5475897 -0.15223856

fully_connected.4.weight f4 [1, 32]
000000 e6 35 ba 3e 6f 13 3e be b7 83 19 be 87 8c 6d 3b
       0.36369246 -0.18562101 -0.14991651 0.003624709
000010 06 b0 62 3d 27 07 f4 3e da 50 33 bd c9 41 56 3d
       0.05534365 0.47661707 -0.043778278 0.05230883
000020 4f 87 9b 3e f5 36 ba 3e c4 5e 49 be 1a 5e b7 3e
       0.3037667 0.36370054 -0.19665056 0.3581398
000030 5c dc 2a be 25 1d ba 3e ee b5 b1 3e de 0f c0 3c
       -0.16685623 0.3635036 0.34709114 0.023445066
000040 74 22 fa bd f3 0b 94 3e 93 0a b2 3d 2f b3 65 be
       -0.12213603 0.28915367 0.08693423 -0.22431634
000050 e0 1a 19 be 95 14 7c 3e fb cf c7 bd 1e 0f ec 3e
       -0.14951658 0.24617226 -0.09756466 0.46105283
000060 12 5f 7c be 5e 73 d0 bd b1 d5 a2 bd 0a 2e 52 be
       -0.24645641 -0.101782545 -0.07950915 -0.20525375
000070 b7 08 57 3b 4c 3b e4 3e 2d b8 33 be b8 05 17 3d
       0.003281159 0.4457649 -0.17550726 0.03687069
