trained_models/classification_cnn_with_hillas.pth (torch, 339322 bytes, 9 tensors)

cnn.model.0.weight f4 [8, 2, 5, 5]
00000000: 8399 5a3d 88e1 263d fff5 ff3c 4bb6 b839
00000010: f702 ebbc cae3 1e3d a104 f6ba 5f19 9ebb
00000020: 849c 82bc 4973 a53c dce2 123c c921 42bd
00000030: 2613 30bd 9f29 1f3c 05df 723d ee67 33bd
00000040: dec7 80bd 8df1 77bd 65f4 9fbb 65d7 873d
00000050: fd29 5ebd cffa 7abd bc36 2cbd 31c3 a73c
00000060: 4873 ae3d dfb7 a5bd d80b 33bd 2063 01bd
00000070: e5ec 9fbd ad99 bcbd 6e9b 48bd 03fe 3e3c
00000080: 1704 4ebc 805e 8dbd d557 b9bd c6c9 153b
00000090: 5e1d e83c 91cf 193d 5c22 90bc 38ac 88bd
000000a0: c19c 983d aa87 393d b8fe 653c 0aff 1dbd
000000b0: 86ba bcbd bc2f 083e bdab 023e cea3 763d
000000c0: 8d09 d1bb c740 4fbd bc2c 70bd 61b6 91bd
000000d0: 65e3 28bd c734 383d c7ff c73d eda3 77bc
000000e0: e2d8 52bd b794 443c 0204 323d bc1f a93d
000000f0: 411c 293d c89a 903c 5ed1 563b 3d28 49bb
00000100: f8db de3c 6cf8 463d aabd 143c 3c16 80bd
00000110: efca 4dbd e20d 3dbc 60b3 8b3d feef 3bbd
00000120: 1314 94bd 0872 7fbd d928 26bd 79f5 9b3d
00000130: d2d9 083d 465a 49bc 3b94 64bd 318f 7bbd
00000140: 7492 353c 107b 01bd 11b0 77bd 8590 77bd
00000150: 2f70 3fbd 2a4c 1bbd 5ea0 4abd 652b 6fbd
00000160: ad09 26bd eede 2b3c 2ffc 7cbd ab7c 40bd
00000170: 2aeb 29bc de9d 193c 92f8 813d e469 a9bc
00000180: 6463 cd3c fec5 733d 651a 913d 06a2 c03d
00000190: 824c e6bc c937 e8bc a89a c7bc 536f 68bd
000001a0: 0630 67bd 25f3 1b3d 29d4 51bc 24fe 53bc
000001b0: 326b 1bbd 628a 38bd 6d61 2d3d 226e 1f3d
000001c0: adeb 283d ed35 3c3c ca28 a6bc 7822 8c3d
000001d0: db00 503c 5fd2 803b 9b10 d73c ad6f 9b3b
000001e0: 41e6 f63c 6b38 11bd d498 58bd 7ee0 13bc
000001f0: 6414 eab9 76d9 44bd 353c 27bd fadf e9ba
00000200: b50c 853d 7139 a53d 2e49 65bd b9a4 c4bc
00000210: 1061 7bbb f04f b13d 5114 023e d02c 6cbd
00000220: 2376 a0bc 2785 053d 0856 f2bb 42e5 833d
00000230: 3abb 65bd 1b63 e6bc aa22 42bc b08d a7bb
00000240: c4ef bcbc 6d9e 9bbd 8f79 acbd fb58 aabd
00000250: b5d4 88bd 1f35 473c 8061 a9ba 2317 e6ba
00000260: f55a 52ba 08e0 52ba 790d e0ba fa85 e6ba
00000270: 405d beba 8f1c 0139 5ec7 e3ba 5d5a e5ba
00000280: bbc1 0fbb 7e3e ec38 9b92 173a 3611 07bb
00000290: fcf3 02bb 432d 62b9 878a 783a fc7b 30ba
000002a0: f6b6 c6ba 1d31 f8ba 62e9 343b aaef 3f3b
000002b0: 6bba f63a 4db1 a538 ffb8 7cba 9e9c ccba
000002c0: 8cbd 113a 42bc 273b d5f9 c23a e6dc b33a
000002d0: 32b8 1e3b 5649 fd39 762d 4dba 768d b0ba
000002e0: 0df1 9fba e161 35ba 0b8c 17bb b217 01bb
000002f0: 8d02 e2ba f18a e8ba a7c7 0fbb 2611 03bb
00000300: ad4e c7ba 82a6 aaba 9400 aeba a185 fcba
00000310: eb9f b9ba 3a21 7aba f1b5 4dba 7bd4 2aba
00000320: 07d7 abbc 353f b3bb 4dc8 083d 1338 3b3d
00000330: 7077 8c3d d38c 24bc 5067 0f3c 207f d33c
00000340: 242c 0c3d 089c 803d 1ec1 87bc 177b 09bc
00000350: ba0a ec3b 83f2 e33c 9b7e 763d 73f4 50bd
00000360: e78a 71bd 86ef fcbc 4823 893c c4d4 4a3d
00000370: ba9f 9dbd 1deb 9dbd b551 29bd c320 0d3d
00000380: 3e26 40bb d4b0 65bd 5abe 553b 8d3b f43c
00000390: c9d1 153d c8bb 0c3d 3345 bebc 3c40 c63c
000003a0: b446 d93c a2f6 733c b7d5 8b3c 851d 873c
000003b0: c3f3 fd3c 477f a33c 432d 55bc 0a79 11bd
000003c0: 8c10 963c 9d74 ea3c cda8 a0bb 7556 54bd
000003d0: c451 7ebd 072c 183c 8264 a03c 3261 cfbc
000003e0: 6f86 5fbd 2f79 4bbd cfc8 16bd b1bd 34bc
000003f0: 0804 ac3c e29a 4cbc ae59 59bd 75b2 fdbc
0.053369056 0.040742427 0.03124523 0.00035231034 -0.028687937 0.038791455 -0.001876969 -0.004824802
-0.015943773 0.020196574 0.00896522 -0.0473955 -0.04298701 0.009714513 0.05929472 -0.043800287
-0.06288122 -0.060533095 -0.004881429 0.0663288 -0.054239262 -0.061274346 -0.042044386 0.020478817
0.08518082 -0.08091711 -0.043712467 -0.031588674 -0.07808856 -0.09208999 -0.048976354 0.011657241
-0.012574217 -0.0690279 -0.09049956 0.0022855862 0.028334316 0.037551466 -0.017594509 -0.06673473
0.074517734 0.045295395 0.01403778 -0.038573302 -0.09215264 0.13299459 0.12760825 0.06021481
-0.0063793124 -0.050598886 -0.058636412 -0.07114864 -0.041232485 0.044972207 0.097655825 -0.015114767
-0.051476367 0.011998347 0.043460853 0.08258006 0.04128671 0.01765193 0.00327786 -0.003069415
0.027204499 0.048576757 0.009078423 -0.06254241 -0.05024236 -0.011538954 0.068213224 -0.04588317
-0.07230391 -0.062364608 -0.0405663 0.076151796 0.033410855 -0.012289589 -0.055805426 -0.061415855
0.01108228 -0.031611502 -0.060470644 -0.06044056 -0.046737846 -0.037914433 -0.049469344 -0.058390994
-0.04053657 0.010490162 -0.06176394 -0.046993893 -0.010371009 0.009376017 0.06346239 -0.020680375
0.025071807 0.059514992 0.070851125 0.094059035 -0.028112654 -0.028346913 -0.024365738 -0.056746792
-0.056442283 0.038073678 -0.012806931 -0.01293901 -0.037944026 -0.045053847 0.04232924 0.03892339
0.041240383 0.011487466 -0.020283122 0.06842512 0.012695516 0.003931328 0.026253035 0.0047435374
0.03013909 -0.035454195 -0.052880123 -0.009025691 -0.0004464715 -0.04805895 -0.040828902 -0.001784324
0.06496564 0.08067597 -0.055977993 -0.024004327 -0.0038357414 0.08657825 0.12703063 -0.057659924
-0.019587582 0.032597687 -0.0073955096 0.06440212 -0.056086756 -0.028123429 -0.011849085 -0.005113326
-0.023063548 -0.07598577 -0.08421623 -0.08317753 -0.06681196 0.012158661 -0.0012922734 -0.0017554503
-0.0008024418 -0.00080442475 -0.0017093859 -0.0017587536 -0.001452364 0.00012313038 -0.0017378142 -0.0017498244
-0.002193554 0.00011264997 0.0005782039 -0.0020609624 -0.0019981852 -0.00021569901 0.00094810914 -0.00067323423
-0.0015160728 -0.0018935535 0.0027604927 0.0029287138 0.0018823867 7.900838e-05 -0.00096406037 -0.001561064
0.0005559556 0.0025594388 0.0014875481 0.0013722449 0.0024218676 0.0004831056 -0.00078269036 -0.0013469893
-0.0012202576 -0.0006919187 -0.0023124244 -0.0019697961 -0.0017243192 -0.0017741603 -0.002193907 -0.0019999235
-0.0015205942 -0.0013019594 -0.0013275319 -0.0019265899 -0.0014162039 -0.00095416943 -0.0007847241 -0.00065166474
-0.020976556 -0.0054701813 0.033394147 0.045707773 0.068587184 -0.010043341 0.008752659 0.025817454
0.034221783 0.062797606 -0.016571578 -0.008391163 0.007203427 0.0278256 0.060179334 -0.051014375
-0.05897036 -0.030875932 0.016740456 0.049519315 -0.07696481 -0.0771086 -0.041337688 0.034455072
-0.002931967 -0.05607684 0.003261468 0.029813552 0.03657702 0.03435877 -0.023226356 0.024200551
0.026522972 0.014890345 0.01706968 0.016493568 0.031000024 0.019958152 -0.0130112795 -0.035515822
0.018318437 0.028620059 -0.004902935 -0.051840264 -0.062089697 0.009287841 0.019579176 -0.025314901
-0.054571565 -0.049676117 -0.0368126 -0.011031554 0.020998016 -0.012488099 -0.05306404 -0.030968884

cnn.model.0.bias f4 [8]
00000000: 16bf cfbd 9791 d4bd 0618 e1bd eaf7 0abc
00000010: f17b 30bd 5c21 63bd 584b 70bc 959a 82bd
-0.101438686 -0.103793316 -0.1099091 -0.008481959 -0.04308695 -0.055451736 -0.014666401 -0.063771404

cnn.model.3.weight f4 [16, 8, 5, 5]
00000000: 5007 a83b 6576 913b e02a 1bbc 6ae4 56bc
00000010: d428 55bc c783 b13a 2e24 adba 4b7c 03bc
00000020: 5732 3abb 1e4f 84bb adde 94bb c87e 1dbc
00000030: d7b5 acbb b7d9 04bb 6b0c c5bb f3dd 0fbb
00000040: 13c6 07bb 3d08 52bb f641 953a d2be 223b
00000050: 8c7f 81bb 7f4f b3bb 86f7 bcbb 68ff ea3b
00000060: 8c95 553b deea fbbb 619f 95bb 2b0c 9bbb
00000070: aaa3 273b b464 5cba 5e48 bcbb 9703 af3a
00000080: 5221 c7ba fd5b 773b 5853 5bbb db41 da3a
00000090: a582 933b 89ab 6ebb c4d2 2fbb 8260 f23a
000000a0: 655c 9039 50f3 ea3a 20b4 37ba 9847 d839
000000b0: 0153 0fbb ce7a a1ba 884d 673b e34d fd3a
000000c0: 37d5 c1bb 3157 95bb 88b4 10bc 84bd 83ba
000000d0: d261 d53a 8bef 0c39 19eb 24bb b323 2abc
000000e0: 3e4d f0bb 77fa 93bb f8b9 c5bb af83 66bb
000000f0: 6da2 38bc 62ba 1fbc bf74 21bc 25eb 16bc
00000100: b158 69bb 72f7 80bc 9c5b 0dbc 2502 18bc
00000110: 02c0 90bc c45e 9ebb 10a6 5fbc 99ce d7bb
00000120: 85b6 02bc 724f 85bc 0111 15bc e5ad bc38
00000130: 7a14 9437 73c5 2fb9 1350 6938 bd13 c238
00000140: e0ee 5338 2b54 86b9 3013 3eb9 2077 b038
00000150: 4ae6 beb7 c4d5 3638 61c6 35b9 9cb5 32b9
00000160: e359 d6b7 11f4 42b8 6a15 19b6 df9f b5b7
00000170: f450 23b8 32b3 7db8 3399 72b7 8958 0f38
00000180: b244 bb38 952f c338 2bc5 ed36 c214 b938
00000190: f8b8 13bb 0e70 82bb 290e b7bb f621 f9bb
000001a0: 04f0 febb 2f91 9f3b 6dd4 3fba 3e1d 3dbc
000001b0: 2862 f1bb 61f4 cabb ce0c c63b 39b9 c0bb
000001c0: e681 1fbc 118e b8bb 60b8 8bbb 6c6f 523b
000001d0: 401a 793a 2221 3cbb d112 b63a ffbb 5b3b
000001e0: 425b 513b 1411 103a 9cda 13bb 8ea8 0e3c
000001f0: 1ad9 f83b 8a96 a43b 18e3 103b 2dae 353b
00000200: 945e 5339 c427 b7ba f334 8d3a 12af 2239
00000210: 7d53 323b 8739 273b e50f b13a 0942 6a39
00000220: 1b0b 0d3a 662b a53a e475 933a e70f 973b
00000230: 8315 b6bb 21f7 ecba 4741 0b3a f64a ce3a
00000240: 0bdc 843b d5ee 8fbb 4983 21ba 4afa 803a
00000250: 4a25 14ba 43a8 dfba 84d9 c43b dc41 163b
00000260: a1c2 4cbb df9f f3bb 3042 8bbb 2d71 b73b
00000270: 0051 9139 dbfe d1bb c966 81bb c2ed 8939
00000280: 4d68 ca3a e2be f6b7 ccfc 243b 3295 703b
00000290: 89f8 3e3c 9632 93bb d241 2fba 225a 473b
000002a0: e0bc b63b d09a 293c 9ac8 a4ba 8b57 7e3b
000002b0: 7b6d de3b 04fc da3b 7b7b b73b 4afa 063c
000002c0: 07fd 213c dc90 e13b 4e36 303b 29d9 24bb
000002d0: e5cd de39 1802 033c 1695 c73b edde ae3a
000002e0: 5b53 9fba 387a 19bb 0f81 bf3b 32ac 2d3b
000002f0: 6a31 8c38 fc2d 543b bb13 e0bb fc13 11bb
00000300: 02f5 e5ba 2688 61bb 69dc 7abb 7c2d 63bb
00000310: 0908 dfb9 d3bf 2bbb 6ef7 bebb 74ae cbbb
00000320: 1a83 493b 7d1d 4fbb 6b36 82bb e214 56bb
00000330: 2dda 2fbb 7859 3fba b07e 94bb ebde 7ebb
00000340: 1388 ad39 5e0f a0bb ea23 feba 0475 13bc
00000350: 4810 2cbc 542b 87bb 9812 e8bb f2e8 e4b8
00000360: 09d2 25bb 405c f0b9 165f ab3a 17d7 74bb
00000370: 3f19 343b 4eee ac3b 86a6 003c 0399 973b
00000380: c27a 7f39 4a3d 833b 1c8b c43b a4ff 483b
00000390: 5480 0aba 63b1 75bb e645 8d3a 47c1 273a
000003a0: acfb 57bb 0f96 49bb 81c0 96bb f764 b6bb
000003b0: da41 98bb 301d eeba b04d 15bb 51df faba
000003c0: 6ef5 d23a c104 4c3b ac86 ef3a 1690 0d3b
000003d0: 3cab 9bba 3b5b 1b3c 6ce4 a43a cd1c 123a
000003e0: 037e 533a 3aa7 c0ba bfe7 17bb c5bc 9b3a
000003f0: 2466 003c 8707 9e3b eb68 cfba 5b99 ca3a
0.005127825 0.0044391626 -0.009470671 -0.013115982 -0.013010222 0.0013543301 -0.0013209635 -0.008025239
-0.0028411353 -0.004037752 -0.0045431466 -0.009612747 -0.0052707004 -0.002027137 -0.006013443 -0.002195236
-0.0020717427 -0.0032048367 0.0011387456 0.0024832976 -0.0039519724 -0.005472123 -0.005766812 0.00717156
0.0032590358 -0.0076879105 -0.0045661186 -0.004731675 0.002557973 -0.000840734 -0.0057459315 0.001335251
-0.0015192425 0.0037744038 -0.0033466425 0.0016651707 0.004501658 -0.003641816 -0.0026828507 0.0018491896
0.0002753466 0.0017925296 -0.0007007737 0.00041252072 -0.0021869543 -0.0012319924 0.0035294015 0.001932558
-0.00591531 -0.004557513 -0.0088321045 -0.0010050987 0.0016279763 0.00013440677 -0.0025164543 -0.010384488
-0.0073334267 -0.0045159417 -0.006034132 -0.0035173704 -0.011269194 -0.009749027 -0.009854495 -0.009211336
-0.0035605843 -0.015742991 -0.008627798 -0.009277855 -0.017669681 -0.0048330743 -0.013650432 -0.0065859077
-0.007978086 -0.016273234 -0.009098292 8.996929e-05 1.765251e-05 -0.00016762856 5.5626104e-05 9.2543174e-05
5.052879e-05 -0.00025621182 -0.0001812696 8.414523e-05 -2.2757002e-05 4.3591266e-05 -0.00017335407 -0.00017043058
-2.5552645e-05 -4.648051e-05 -2.2811241e-06 -2.1651327e-05 -3.8937622e-05 -6.048679e-05 -1.44599935e-05 3.417631e-05
8.92965e-05 9.3071874e-05 7.086104e-06 8.825354e-05 -0.002254067 -0.003980643 -0.005586405 -0.0076029254
-0.007780077 0.004869602 -0.00073177257 -0.011542616 -0.0073664375 -0.006193683 0.006044007 -0.0058814553
-0.00973556 -0.00563217 -0.0042639226 0.003210987 0.0009502508 -0.0028706272 0.0013891106 0.0033528802
0.0031945263 0.0005495709 -0.0022560721 0.008707179 0.00759424 0.0050228285 0.0022108015 0.0027722225
0.00020157761 -0.0013973643 0.0010773226 0.00015514743 0.0027210407 0.0025516467 0.0013508765 0.00022340579
0.0005380378 0.0012601435 0.0011250344 0.00461005 -0.0055567636 -0.0018079021 0.0005312156 0.0015738893
0.0040545515 -0.0043924847 -0.00061612256 0.0009840217 -0.00056513085 -0.0017063696 0.006007375 0.002292744
-0.0031243938 -0.0074348296 -0.0042498335 0.0055982084 0.00027716905 -0.006408555 -0.0039490205 0.0002630782
0.0015442461 -2.9414372e-05 0.0025175093 0.003671002 0.011655935 -0.0044921143 -0.0006685528 0.0030418714
0.005576715 0.010351852 -0.0012571991 0.0038809504 0.0067879534 0.0066828746 0.005599437 0.0082383845
0.009886987 0.0068837237 0.0026887837 -0.0025153852 0.00042496543 0.007996105 0.0060907705 0.0013341584
-0.0012155579 -0.0023418795 0.0058442424 0.0026500341 6.684924e-05 0.0032376042 -0.0068382896 -0.0022137156
-0.0017544331 -0.0034413426 -0.0038278347 -0.0034664562 -0.0004253986 -0.0026206865 -0.0058278358 -0.006215865
0.0030748309 -0.003160327 -0.0039737723 -0.0032666256 -0.0026832924 -0.00072994037 -0.004531704 -0.0038890194
0.00033098515 -0.0048846444 -0.0019389365 -0.009000067 -0.010501929 -0.004125038 -0.0070822947 -0.00010915277
-0.0025302193 -0.000458451 0.0013074602 -0.003735965 0.0027480868 0.0052774316 0.007852202 0.0046263947
0.00024364426 0.004005109 0.0059980284 0.0030669952 -0.00052834046 -0.0037489764 0.0010778278 0.0006399345
-0.0032956405 -0.0030759608 -0.004600585 -0.005566235 -0.004646522 -0.0018166658 -0.00227819 -0.001914004
0.0016094872 0.0031130763 0.0018274388 0.0021600774 -0.0011876593 0.0094822 0.0012580282 0.00055737497
0.00080677884 -0.0014698275 -0.0023178903 0.0011881819 0.007836852 0.0048226747 -0.0015824115 0.001545708

cnn.model.3.bias f4 [16]
00000000: eb1c a1ba 8570 ceb8 fd48 173a 6d23 5cb9
00000010: dbac b9b9 701b d3b9 8153 713d 142a 5d3e
00000020: f69e 163a 67e8 ceba 1c83 f7b9 a658 03ba
00000030: d03e aeba 1eb5 57b9 a445 0a3e 7ac7 0fba
-0.0012291943 -9.843804e-05 0.0005771069 -0.00020994032 -0.00035414737 -0.000402655 0.058917526 0.21598083
0.0005745733 -0.0015785814 -0.00047209195 -0.0005010463 -0.0013293866 -0.00020571469 0.13503128 -0.00054847414

fully_connected.0.weight f4 [128, 592]
00000000: 847e 2639 1172 8238 d06a ae38 bb80 6a39
00000010: 7786 f639 fdf3 3938 f58b 5e39 fe7c 3b39
00000020: d837 a638 a197 3239 fd9c be37 12fb bab7
00000030: f391 6738 27ed eab7 6da4 8139 10ba 1039
00000040: bfd6 3138 dfaa df37 374b 85b9 6510 0f39
00000050: 0de2 cf38 6519 6d39 9d48 b239 4d01 c235
00000060: 32c8 2f38 df76 bf35 593f 3038 f823 9c39
00000070: 5b2e 1439 6f1e 1d38 404d 1939 193e 2038
00000080: fc47 5039 fb59 b537 598a 91b7 9174 dd38
00000090: 7ded 1bb8 3a01 18b8 30ad 2338 da5b 38b9
000000a0: 6b69 0bb9 2892 98b8 3496 2c37 0071 2038
000000b0: 5ad9 6738 def2 e3b8 8a6e 1db9 8969 cfb8
000000c0: 64ea 00b9 91c7 fbb7 2e9c beb8 e5e3 5037
000000d0: fbd3 64b8 a939 0eb8 c424 1536 74db 46b8
000000e0: a49b 6f37 97f7 a6b8 debf 73b8 348e 1138
000000f0: 1667 a537 0959 b6b8 59c0 5837 67a8 c5b6
00000100: 1068 6d36 15ef 3238 c572 30b9 fc94 10b8
00000110: 283e f036 5ea7 1038 ca30 3bb8 119e 11b8
00000120: f3bc cd37 8437 0337 077e 89b8 3198 6638
00000130: 4b86 c038 c3a3 da38 83ae 5c38 2a41 c738
00000140: 07f0 cc34 fc67 1a35 12aa 3038 1778 1637
00000150: 5c64 a8b8 01d5 1737 3e02 4db6 a05d 4b36
00000160: 5790 a137 671b a3b6 53ab beb8 8630 f8b7
00000170: 6d03 4935 b72a 8238 1a46 5037 b9f4 bfb7
00000180: 0fbb 8e36 9097 1fb7 180b cbb7 1781 a638
00000190: fcc0 5038 43c6 14b8 abdd dbb8 e54f e837
000001a0: cde6 dc37 42d6 bbb7 af22 3cb8 93ed 90b8
000001b0: 5d61 c137 c35b 0ab7 fb26 ca38 3fe7 96b7
000001c0: 7ec2 79b7 1ca1 aab8 14db 80b8 15d6 21b8
000001d0: 9c59 03b8 1455 c6b8 745a 2ab9 aa6f 04b8
000001e0: aa49 5f38 149e 3338 dedf 2338 8bc6 d2b8
000001f0: 8fb1 ecb8 61f6 0638 c980 c138 5472 eb38
00000200: 0750 05b7 0453 e237 c2f1 87b8 edba 58b9
00000210: 6bf4 7338 1502 23b8 dd80 b338 47ed 4237
00000220: 90ff 8eb8 15b0 71b7 e007 8039 5e16 7438
00000230: 105e 1d38 e7b4 fab8 1eeb 3a38 732b ff38
00000240: 67b7 5f35 9ba9 f738 46d4 3239 2ba9 d5b6
00000250: 5b76 1fb9 7701 b137 9771 3d38 2711 0b39
00000260: 1952 6239 6beb f337 5660 8bb9 cd09 ad38
00000270: 423c cd38 bd62 37b7 21bd 3c39 f880 8438
00000280: 9360 a7b7 f7db 0d38 4b96 2c39 416d f2b8
00000290: e4d2 dcb5 7b6b 5e39 a6b0 bd38 31aa 3239
000002a0: 69db 3439 e059 3e37 b82b 9138 075b f337
000002b0: 1c2b 0b39 c041 5239 1b46 8b39 b640 8638
000002c0: 12de 5d38 26f1 b3b8 615e 87b7 0678 8438
000002d0: f4bd deb7 2be4 3739 2010 2a39 06c6 55b9
000002e0: a546 ecb9 d2b4 eeb8 0730 9238 dbfb 3439
000002f0: b8c4 8339 ecf7 01b9 d955 25b9 64bf 1039
00000300: 565e 1c39 1ab5 8638 5cc9 6d38 de58 7738
00000310: 78c6 9138 7528 e038 1488 b539 70ee 59b8
00000320: 5dd8 ba38 04f3 5339 abed 7339 7cb5 d939
00000330: df14 bd39 7483 1c39 f6b3 5739 a36d 4338
00000340: 3fa9 9439 b7ea bc39 e863 7539 0ef0 0539
00000350: dc14 fb37 7c7e 2f38 4d2f 9838 5fd4 2a38
00000360: 2d33 64ba 40e2 eaba 6f47 4fbb 689f 95bb
00000370: 5eda cbbb 2def d6bb 14e0 9eba 1aec 06bb
00000380: 0043 53bb 3e8d 8dbb 8169 b8bb 9889 c0bb
00000390: e950 0bbb 702c 36bb 887e 57bb 5469 7cbb
000003a0: 43ae abbb ca76 bebb eee6 41bb 2764 6ebb
000003b0: e6a5 57bb 00bc 7ebb 7fb2 a0bb 2d26 a8bb
000003c0: 51ff 9fbb 7187 99bb 972e 73bb d12a 7cbb
000003d0: 2a90 86bb 3956 86bb 61e6 d0bb 8410 c5bb
000003e0: cf1b 93bb 5834 63bb d39b 43bb 95a9 2fbb
000003f0: 7e56 0fbb c608 fcba 095b efba a980 e1ba
0.00015878124 6.2201296e-05 8.316862e-05 0.00022363935 0.0004702096 4.433467e-05 0.00021223708 0.00017880273
7.9258985e-05 0.00017031889 2.2722868e-05 -2.2289842e-05 5.5210618e-05 -2.8005406e-05 0.00024727304 0.00013802224
4.2400086e-05 2.666324e-05 -0.00025423776 0.0001364365 9.9126344e-05 0.00022611541 0.00034004907 1.4454505e-06
4.1909698e-05 1.4265205e-06 4.2020667e-05 0.00029781437 0.00014131649 3.746006e-05 0.00014619995 3.8204806e-05
0.00019863242 2.1618782e-05 -1.734977e-05 0.000105598134 -3.7176058e-05 -3.6240766e-05 3.9023522e-05 -0.00017581825
-0.00013295344 -7.2751485e-05 1.0286971e-05 3.8252212e-05 5.5277116e-05 -0.00010869441 -0.00015013866 -9.8901866e-05
-0.00012294349 -3.0014462e-05 -9.088997e-05 1.2450827e-05 -5.455686e-05 -3.390914e-05 2.222413e-06 -4.741126e-05
1.4281748e-05 -7.961614e-05 -5.8114405e-05 3.470313e-05 1.9717536e-05 -8.6950204e-05 1.2919388e-05 -5.890662e-06
3.5376324e-06 4.266117e-05 -0.00016827423 -3.4471028e-05 7.1597933e-06 3.448815e-05 -4.4629713e-05 -3.4717905e-05
2.452589e-05 7.821134e-06 -6.5561435e-05 5.4978012e-05 9.1802875e-05 0.00010425553 5.2614614e-05 9.501197e-05
3.8172604e-07 5.752079e-07 4.212006e-05 8.968657e-06 -8.029558e-05 9.049895e-06 -3.0548686e-06 3.0303854e-06
1.925991e-05 -4.8609686e-06 -9.0918176e-05 -2.95865e-05 7.488332e-07 6.206839e-05 1.2414088e-05 -2.2882932e-05
4.2537063e-06 -9.512427e-06 -2.4204652e-05 7.939542e-05 4.9770795e-05 -3.5470595e-05 -0.00010484023 2.7693759e-05
2.6333519e-05 -2.2391909e-05 -4.4854994e-05 -6.910707e-05 2.3052731e-05 -8.246806e-06 9.639371e-05 -1.7989076e-05
-1.488684e-05 -8.136241e-05 -6.144322e-05 -3.858477e-05 -3.131629e-05 -9.457223e-05 -0.0001624616 -3.1575248e-05
5.3235948e-05 4.2824147e-05 3.907072e-05 -0.00010050562 -0.0001128643 3.2177548e-05 9.226945e-05 0.000112269685
-7.946051e-06 2.6979957e-05 -6.4823325e-05 -0.00020669 5.8163347e-05 -3.8864167e-05 8.559388e-05 1.16185465e-05
-6.81869e-05 -1.4405717e-05 0.0002441993 5.8194964e-05 3.751932e-05 -0.00011954625 4.4564826e-05 0.000121674406
8.334086e-07 0.00011809469 0.00017054481 -6.3675884e-06 -0.00015207512 2.1100726e-05 4.51669e-05 0.00013262463
0.00021583623 2.9077482e-05 -0.00026583922 8.2511084e-05 9.7863856e-05 -1.0930639e-05 0.00017999533 6.318273e-05
-1.9952922e-05 3.3821878e-05 0.00016459187 -0.00011559809 -1.6452655e-06 0.0002121161 9.0451256e-05 0.00017038804
0.00017247874 1.1345808e-05 6.922282e-05 2.9010245e-05 0.00013272132 0.00020051654 0.0002656438 6.401671e-05
5.2897325e-05 -8.5803025e-05 -1.6137203e-05 6.3166066e-05 -2.6552916e-05 0.00017537239 0.0001621847 -0.00020387032
-0.00045066062 -0.00011382405 6.970768e-05 0.00017259961 0.00025132834 -0.00012394757 -0.00015767607 0.00013804209
0.00014912462 6.423351e-05 5.6692734e-05 5.8972153e-05 6.9511065e-05 0.00010688688 0.00034624396 -5.1958894e-05
8.909472e-05 0.00020213058 0.00023262824 0.00041524682 0.0003606444 0.0001492629 0.00020571038 4.659373e-05
0.00028354858 0.0003603303 0.00023402239 0.00012773296 2.9931245e-05 4.184105e-05 7.256735e-05 4.0728944e-05
-0.00087051356 -0.0017920211 -0.003162827 -0.004566122 -0.0062210998 -0.0065592737 -0.0012121224 -0.0020587505
-0.003223598 -0.004319816 -0.0056278114 -0.0058757775 -0.0021257943 -0.0027797483 -0.0032881815 -0.003851493
-0.0052392795 -0.0058125006 -0.0029587108 -0.0036375613 -0.003290528 -0.003886938 -0.004904091 -0.005131504
-0.004882731 -0.0046853353 -0.0037106627 -0.003847767 -0.004106541 -0.004099634 -0.0063751196 -0.0060139317
-0.004489399 -0.003466865 -0.0029847517 -0.002680396 -0.0021871622 -0.0019228689 -0.0018261384 -0.0017204481

fully_connected.0.bias f4 [128]
00000000: 94bf 69bb 787c 68b9 985f 0e3d 1832 94bd
00000010: 5fff c4b8 e235 e23d 3736 8130 fa8a deba
00000020: de5b 073d bc09 59b5 3463 e6ab 5309 b93c
00000030: c024 94bd 97d1 98b6 5aea 02bd ce2d fbbc
00000040: 039f 64b0 6fb2 9eb3 6861 cd3d 7db2 b7b2
00000050: fd52 ea3c eadc 4db8 d3e4 9db9 e668 c837
00000060: 5499 093d 99f7 413d 023a ce3d 00f1 1ea6
00000070: 4182 96bc 4644 3cb3 3f77 593c 1e67 c63b
00000080: 003b dc3d c194 f7a7 9940 5e3b ac81 b8b9
00000090: 14a5 abaf f881 debc 3854 c53c 0e2c c795
000000a0: c5e8 cf3b c0b2 f43b 784f 658f 53f2 cabc
000000b0: 2056 553d f172 123d 981c c5ba a2f9 8fae
000000c0: 0755 213b c49f 79bd 2ac4 8faf d951 4639
000000d0: c76d 9b3c 2376 d73c 12fe 4439 061d 34b9
000000e0: a46e 9d3c e9ec 38ad 4bbd 053e b8e5 843d
000000f0: c535 883d d5d4 03bc ff4d bcb8 2d81 513c
00000100: fe66 1903 1374 bc3d 7381 5caf 3131 523b
00000110: ac98 44b7 be1c 153e fe75 3e3d 1aaa 24a2
00000120: 1ce5 0c3b 43c8 943c 064f 083e f1f1 d3b4
00000130: 1586 253d 2328 a43c cea1 013e 040b 83bb
00000140: b731 9cad d655 35b9 cdb8 b93c d9d4 8b16
00000150: bc63 9db5 0858 07ba ee1c 8eb4 a2eb 9ebb
00000160: 8a6d 10bd 12a1 903c dc01 04b6 ff80 3aba
00000170: feb9 d43c d19b 6bb0 fdfe 683c 191f 1b3c
00000180: 6aeb 0abd 5843 083d c01d 9bbd 43f6 f53c
00000190: bb8c ab9d 00fc 4c3d ab8b 55bc e32e cb3d
000001a0: 3c42 04a5 4ca9 d0bc fb8a ab3b 1db8 c43c
000001b0: 7d6d 783d daee 51b0 132f ed3c 8731 c1b2
000001c0: 548f a58f 34c8 91bd d7ec 2db1 6d83 d33c
000001d0: ee90 0d3e 0935 ee3c dd66 b83c 3ecb 9ebd
000001e0: 0e8a b93c 5422 b536 4eb0 7c3d fe73 48af
000001f0: e5a0 1bba 9a2e 03bc 4837 01b4 f61a 9ab6
-0.0035667168 -0.00022171612 0.034759134 -0.07236117 -9.393575e-05 0.110454336 9.401394e-10 -0.0016978674
0.033046596 -8.0852965e-07 -1.6370017e-12 0.022587454 -0.07233572 -4.5543525e-06 -0.031961776 -0.03066149
-8.3171886e-10 -7.389905e-08 0.100283444 -2.1385171e-08 0.028604025 -4.908155e-05 -0.0003011586 2.3890705e-05
0.03359349 0.04735527 0.10069658 -5.514388e-16 -0.018372657 -4.3834255e-08 0.013273059 0.006054773
0.10753441 -6.871755e-15 0.0033913015 -0.00035191828 -3.1222014e-10 -0.027161583 0.02408801 -8.0444966e-26
0.006344887 0.0074675977 -1.1305877e-29 -0.024773752 0.05208409 0.035754148 -0.0015038429 -6.547231e-11
0.002461733 -0.06094338 -2.6150931e-10 0.00018913242 0.018973244 0.02630145 0.00018786665 -0.0001717695
0.019217797 -1.0511794e-11 0.13060491 0.06489128 0.06650881 -0.008046349 -8.9790665e-05 0.012787146
4.508089e-37 0.09201827 -2.0054873e-10 0.0032072777 -1.1718057e-05 0.14561746 0.046499245 -2.2316196e-18
0.0021498865 0.018161898 0.13311395 -3.9477848e-07 0.040411074 0.02003867 0.1265938 -0.003999116
-1.7757225e-11 -0.00017293482 0.022671128 2.2590987e-25 -1.1726438e-06 -0.0005162959 -2.647061e-07 -0.004849867
-0.035260715 0.01765493 -1.9670615e-06 -0.0007114559 0.025967594 -8.571393e-10 0.01422095 0.0094678635
-0.033915915 0.03326735 -0.07574034 0.030024653 -4.5408835e-21 0.050045013 -0.013033788 0.09921052
-1.1471616e-16 -0.025471352 0.0052350736 0.024013573 0.06065129 -7.6373186e-10 0.02895311 -2.249068e-08
-1.6325464e-29 -0.07118264 -2.5309441e-09 0.025819505 0.13824818 0.029078024 0.022509987 -0.07753609
0.022648837 5.3982167e-06 0.061691575 -1.8231103e-10 -0.0005936756 -0.008006716 -1.2034172e-07 -4.5926963e-06

fully_connected.2.weight f4 [32, 128]
00000000: c944 09bc 2698 6436 7139 a4bd fc25 b4bd
00000010: e085 85b9 9303 c7bd dd89 2b31 d001 88ba
00000020: ef49 cbbc a79f 5ab6 46bc 8227 4ccc 24bd
00000030: f1c2 90bd a211 1037 99ec a6bd f68f f1bc
00000040: 26a8 bcac da19 bfb5 8ba1 9ebd e2df 91b0
00000050: dd1d e8bc 346f e835 703f 533b 6307 8eb8
00000060: e6bc 2cbd 47f0 a3bd 4714 453d 3c40 1624
00000070: fd8e 4cbc 6f74 efb3 d06f ffbc bcd1 943a
00000080: 396d 7b3d 8592 9625 e6a0 eeba 62b0 a839
00000090: 0574 56af e112 90bd 2779 50bd 018d 0c08
000000a0: a5a5 4abd ae36 183c 1500 0000 2b32 c4bc
000000b0: c5a4 93bd 179d 69bd d3a0 05ba 8f33 42ab
000000c0: 8808 4bba 4cc7 78bd 2148 7734 8114 a437
000000d0: 6261 d5bb 89fe 0dbd 4313 3437 e3a6 3739
000000e0: 18e4 dabd 327c 0f13 0ef4 eabd 8f35 e3bd
000000f0: 79f3 7abd 27b0 37bc 586e 9339 3e7d 353b
00000100: bd7d 0d83 5a78 333d cbb8 802f 88f1 02bb
00000110: 2cfe 6db3 789a 0dbe cb99 813c 1a05 1923
00000120: 77ef a8bd c053 4cbd 43ff a13d affb 25b4
00000130: 66b6 02bd 91f3 05bc 0605 8f3d c738 a6bd
00000140: 7612 ccab d934 07b8 240c 97bc 992e 0ca4
00000150: b381 a2b4 f011 1739 32ce 3133 3d23 dc3a
00000160: 10c4 8bbd b462 87bc 66a8 0735 1c02 41ba
00000170: ae19 afbc dcaf 5531 d121 61bd e02c 283b
00000180: 2235 8abd 1212 9ebc ad14 9bbd 504d 01bd
00000190: e12c 351f 12c0 983c ce2f 89bd 729d 713d
000001a0: f230 85af eeab 2ebd 1346 593a 0163 49bc
000001b0: 34b9 c83c 2098 28ad 06cc 57bd 1656 b8b2
000001c0: 811e 448f 9dd1 a7bd f2c4 a731 c897 f03b
000001d0: dbf9 b73d a3ed e3bc 2516 0abd e14f 91bd
000001e0: 8640 be3b bb69 36b5 5e80 f53c a13e 66af
000001f0: 675a 6838 fc78 b1bb 90ff e4b1 b72c 26b4
00000200: a313 f837 4cf7 84b4 cc9d ab38 634f f538
00000210: cf9e 7836 5b84 3938 06e8 8cb5 b2b4 b5b3
00000220: 6307 acb8 cbba 16b2 7819 b40f 8850 30b8
00000230: c81a d238 48d3 d82d 547f 65b9 b162 4d37
00000240: 4963 8127 daa3 8f31 34b2 78b8 4158 bd2d
00000250: 5e9d 10b8 2cd3 0835 d8f9 1938 6a36 ca34
00000260: 3dcb 8038 d84b 7a36 2abc b139 1405 ea20
00000270: 5a10 3238 925a fb30 d97d 7db6 ca3e 2537
00000280: 94d7 bc38 7bf7 c2a2 4154 3e37 60c8 922e
00000290: 0bb5 e72b 1b94 31b9 4b2d 9db8 7101 0080
000002a0: 6206 32b9 be21 7438 1200 0080 9b39 8b38
000002b0: 4dd5 1839 8d3f c538 433f d7b6 c786 d629
000002c0: 02e3 83b6 9fa2 c238 c58a 0fb0 67ac 0bb6
000002d0: b43a 0038 eaf6 f038 309f 2f35 e632 69a6
000002e0: 87f1 e4b7 cfc9 0a09 5ea3 2138 c981 8eb8
000002f0: 5842 35b8 ba19 38b8 70df 89b3 afd8 f637
00000300: 4f07 0000 55c3 9139 67c2 81ac a09c b337
00000310: 8993 2cab a5ed ac39 2e95 9f38 89b6 caa0
00000320: 3c25 c7b8 a623 1538 b658 3a37 7394 07b5
00000330: 57b0 ce37 21d7 2cb6 a991 3339 c621 62b8
00000340: b70c 162b 867e 53b5 2c66 9538 7bcc 0f06
00000350: 3eae e131 7a1c 2336 dbfc 8f32 e358 ad37
00000360: ea94 08b9 5966 c8b8 f4d5 112e 6eae b92e
00000370: e74a 4a38 a860 2aaf f76f b8b8 74df ec37
00000380: f699 0cb9 ae6b d4b8 0dd5 de38 c6c3 e738
00000390: 5206 0080 c53d 0738 36b2 e936 658a a937
000003a0: ba01 0080 62f4 0c37 97d1 8137 1ec2 8bb6
000003b0: a1d4 4e38 9d63 e5aa c85f 9837 88d1 bd26
000003c0: 1b49 370d bacc e838 92a2 141b 3266 d038
000003d0: b2d9 a038 9ecf f838 a84e a837 0107 d438
000003e0: 1e0e e338 f33b aab3 1648 a139 14bd 4d2e
000003f0: 5175 a1b3 5022 6b37 5a65 bfac aa13 9e22
-0.008378216 3.406321e-06 -0.080187686 -0.087963074 -0.00025467481 -0.097174786 2.4962141e-09 -0.0010376517
-0.024815528 -3.2577461e-06 3.6286375e-15 -0.040233895 -0.07068432 8.587174e-06 -0.08150596 -0.029487591
-5.3619496e-12 -1.4238133e-06 -0.077456556 -1.061377e-09 -0.028334552 1.7317711e-06 0.0032233857 -6.7724635e-05
-0.042172335 -0.08004814 0.04811504 3.2580474e-17 -0.012485263 -1.1150484e-07 -0.031181246 0.001135401
0.06138346 2.6120138e-16 -0.001820591 0.00032174872 -1.9504405e-10 -0.07034851 -0.05089679 4.2295467e-34
-0.049474377 0.00929038 3e-44 -0.023949703 -0.07209162 -0.05703458 -0.0005097512 -6.89942e-13
-0.00077451067 -0.06073694 2.3029908e-07 1.9559871e-05 -0.006511853 -0.03466657 1.0733321e-05 0.0001751441
-0.10688037 1.811037e-27 -0.11472331 -0.110942 -0.06126735 -0.011211432 0.00028120237 0.0027693058
-4.1580516e-37 0.043815948 2.3414368e-10 -0.001998039 -5.541203e-08 -0.13828456 0.015820405 8.295227e-18
-0.08248799 -0.049884558 0.079100154 -1.5458384e-07 -0.03191223 -0.008175747 0.0698338 -0.08116298
-1.4500196e-12 -3.2235726e-05 -0.018438406 -3.039713e-17 -3.026922e-07 0.00014407164 4.1398557e-08 0.001679517
-0.06824505 -0.016526558 5.053647e-07 -0.000736268 -0.02137455 3.1095544e-09 -0.05496389 0.0025661513
-0.067484155 -0.019295726 -0.07572303 -0.03156787 3.8365364e-20 0.018646274 -0.06698571 0.058988042
-2.4227337e-10 -0.042644434 0.0008288335 -0.012291671 0.024502374 -9.583473e-12 -0.052684806 -2.1459567e-08
-9.669421e-30 -0.081942774 4.8827298e-09 0.0073423125 0.08983203 -0.027823275 -0.033712525 -0.07095314
0.0058060316 -6.795414e-07 0.029968437 -2.0940628e-10 5.5397304e-05 -0.005416034 -6.6647274e-09 -1.5476222e-07
2.9573048e-05 -2.4766848e-07 8.183307e-05 0.00011697297 3.7047319e-06 4.4230703e-05 -1.049834e-06 -8.4613376e-08
-8.202975e-05 -8.773621e-09 1.775918e-29 -4.203667e-05 0.00010018569 2.4650185e-11 -0.00021886575 1.2241931e-05
3.5912338e-15 4.1804755e-09 -5.9293772e-05 2.1526005e-11 -3.4478835e-05 5.0971244e-07 3.6710728e-05 3.7665023e-07
6.141372e-05 3.729705e-06 0.00033900264 3.9644502e-19 4.2453736e-05 1.8288395e-09 -3.777319e-06 9.849386e-06
9.004693e-05 -5.2845836e-18 1.1344499e-05 6.674905e-11 1.6463787e-12 -0.00016935209 -7.49478e-05 -5.17e-43
-0.0001697778 5.8205558e-05 -2.5e-44 6.638766e-05 0.0001457531 9.405529e-05 -6.414864e-06 9.526889e-14
-3.9305314e-06 9.2809314e-05 -5.22203e-10 -2.0812965e-06 3.057225e-05 0.00011490083 6.542423e-07 -8.0907094e-16
-2.7292188e-05 1.6706036e-33 3.853754e-05 -6.795262e-05 -4.321555e-05 -4.389298e-05 -6.420203e-08 2.9426386e-05
2.622e-42 0.0002780209 -3.6879835e-12 2.1411397e-05 -6.131142e-13 0.00032983455 7.609498e-05 -3.4340923e-19
-9.495995e-05 3.555757e-05 1.1107119e-05 -5.050744e-07 2.4639228e-05 -2.5755219e-06 0.00017125033 -5.3914053e-05
5.330835e-13 -7.878774e-07 7.123905e-05 2.704554e-35 6.568171e-09 2.4305468e-06 1.6762376e-08 2.0664598e-05
-0.00013025446 -9.555807e-05 3.315921e-11 8.443811e-11 4.823031e-05 -1.5495749e-10 -8.794659e-05 2.8237446e-05
-0.00013408795 -0.00010129005 0.00010625469 0.00011051404 -2.267e-42 3.2244036e-05 6.9646876e-06 2.0210815e-05
-6.2e-43 8.40155e-06 1.5475596e-05 -4.165121e-06 4.9312253e-05 -4.0747692e-13 1.8164414e-05 1.3171303e-15
5.6479226e-31 0.000111007554 1.2294802e-22 9.937248e-05 7.6699434e-05 0.00011864233 2.0063788e-05 0.00010110252
0.00010826833 -7.9271466e-08 0.0003076202 4.677954e-11 -7.5184865e-08 1.40150805e-05 -5.439799e-12 4.2846806e-18

fully_connected.2.bias f4 [32]
00000000: 7edc 1b3e 8954 9d39 b4b8 1c3e 6501 0080
00000010: 1306 1b3e d58b 0f3e 6b3a e92d 390f d03c
00000020: 8355 e03c 7b18 63ad 5d19 99b1 74f9 163e
00000030: 8d3d 1b3e 0be5 333e b2d1 0d3e 358f e93c
00000040: 4815 c53c 4f16 0e3e 8a10 283e 6ed0 0ab8
00000050: a32a 1a3d 905b 0f3e 38fe ce3c 9939 58b2
00000060: 57d6 c33c 6b74 9a3c 624e 323e 5b67 7e27
00000070: ff06 0e3e ae12 d43c d1d0 c53c b286 133e
0.1522083 0.00030008357 0.15304834 -5e-43 0.15139036 0.14018185 2.6514976e-11 0.025397884
0.027384525 -1.2908892e-11 -4.4557695e-09 0.14743596 0.15160199 0.17567842 0.13849524 0.02851067
0.024058 0.13875698 0.16412559 -3.309588e-05 0.037638318 0.13999772 0.025267705 -1.2585951e-08
0.023905916 0.01885434 0.17412713 3.530561e-15 0.13869856 0.025887813 0.024147423 0.14406851

fully_connected.4.weight f4 [1, 32]
00000000: 0a06 febe cbc5 8db9 b28d f9be 0701 0080
00000010: b1d9 0dbf 684a eebe ee67 8cae c604 b13e
00000020: 55f9 c73e 493c 0eb0 1398 9132 1f56 f3be
00000030: f93a f4be f770 13bf 940b e0be 8e03 d03e
00000040: 63cb a23e f680 f4be e90d 09bf 5d15 afb8
00000050: d631 ee3e 75f9 e7be 60b8 b23e d50c fdb0
00000060: 4633 da3e 6212 a63e 34c2 0dbf 7b4e fea7
00000070: 9785 debe b224 ba3e 4cac 993e fe9b e8be
-0.49613982 -0.00027040983 -0.48740917 -3.69e-43 -0.55410296 -0.46541142 -6.3849245e-11 0.34573954
0.39057413 -5.174497e-10 1.6949377e-08 -0.47526643 -0.47701243 -0.57594246 -0.43758833 0.40627712
0.31795797 -0.4775464 -0.5353685 -8.3486295e-05 0.46522397 -0.45307508 0.34906292 -1.841182e-09
0.42617244 0.324359 -0.55374455 -7.058425e-15 -0.43461296 0.3635612 0.30014265 -0.45431513
