trained_models/classification_cnn_with_hillas_stereo.pth (torch, 350172 bytes, 9 tensors)

cnn.model.0.weight f4 [8, 2, 5, 5]
000000 9d ab 94 3c 75 99 2f 3c d9 95 3f 3e 04 6b 83 3e
       0.018148238 0.010717739 0.18709506 0.25667584
000010 a3 55 b8 3e 67 65 99 bd 53 86 9d be 6a 08 3e be
       0.36002836 -0.07490044 -0.30766544 -0.18557897
000020 ae 3c 41 3e 62 0a bd bd 14 85 44 be ed fd f5 be
       0.18870804 -0.09230496 -0.1919139 -0.48045292
000030 18 7b df be 07 92 4f be 7e 5c 53 be 13 c4 ba 3e
       -0.436486 -0.20270549 -0.20640752 0.36477718
000040 23 c7 78 3d 25 10 17 be 1c 18 b6 bc d5 ca cd 3d
       0.060736787 -0.14752252 -0.022228293 0.10048453
000050 d7 ec 97 3e 02 cc 82 be 6b 8f 4f be 3d ce 8a 3e
       0.29672882 -0.2554627 -0.20269553 0.27110472
000060 a7 c7 ed bc 18 ef 19 ba 1b 06 c8 bd 67 ad 36 bd
       -0.029025866 -0.00058721146 -0.097667895 -0.044598963
000070 6d 32 03 3e 62 96 a7 3e 50 ce d9 bd e9 e0 c3 bd
       0.12812205 0.3273192 -0.10635054 -0.095643826
000080 f0 94 11 be d5 a8 84 bd 4f b1 4e 3e 19 62 1a 3e
       -0.14216971 -0.06477515 0.20184825 0.15076484
000090 5b db a3 bd 33 54 9b be ab 6d b1 bd 7e 61 3d 3e
       -0.08000823 -0.30337676 -0.08663496 0.18494222
0000a0 53 36 d7 3d 54 f2 0a be 24 0c 86 be 27 7f 50 3e
       0.105084084 -0.13569003 -0.26181138 0.20361005
0000b0 58 44 68 bd 4c 59 49 bc 5c 84 68 be 81 8c 14 3d
       -0.056705803 -0.012289356 -0.22706741 0.036266807
0000c0 1d 6e 3c 3d 06 af cf bc 83 49 e2 bc 97 cb a7 3d
       0.04600345 -0.025352012 -0.027622944 0.081931286
0000d0 fd 56 1f bd 6f aa 0d 3e 74 98 59 3e c4 43 96 bd
       -0.038901318 0.13834547 0.21249563 -0.07337144
0000e0 2d 1d 8d 3b b8 de 5b 3e 26 cc 1b 3e ea 1c ea 3d
       0.0043064565 0.21471679 0.15214595 0.11431296
0000f0 f6 36 4f be 1a a1 8b 3d 13 4a 15 3d a5 e4 57 3e
       -0.2023581 0.06817837 0.036447596 0.21083315
000100 6f a3 03 be 0e da eb 3c d7 cd ec bd ff 3c a6 3d
       -0.12855314 0.0287905 -0.11562698 0.08117103
000110 57 32 81 bd 3b 15 e8 bd 1c d8 48 be 08 ef 14 bd
       -0.0630843 -0.113321744 -0.19613689 -0.03636077
000120 3c 0f 0d 3e ad 67 e9 bb 67 03 83 be 38 cb 30 3e
       0.13775343 -0.007122955 -0.25588533 0.17265022
000130 77 ad a4 bd 72 fe 55 be 60 bb 34 be 85 b9 92 be
       -0.08040898 -0.20897844 -0.17649603 -0.28657165
000140 f1 b6 99 3d 7d 56 8b bd 95 42 7e bd 90 86 38 be
       0.075055964 -0.06803606 -0.062075216 -0.18020082
000150 70 03 8f be f0 aa 04 3e c7 89 73 be b6 96 8b bd
       -0.2793231 0.12955832 -0.23783027 -0.06815855
000160 eb 97 e4 bd b5 a0 82 be df 3d 10 3e ef 14 89 bc
       -0.111617886 -0.25513235 0.14086102 -0.016733615
000170 7e a7 30 be 1c 41 d9 bd 2c 06 3f be d5 ff af 3d
       -0.17251393 -0.10608122 -0.18654698 0.08593718
000180 c6 c8 19 3e dd 94 56 3e d3 5f f2 3d 5e 9c 3d 3e
       0.15017995 0.20955224 0.11834683 0.1851668
000190 ae d1 89 3d 8d d0 f0 bd 8c b0 41 be 18 68 8e 3d
       0.06729446 -0.11758528 -0.18915004 0.06953448
0001a0 20 3f 0c 3e 1c f5 14 be de 0c f6 bd 85 0b 69 3e
       0.13695955 -0.14546627 -0.12014173 0.227583
0001b0 cf 3a a2 bd 0f 13 12 be 6c bd b3 bd d9 24 2d 3e
       -0.07921373 -0.14265083 -0.08776364 0.16908588
0001c0 bf ce 8d 3e e8 80 09 be 63 da 6f 3e 8e 73 1a 3d
       0.27696797 -0.1342808 0.23423152 0.037707858
0001d0 f1 48 5e 3d 5e 37 84 be d5 46 9e 3d f5 65 27 3c
       0.05426878 -0.25823492 0.07728354 0.01021718
0001e0 8d 51 d6 bd 40 70 4e bd d5 2d f0 bd 8f 30 15 be
       -0.10464773 -0.05040002 -0.11727492 -0.14569305
0001f0 36 2f 69 be 0e 9c a8 3c b5 d6 1f 3e 62 b9 9b be
       -0.22771916 0.020582225 0.15609248 -0.30414873
000200 04 32 89 be cf 29 9e bc d8 02 36 3e b9 b6 ee bd
       -0.2679597 -0.019307045 0.17774522 -0.11655945
000210 9a 4e ae be aa dd 22 be c3 ce 6d 3e 3c 28 95 bd
       -0.34044343 -0.1590487 0.23223405 -0.07283065
000220 10 d0 a0 be 9d 2c 84 bd e4 a7 9f 3e 86 6d a0 3e
       -0.3140874 -0.06453822 0.31182778 0.3133356
000230 a9 c6 c7 3d 6d f4 54 be e4 6d 99 3d 23 c5 6c 3e
       0.09754688 -0.20796366 0.07491663 0.23122077
000240 6c 95 6d bd 37 af 8e 3d 73 53 03 be 68 94 fd bd
       -0.058003828 0.06967013 -0.12824802 -0.12381822
000250 77 43 87 be 2b a9 c8 be cd 9f 72 bc 5e 4b 19 be
       -0.2641866 -0.39191565 -0.014808607 -0.14970157
000260 91 6f 08 be 10 ab a4 bd 42 69 0d be d2 0e 9f 3d
       -0.13323809 -0.0804044 -0.13809684 0.077664986
000270 a6 92 18 be b4 4d 70 bd 1c af 8a bd bd 65 42 bd
       -0.14899692 -0.058667853 -0.06771681 -0.047460306
000280 4e 29 6b 3e b3 c8 1c 3d e3 77 40 be 14 0a 2d bd
       0.22964975 0.03827734 -0.18795733 -0.04224594
000290 d2 0d b8 bd dd 66 45 3e 6d d7 54 3d 13 32 c9 bd
       -0.08987011 0.1927752 0.05196326 -0.09824004
0002a0 49 42 4a bc b6 2d 99 bd e0 87 9c 3e fd 26 a2 3e
       -0.012344905 -0.07479422 0.30572414 0.3167037
0002b0 a1 43 0b 3d ef 13 6b 3c 50 95 82 bd ff 1a 0a 3c
       0.034000043 0.014348014 -0.06376135 0.008429288
0002c0 56 65 d1 3d a7 c6 40 3e 5b 70 84 3d 33 eb 00 be
       0.102244064 0.1882578 0.064667426 -0.12589721
0002d0 5d 72 a5 3d 84 c9 69 3d 57 dc 31 3e ee 52 3e 3e
       0.08078454 0.057076946 0.17369209 0.18586323
0002e0 27 1d 24 3d 1f ed ab be ea 9a 75 3d c8 82 b6 3d
       0.040066864 -0.33579347 0.05996219 0.08911663
0002f0 57 80 2f 3d 6c 0c 88 bd 37 0f 80 be e4 8e 90 be
       0.042847004 -0.06642994 -0.25011608 -0.28234017
000300 d7 f7 4e 3d ce f3 c7 bd f7 17 6d be 8e e7 9e be
       0.050529327 -0.09763299 -0.23153673 -0.31036037
000310 70 be 89 be 7a be df 3c 3a ee cf 3d bb 06 24 3e
       -0.26903105 0.027312506 0.1015286 0.16018192
000320 9b ec ef bc 78 62 76 bd 50 6c 75 3e ca 0d 96 3d
       -0.029287627 -0.0601525 0.23967099 0.07326849
000330 d6 87 70 be b3 6f bd bd b5 eb 48 3d 8a 8d 91 3e
       -0.23489317 -0.092498206 0.049052913 0.28428298
000340 15 a7 6a be d7 a0 ae be e9 46 24 be f0 e1 dc 3b
       -0.22915299 -0.34107086 -0.16042675 0.006740801
000350 d4 0d 4e be 43 79 98 be dc 66 ce 3e 5c 2e 8f be
       -0.20122463 -0.29780015 0.4031285 -0.27965057
000360 41 c6 a7 3d 07 f1 37 be e8 18 64 3d 5f b7 6c 3e
       0.08192111 -0.17963038 0.055687815 0.23116826
000370 39 d2 7f 3e 1b 5b ad 3e c6 7f 4e be fe 43 94 be
       0.24982537 0.3385857 -0.20165929 -0.28958124
000380 35 10 19 be b0 7a ec 3d fa da d5 bd 3d f9 d0 3d
       -0.14947589 0.11546838 -0.10442157 0.102037884
000390 d7 31 67 3d a8 37 3b bd d4 48 f2 bd ea 0d 77 bd
       0.056444015 -0.045707375 -0.11830297 -0.060316004
0003a0 a1 c6 28 be 7b c2 42 be 05 b0 e6 bd 08 0f e8 bd
       -0.16482021 -0.19019501 -0.11264042 -0.11330992
0003b0 45 98 40 bc 7e 91 eb 3d 64 3d d9 bd e8 18 c7 bd
       -0.011755054 0.1150236 -0.106074125 -0.09721547
0003c0 a5 23 d9 bd a6 1d 9e 3e c1 6f 93 3e d1 a3 9f be
       -0.10602502 0.30881995 0.287962 -0.3117967
0003d0 73 38 a5 3d 99 40 2e 3e a3 0f 57 3e 77 09 a9 bd
       0.080674075 0.1701683 0.21002059 -0.082537584
0003e0 06 db 7a be 81 e4 e1 3d 90 99 fd ba 13 07 0d 3e
       -0.24497613 0.11029912 -0.0019348133 0.1377223
0003f0 18 62 3f be bc 08 ef bd d9 c7 96 3e 94 f4 8c 3c
       -0.18689764 -0.11671588 0.29449347 0.017206468

cnn.model.0.bias f4 [8]
000000 5e 2f 75 be 03 fb 49 be 4f 30 80 be 4d 39 13 be
       -0.2394385 -0.1972466 -0.25036857 -0.14377327
000010 9d 71 46 be 2c 1f 5c be 1d 91 7f 3c 48 74 0e bf
       -0.19379278 -0.21496266 0.015598563 -0.5564618

cnn.model.3.weight f4 [16, 8, 5, 5]
000000 89 40 0b 3e aa 08 b9 bd a9 d0 d8 be 7c 59 0d 3c
       0.13598837 -0.09034856 -0.42346695 0.008627292
000010 5a 5c ea bd 47 85 12 3e 1f ae 9a 3d 17 20 30 bc
       -0.11443396 0.14308654 0.07552742 -0.010749838
000020 e3 d4 74 bd f3 80 56 be d0 ef 17 3d 2e 8a db bc
       -0.059773337 -0.20947628 0.037093937 -0.026799288
000030 c2 c7 3c 3d b1 25 d1 bd 3b b1 26 bd c1 36 35 ba
       0.04608894 -0.10212267 -0.040696364 -0.0006912761
000040 3f 20 1a be 38 e9 27 3d 13 49 0c 3e ab 80 b0 3d
       -0.15051363 0.0409939 0.1369975 0.086182915
000050 b0 b1 4b be 59 b1 62 3b 0a ac a7 3e 39 36 1e 3e
       -0.19892001 0.003459057 0.32748443 0.15450372
000060 12 d5 c2 3d b2 85 b2 be 5f 3f 24 3d 1e d6 c3 3d
       0.09513296 -0.34867626 0.040099498 0.09562324
000070 c9 ef 1a 3e 7b 5e 4c 3e be 4b f7 3d 17 d0 76 3e
       0.15130533 0.19957916 0.120749936 0.24102817
000080 91 bb 8c 3e 4c 19 e3 3d c7 a8 86 3d af ce 98 bd
       0.27486852 0.11088809 0.065751605 -0.07461297
000090 51 ba b7 bc f3 18 23 3d 58 e3 d6 bd a7 69 3d 3e
       -0.02242771 0.039818715 -0.10492581 0.18497334
0000a0 ce c8 73 3e 05 7f bc 3e 03 8a 84 3e 1b 88 85 bd
       0.2380707 0.36815658 0.25886545 -0.06520101
0000b0 4c 05 3a 3e ff c6 d7 3d 90 72 0b bd ed 1c f2 bd
       0.18166083 0.10536002 -0.034044802 -0.118219234
0000c0 9b b7 89 bd 11 2a 24 3e 15 43 94 bd 8a a9 bc bd
       -0.06724473 0.16031672 -0.072393574 -0.092120245
0000d0 95 52 2a be 59 6a a2 3d f4 ca 1d 3e fd dd 8d 3e
       -0.16633065 0.079304405 0.15409452 0.27708426
0000e0 ec af 37 3d 4a 23 76 bc 3c de 94 3d 3e 19 ac 3d
       0.044845507 -0.015023062 0.0726895 0.08403252
0000f0 1e 19 20 3e 47 1d 16 3c a1 87 1d be ad 8a 07 3e
       0.15634581 0.009162254 -0.1538377 0.13236494
000100 77 aa b5 3d 00 cf 6d be 4b 47 94 3d 2f 0c 75 ba
       0.08870404 -0.23223495 0.072401606 -0.0009347824
000110 2f d0 b4 be 6e a4 0d be 0a 55 10 3e 25 63 81 3d
       -0.3531508 -0.13832256 0.1409494 0.063177384
000120 58 59 12 3d f1 e4 b1 be dd 8a 0f bd 3b 9b de bd
       0.035729736 -0.3474498 -0.03504454 -0.108694516
000130 17 ba 02 3c a4 d6 40 bd fc 91 94 bd 05 a7 72 bd
       0.007978938 -0.047079697 -0.07254407 -0.059241313
000140 87 7e 88 bd 89 c3 3c 3d 7b a6 cf 3d 5f 53 73 3e
       -0.06664758 0.046084914 0.101391755 0.23762272
000150 f0 d3 1e 3e 81 9d 90 3d ec 9b 42 bd 1f f3 14 3e
       0.15510535 0.070612915 -0.04751198 0.14545868
000160 93 95 11 3e 2a 9b 10 3d 22 0c 4f be f0 1f 06 be
       0.14217214 0.035304226 -0.20219472 -0.1309812
000170 2b ac 65 be d9 3a 70 3d 08 e0 59 3d 2d 55 88 be
       -0.22428958 0.05864987 0.05319217 -0.26627484
000180 a9 8c c4 be 69 4a 20 be ae b2 0a 3d 4f 80 bd bd
       -0.38388565 -0.15653385 0.03386181 -0.092529885
000190 d1 af e1 3c 15 f1 e1 bd ee d2 67 3c e0 e2 c3 3d
       0.027549656 -0.11032311 0.014149411 0.09564757
0001a0 87 bb c8 3d 1c de ee bd b3 6c 8b be b6 fd 09 be
       0.09801393 -0.11663458 -0.27231368 -0.1347569
0001b0 67 75 96 bd a9 db 6a bb 5f cc 38 be fa 98 0d be
       -0.073466115 -0.0035836494 -0.18046711 -0.13827887
0001c0 2b 90 94 3d 83 d3 e9 bd 8d 8b ac bd 2d 30 79 bc
       0.0725406 -0.11417296 -0.08425055 -0.01520924
0001d0 ce a6 62 3d e8 fd 95 3b 96 9f c7 bc b0 56 9b be
       0.05533486 0.004577387 -0.024368089 -0.30339575
0001e0 f6 53 88 be 89 3c 91 be 44 0d 1f be b5 39 28 be
       -0.26626557 -0.28366497 -0.15532404 -0.16428263
0001f0 80 90 0a bf 8b 22 ff 3d b4 4c f7 3c 1d 4c a2 3c
       -0.5412674 0.124577604 0.030187942 0.019811684
000200 72 eb a3 bd 3c 5c 2b be de 1a 18 3e 81 d3 62 3d
       -0.08003892 -0.16734403 0.14853999 0.055377487
000210 5e 6b 07 bd 6d ef af be 4d 86 df be 58 36 d6 3c
       -0.033061378 -0.34362355 -0.4365715 0.02614896
000220 e0 9b 88 bd fa 0e d3 be 0f 34 9e be ee fb 9a bc
       -0.06670356 -0.41222364 -0.30899093 -0.018918958
000230 b0 69 09 3e 23 fc 03 3e 43 06 71 be 0a 82 0a be
       0.13419223 0.12889151 -0.23537545 -0.13526168
000240 ae db 43 3d 1a e7 98 3e fd d7 76 3e 3d 37 30 3e
       0.047816925 0.29863816 0.2410583 0.17208572
000250 74 34 e7 3c 3f 23 42 3e 89 d4 df bd 32 a6 59 bb
       0.028223254 0.18958758 -0.1092921 -0.0033210632
000260 96 40 0b 3d 23 c3 ba 3d b0 7e 31 3e 8d 00 ac bd
       0.03399714 0.091192506 0.17333484 -0.083985426
000270 82 81 35 bd 21 8b 16 be a9 dd d4 bd b9 60 5e 3e
       -0.04431296 -0.14701511 -0.10393841 0.21716584
000280 21 e6 85 bd 8c 63 6b 3d 0f 43 6a 3d 49 b1 0f 3e
       -0.06538034 0.057467982 0.05719286 0.14032473
000290 32 2b 59 3d 49 3a f7 ba 79 ec 6f 3d d7 37 e2 bd
       0.05301971 -0.0018861975 0.058575127 -0.11045807
0002a0 a1 d2 a9 3c b8 fb af bd 85 32 d5 bd af 56 56 bc
       0.020730319 -0.085929334 -0.104100265 -0.01308219
0002b0 05 c5 f0 be 0b a2 2e bd ea fc b2 bc b7 10 d8 bd
       -0.47025314 -0.042635005 -0.021849114 -0.10550063
0002c0 75 c2 95 be fe 6b dd be b4 82 98 be 43 31 20 be
       -0.2924992 -0.43246454 -0.2978722 -0.15643792
0002d0 a9 6e cb be 46 9e 9e bd 9a 72 3f be cd bc 2b be
       -0.39732864 -0.07745032 -0.18696061 -0.1677124
0002e0 b6 76 f8 bd 73 a7 b6 3b de 77 55 3d 4b c1 5a bc
       -0.12132017 0.0055741607 0.052116267 -0.013351749
0002f0 3c d2 ca bd 58 93 68 be 30 16 9e bc ee b0 58 bc
       -0.0990338 -0.22712457 -0.01929769 -0.013225777
000300 1a e3 04 bd ca 0f a5 bd 78 92 13 be 99 ad 23 be
       -0.032443143 -0.08059652 -0.14411342 -0.15984191
000310 9e 12 d3 bd de dc b6 3d 1c 2a 78 3b 0e e8 9d be
       -0.10306285 0.08928846 0.0037866896 -0.30841106
000320 dc 3d 24 be 79 fe e6 bc c1 81 b5 3d 0b 1d b0 be
       -0.16039222 -0.028197514 0.08862639 -0.34397158
000330 b2 33 a6 be e3 26 4d be e6 aa 83 3e eb 7f 23 be
       -0.32461315 -0.20034365 0.25716323 -0.15966766
000340 59 ab 09 3e 78 aa d3 bd e5 02 8b bd 7b ee 3c be
       0.1344427 -0.10335249 -0.067876615 -0.18450348
000350 1a 88 91 be 25 1c b9 be 93 20 0d 3e 6f 74 8b 3e
       -0.2842415 -0.36154285 0.13781957 0.2723727
000360 96 db 87 be da 26 17 be e4 55 c3 bd 01 7d f0 bd
       -0.26534718 -0.14760914 -0.09537867 -0.117425926
000370 ea 56 48 3e 58 a5 ae be 2f 2b ac bc 7e 8a 6e 3e
       0.19564405 -0.34110522 -0.021016685 0.23295018
000380 89 48 08 3e 58 8b 42 3e c3 3b 48 be 8b 37 b6 be
       0.1330892 0.18998468 -0.19554047 -0.3558925
000390 1d 30 21 bd 60 35 a9 be 15 36 6d bb 54 dd ae be
       -0.039352525 -0.33048534 -0.0036195565 -0.34153235
0003a0 29 68 e7 bd aa cd fa bb 0d 6a 75 be 5a 26 16 bf
       -0.11299164 -0.0076539116 -0.23966236 -0.5865227
0003b0 32 5b c0 3e 46 90 a6 3d de 6a 9f 3e 74 8f c0 39
       0.37569577 0.08132987 0.3113622 0.00036727975
0003c0 53 0e 40 bf 44 ed 1e 3d a8 d3 b4 3e b0 96 78 3e
       -0.7502186 0.038800493 0.3531773 0.24276233
0003d0 c4 1a 64 bb b3 e7 81 be 45 71 b9 3e 5e cc b7 3e
       -0.0034805993 -0.25372085 0.3621923 0.35898107
0003e0 8c fa 5c 3e 66 ec e6 3d 35 a2 a9 3c c9 84 e6 bc
       0.21579951 0.11275558 0.02070723 -0.028139489
0003f0 b2 3c 89 3e f3 54 77 be a0 96 86 3d 94 49 3c 3c
       0.2680412 -0.241535 0.06571698 0.011492152

cnn.model.3.bias f4 [16]
000000 f5 28 f5 bc 70 a9 8a bc ee c8 49 be 89 5a ad bd
       -0.029926756 -0.016926497 -0.19705555 -0.08464534
000010 94 88 ce bd 0f 6a 3d bd c2 42 9a bd dc 00 82 bb
       -0.10084644 -0.046243723 -0.07532264 -0.0039673876
000020 6b e6 49 bd db 50 a7 be 64 17 f9 bd 2b 76 c1 bd
       -0.04929201 -0.32678875 -0.121626645 -0.09446367
000030 33 83 25 be a7 b5 09 bd 16 a0 07 be f3 01 45 bd
       -0.1616333 -0.033620503 -0.13244662 -0.048097562

fully_connected.0.weight f4 [128, 613]
000000 32 f4 be bc 6f 12 a2 3e 9d bb c8 3d d9 8d cc bc
       -0.0233098 0.3165469 0.098014094 -0.024969982
000010 4c 1d 8d be 80 aa a7 bc 4b 82 76 be 97 5a 28 3e
       -0.27561414 -0.020467043 -0.2407314 0.16440807
000020 20 0d 30 be fb 07 59 3e 7b cb b6 be da 7f 53 3e
       -0.17192507 0.2119445 -0.35702118 0.2065424
000030 7a 76 9e bc 32 01 97 bd 3a 82 83 3d d0 b8 be 3d
       -0.019343603 -0.07373275 0.06421323 0.09312594
000040 00 f3 36 3d 4d 16 6a 3e 4e c1 1d be 3c c0 45 3e
       0.044665337 0.2286007 -0.15405771 0.19311613
000050 2e 37 34 3d eb f9 2a be ce 82 78 3e 0a 26 ad bc
       0.043997936 -0.16696899 0.24268648 -0.021136303
000060 1c 40 b7 bd 4a eb 9c 3d f7 36 cc be 4f 4c 75 be
       -0.08947775 0.07662065 -0.39885685 -0.2395489
000070 c2 67 04 be 85 6e e9 3d 6c f4 c5 be 9c 8e 03 3e
       -0.12930205 0.11398033 -0.38663042 0.1284737
000080 f6 55 73 3e 84 8e b3 bd 33 e6 b0 3d 2d d7 f1 3d
       0.2376326 -0.08767417 0.08637657 0.1180862
000090 84 9b 92 3e f5 77 26 3d df 16 71 3e a5 aa ab be
       0.28634274 0.040641744 0.23543881 -0.3352863
0000a0 06 89 e0 3b 8a 05 81 be d0 53 65 3d e9 4e 45 be
       0.006852272 -0.25199538 0.055988133 -0.19268383
0000b0 f4 d4 ed bc f5 01 6d be a8 17 79 3d a1 f8 61 be
       -0.029032208 -0.23145278 0.060813576 -0.220675
0000c0 ee c9 c8 bd 30 5d 62 3e 3f 8d 8d 3b c5 e9 07 3d
       -0.0980414 0.2210586 0.0043198164 0.033181924
0000d0 88 00 e6 3d 70 b7 f6 bc ec f8 08 bd fe a5 b7 bd
       0.1123057 -0.030116767 -0.033440515 -0.08967207
0000e0 3a 80 2b 3d f8 e9 28 be c8 9b 75 bd b5 5a f2 bc
       0.041870333 -0.16495502 -0.059963018 -0.029584268
0000f0 16 72 5f 3e b0 3a 60 3e e3 6d 3b be 53 c8 ce 3d
       0.21820864 0.21897388 -0.18303637 0.100968026
000100 64 7a db bd fd 91 a3 3d 76 55 96 3d a3 4c a1 bd
       -0.107167035 0.079868294 0.07340519 -0.078759454
000110 ab a2 50 be ab 66 10 3c ec a8 15 3d d7 71 e6 3d
       -0.20374553 0.00881354 0.03653805 0.11252182
000120 28 21 ac be ce 9c 80 be f0 36 fa be 77 07 1a be
       -0.33619046 -0.25119632 -0.4887004 -0.1504191
000130 94 29 b7 be 07 36 37 3e b6 5d 5a be 46 5c 3b 3d
       -0.3577391 0.17891704 -0.2132481 0.045742296
000140 0f 87 f5 bd 52 13 ee 3d 35 3f 52 3e e6 b1 7c 3d
       -0.11988651 0.11624779 0.20531924 0.061693095
000150 a5 1d f4 3a f2 cd 06 be fd f3 87 be 9f fb 3e bd
       0.0018624557 -0.131645 -0.26553336 -0.046626683
000160 0e 5f 96 bd 1a e6 a8 bc 6b b0 f7 bd 89 43 ec be
       -0.07342349 -0.020617533 -0.12094196 -0.46145275
000170 49 f7 1f 3e 83 1c 0b 3d 9e fc 3c be 33 92 da 3d
       0.15621676 0.033962738 -0.18455741 0.106724165
000180 ac 04 53 3d 93 bb 97 3e 6b 60 13 bd 18 64 46 3e
       0.051518127 0.29635295 -0.035980623 0.1937412
000190 12 79 b7 3d a0 8e 94 3e c7 59 f3 3c 13 0a 82 bd
       0.08958639 0.29015064 0.029705895 -0.06349578
0001a0 6e c0 62 be 92 05 70 bc 75 84 d8 bc cc dc 50 3e
       -0.22143719 -0.014649766 -0.026430348 0.20396727
0001b0 df ad 55 3e 1b 50 a1 3e 2a 37 6f be 48 fd 57 be
       0.20867108 0.31506428 -0.23360887 -0.21092713
0001c0 ed 8e 37 be f7 59 03 3e 41 93 00 3e 1d 35 88 3e
       -0.17925616 0.12827288 0.12556173 0.26603022
0001d0 83 24 b1 be 70 72 db 3d 1e 69 9e 3e ed 71 a4 3e
       -0.3459817 0.107151866 0.30939573 0.32118168
0001e0 45 b6 3a bd a2 7c c7 3d e1 3d 15 3d fd 4d f2 3c
       -0.045583982 0.09740569 0.036435965 0.029578203
0001f0 a3 71 9e 3e a4 08 45 be ca 8c 18 3e 8f 1e 25 be
       0.30946073 -0.19241577 0.14897457 -0.16124938
000200 23 11 03 bd 38 1d 86 3d f2 af 19 be e5 1e b7 bd
       -0.031998765 0.06548542 -0.15008524 -0.089414395
000210 52 a6 42 3e 65 0b 8d 3e e6 22 74 bc 1b 02 ab be
       0.19008759 0.27547756 -0.014900899 -0.33400044
000220 e7 65 7f 3c 67 ef e9 bd 3a c0 04 bb 59 49 ce 3d
       0.01558826 -0.114226155 -0.0020256178 0.10072584
000230 12 d6 21 3e e2 2f a1 be 0b 6a 63 bd 2a 1b c8 be
       0.15804318 -0.31481844 -0.055521052 -0.39083225
000240 46 da 34 3e 61 a8 ba 3d 4c e7 c9 bc 69 0e 5e bd
       0.1766139 0.09114147 -0.024646424 -0.05421296
000250 e7 95 73 bd 7f e6 c7 bd d8 51 3f be 68 7a 92 be
       -0.05946913 -0.097607605 -0.18683565 -0.28609014
000260 d8 9a ef 3d 24 da 67 be 3b af 1c bc 69 2a 79 3e
       0.11699456 -0.22641808 -0.009563263 0.24332584
000270 ae b6 b6 bc 7c 81 41 be eb 62 c6 bb 9d 3c 9e bd
       -0.022303905 -0.1889705 -0.0060542724 -0.07726405
000280 b9 a7 9e bc 32 65 ef 3c 15 47 90 be a8 72 87 3d
       -0.019367086 0.029223058 -0.2817923 0.06613666
000290 c7 e1 a7 ba f7 b8 51 bc 55 ca bd 3c 7f a3 a9 3d
       -0.0012808376 -0.012800447 0.023167768 0.082831375
0002a0 a9 80 0a bf d8 e0 ae 3d e6 db 30 3e f1 10 7f 3d
       -0.5410257 0.08538979 0.17271385 0.062272016
0002b0 e1 20 27 3e a7 b6 32 3e c4 cf 0d be fe d1 69 3d
       0.16321136 0.17452489 -0.13848788 0.05708503
0002c0 d5 6f ff 3d 76 41 ed bd 68 48 30 be 25 9b 8f 3c
       0.12472502 -0.11584751 -0.17215121 0.017530033
0002d0 32 0e 8c 3e c0 c1 59 3e c1 d6 e7 3d 9a ae 15 bd
       0.2735458 0.21265316 0.11320258 -0.036543466
0002e0 67 74 96 3e 48 36 c1 be 68 a8 6e 3e 76 49 38 be
       0.29385683 -0.37736726 0.2330643 -0.17996773
0002f0 0c 76 92 3d 20 e4 8d bd af 38 b3 be 29 7e a3 bd
       0.07151422 -0.06928277 -0.35004184 -0.079830475
000300 e4 79 8d be b7 d0 af 3d 0f a0 c6 3d d0 7f 93 3c
       -0.27632058 0.08584731 0.096984975 0.018005282
000310 f0 fb 85 be d0 f9 31 be aa 7d bd be 4d 31 03 bf
       -0.26168776 -0.17380452 -0.37009937 -0.512471
000320 8f 17 8b 3e 2b 74 53 3d 7d 69 60 bd b9 2d 05 bf
       0.2716641 0.05162446 -0.0547881 -0.5202289
000330 b0 fd 81 be 93 e8 0e 3e e8 98 af 3e d7 0d 4c 3d
       -0.2538886 0.13955908 0.34296346 0.049817886
000340 43 09 a9 bd c2 71 95 bd eb a6 ce 3d b2 42 6f bd
       -0.0825372 -0.07297088 0.10090431 -0.058413215
000350 1c a8 0d 3d 26 2c 20 bd 39 a8 00 3d 15 7b 0c 3e
       0.03458415 -0.039104603 0.03141043 0.13718827
000360 37 50 db 3d 37 cd c9 3e d4 70 f0 be aa 90 04 bf
       0.10708659 0.3941438 -0.4696108 -0.5178324
000370 a0 93 09 3e cf 89 ae 3d e0 9e 1b bf 74 81 6b bd
       0.1343522 0.08522379 -0.607893 -0.057496503
000380 0b b0 08 be 4b fc 5a 3e eb 68 40 3e 93 52 75 3d
       -0.13348405 0.21385305 0.18790023 0.059893202
000390 0f 0a 83 3d 58 a2 d3 be ed e3 c1 be 76 73 09 be
       0.06398403 -0.41334796 -0.37869206 -0.13422951
0003a0 a9 5b 69 3e cd 60 c5 be 16 4b 4f 3e f4 ae 9a 3d
       0.22788872 -0.38550416 0.20243487 0.07552901
0003b0 f6 27 f2 be 2f 04 05 3e 3e 0d 6c 3e c1 4e 3f be
       -0.47296113 0.12989877 0.23051926 -0.18682386
0003c0 43 c3 1a be ae 4d 8f bd d4 a1 35 bd 52 2e cb 3d
       -0.15113549 -0.06997238 -0.044343784 0.09920944
0003d0 40 34 14 bd 2c 7f ff 3d 2f 24 be bd 44 53 82 3e
       -0.036182642 0.12475428 -0.09284245 0.25454152
0003e0 d0 66 ed 3d df a4 16 3e a4 5d 51 bd 37 60 28 3e
       0.115918756 0.14711331 -0.051114693 0.16442953
0003f0 ff 7d 92 bd 4d 4a 39 3d 13 d2 b7 bd b9 a1 af 3d
       -0.07152938 0.045236874 -0.08975615 0.08575768

fully_connected.0.bias f4 [128]
000000 06 55 17 be c6 75 91 bd ee 61 af 3b 88 d0 29 be
       -0.14778528 -0.071025416 0.0053522503 -0.16583455
000010 f0 71 5e bb 0d 5f 85 be 1d 15 5a be ae db a5 be
       -0.0033942424 -0.2604908 -0.21297117 -0.32394165
000020 e4 da 57 be 33 26 0d be c1 a8 ce bc 7f 17 b4 bc
       -0.21079594 -0.13784103 -0.025226953 -0.02198386
000030 04 14 d4 3c d0 e8 ba be 9e f0 a4 3e 2a 43 8c be
       0.02588845 -0.36505747 0.32214826 -0.27394992
000040 2d 84 18 3d de 47 b1 3d ec db 24 bd 54 ef 46 3e
       0.037235428 0.08656286 -0.040248796 0.19427234
000050 92 01 6d be e5 4f 9f be b8 9e 35 bf e1 ac e9 bd
       -0.2314513 -0.31115642 -0.7094531 -0.11409927
000060 6c 76 7c 3c 00 74 a9 bb f3 a7 8e 3d e3 af 5a 3d
       0.015409093 -0.005171299 0.069656275 0.053390395
000070 b9 3f ab bc 7b 61 f9 bb 2f 1b 60 3d 5a 7d 8f be
       -0.020904409 -0.0076104975 0.054713424 -0.28025323
000080 3d 2d 28 be 82 d4 9a 3d 38 6f 30 be 85 a4 a2 be
       -0.16423507 0.07560064 -0.17229927 -0.31766143
000090 f1 0a 89 be d0 a0 15 bd d7 8b c4 bd b0 13 04 3c
       -0.2676616 -0.036530316 -0.09596985 0.0080613345
0000a0 63 6c dc bd 43 0e f2 bd fd a2 e1 bc 0f 63 c5 be
       -0.107628606 -0.118191265 -0.02754354 -0.38552138
0000b0 59 ba 8b 3d 50 ff 4a be 4b a8 0c 3d d0 37 8f be
       0.06822652 -0.19823956 0.034340184 -0.2797227
0000c0 d2 d9 95 bd 2a 5d 7c 3d 3b b6 0d bd 39 39 a7 3d
       -0.073169366 0.061612286 -0.034597617 0.08165211
0000d0 07 a3 38 be 77 4f 08 be 29 11 24 3e 82 a2 0b be
       -0.1803094 -0.13311563 0.16022171 -0.1363621
0000e0 5a 74 02 bc 99 50 ad bc ec 12 2c bd ef 8a e3 bd
       -0.007962311 -0.021156596 -0.042010233 -0.11110484
0000f0 40 15 35 be a4 af 6c be 6c 6e 1b 3c c9 91 2d 3e
       -0.17683887 -0.23113877 0.009486776 0.16950144
000100 3a f0 49 be 92 33 37 3d f9 76 08 3e 99 99 ec 3c
       -0.19720545 0.044726916 0.13326634 0.028881835
000110 de bb 98 bd fb f1 92 bd a2 fe 51 3e 80 17 89 3e
       -0.07457708 -0.0717506 0.20507291 0.26775742
000120 bf c8 97 3d 2f 70 09 3d 58 9c f6 be 97 38 2f be
       0.07411336 0.033554252 -0.48166156 -0.17111431
000130 c4 fb 27 3d d5 3b 11 bd c4 57 43 be f0 2d 43 be
       0.041011587 -0.03545745 -0.19076449 -0.19060493
000140 bf 3a 30 be 13 4c 18 be 25 95 2f 3d 07 0d 57 bd
       -0.1720991 -0.1487277 0.042866845 -0.05250266
000150 f8 4a 61 be f5 0a 7d 3e e3 af 0c 3d 7b db f4 3d
       -0.22001255 0.24711211 0.034347426 0.11955925
000160 0e 1f 10 be 21 e0 c0 bd 54 2e c5 be f4 d0 94 be
       -0.14074346 -0.09417749 -0.38511908 -0.2906567
000170 3b b5 6c 3d a6 2e fe bd da 20 2f 3e 64 16 a7 be
       0.057790022 -0.12411241 0.17102376 -0.3263427
000180 56 fe 7a be 15 ab 7a 3d 03 8d c2 be ca ef 3e be
       -0.24511084 0.061198313 -0.37998208 -0.1864616
000190 fd 23 07 bd 9f f1 dd bd f3 7e 53 3d db d6 34 3d
       -0.032993305 -0.10837101 0.05163474 0.044150215
0001a0 37 2a f4 3d 9d 84 f3 3d 0f 06 a8 bc f0 67 1e be
       0.11922114 0.11890528 -0.020510701 -0.15469337
0001b0 2b 54 c4 be 1e 6c 94 bd 34 89 a3 3d 45 17 25 bd
       -0.38345465 -0.07247184 0.07985154 -0.040305395
0001c0 a9 20 b5 3d 67 f5 7c be dd 9c b0 3c 00 6e 33 3d
       0.0884412 -0.24702989 0.021559173 0.043806076
0001d0 d2 bf 44 bd 97 fd 81 bd f2 7b 66 be be 0b ed bd
       -0.048034497 -0.063471965 -0.22508219 -0.11574505
0001e0 fd 09 a5 be f3 97 d6 bd c0 de ae be 2e d5 e4 bc
       -0.32234183 -0.10478201 -0.3415432 -0.027933683
0001f0 ae d6 9f be e2 2e 0a be 85 25 a1 bc 22 b3 1c be
       -0.31218475 -0.13494447 -0.019671211 -0.15302709

fully_connected.2.weight f4 [32, 128]
000000 b0 89 b2 bd 34 13 fc 3c a0 f8 62 3c 55 de c5 be
       -0.08717668 0.030770876 0.013853222 -0.38646188
000010 c7 69 74 be 61 39 76 be 74 e3 55 be 5b 25 84 3e
       -0.23868476 -0.24045326 -0.20887548 0.2580975
000020 d3 f3 11 be 7b be dc be 82 14 67 3d 5b 02 dc bd
       -0.14253168 -0.43114075 0.056416042 -0.10742637
000030 c3 a3 b3 be c8 94 ea be a3 34 1b 3d 5f f4 23 bf
       -0.35085878 -0.45816636 0.037891995 -0.64044756
000040 4f f9 75 3d 71 18 c6 3d 5f 73 08 3e 97 31 5b 3e
       0.060052212 0.096726306 0.1332526 0.21405636
000050 cd 1f f3 be 2e 5f 22 bf 6d 84 bc be 9a 8a 04 bf
       -0.474852 -0.6342648 -0.36819783 -0.5177399
000060 e5 ff a2 bd 0b 0e 5f 3c 7c c4 91 3e 3a 70 28 3d
       -0.07958964 0.013614188 0.28470218 0.041122653
000070 40 d1 27 3e a5 d1 df 3d 5e 37 cb be 29 54 5d be
       0.16388416 0.109286584 -0.3969068 -0.21614136
000080 5b 2b 1b bd 9c c7 f2 3d 82 c4 8d bd 94 a0 4f bc
       -0.037883144 0.11854479 -0.069222465 -0.012672562
000090 1c 6d 08 bd 67 12 82 3e 3c 1e 16 3e 0a cf 9e bd
       -0.03330718 0.25404665 0.14659971 -0.07754333
0000a0 a3 9b 9d be ee 79 b1 3e 34 a6 99 be a8 a7 a5 3e
       -0.30782804 0.34663337 -0.30009615 0.32354474
0000b0 19 5c e8 be 6d a4 94 bc 7e a5 03 be ba f6 ae be
       -0.45382765 -0.01814481 -0.12856099 -0.34172612
0000c0 d3 f4 bd be 56 b3 f3 3d a1 f8 c6 3d 3c 9c b2 3d
       -0.3710085 0.1189944 0.09715391 0.087212056
0000d0 49 18 fb 3d 3f 33 a7 be 84 31 43 3e 57 41 42 3d
       0.122604914 -0.32656285 0.19061857 0.047425594
0000e0 bd 24 04 3e 99 93 7e 3d 00 18 85 be e1 f5 a2 3d
       0.1290464 0.06215248 -0.25994873 0.07957054
0000f0 16 da 33 bd cc 3c 0b be 11 e6 00 3e 67 1e fd 3d
       -0.043909155 -0.13597411 0.12587763 0.123593144
000100 7f 52 2d bf ef 29 e1 be b4 cf 10 bf c4 44 3c 3e
       -0.67704004 -0.43977305 -0.5656693 0.18385607
000110 56 f2 7e be 62 ea 9e 3e dc a4 ce bc c3 bb 09 bd
       -0.24897131 0.31038195 -0.025225095 -0.03362633
000120 a2 ba 10 bf e3 f5 cf 3d 5e eb 91 3c 50 bb 46 bc
       -0.5653478 0.10154321 0.017812427 -0.01212962
000130 4a 17 19 3d 25 4d b1 bd 08 b1 e0 be 17 db 11 bf
       0.037375726 -0.08657292 -0.43885064 -0.5697493
000140 34 fc 44 3d 45 30 3a bd 8c 20 a2 be 27 33 1e bf
       0.048092082 -0.04545619 -0.31665456 -0.617968
000150 ab 39 f4 be 52 6a 84 bd 94 dc 2d 3e 15 ba 21 3e
       -0.47700247 -0.064655915 0.16978675 0.15793641
000160 22 e1 ce 3c 69 ce 33 3d 8a 2c 4f be 95 3d 8b 3d
       0.025253836 0.04389802 -0.20231834 0.06798855
000170 23 38 66 bc 8b 30 d5 bd 87 f5 0a 3e 7f d4 b7 3e
       -0.01405147 -0.104096495 0.13570224 0.3590431
000180 21 66 c6 bd d2 78 48 3e 4d 96 88 be 1c c3 fe bc
       -0.09687448 0.1957734 -0.2667717 -0.031098895
000190 0e 24 6d 3e f7 e6 94 bd a8 2d de 3d 23 28 4e bd
       0.23158285 -0.072706155 0.10848552 -0.050331246
0001a0 33 45 b4 3d d4 64 30 3e 9e 69 a9 bd c2 37 07 3e
       0.08802261 0.17225963 -0.08272098 0.13204864
0001b0 b4 80 e0 be b5 bd 30 bf 95 f7 82 3e 48 d7 0b bf
       -0.43848193 -0.6903947 0.25579515 -0.5462537
0001c0 e3 eb d2 3b e3 57 1a bd c8 2e 08 3e f1 5f fc bc
       0.0064368113 -0.03768147 0.13299096 -0.030807467
0001d0 36 3e 92 be cf fe 99 be 7d dc a7 3a a2 02 10 3e
       -0.28563088 -0.30077216 0.00128068 0.14063504
0001e0 ba 9b 05 bf 72 3c 04 bf 77 25 a9 be 53 e9 df be
       -0.52190745 -0.5165473 -0.33036396 -0.437327
0001f0 19 61 a7 bd e3 9f 5e 3d 20 34 dc bd 70 83 8e 3d
       -0.08172817 0.0543517 -0.107521296 0.069586635
000200 45 d2 21 be 68 7e 10 3e b3 28 1f 3c 0d b6 6c be
       -0.15802868 0.1411072 0.009714293 -0.23116322
000210 42 e9 7c 3e 54 d9 f5 3d 8e 6b 8e bc 23 58 88 be
       0.24698356 0.12004343 -0.01738527 -0.26629743
000220 c0 62 f4 bd 3d 9c 03 be 02 94 9a bd f0 56 8d 3e
       -0.119328976 -0.12852569 -0.075477615 0.2760539
000230 b1 7e 8d 3d f0 51 8e 3d 66 bb 42 3c 22 4a 31 3d
       0.0690893 0.06949222 0.0118855 0.04328359
000240 47 9e 03 3e 93 60 5a bd a6 d5 6c 3e 20 5a ac bd
       0.12853347 -0.053314757 0.23128375 -0.084156275
000250 b6 2c 91 3d 73 40 1b 3d f0 2f ef 3d 9f 97 cc 3c
       0.07088606 0.03790326 0.11679065 0.024974642
000260 4b 67 cb be 9f e2 e7 bc c7 59 84 3d ef 08 73 3d
       -0.39727244 -0.028306304 0.06462436 0.05933469
000270 3a 7a c8 3c 26 b0 16 3e 5b 15 61 3e 2c d4 0d bf
       0.024472345 0.14715633 0.21980803 -0.55401874
000280 8f 77 7c be 47 32 46 3c 9d 76 15 3d f4 8c b7 bd
       -0.24654983 0.012096948 0.03649007 -0.089624316
000290 e0 37 f3 bd 5e 03 d3 bd 41 8e be 3d f7 c4 60 3c
       -0.11875892 -0.103033766 0.093044765 0.013718835
0002a0 8b e9 65 3d 57 10 09 be 6a 35 08 3e 1a 5b 18 bf
       0.056130927 -0.1338514 0.13301626 -0.5951401
0002b0 32 2a 3c bd 13 0a 4d be 0c f6 ca 3d 18 f2 c0 bd
       -0.045938678 -0.20023374 0.09910211 -0.09421176
0002c0 f8 f7 94 bd 36 9e 80 3d 4e 5e 38 3c 5d d8 ad 3d
       -0.07273859 0.06280176 0.011252953 0.08488534
0002d0 21 b5 63 bc ae 0d b1 3e 16 6e a9 bc e7 9f ad bd
       -0.013898165 0.3458075 -0.020682376 -0.084777646
0002e0 82 c5 98 bc a3 25 ff bd b5 68 ba 3d b5 3d 36 bd
       -0.018648867 -0.124583505 0.091020025 -0.044492442
0002f0 af ff 2b 3e b3 b1 94 3e d7 d0 c0 3d 05 65 08 3e
       0.16796754 0.29041824 0.09414833 0.13319786
000300 3c 91 2c bb 04 51 97 bd ff 63 7a 3d d9 ab 28 3e
       -0.0026331684 -0.073884994 0.06113052 0.16471805
000310 64 67 9e bd 3d 6a db 3d e3 16 14 3e a0 54 e1 3d
       -0.07734564 0.10713623 0.14461856 0.11002469
000320 b3 fc 3f 3e aa 3b 90 bd b4 fa bf bd 04 26 2c 3e
       0.18748741 -0.0704263 -0.0937399 0.16811377
000330 6f a0 79 3d 90 7c 1a 3e 29 f6 a4 bd 05 52 b9 3e
       0.060944017 0.1508658 -0.08054764 0.36195388
000340 29 09 2c bc d0 03 02 be 2d 1d 92 3d 63 ac 43 3e
       -0.010500231 -0.12696767 0.07134471 0.19108729
000350 10 74 4e be 4a 26 48 3e 42 8e 51 3d e5 ac fc 3d
       -0.20161462 0.19545856 0.05116106 0.123376645
000360 a9 43 0c bd f5 f0 9f be da 2e 70 bd af 6a b9 be
       -0.034244213 -0.31238523 -0.05863843 -0.36214206
000370 66 c7 27 3e 35 47 0f 3e fc bd b7 3d b9 83 a3 be
       0.16384658 0.13992007 0.089717835 -0.31936434
000380 8a 6f 8f be 69 9d c8 3c 49 25 f6 3e f8 e8 ba bd
       -0.28014785 0.024489122 0.4807532 -0.091264665
000390 6f 26 11 3e 1e 67 68 3d a3 8d db bd 55 4e 24 3d
       0.14174818 0.056738965 -0.107203744 0.040113766
0003a0 99 e6 02 3e a0 9f 91 3d ff cc 94 3d e6 eb 00 bd
       0.12783279 0.07110524 0.072656624 -0.03147497
0003b0 eb d6 05 be 13 36 da bc 82 0c 22 3d 65 0a 33 bd
       -0.13070266 -0.026637113 0.03956271 -0.043711085
0003c0 62 4d 80 bc d8 8b 31 3e 6a ed ba 3e 92 90 f3 3b
       -0.015661899 0.17338502 0.36509258 0.0074330056
0003d0 2f 57 a7 3e f9 cd 21 3e a0 90 21 3d 51 8e 0a 3d
       0.32683703 0.15801229 0.039444566 0.03382713
0003e0 45 fa 10 be f6 f6 0a 3a 09 2f 26 bf f4 0e a1 3d
       -0.1415797 0.0005301082 -0.6491552 0.0786418
0003f0 d7 25 d6 bd 5e d3 a9 3d bd 4d 8e 3c bb 50 47 3e
       -0.10456436 0.08292268 0.017371053 0.1946439

fully_connected.2.bias f4 [32]
000000 45 dc 9c 3e 9d 3b 71 bd a9 ec 7f 3e fc 98 b9 bc
       0.30636802 -0.058894742 0.24992622 -0.022655956
000010 ab 78 91 3e 51 5e 6c bd 07 2b ea 3e a5 08 75 3d
       0.28412375 -0.057707135 0.45735952 0.059822697
000020 a1 25 a5 3e 75 f0 9e 3c e5 68 37 3d 1c 44 2f bd
       0.3225527 0.019401768 0.04477777 -0.042789564
000030 c2 9c 9f 3e 94 66 3b 3d b7 de cf 3e b2 93 37 bd
       0.31174284 0.045752123 0.40599605 -0.044818588
000040 22 49 7b 3d 22 e0 2c 3c 4d 79 1a 3c 89 22 79 3e
       0.06134904 0.010551484 0.009428334 0.2432958
000050 81 4b 7c 3e 90 18 c3 3d 51 00 6f 3e c3 d0 7c bd
       0.24638177 0.09526169 0.23339964 -0.06172253
000060 48 a6 da 3e d2 69 a7 3e b7 4d 68 be ec 10 8b bb
       0.42704988 0.32697922 -0.22685896 -0.0042439606
000070 2b cc 64 be 93 4b 1e be f0 c1 41 3e 8c dc 97 3d
       -0.22343509 -0.15458517 0.18921638 0.07415113

fully_connected.4.weight f4 [1, 32]
000000 44 e1 e3 be 4f 30 2e 3e 18 db dc be 2e 46 d1 3d
       -0.44507802 0.17010616 -0.43135905 0.10218464
000010 05 54 88 bf 75 21 37 3c 75 2f de be 99 39 28 3f
       -1.0650641 0.01117741 -0.43395582 0.6571289
000020 09 d0 d1 be 09 84 62 3e b0 98 9f 3e e7 d7 57 3e
       -0.4097903 0.2212068 0.3117118 0.21078454
000030 9a 01 41 bf ab 66 50 3e 24 e5 2d bf 0b 09 86 3e
       -0.7539307 0.20351665 -0.67927766 0.26178774
000040 b9 2f ae 3e b0 2d 88 3e f5 4f 95 3f f8 66 76 3f
       0.34020784 0.26597357 1.1665026 0.9625087
000050 79 62 c2 3f 58 d6 36 3e d3 f8 0b bf e4 67 18 3f
       1.5186301 0.17855203 -0.5467655 0.59533525
000060 2c d1 07 bf 90 28 6f bf 9d 31 3b 3f 18 5e ee 3d
       -0.53053546 -0.9342127 0.7312258 0.11639041
000070 53 e3 48 3f a9 c6 04 bd 06 4f 6a 3f fe f4 f7 3e
       0.7847187 -0.03241602 0.9152683 0.48429102
