trained_models/classification_cnn.pth (torch, 330898 bytes, 9 tensors)

cnn.model.0.weight f4 [8, 2, 5, 5]
000000 9f f6 a6 bd 2a 8e 90 3e e8 72 b1 bc e6 15 10 3c
       -0.08152508 0.28233463 -0.021661237 0.0087942835
000010 f7 4c e4 3c 76 43 9f bc d4 98 dd 3d 38 d4 5d 3e
       0.027868731 -0.019441348 0.10820165 0.21662986
000020 77 f9 33 3e 55 3b 00 bd 59 50 f3 3d cf c1 52 3d
       0.17575632 -0.031306583 0.118805595 0.05145436
000030 0e 96 29 3e 27 48 be 3d 3c 38 71 3e 80 bd 0b 3d
       0.16561148 0.09291106 0.23556608 0.03411627
000040 58 e9 c6 bd a2 2f 08 3e 22 20 22 3e be 71 03 3e
       -0.097124755 0.1329942 0.1583257 0.12836358
000050 4f 47 18 3e ff 00 64 3d 26 57 ab bd 60 6d 1f bc
       0.14870952 0.055665012 -0.083662316 -0.009730667
000060 f0 07 29 3e 1b fb 72 3d 3d 17 34 bd 1e 68 77 bc
       0.16506934 0.059321504 -0.043967474 -0.015100507
000070 2d f9 7c bc 60 09 65 3e 18 26 8d bb c3 c1 e4 3d
       -0.0154402675 0.22366858 -0.0043075196 0.111697696
000080 e9 69 03 bd c2 a6 7c 3e 51 61 95 3c 46 a5 c3 3d
       -0.032083426 0.24672988 0.01823488 0.09553008
000090 97 34 30 3e a4 f3 1f 3d dd a5 82 bd ea ce bb 3d
       0.17207561 0.039050713 -0.06379292 0.09170325
0000a0 8d 97 52 bd f8 72 0e bc 66 06 96 3c 72 56 8f bd
       -0.05141406 -0.008694403 0.018313598 -0.0699891
0000b0 4d 3b 85 3d 8f e9 73 3e a0 f4 79 bd 87 37 5a 3d
       0.06505451 0.23819564 -0.06102431 0.05327561
0000c0 b8 32 d6 3d 8b e0 73 3d 15 e5 fa 3d 46 cb 0f be
       0.104588926 0.059540313 0.12250725 -0.14042386
0000d0 fd a3 3f be 57 a3 0b be 66 ec bb 3c 65 22 87 be
       -0.187149 -0.13636528 0.022939872 -0.26393428
0000e0 39 aa 01 be 92 30 2d be 39 f7 91 be b9 3a 23 3e
       -0.12662591 -0.1691306 -0.28508928 0.1594037
0000f0 70 c2 f1 bd 45 7a 53 3e db 3f a8 3d 7d e0 a3 be
       -0.11804664 0.20652111 0.082153045 -0.32007208
000100 e2 e0 6e be 0b 03 ea ba e5 1a 31 3e 51 be a7 be
       -0.23327973 -0.001785369 0.17295416 -0.32762387
000110 ee 8a 1c be eb e0 06 be 52 10 5b be 0b 7b bc be
       -0.15287372 -0.13171737 -0.21392944 -0.36812624
000120 86 83 9d 3d 4c d3 85 3e c7 59 10 be 49 de 9d 3d
       0.07691102 0.2613777 -0.14096747 0.07708413
000130 8c 51 95 bd 8d e0 dc bc b6 5e ab 3c 0c 44 94 3e
       -0.072909445 -0.026962543 0.020919185 0.28958166
000140 6d 39 8b 3d 93 76 67 3e 69 62 37 bd b8 b7 01 3d
       0.067980625 0.22603826 -0.044771586 0.03166935
000150 8d 4a 25 bb 00 b3 1b 3e 32 a3 44 be a2 a5 b5 be
       -0.0025221438 0.15205002 -0.19202879 -0.3547793
000160 75 9f 8b 3c e6 99 1b bd 25 5b 14 be 97 86 07 3b
       0.017043808 -0.037988566 -0.14487894 0.0020679587
000170 6e a8 5f 3e 75 dc 30 bc 2f da e8 bd 44 76 ce bd
       0.21841595 -0.010794749 -0.1136974 -0.10081151
000180 2a 3d 03 3e d5 f4 b9 3d c2 70 77 be 13 63 d5 3d
       0.12816301 0.09079901 -0.24164107 0.104192875
000190 08 95 8c bc 91 39 5c bd 0e f7 8a bd 91 1c d8 3d
       -0.017160907 -0.053765837 -0.06785403 0.105523236
0001a0 a0 0b 8f bd 91 9a 1b bc 48 1f 54 3d 54 05 bb 3c
       -0.06984639 -0.009497301 0.051787645 0.02282969
0001b0 84 a1 66 bd d9 e4 a9 3d 5a 29 c2 3d d2 de f0 3c
       -0.056306377 0.08295602 0.094805434 0.029403124
0001c0 0b 25 40 bc 52 61 b4 3c 79 ba 4f 3e f7 7c d9 3d
       -0.011727582 0.022019062 0.20285977 0.10619538
0001d0 c7 ef 54 3c 20 a3 82 bd df bd b5 bd 15 b5 72 3d
       0.0129966205 -0.0637877 -0.08874106 0.059254725
0001e0 62 15 e8 3d 21 d9 09 be f2 16 84 be e1 74 6f bd
       0.113322034 -0.13461734 -0.25798756 -0.058461074
0001f0 72 9c e5 3d 8a ba 88 be 48 a7 0a 3e 95 e8 6c 3e
       0.1121148 -0.26704818 0.13540375 0.23135598
000200 01 18 1d be 13 41 e2 be 12 d0 76 bd 2d 8f 53 3e
       -0.15341188 -0.44190273 -0.060257025 0.20660086
000210 82 a3 11 bb a8 2b 6a be 02 b5 c2 be aa 8d ef 3d
       -0.0022222702 -0.22868216 -0.38028723 0.11696942
000220 8d ee 1e 3e 76 41 ce bd e2 7b a5 be 52 a0 c3 be
       0.15520687 -0.100710794 -0.32321078 -0.38208252
000230 c9 c9 09 3e 26 8f 0f 3e 3d 57 ba bd f6 1d 3f be
       0.13455881 0.1401945 -0.09098671 -0.18663773
000240 ed 4c a2 be 74 6c 3b 3e 05 4e 11 3e 04 06 0c 3d
       -0.31699315 0.1830309 0.14189918 0.034185424
000250 7d 9f 74 be 1a c5 ef be d5 0b 6d bc 9c 1a 80 bc
       -0.23888965 -0.46830064 -0.014468153 -0.015637688
000260 e5 b3 43 be 51 04 92 bb f0 88 b7 3c ad 6f cc bb
       -0.19111593 -0.004456081 0.022404164 -0.0062388987
000270 87 06 86 3d 89 7a cb bd d6 62 26 3e 73 0d 30 3c
       0.06544214 -0.09935481 0.1624864 0.010745394
000280 be 77 c9 3d d6 c3 34 3d f5 d3 b6 bd cd a6 7b bd
       0.09837292 0.044132076 -0.08927146 -0.06143837
000290 f8 a6 29 be d4 6e 13 be 3c be 22 3d 3d 74 67 bd
       -0.165676 -0.14397746 0.039732203 -0.056507338
0002a0 1a a7 e6 bd 51 ce f6 3d 45 c3 5a 3d fa a1 c3 3d
       -0.11262341 0.120510705 0.05340888 0.09552379
0002b0 70 3d 4f be bb 55 83 3d 46 2d 0b bc ea a7 68 3c
       -0.2023828 0.06412836 -0.008494681 0.01420019
0002c0 13 79 91 3b 78 ce b3 bd b3 d7 0b be 07 a9 1e 3e
       0.004439482 -0.08779615 -0.13656501 0.15494166
0002d0 cc f1 54 bd ec 87 13 3e 3c 8e eb 3c d2 82 27 be
       -0.051988408 0.14407319 0.028754346 -0.16358498
0002e0 89 7d 5f be 9e 4f 24 bd d8 c5 29 3e a3 b2 02 3e
       -0.21825232 -0.04011499 0.16579378 0.12763457
0002f0 21 49 2b be 8e b1 ac 3c a4 91 d9 bd 33 7b a4 bd
       -0.16727115 0.021080758 -0.10623482 -0.08031311
000300 9e 46 2c 3e 2b 3d 9f 3e f3 cb ae 3e b9 f3 0e be
       0.16823813 0.31101355 0.34139976 -0.1396016
000310 f8 cf 33 bc 8d 93 44 3e da 36 c9 3e 62 49 04 3e
       -0.010974877 0.19196911 0.3929966 0.12918618
000320 37 c1 4d 3e 0e a4 1f 3d f0 52 67 3e eb fa 80 3e
       0.20093237 0.038974814 0.22590232 0.25191435
000330 83 02 3e 3a cd 70 95 be 1e 89 0d be 54 27 df 3d
       0.0007248299 -0.29187623 -0.13821837 0.10896173
000340 84 34 98 3e 71 4f 8b 3d c7 8c b2 be fe 5c b8 be
       0.29727566 0.068022616 -0.3487303 -0.36008447
000350 82 28 82 be f5 b8 2c 3e 68 be 42 3e 1a 81 37 be
       -0.2542153 0.1686743 0.19017947 -0.17920342
000360 6b ba c8 be 17 39 c4 be 5b ea 24 3e dc 5f 01 3e
       -0.39204726 -0.38324806 0.16105025 0.12634224
000370 11 ca 48 be 60 20 df be ea 73 74 be 1e fc 6f 3e
       -0.19608332 -0.43579388 -0.23872343 0.23436019
000380 a5 3c 92 bd cf 7b ea 3c 95 c3 95 3d df 67 0c 3e
       -0.07140473 0.02862349 0.07312695 0.13711499
000390 75 48 09 be 4c a6 b9 bd f4 7a 04 be e7 2d c8 3c
       -0.13406546 -0.09064922 -0.12937528 0.02443595
0003a0 19 a1 32 3e 59 f4 8c 3d 70 75 e2 bd 9c d1 8c be
       0.17444266 0.06882543 -0.11057556 -0.2750367
0003b0 c0 da 29 3d ee 77 54 3e 30 b2 a1 3d f4 85 47 be
       0.041468382 0.20748875 0.07895315 -0.19484693
0003c0 f8 04 82 be 18 e0 8c 3d b7 81 5b 3e 58 ed 4b bc
       -0.25394416 0.0687868 0.21436201 -0.012446724
0003d0 de d2 71 3d d1 40 95 be f1 d2 35 3d be 6a 96 3d
       0.05903899 -0.29151013 0.044390623 0.07344578
0003e0 de 91 ad bd 7d bd 1d 3d ee 21 09 be 5c 74 97 3c
       -0.084750876 0.03851079 -0.1339185 0.018488102
0003f0 c1 1a 61 3d 1f e0 cd bd 36 6c 02 3e e6 ca 50 be
       0.054957155 -0.10052513 0.12736592 -0.203899

cnn.model.0.bias f4 [8]
000000 bc 7f 1d 3d 8b 72 66 be c7 80 5f be 35 f2 84 3c
       0.038451895 -0.22504632 -0.21826468 0.016228775
000010 7b 10 66 be ad 20 5a be 02 2a 5b be 44 5d 2f be
       -0.22467224 -0.21301527 -0.21402743 -0.17125422

cnn.model.3.weight f4 [16, 8, 5, 5]
000000 2d cb 92 bc 2e fb 6b be 81 da e0 be 45 94 ad be
       -0.017919147 -0.23045036 -0.43916705 -0.33902183
000010 7e 6c c2 be 32 3e 4e bd b1 47 48 be 44 31 17 bf
       -0.37973398 -0.050352283 -0.19558598 -0.5905955
000020 ca e9 ff be 44 c0 53 bf ee f1 ed bc bb 40 d6 3c
       -0.49983054 -0.8271525 -0.029046025 0.026153913
000030 42 56 38 be 89 78 df be a1 6b ea bc 36 ef 0b be
       -0.18001655 -0.4364665 -0.028615775 -0.1366547
000040 0a 4f 76 3d 6b 47 9c bc 00 9e 03 bf e2 a1 3a be
       0.06013397 -0.019077023 -0.51412964 -0.18225816
000050 bb 25 a5 be 2e 3b 32 be 5e f9 8f bc 72 40 7f bd
       -0.3225535 -0.17405388 -0.017574962 -0.06231732
000060 46 bd 3e be d0 00 9b 3c 3f 17 ec bc 77 c9 ed bd
       -0.1862689 0.018921286 -0.028819678 -0.11610692
000070 d8 7a 6e bd 8c e5 14 3e 01 74 92 bd f3 6b 90 3d
       -0.05822262 0.1454069 -0.07151032 0.0705184
000080 b6 be 40 3e 9f 3f 5f be b7 0b be 3e af 5e 0c 3e
       0.1882275 -0.21801613 0.37118313 0.13707994
000090 0c 40 b4 be 20 11 9e bd 00 42 83 bd 01 86 cd bd
       -0.35205114 -0.0771811 -0.06409073 -0.10035325
0000a0 a0 31 e8 3d 53 ae b9 bd ef 93 32 3d bc e6 70 3e
       0.1133759 -0.09066453 0.04359811 0.23525518
0000b0 75 ed 05 be f3 37 f1 3c ce b8 d3 3d 90 20 57 be
       -0.13078864 0.029445624 0.10337983 -0.21008515
0000c0 4f fa 08 be d5 3b 23 bd eb 2e b2 bc 1b 16 1d 3e
       -0.13376735 -0.039851982 -0.021750888 0.15340464
0000d0 d3 63 d4 bc 0f 01 c4 bd 18 05 29 3e 31 5e b5 bd
       -0.025926506 -0.095705144 0.1650585 -0.08855856
0000e0 74 4e e9 bd 70 79 a8 3d 5f f8 4c be ab e1 2c 3e
       -0.11391917 0.08226287 -0.20016621 0.1688296
0000f0 4b 90 01 3d 5d 16 56 bd 0a 81 18 be f4 2a fe 3d
       0.03163175 -0.05226742 -0.14892974 0.124105364
000100 8c 50 01 bd 5c 9c 5e 3d 63 2b 47 bd d5 71 9f be
       -0.031570956 0.054348335 -0.04862536 -0.31141534
000110 0c 87 27 3d 17 dc 6f 3e 8a f5 99 3c 69 73 39 be
       0.040900275 0.23423801 0.01879384 -0.18110432
000120 dd 00 8a bd 38 57 00 be bf 70 ae bc 56 e4 86 3d
       -0.06738446 -0.12533271 -0.021293996 0.065865204
000130 f7 18 e3 bd 87 f5 57 be 1f 76 90 be 73 13 05 3e
       -0.11088746 -0.21089755 -0.2821512 0.129957
000140 5e 69 05 bd 2c b7 a1 3c db c5 be be 70 29 5e be
       -0.03257119 0.019740663 -0.37260327 -0.21695495
000150 1d 04 02 3e 73 e9 57 bd 74 e9 7d 3d 01 e5 8c 3d
       0.12696882 -0.05271287 0.061990216 0.068796165
000160 4f 49 86 3d f9 ae d5 bd db 5d e9 bd aa b1 a4 3d
       0.06556951 -0.10433764 -0.11394855 0.08041699
000170 0a ca 78 3e a7 8f 5f 3c 5c 75 86 3d 27 84 0d 3e
       0.24295822 0.013645089 0.06565353 0.13819943
000180 2b 1e 20 be 3c 45 0b bd 78 55 f1 3c e5 22 1a 3d
       -0.15636508 -0.034001574 0.0294597 0.037630934
000190 a3 c9 8e bd 64 dc 8d 3d c3 82 10 3e f4 f7 d0 3e
       -0.06972053 0.06926802 0.14112382 0.40814173
0001a0 a8 57 ed 3d 8b 37 5e bd 71 de 18 3e 46 b3 09 be
       0.11588985 -0.05425219 0.14928605 -0.13447294
0001b0 55 be 6c be 41 30 c6 3e 4b ed 83 bc 69 33 8c 3e
       -0.23119481 0.3870869 -0.016104361 0.27382973
0001c0 58 e8 8b 3d c0 13 10 be 45 6b c9 3e a4 86 9a 3d
       0.068314254 -0.14070034 0.39339653 0.07545212
0001d0 a9 51 81 3e 2a 49 69 3e 84 38 ee 3c e8 67 9d 3e
       0.25257614 0.22781816 0.029079683 0.30743337
0001e0 7e 52 c6 3e 83 0c 0a 3e 3c c4 1d 3d b0 d2 67 be
       0.38734812 0.13481335 0.03851722 -0.22638965
0001f0 21 85 60 bd 31 44 aa 3d 77 6b c2 3b c3 62 98 3d
       -0.05481446 0.08313788 0.005933221 0.07440712
000200 58 bf cc be 5a cf ed 3d b4 90 66 3c 24 45 e1 be
       -0.39989734 0.11611815 0.014072586 -0.43998063
000210 8a ff cc 3e 89 a9 1d bd a4 64 a4 bd 7b 99 dc bd
       0.4003871 -0.03849176 -0.08027008 -0.107714616
000220 21 4d 0f bc ad b5 81 3e 56 f1 84 3e 1e 0f 08 3d
       -0.008746416 0.2533392 0.25965375 0.033217542
000230 c1 ed 9a be fe 95 10 3e 7d 3f 9c 3d 89 b6 ae 3d
       -0.30259517 0.14119717 0.07629297 0.085309096
000240 76 1a 8f 3e 9e af 92 3a ed 3a b7 bd db 15 57 be
       0.27949876 0.0011191254 -0.08946786 -0.21004431
000250 1f fe a1 be 1a d8 e7 3c 20 67 8f bd 4b 50 d3 3d
       -0.31639192 0.028301287 -0.070020914 0.10318049
000260 b9 10 c3 3e 2c 7f 17 3e c6 4d 8a 3e 70 1f e5 be
       0.38098696 0.14794606 0.2701246 -0.44750547
000270 02 ea 1a be 5d 1b d3 3c c9 ff 14 3c 6f 07 b8 3e
       -0.1512833 0.025769884 0.009094187 0.3594317
000280 30 ac 5c 3e 07 2f 1d 3e 23 0f 19 3e e8 50 6d 3d
       0.2155006 0.15349971 0.1494718 0.057938486
000290 a7 2f 6f 3e f7 bf 45 3e 10 6a 57 3d 24 5d 48 3e
       0.23358022 0.1931151 0.052591383 0.1956678
0002a0 ce eb 35 3e cd 99 be 3e 02 d0 02 3e b4 54 14 3e
       0.17765734 0.37226716 0.12774661 0.14485437
0002b0 22 60 e8 3d 5c 36 10 be a6 3c 4b 3e 13 ed 35 3d
       0.11346461 -0.14083236 0.19847354 0.044415545
0002c0 4d 64 42 3d 39 95 3f 3e 7f 63 32 3e 23 94 f4 3d
       0.047458936 0.18709268 0.17420767 0.11942317
0002d0 be 5c 01 bc 30 a4 1e bd 63 3c 04 be 41 1f 60 be
       -0.007895647 -0.0387308 -0.1291366 -0.21886922
0002e0 e8 a4 28 3c 9c fd 93 bd ba 85 1c 3d 62 c2 47 bd
       0.010293223 -0.072261065 0.03821347 -0.048769362
0002f0 0e 5f 1f 3e 92 b6 4a 3e 62 cf f4 3a f9 6c 75 3d
       0.15563604 0.19796208 0.0018677528 0.059918378
000300 94 e6 0e be 7c 1b 2a be 73 75 ca 3d 4f 65 86 3d
       -0.13955146 -0.16612047 0.09885683 0.06562292
000310 48 fd 06 be 67 45 85 bc d4 a8 96 3c a5 5e a5 bd
       -0.13182557 -0.016268445 0.01839105 -0.08074693
000320 a0 ab ba 3d 73 ad 3a be d6 1d b1 bd 85 a0 c0 be
       0.09114766 -0.18230228 -0.08648269 -0.37622467
000330 f7 82 bd be a9 ac 0b be 2f 7c 32 be f3 ce 13 bf
       -0.3701398 -0.13640083 -0.17430185 -0.57737654
000340 ff 35 c5 be 46 e6 fe bd 6a e1 cb be 89 c6 df be
       -0.38517758 -0.12446265 -0.39820415 -0.43706158
000350 a9 ad 78 be fe aa 1b be cc 77 4c 3e 65 31 83 bc
       -0.24284996 -0.15201947 0.19967574 -0.016014764
000360 f5 e8 32 bd aa a4 5b bd c9 0f 5f 3d 76 84 6b 3d
       -0.043679196 -0.053623833 0.054458413 0.05749937
000370 70 14 94 3d 3e 01 da bd 94 0c 02 be 83 d8 02 be
       0.07230461 -0.10644768 -0.1270011 -0.12777905
000380 54 a8 1a be d8 69 9b bd ac 0f 71 bc 8d 0c 04 3d
       -0.15103275 -0.075885475 -0.014713209 0.03223853
000390 41 59 35 bd 25 d3 e0 bd d1 6a 95 3d 1e 07 32 3d
       -0.044274572 -0.109777726 0.07295764 0.04346382
0003a0 47 27 f0 3d 61 7b b2 3c fd 93 24 3d 5b 4e 6e be
       0.117262416 0.021787347 0.040180195 -0.23272078
0003b0 3b 2c 2e 3d fb e3 b1 3d 05 fb b8 3d 7c dc 7f 3d
       0.04252265 0.08686062 0.09032253 0.06246613
0003c0 4c 1c 20 be cb 01 fb bb 58 b2 7c 3e a6 76 84 bd
       -0.15635794 -0.007660126 0.24677408 -0.06467943
0003d0 af 31 9d 3d be c6 31 3d dd d3 15 be a4 f6 0a be
       0.07675492 0.043402426 -0.146316 -0.13570648
0003e0 92 41 23 be c2 c7 b1 be f2 e5 36 3e e0 f4 97 3e
       -0.15942982 -0.34722716 0.17861155 0.29679012
0003f0 79 06 a8 3e 58 db 00 3e 4e 43 fe 3d 0a 56 2e 3e
       0.32817438 0.12583673 0.12415181 0.17025009

cnn.model.3.bias f4 [16]
000000 e5 89 2a bd a8 f6 9e bc fc 18 0e be ca 50 0e be
       -0.041635413 -0.019404724 -0.13876718 -0.13898006
000010 18 00 b3 bc 37 ad e0 bd 98 34 de bd bd f2 c4 be
       -0.02185063 -0.10970538 -0.10849875 -0.38466445
000020 68 65 97 bd de 6f eb 3c e8 00 3b be 8c 89 7a bd
       -0.073923886 0.028739866 -0.18262064 -0.06116633
000030 91 21 11 be a6 28 13 bd 2d 55 69 be fe 43 f9 bd
       -0.14172961 -0.035927437 -0.22786398 -0.121711716

fully_connected.0.weight f4 [128, 576]
000000 e6 ad 8f 3c 18 e7 0d 3e f3 dc ea 3d ac 14 05 3e
       0.017538976 0.13857687 0.11467924 0.12996167
000010 be b0 31 3e 9e b9 56 3e d6 25 03 bc e7 28 19 3e
       0.17352578 0.20969245 -0.008004626 0.1495701
000020 e3 5e 27 3d c8 06 f7 bc c7 c1 90 bc 70 fd 23 3e
       0.040861975 -0.0301546 -0.017670525 0.16014647
000030 87 07 c4 3d 68 e0 5b bd 47 d6 88 bc 7c cc a9 bd
       0.09571748 -0.053680807 -0.016703738 -0.082909554
000040 bf 8a 93 bd 12 44 b9 3d 2a 96 1d bc 45 32 92 3c
       -0.07204198 0.090461865 -0.009618321 0.017846236
000050 89 53 a4 be 0a 31 1d 3c ee 31 05 be f6 a7 32 3d
       -0.32094982 0.009594211 -0.13007328 0.04361721
000060 e7 1f 25 3d 60 77 3f 3e 0c 6b 61 3d ec 1f c3 bd
       0.040313628 0.18697882 0.05503373 -0.09527573
000070 e0 3a 12 3d f9 a6 f1 3d c0 88 36 3e 8f 43 cb 3d
       0.03570068 0.11799426 0.17825603 0.09924995
000080 82 43 9e 3d c1 a9 a4 3c 25 38 03 be ae 4a 94 3d
       0.0772772 0.020100476 -0.12814386 0.072408065
000090 c3 48 2a 3e c9 00 c1 3e 14 f4 de 3d 80 c8 8b 3e
       0.16629319 0.37695912 0.10886398 0.27301407
0000a0 80 e5 c5 3d 17 97 09 bc 6d 53 fe 3d ef 58 0d 3e
       0.09662914 -0.008397839 0.12418256 0.13803457
0000b0 d2 44 2b 3e ca 4d 85 bd 08 a4 43 3e ed a8 00 3e
       0.16725472 -0.06508978 0.19105542 0.1256444
0000c0 73 2d 20 3d 7e 81 4d 3e 65 37 49 3d 68 6b 35 3e
       0.039105844 0.20068929 0.049125094 0.17716753
0000d0 84 09 b3 3d 52 05 99 3e 7d 1f 5e 3e c9 ea 00 be
       0.08742049 0.29886872 0.216917 -0.12589563
0000e0 0a 8e cf 3c f4 c9 e0 bd 09 51 ef 3c 5b dd e7 3d
       0.025336284 -0.109760195 0.029213445 0.11321517
0000f0 e8 d6 f6 3d b5 2d 62 3d 98 61 00 3e 2e f7 89 3d
       0.12052709 0.05521937 0.12537229 0.06736599
000100 1d 30 cd 3d cd 2c 92 bd 17 13 aa 3d 10 c5 c0 bd
       0.100189425 -0.07137451 0.08304422 -0.09412587
000110 a3 bf ff 3d 7f 7e ee 3d b1 4b 62 3c 96 35 fd 39
       0.12487724 0.11645221 0.013811992 0.00048295845
000120 22 9d 17 3e 4f 62 e6 3d 6a ac d1 3e 42 7a 84 3e
       0.14806035 0.112492196 0.40951854 0.25874525
000130 9f 18 65 bd 2d 9f 4d 3c 06 30 97 3e 24 f5 be 3d
       -0.055931684 0.0125501575 0.29528826 0.093241006
000140 ce e6 07 be 72 b8 77 be 13 35 3e 3d f8 69 dd 3c
       -0.13271639 -0.24191454 0.046437334 0.027028069
000150 cb 70 4b 3e b0 37 99 3e c8 38 ba 3d df 65 e7 3d
       0.19867246 0.299253 0.090928614 0.11298727
000160 37 0a 42 3e 04 47 ad 3c e2 49 41 3e 4e ad 8f 3d
       0.18949209 0.021152027 0.1887584 0.07015477
000170 0d 55 d7 bd d0 f9 86 3d 26 94 20 3e d1 18 3e 3e
       -0.10514269 0.06590617 0.15681514 0.18564154
000180 c2 aa bd bd 4c 04 82 bd 2e 15 a7 bc dd e7 97 bd
       -0.09261085 -0.06348476 -0.020395841 -0.07417271
000190 63 ef a3 3e 05 95 d6 3c 0f 17 c4 bd b1 ef d3 3d
       0.32018575 0.026194105 -0.095747106 0.10348452
0001a0 b9 3a 35 bd 40 fa bb 3c 63 a0 d5 bd dc 52 87 3e
       -0.044245455 0.022946477 -0.10430982 0.26430404
0001b0 61 be 1e be 93 a8 37 3e 84 9d 17 be 42 82 50 be
       -0.15502311 0.179354 -0.14806181 -0.2036219
0001c0 66 45 08 3d 19 19 31 3d 18 77 9c ba 2d 01 af bd
       0.03326931 0.043236826 -0.0011937348 -0.08545146
0001d0 f8 60 e8 bd 71 a1 29 bd 94 ad 3e bd c5 99 43 bd
       -0.1134662 -0.04141373 -0.046552256 -0.047754068
0001e0 16 a2 75 3d 5d da d2 3d e3 c9 3d be 7b 1b f3 bc
       0.05996903 0.10295556 -0.18534045 -0.02967619
0001f0 3a 03 e5 bd 34 29 fc 3d 22 63 04 3e 8a c5 36 3e
       -0.11182256 0.12312546 0.12928441 0.17848793
000200 8e bb c8 bd 6b f3 ae 3c 4d 81 37 be e5 52 90 3d
       -0.09801398 0.021356305 -0.17920418 0.07047061
000210 35 8c 6c 3e 96 59 d4 bd 82 6e 90 bd 16 5d aa 3c
       0.2310036 -0.1036865 -0.07052328 0.02079634
000220 c9 56 d6 3d 90 67 e9 bd 3f 8c 1e bd 8b 12 8a bd
       0.10465772 -0.11396706 -0.038707968 -0.06741818
000230 a8 82 f8 3d 16 6b d5 bd ff b0 02 3e 09 86 60 be
       0.12134296 -0.10420816 0.12762831 -0.2192613
000240 2e c8 95 3c c7 d6 1c 3e 03 44 8a 3d bd 6c 42 3d
       0.01828393 0.15316306 0.067512535 0.047466982
000250 30 98 d0 3d b2 ab 57 3c 66 2d 63 3e f6 fd 33 3d
       0.101852775 0.013163494 0.22185287 0.043943368
000260 a6 8c 5b be 05 ff 11 bd af 86 b8 3d 97 31 99 bd
       -0.21440372 -0.035643596 0.09010064 -0.07480162
000270 04 bc 35 3e de ce 41 3d 90 d6 86 bc 2b a0 d0 3d
       0.17747504 0.047316425 -0.016459733 0.101867996
000280 0b 54 dd 3d dd d9 b8 bd 73 03 c6 3b 68 18 e5 3d
       0.108070455 -0.09025929 0.0060428916 0.11186296
000290 04 32 13 3c 31 b8 a8 3d 5d 29 23 be 68 91 16 bd
       0.008984093 0.08238257 -0.15933748 -0.036759764
0002a0 15 60 24 be fd 42 4e 3d 88 fa 14 3e 4a 04 16 bc
       -0.16052277 0.050356854 0.14548695 -0.009156296
0002b0 51 ba 4a 3c 74 a4 4a be 4b 67 fb 3d 29 a1 b2 3d
       0.012373523 -0.19789296 0.12275561 0.08722145
0002c0 4a 4d 9a bd 6e b9 74 3d d4 36 a2 bd c9 51 ba 3d
       -0.07534273 0.059747152 -0.07920614 0.090976305
0002d0 fd 31 92 bc 7f 4c 59 3e 89 3b 88 bc 60 f5 a1 be
       -0.017846102 0.21220587 -0.016629951 -0.3163252
0002e0 d2 02 6b bd ae e9 43 bd d5 ad 96 bd fe 69 41 bd
       -0.057375737 -0.047830276 -0.073573746 -0.047220223
0002f0 bf 70 f5 3c 68 49 85 3d b4 0d 62 bd 62 f9 e1 3d
       0.029960988 0.06508142 -0.05518885 0.11033894
000300 d0 15 08 3c 95 22 3d 3c e7 ee 00 be 33 03 0e be
       0.008305982 0.0115438895 -0.12591134 -0.13868408
000310 d2 9e ce bd eb 39 99 3d e9 37 86 3d f6 c8 b8 3b
       -0.10088886 0.0748175 0.06553633 0.005639191
000320 94 bf 7a 3d 21 40 0e 3d 15 82 06 be 02 d9 5b be
       0.06121786 0.034729127 -0.1313556 -0.214695
000330 b5 4f 29 3e 6a 8d 8a 3d 01 4e 1a bd 8c 7d 35 3d
       0.16534312 0.06765254 -0.037672047 0.044309184
000340 8a 25 0c bd 37 7f 26 3b 8d fd 48 3e ce 18 5a be
       -0.034215488 0.0025405416 0.19627972 -0.21298525
000350 7f ac f0 3d f3 b8 d2 3d 90 c9 46 3e b4 96 c6 3d
       0.11751651 0.102891825 0.19412827 0.09696713
000360 1a 35 ef ba 2f de a3 bd 5a fa 88 3d 12 fc 00 3d
       -0.0018250078 -0.080013625 0.06688376 0.031490393
000370 77 2c 71 bc 0c 23 ea 3c 5c e2 db 3e 76 3d bb bd
       -0.014720074 0.028581165 0.42946136 -0.09142582
000380 df f4 37 3e de 96 9f 3a d7 15 41 b8 20 3b cf 3c
       0.17964505 0.0012175699 -4.6035126e-05 0.025296748
000390 73 14 f4 3d 5d e7 43 3e 86 af c2 ba 5d 3c 54 bd
       0.11917963 0.19131227 -0.0014853335 -0.05181538
0003a0 74 7a 70 bd 29 fa 80 bd bf b0 eb bc d5 df 65 be
       -0.05871053 -0.06297714 -0.028770803 -0.22448666
0003b0 82 c4 34 be 30 dc 89 bb c3 cb c5 bc 4b d0 97 bd
       -0.17653087 -0.0042071566 -0.024145013 -0.074127756
0003c0 44 3e 05 3d ab 83 f7 bd c7 20 88 3c a8 f9 00 3e
       0.032530084 -0.120856605 0.016617192 0.12595236
0003d0 7b c7 09 be 97 ba ea bd 95 5b 51 be c2 20 ad 3d
       -0.13455002 -0.114613704 -0.20445092 0.08453514
0003e0 4e 64 92 bd 64 8f 23 3e b1 03 b4 3e 5e 2b 1d be
       -0.07148038 0.15972668 0.35159066 -0.15348575
0003f0 1d 31 dd be 32 23 e1 be 6b ec 12 be 32 db 8e be
       -0.43201533 -0.43972164 -0.14347999 -0.27901608

fully_connected.0.bias f4 [128]
000000 ab ca 05 3f bd 31 4a bd 56 8f ca be be 0b be be
       0.5226237 -0.04936384 -0.39562482 -0.37118334
000010 86 cd 82 bd 02 66 00 bd 45 ac 2e be cd f7 11 3e
       -0.06386857 -0.031347282 -0.17057903 0.14254685
000020 d6 19 8f 3c 87 53 28 3e ed dd 08 3e 9b bd 0d 3d
       0.017468374 0.16438113 0.13365908 0.03460465
000030 31 65 aa 3d ca bb f9 3e fc 65 b3 3d 38 31 2b bf
       0.08320082 0.48776084 0.08759686 -0.66871977
000040 2a d6 3d be 45 31 16 3d 84 b4 c9 3e df ca 19 3e
       -0.18538728 0.03666808 0.39395535 0.15018795
000050 fb 79 11 3d 14 8f cc bd 4b e8 df bc 14 9f 44 3e
       0.03551672 -0.099882275 -0.027332446 0.19201308
000060 6f b8 13 be 2e af 83 be a3 ea f4 3b f1 3c 8a 3d
       -0.14425825 -0.2571959 0.00747426 0.06749905
000070 72 bc 0b 3e 30 28 8f bd 2b 84 4f 3f c8 34 10 3e
       0.13646105 -0.06990087 0.8106105 0.14082634
000080 d4 12 73 3e fb e7 8e bc 72 86 93 bd f6 b7 8f 3d
       0.23737651 -0.017444601 -0.07203378 0.0701751
000090 d4 46 27 bd df c7 a0 3d c2 ec 24 3f 18 44 ff bf
       -0.04083903 0.078506224 0.64423764 -1.9942656
0000a0 82 8a c4 bc e2 fa f7 bd af e2 84 bd 9c 32 a8 be
       -0.023991827 -0.12108399 -0.06488549 -0.32851112
0000b0 bc 86 7a 3d e8 2d 6c be a5 f1 e6 3e c6 55 58 3d
       0.06116365 -0.23064387 0.45106235 0.052816175
0000c0 1a 35 11 3e fd 13 64 be 52 c6 67 bd 31 9a 6a bc
       0.14180413 -0.2227325 -0.056585617 -0.014318989
0000d0 1e bb 11 bd 6d 24 dd be e4 3a 4f 3e 9a 0f 9f 3d
       -0.03557884 -0.43191853 0.20237309 0.07766648
0000e0 8e b4 0b 3f 77 1f db bc 78 f8 ab 3d 4f a9 a3 3c
       0.5457238 -0.026748402 0.08397001 0.019978194
0000f0 de 39 f4 bd e0 6d 95 bd 67 03 67 3c a6 39 7c 3d
       -0.119251 -0.072963476 0.014099932 0.061578415
000100 8b 41 36 3e 60 f0 0b be 21 70 0b bd bc ce 27 c0
       0.1779844 -0.13665915 -0.03404248 -2.621993
000110 9b 2b d5 3d 05 e4 9e bc 02 e7 2f bc 74 49 ff 3b
       0.10408708 -0.019395838 -0.010736229 0.0077907387
000120 cb 94 dd 3d 1f fc a5 3d f8 fd 26 3d 22 96 0e 3e
       0.10819396 0.08104729 0.040769547 0.13924459
000130 4e e0 55 bf 6e a2 46 bd f5 67 9f 3e 9f 62 f6 bd
       -0.83545387 -0.04849475 0.31134 -0.12030529
000140 b3 fc 10 3e ef 4c b0 bd 64 6d 46 3f 15 77 be 3c
       0.14158897 -0.08608424 0.77510667 0.023250142
000150 23 c0 87 be 5c 97 b1 3c 78 40 6e 3e b3 c6 12 bd
       -0.26513776 0.02167862 0.2326678 -0.035834026
000160 de 8d 45 3e 11 6b 30 be f9 3c 8d be f6 78 2a bd
       0.192924 -0.17228343 -0.2758558 -0.041619264
000170 a6 57 04 bd 31 95 8b 3d eb a9 9e 3d 0c c2 0d 3f
       -0.03231015 0.068155654 0.07747253 0.5537422
000180 d4 f4 d6 3d 4e ae f0 3e 97 df 45 bd 06 b9 2e 3e
       0.10495916 0.47007984 -0.048308935 0.17062768
000190 1d 14 70 be dd aa a3 3e 59 cf 02 bd 7d d3 1d bd
       -0.23445173 0.31966296 -0.031936023 -0.03853177
0001a0 75 7b fb bd 5e 80 22 3e e5 ce 53 3d ff 21 4d 3e
       -0.12279407 0.1586928 0.051710982 0.200325
0001b0 67 26 18 be f7 ef 23 bd 9d ef a2 bc 59 7d 15 bd
       -0.148584 -0.04002377 -0.019889647 -0.036496494
0001c0 18 f7 a1 3d 62 3a 03 3d 1a 1b 54 be ea b8 8f 3c
       0.079084575 0.0320381 -0.20713463 0.017544229
0001d0 70 85 01 3e c8 30 36 be 80 a2 39 bc af 6f ef 3c
       0.12648559 -0.17792046 -0.011330247 0.02922806
0001e0 27 f3 5e bd 09 17 5f bd e4 b9 b6 3d 4b b5 af 3c
       -0.054431107 -0.054465327 0.089221746 0.021448752
0001f0 61 5a 89 3d 18 33 a5 3c 66 97 02 bd 80 6a 30 3c
       0.067066915 0.020165965 -0.031882666 0.010767579

fully_connected.2.weight f4 [32, 128]
000000 bd a3 95 bc da 44 3d be a9 c2 99 3d 2c fb 8c bd
       -0.018266553 -0.18483296 0.075078316 -0.06883845
000010 b8 bd 27 3c 68 8f b3 3c fe 6e b0 3e 34 fa 2c bd
       0.010238104 0.021918967 0.3445968 -0.0422308
000020 d6 a7 6a be f2 12 8d be d0 08 17 be 3e 05 6a 3b
       -0.22915587 -0.27553517 -0.14749455 0.003570869
000030 cf f6 5e be aa 1c 2c 3d ed 15 89 bd c4 7c db be
       -0.21773838 0.042019524 -0.06693635 -0.42868626
000040 b5 4f e5 3c d0 3e 2e bd f3 f3 32 3e 4c d8 c6 bd
       0.027992109 -0.04254037 0.17475872 -0.09709224
000050 a7 80 87 3d f9 c6 43 3e 28 6c 1c be 70 a9 02 bf
       0.06616335 0.19118871 -0.15275633 -0.5103979
000060 8e fe a4 be 6e 93 a8 be 6c 02 d6 bd e9 9c 21 bf
       -0.3222546 -0.3292498 -0.10449681 -0.6313005
000070 b2 e2 d3 bd ab 9e 01 3d 61 77 ed 3d 03 4c 42 be
       -0.10345973 0.03164546 0.11595035 -0.18974309
000080 c7 fa a7 bd 52 b1 c7 bc 8a 78 73 3d 2f 46 a1 be
       -0.08202129 -0.024376545 0.059441127 -0.31498858
000090 19 23 70 be fe b8 8f be 3b 47 01 3d 3e 97 a6 bd
       -0.23450889 -0.28070825 0.03156207 -0.08134316
0000a0 c2 c9 20 bc d8 93 5b 3e 10 92 59 be c9 97 5c 3e
       -0.009813728 0.21443117 -0.21247125 0.21542276
0000b0 39 c3 08 be b9 e2 81 3e c6 50 ea bc df c4 7d 3e
       -0.13355722 0.25368288 -0.028602969 0.24782132
0000c0 64 58 88 be b5 f4 b0 3e b8 fc c1 be b4 d9 07 bd
       -0.26629937 0.34561697 -0.37888122 -0.033166602
0000d0 63 59 8c 3e ab 6b 03 bb f5 8c 52 be 75 03 56 3d
       0.27411947 -0.0020053189 -0.20561583 0.05224939
0000e0 20 7a 9c 3d 3a f8 3f 3e 95 92 87 be b1 44 5e be
       0.07640481 0.18747035 -0.2647902 -0.21705891
0000f0 62 0d d5 3c 2c 18 26 3c 8d 17 d5 be 6f 8e b1 be
       0.026007358 0.010137599 -0.4161953 -0.3467898
000100 f8 ca 93 3d c7 2c 1f be 38 23 9e 3c e6 8e 0b bf
       0.072164476 -0.15544425 0.019303903 -0.5451492
000110 78 96 bd 3d 2d 5c ca bd 84 28 84 be ad b1 ac 3d
       0.09257215 -0.098808624 -0.2581216 0.084323265
000120 f0 76 1e be e4 b3 27 3d 49 9a ab be 31 19 40 3f
       -0.15475059 0.04094304 -0.33516148 0.7503844
000130 c8 c1 a3 be 60 81 7d bc a7 2d d8 be a5 77 16 bf
       -0.3198378 -0.01547274 -0.4222233 -0.58776313
000140 1d a9 d6 be e0 a8 a0 3d a6 7e d3 3d 86 eb fe ba
       -0.41925898 0.0784471 0.10326891 -0.0019448854
000150 a5 10 ea be 25 09 91 be 4c 5d 2f be a6 b8 70 3d
       -0.45715824 -0.2832729 -0.17125434 0.058769844
000160 84 4c 2a 3f 0a bd 01 3e 60 09 4f be 26 dd e7 3c
       0.66523004 0.12669769 -0.2021842 0.028303694
000170 ac 03 cb 3c 30 8a 0f bd 23 fd ac 3d bf e0 f2 3d
       0.024782024 -0.035043895 0.084467195 0.11859273
000180 7d e9 24 be 3d 9d d0 bd f8 49 95 3e 2a 87 a7 3e
       -0.16104694 -0.10186241 0.29157996 0.3272031
000190 e0 ca d3 3e a5 f0 63 3d 51 43 9a bc 71 27 8c 3d
       0.4136572 0.05564942 -0.018830927 0.0684346
0001a0 b1 9c 63 bb a6 31 04 3e 22 e3 67 be 75 d4 a6 be
       -0.0034730847 0.12909564 -0.22645238 -0.32583967
0001b0 db 45 bb 3e e0 38 8e bc a4 90 9a 3d 23 ab d7 bc
       0.36576733 -0.017361104 0.07547119 -0.026326722
0001c0 0c 6a b9 bc 7f 56 a1 be b0 f1 54 be 12 b8 ec be
       -0.022633575 -0.31511304 -0.20795321 -0.46234185
0001d0 0c a6 92 bd 8b 76 14 be 99 ec f7 3c 56 0d 4a be
       -0.07160577 -0.14498346 0.030264186 -0.1973165
0001e0 0a 88 57 bd f9 2a a8 3c 2e e7 a7 be 7e 12 1d be
       -0.05261997 0.020528303 -0.32793564 -0.15339085
0001f0 89 d2 7f 3c c9 dc c1 be bc 5d 5e 3e 45 b0 fe 3d
       0.01561416 -0.37863758 0.21715444 0.124359645
000200 dd 42 9c bd e5 5c d1 3b e0 42 6d bd 5e 92 fe 3d
       -0.07629941 0.0063892477 -0.057925105 0.12430261
000210 c1 09 97 3d 34 29 7b bc bd 90 32 be 68 31 e1 bd
       0.07374907 -0.015329648 -0.17438026 -0.109957516
000220 5c 6f 12 3e 16 6c 92 3d 59 32 4a 3e a5 96 16 be
       0.14300293 0.07149522 0.19745769 -0.14705904
000230 81 58 f4 3d 2f 97 2c 3d d6 83 90 3d 19 e5 84 3d
       0.11930943 0.042136367 0.07056396 0.064890094
000240 fd d9 86 bb c0 a1 c3 3c 8a 85 50 3d 30 16 7d 3e
       -0.0041153417 0.02388084 0.050908603 0.24715495
000250 10 76 f1 be 10 bd de 3e 37 c1 33 3d f1 ab 00 3e
       -0.47160387 0.43503618 0.043885436 0.1256559
000260 9f 0f 56 3e 95 ff c2 3d fa dc a2 be bf 8d 6a be
       0.20904396 0.09521405 -0.31809217 -0.22905634
000270 4a 56 3a 3e 2b a6 39 bd e8 79 d2 3c 33 e5 88 3e
       0.18196979 -0.045324486 0.025692895 0.26737365
000280 b2 9c 90 3e 51 90 ea bb ab e8 0d be a9 bf 49 3d
       0.2824455 -0.007158317 -0.13858287 0.049255047
000290 63 b7 ca 3a 23 98 a6 3e e3 78 28 3d fc c7 b4 be
       0.001546603 0.32537946 0.04113091 -0.35308826
0002a0 1d b0 96 3b 3f 19 80 3e 45 97 23 3e b5 8a da be
       0.004598631 0.2501926 0.15975673 -0.4268395
0002b0 87 4e 08 3c 16 f6 ea 3d 0d 67 08 bd 5a 49 97 ba
       0.008319504 0.114727184 -0.033301402 -0.0011542246
0002c0 ea 3d 8e be a5 20 6b 3d 5f f1 10 3e dd 4a 32 bd
       -0.27781612 0.05740418 0.14154576 -0.043528426
0002d0 fa 3c 93 be 96 65 46 3e d9 31 4c be 90 86 6a be
       -0.2875746 0.1937469 -0.1994089 -0.22902894
0002e0 98 6d 06 3d b8 8d 0a bf 13 59 09 3e 72 67 10 be
       0.03281936 -0.54122496 0.13412885 -0.14101961
0002f0 71 cd 9b be fe cb b9 bd dd cc d4 3d 00 66 37 3d
       -0.30430177 -0.090721115 0.10390637 0.04477501
000300 4e 44 e1 bc eb 5d 05 3e 29 cd 8e 3c 68 80 53 3d
       -0.02749839 0.13024108 0.017431812 0.05163613
000310 7c fa b1 be b2 6a 62 bc 9b 9d 20 be 80 62 b3 3c
       -0.34761417 -0.013819383 -0.15685122 0.021897554
000320 13 83 0a be e6 ec dd be 7f 10 05 3f b0 08 e6 be
       -0.13526563 -0.43344802 0.51978296 -0.44928503
000330 d2 ee 12 be ad c7 cb bc e0 78 3e 3e 25 66 05 3e
       -0.14348915 -0.024875486 0.18600798 0.13027246
000340 a1 2a 7b 3e 7d 3f 82 3d d9 ee a5 3d a1 ab 85 3d
       0.2452798 0.06359766 0.08102197 0.06526876
000350 37 1a 97 3e d2 f2 f0 3d e2 a7 46 bd 05 93 49 bb
       0.29512188 0.11765064 -0.04849995 -0.0030757796
000360 69 e5 64 bf 10 b7 1a be 17 11 4c be 7c ee 58 3d
       -0.8941255 -0.15108895 -0.19928394 0.05296181
000370 8e aa 97 bc 05 4f 66 bf d1 d3 fa bc cd 2d 37 bc
       -0.018513944 -0.89964324 -0.03061858 -0.011180353
000380 f7 b6 70 3d 8e f8 d2 3d 0b b7 ae be 0e 62 fc 3d
       0.05876824 0.10301314 -0.34124026 0.1232339
000390 30 87 59 bd 87 1c 85 bd d3 19 72 ba 78 c0 d7 bc
       -0.05310744 -0.06499582 -0.00092354155 -0.026336893
0003a0 91 b4 da be 89 da 0e bf 1f 53 ab 3c a4 4f a1 3d
       -0.42715886 -0.5580221 0.020913659 0.07876518
0003b0 80 7e 1b be 3f 63 4c 3d 7e dc 76 be 46 7f b6 bc
       -0.15184975 0.049899336 -0.24107549 -0.022277486
0003c0 f7 0c fc 3d e6 d7 8a 3d a6 65 49 bd ad f1 09 be
       0.1230716 0.067794606 -0.049169205 -0.13471098
0003d0 49 54 00 3f 2e 70 04 bd 5a 16 24 3d 24 e6 4f 3e
       0.5012861 -0.032333545 0.04006038 0.20302635
0003e0 c2 6f 21 bd 8b d6 78 bd d1 fd 66 bd 3f 5f 74 bd
       -0.03941322 -0.06075148 -0.056394402 -0.059661146
0003f0 73 f3 e5 3d 21 d1 c1 3e 38 b7 0c be a4 59 94 be
       0.11228075 0.37854865 -0.13741767 -0.2897464

fully_connected.2.bias f4 [32]
000000 e4 fd 0c 3f 21 93 d1 3d 66 34 d4 3e 2d 02 a9 bd
       0.55074906 0.10233141 0.41446227 -0.08252368
000010 f2 fe 29 bf a8 af 92 3c e9 f3 a2 bd 20 63 72 3d
       -0.6640464 0.017906025 -0.079566784 0.059176564
000020 bd 9c 04 3e c4 b9 04 3f af b8 22 3e ac a0 65 be
       0.12950416 0.51845956 0.15890764 -0.22424573
000030 8e ae bd bd 3b 5d 31 3f 22 bf ac be 9b a7 07 3e
       -0.09261809 0.69282883 -0.33739573 0.1324753
000040 96 55 13 3f ea 0a 80 bd 65 49 10 3e e2 b1 07 3e
       0.5755247 -0.06252082 0.14090498 0.1325145
000050 64 a8 22 3d 75 bd c8 3d 75 c3 df 3c 7d e6 82 3b
       0.03971137 0.09801761 0.02731488 0.0039947615
000060 26 d6 cc be 55 bf fc 3d 0f dd 11 3f 31 0e b7 3e
       -0.40007132 0.12341181 0.56977934 0.35753015
000070 26 75 e2 bd 59 a4 91 3d f7 a3 3c 3e 38 08 66 bd
       -0.110575005 0.07111425 0.18421923 -0.05616018

fully_connected.4.weight f4 [1, 32]
000000 f4 51 22 3f 15 a8 82 be e3 29 11 3f c6 89 7d 3c
       0.634063 -0.2551886 0.5670454 0.015474742
000010 7f 04 36 3f 18 02 62 3d 56 c5 0a 3d f6 82 39 be
       0.7110061 0.055177778 0.0338796 -0.18116364
000020 35 8a a5 be ab e4 b5 3f da 77 b5 be 57 1b 2f be
       -0.32332006 1.4210409 -0.35443002 -0.17100273
000030 63 07 58 bd 76 ca 25 3f ac 84 5e be df 34 3f be
       -0.05274142 0.64762056 -0.21730298 -0.18672512
000040 46 c5 91 3f 13 09 4d 3d 81 30 62 be c0 a6 87 be
       1.1388328 0.050057482 -0.22088815 -0.26494408
000050 97 a0 47 be 44 aa 90 be 44 ed 8f 3d a3 7e b2 3d
       -0.19494854 -0.28254902 0.07027677 0.0871556
000060 58 0a 08 be 17 f5 52 be 61 bb 42 3f 0d a5 00 3f
       -0.13285196 -0.20601307 0.7606717 0.5025185
000070 0d 8b c8 bb e7 d5 c3 be 27 8b 9d be 72 62 25 3d
       -0.006120092 -0.38249132 -0.30770227 0.040377088
