trained_models/classification_cnn_with_stereo.pth (torch, 341882 bytes, 9 tensors)

cnn.model.0.weight f4 [8, 2, 5, 5]
0	0x3e3a370e	0.18185064
1	0x3e2b1093	0.16705541
2	0x3d802f96	0.06259076
3	0x3dc79925	0.09746007
4	0xbe3cdc18	-0.18443334
5	0xbe1f926a	-0.15583196
6	0xbc910dda	-0.0177068
7	0x3e6d34b4	0.23164636
8	0x3e8c445e	0.2739591
9	0xbdd826ce	-0.105542764
10	0x3c59e81e	0.01329997
11	0xbcb52f19	-0.022117184
12	0x3d818808	0.06324774
13	0x3e963249	0.2933524
14	0x3e7dcc6f	0.24785016
15	0xbdfa0b09	-0.12209136
16	0xbe9d1c00	-0.30685425
17	0xbe05ebc9	-0.13078226
18	0x3e1e2e72	0.15447405
19	0x3e64ab63	0.22331004
20	0x3d17443e	0.036930315
21	0x3b32598a	0.0027214014
22	0xbe99dc1f	-0.30050752
23	0xbdb77043	-0.08956959
24	0x3e09ad16	0.13444933
25	0xbcea416b	-0.028595647
26	0x3e1fe030	0.15612864
27	0x3e34e3db	0.17665045
28	0xbdfc41fd	-0.12317274
29	0xbdd0d13e	-0.1019616
30	0x3d9f1561	0.077677496
31	0x3e3933c8	0.18086159
32	0x3e408a6f	0.18802808
33	0x3e41173b	0.18856518
34	0x3dcf4006	0.101196334
35	0xbe917430	-0.28408957
36	0xbdbf3ac8	-0.093373835
37	0x3cbd4587	0.023104442
38	0x3e014f5c	0.1262793
39	0x3e46d53a	0.19417277
40	0xbcadbd35	-0.021208385
41	0xbe27ed8c	-0.1639921
42	0xbdfdda2b	-0.12395128
43	0xbc35ec82	-0.011103751
44	0x3e774ddc	0.24150795
45	0x3d96538d	0.07340155
46	0x3ce2f977	0.027706845
47	0xbe6a1f5f	-0.2286353
48	0x3c1d3b3f	0.009596645
49	0x3e854643	0.26030168
50	0x3c13749a	0.008999968
51	0xbe33337e	-0.17500111
52	0x3d9fc72b	0.0780166
53	0x3e86b514	0.26310027
54	0xbe0e2cc1	-0.1388426
55	0x3dbb3445	0.09140829
56	0xbe9c392c	-0.3051237
57	0xbe9adceb	-0.30246672
58	0xbeff700d	-0.49890175
59	0x3d1bac58	0.038006157
60	0x3e54cd95	0.20781548
61	0xbbe4ca1f	-0.0069821025
62	0xbef3635a	-0.47536737
63	0xbe3d7ea5	-0.18505342
64	0x3e55e734	0.20888978
65	0x3e3839f6	0.1799086
66	0x3cad6f90	0.021171361
67	0x3dba0e61	0.09084774
68	0x3e0de351	0.13856246
69	0xbd58189c	-0.052757844
70	0x3e9516cd	0.29118958
71	0x3e6ac87c	0.22928041
72	0x3e206f77	0.1566752
73	0x3cfecb02	0.031102661
74	0xbd19b2bc	-0.03752397
75	0xbe31bf45	-0.1735812
76	0xbe091eaa	-0.13390604
77	0xbe3368ae	-0.17520401
78	0x3db3b775	0.08775226
79	0xbd3666ad	-0.044531513
80	0x3c89bdbb	0.016814103
81	0x3e02973b	0.12753002
82	0x3e045602	0.12923434
83	0x3e1eff58	0.15527093
84	0x3d495e17	0.049161997
85	0x3e8e6bb6	0.27816552
86	0x3e001901	0.12509538
87	0x3dbdc6a1	0.09266401
88	0x3d05126d	0.032488275
89	0xbe6e0fc5	-0.23248203
90	0x3d14ec80	0.036358356
91	0xbdb3f462	-0.08786847
92	0xbe48933f	-0.1958742
93	0xbd15925e	-0.03651654
94	0x3e3e923f	0.18610476
95	0xbe0d3dce	-0.13793108
96	0xbdb0cab4	-0.086324126
97	0xbd426315	-0.047457773
98	0xba28b3a4	-0.000643546
99	0xbd0f4d80	-0.03498602
100	0xbd6d2e8a	-0.05790571
101	0x3e108304	0.14112478
102	0xbd6f7d75	-0.058469255
103	0xbdeccaff	-0.11562156
104	0xbdb0642a	-0.08612855
105	0x3c984db4	0.01859174
106	0x3c2f8dbe	0.010714946
107	0xbd886eb0	-0.06661737
108	0xbdce1352	-0.10062279
109	0xbe0d8ba0	-0.13822794
110	0x3cd63e93	0.026152885
111	0xbe2d1397	-0.16902004
112	0xbdc3437c	-0.09534356
113	0xbe7f0cfb	-0.24907295
114	0xbe05b64d	-0.13057823
115	0xbcfe2727	-0.031024529
116	0xbd5f86c6	-0.05457189
117	0xbd12b21b	-0.035814386
118	0xba7c669a	-0.0009628326
119	0x3ad2db4f	0.0016087088
120	0x3d226321	0.039645318
121	0x3dd7a416	0.10529344
122	0x3decb707	0.11558347
123	0x3e0540f0	0.13013053
124	0x3e48e9a9	0.19620384
125	0xbbcfa2e5	-0.006336557
126	0x3e278bb1	0.16361882
127	0x3e200376	0.1562632
128	0x3e106c6c	0.1410386
129	0x3e7373d7	0.23774658
130	0xbe955a6b	-0.29170546
131	0xbe1569d7	-0.14591156
132	0xbd0ad2fd	-0.03389262
133	0xbc9d5c37	-0.01920901
134	0x3e7dd862	0.24789575
135	0xbee545eb	-0.44779906
136	0xbedf267a	-0.43584043
137	0xbe978488	-0.295933
138	0x3e35473e	0.17702958
139	0x3e302632	0.1720207
140	0xbecc1f51	-0.39867643
141	0xbea95539	-0.33072832
142	0xbca8657b	-0.020556202
143	0x3e494d16	0.19658312
144	0x3ddd2e7b	0.10799881
145	0xbe85e5e9	-0.2615197
146	0x3ce9ef50	0.028556496
147	0x3e44e32c	0.19227284
148	0x3dccd3b4	0.10001317
149	0xbecf3aff	-0.40474698
150	0x3e0f857d	0.14015765
151	0xbc06d51d	-0.008229521
152	0x3cc2b4fe	0.023767944
153	0x3e107c96	0.14110026
154	0x3cc0c6cd	0.023532296
155	0xbdb104e0	-0.08643508
156	0xbde89efe	-0.1135845
157	0xbd9526e2	-0.07282807
158	0xbe588d8d	-0.21147747
159	0xbe7a8c25	-0.24467523
160	0x3d57612e	0.052582912
161	0xbe145dc7	-0.14488898
162	0xbd94c19f	-0.07263493
163	0x3da2d892	0.07951464
164	0xbe53730f	-0.2064936
165	0x3dba4ab4	0.0909628
166	0xbe662b6d	-0.22477503
167	0x3e5d74f9	0.21626653
168	0x3dd2abe4	0.10286692
169	0xbdb8e14a	-0.090273455
170	0xbe36c821	-0.1784978
171	0xbe400516	-0.1875194
172	0xbe41b6ce	-0.1891739
173	0xbdee4f14	-0.11636177
174	0x3e2588f0	0.16165519
175	0xbd546956	-0.05185827
176	0xbdf3c616	-0.11903016
177	0x3da40883	0.08009436
178	0x3e3403e2	0.17579606
179	0xbd1dce1c	-0.03852664
180	0x3dabb46a	0.083840206
181	0x3e42257e	0.18959615
182	0x3e5cbef2	0.21557215
183	0x3e3cb4fb	0.18428414
184	0x3e2da9ff	0.1695938
185	0x3d5fcc16	0.05463799
186	0x3ccc6506	0.024950515
187	0xbd7c9180	-0.061662197
188	0xbd3c5cdf	-0.045987006
189	0x3e3070c9	0.17230524
190	0x3da74f72	0.0816945
191	0xbe27a28f	-0.16370605
192	0xbeb67936	-0.35639352
193	0xbebc00d7	-0.3671939
194	0x3aea0e46	0.0017857037
195	0xbecfbbc9	-0.40572956
196	0xbecbad15	-0.3978049
197	0x3d034e7e	0.032057278
198	0x3d8ec267	0.06970673
199	0xbe938909	-0.28815487
200	0xbc2e39ce	-0.010633899
201	0x3e185e7c	0.14879793
202	0x3e11898f	0.1421263
203	0x3dc65ef4	0.096860796
204	0xbd26e808	-0.040748626
205	0xbe0bfdf8	-0.136711
206	0xbdd880c8	-0.10571438
207	0xba977f6e	-0.0011558363
208	0x3dfaf639	0.122539945
209	0x3d0f8c21	0.035045747
210	0xbecd5cf3	-0.40109977
211	0xbc4bcf0a	-0.012439499
212	0x3e4461cf	0.19177936
213	0x3e1a9f76	0.15099892
214	0xbe11471a	-0.1418728
215	0xbee95dcb	-0.4557937
216	0xbdc3d49f	-0.09562039
217	0x3da9dbf5	0.082939066
218	0x3dfaf19b	0.12253114
219	0xbe97be71	-0.29637483
220	0xbeae3ac0	-0.34029198
221	0x3d11e0a5	0.03561463
222	0x3e870e44	0.2637807
223	0xbbdba703	-0.006703259
224	0xbe98a3ea	-0.29812557
225	0xbe6d5c20	-0.23179674
226	0xbe5a0e09	-0.21294416
227	0xbe5bb68a	-0.21456352
228	0x3cef415f	0.029205976
229	0x3df7ab70	0.12093246
230	0xbe0137cc	-0.12618941
231	0xbe9f7236	-0.31141824
232	0xbe8e1a47	-0.27754423
233	0xbd8f2d22	-0.0699103
234	0x3e0a3ff1	0.13500954
235	0xbd466027	-0.04843154
236	0xbddf4c7d	-0.10903261
237	0xbdcaf97e	-0.09910868
238	0x3cdc6e77	0.026908142
239	0xbbf87dd2	-0.0075833583
240	0x3d6c01d0	0.057618916
241	0xbe0fc982	-0.14041713
242	0x3dfcc0ea	0.12341483
243	0xbd98f2fe	-0.07468222
244	0xbe25c67d	-0.16188999
245	0x3ea05c3f	0.31320378
246	0x3e46fce4	0.19432408
247	0x3d8f2c5b	0.06990882
248	0xbc84112d	-0.016121471
249	0xbd95e01b	-0.07318135
250	0xbddaac0a	-0.10677345
251	0x3e5e6ad5	0.2172044
252	0x3d32649a	0.043552972
253	0xbe509a12	-0.20371273
254	0xbd1fcfb6	-0.039016448
255	0xbe513607	-0.20430766

cnn.model.0.bias f4 [8]
0	0x3c9d091d	0.019169385
1	0xbdbfdc7b	-0.09368225
2	0xbe6c5c9e	-0.23082206
3	0xbe424dfc	-0.18975061
4	0xbe79a154	-0.24377948
5	0xbd8a5adc	-0.06755611
6	0xbc0a3cda	-0.00843736
7	0xbe93bda5	-0.28855625

cnn.model.3.weight f4 [16, 8, 5, 5]
0	0xbe0d44fd	-0.13795848
1	0xbe1b37ed	-0.15158053
2	0xbdbc3c6a	-0.091912106
3	0xbe00c7c6	-0.12576208
4	0xbf18b90a	-0.5965735
5	0x3da5dcb0	0.080987334
6	0x3d70b3ac	0.0587651
7	0xbd1ac28a	-0.037783183
8	0x3d4abee9	0.049498472
9	0xbaa182ea	-0.0012322341
10	0x3c75ddd9	0.015006506
11	0xbd803c55	-0.062615074
12	0x3d189301	0.03724957
13	0xbcbadd01	-0.022810461
14	0x3d0fa99f	0.035073873
15	0xbde2ee4b	-0.11080607
16	0x3d87f155	0.06637827
17	0xbe0a4f50	-0.13506818
18	0x3d0351c8	0.032060415
19	0xbeb0defd	-0.34545127
20	0xbe0b4905	-0.13602073
21	0xbd0f1438	-0.03493139
22	0xbd9596d7	-0.07304161
23	0x3dba7373	0.091040514
24	0x3e17dde0	0.14830732
25	0xbdf92dd4	-0.12166944
26	0xbe3862b7	-0.18006407
27	0x3df98b16	0.12184732
28	0x3e6d9b9f	0.23203896
29	0xbdb5d914	-0.08879295
30	0xbf1c31f6	-0.61013734
31	0x3d4b0b10	0.049571097
32	0x3cde2d0a	0.027121086
33	0xbba237b0	-0.004950486
34	0x3e574295	0.21021493
35	0xbf28d9af	-0.6595716
36	0x3d0a81f2	0.03381533
37	0x3e13ec73	0.14445667
38	0x3e797f0e	0.24364874
39	0x3dcf3aae	0.10118614
40	0xbb808238	-0.0039217733
41	0x3e3ae2a2	0.18250516
42	0x3e5eb0b9	0.21747102
43	0x3dd4ef19	0.10397167
44	0xbed0dbe5	-0.40792766
45	0xbec1891b	-0.37799916
46	0xbf1b7d8b	-0.6073844
47	0xbf715b23	-0.9427969
48	0xbe94dbfa	-0.2907408
49	0xbea784cc	-0.32718503
50	0xbe67c2d0	-0.22632909
51	0x3e658947	0.22415648
52	0x3e87870c	0.2647022
53	0x3e6cd57c	0.23128313
54	0x3e87603a	0.26440603
55	0x3e231c2d	0.15928717
56	0x3e27925f	0.1636443
57	0x3dc5abc5	0.09651903
58	0xbc7619e4	-0.015020821
59	0xbde5b7db	-0.11216708
60	0x3e85c350	0.26125574
61	0x3dcef043	0.1010442
62	0x3d74d639	0.05977461
63	0x3ea50723	0.32232007
64	0x3e61bd19	0.22044791
65	0x3caece72	0.021338675
66	0xbe8caa8c	-0.27473867
67	0x3881db9c	6.192105e-05
68	0x3e2d718c	0.16937846
69	0xbe695abb	-0.22788517
70	0xbe51f73f	-0.20504473
71	0xbf696c78	-0.91181135
72	0xbe922713	-0.28545436
73	0xbf3ad32b	-0.72978467
74	0xbf411349	-0.7542005
75	0xbe809d98	-0.25120234
76	0xbe50a637	-0.20375906
77	0xbdab6fdc	-0.08370945
78	0xbe883d7d	-0.26609412
79	0x3cf441c6	0.02981652
80	0x3d120162	0.03564585
81	0x3cc1e126	0.02366693
82	0xbe6e7185	-0.23285492
83	0xbb54cebf	-0.0032471863
84	0x3e2a9d93	0.16661672
85	0xbd002b5b	-0.031291347
86	0xbb2a2546	-0.0025962158
87	0xbd8b0ff6	-0.06790154
88	0xbc78fb37	-0.015196613
89	0x3e7e013a	0.24805155
90	0x3d88a2a0	0.06671643
91	0xbd9c37a3	-0.07627799
92	0xbd7af98a	-0.061273135
93	0xbe404b2a	-0.18778673
94	0xbd0c9205	-0.034318943
95	0x3e27f669	0.16402592
96	0xbe3569f3	-0.17716198
97	0xbeca107f	-0.3946571
98	0xbdfb0411	-0.12256635
99	0xbe5b7e80	-0.21434975
100	0x3a714990	0.0009204382
101	0xbe626621	-0.22109272
102	0x3d17df77	0.037078347
103	0x3e2fa8bf	0.17154215
104	0x3ec1e364	0.37868798
105	0xbed3d4ff	-0.4137344
106	0xbc20badd	-0.009810177
107	0x3d06ecf6	0.032940827
108	0x3e3ed56a	0.18636099
109	0x3d3c7340	0.04600835
110	0x3cddf77f	0.027095554
111	0x3dd94b7f	0.10610103
112	0xbe1ca9e8	-0.15299189
113	0x3d27710e	0.0408793
114	0xbe013d75	-0.126211
115	0xbe816d7a	-0.25278836
116	0xbd7b4dd6	-0.061353527
117	0xbd31bc6e	-0.04339259
118	0xbd16eb02	-0.036845215
119	0xbe40bd13	-0.18822126
120	0xbec9c3a2	-0.39407068
121	0xbd0a43a9	-0.033755932
122	0xbdc42cb9	-0.09578843
123	0xbec32b2f	-0.38118884
124	0xbf506602	-0.8140565
125	0xbcbc9c35	-0.023023704
126	0x3cb5e8a7	0.022205664
127	0x3e12d039	0.14337243
128	0x3eb4b4f7	0.35294315
129	0x3c2ccbcf	0.010546639
130	0xbe124324	-0.14283425
131	0xbd237938	-0.039910525
132	0xbd369d2f	-0.044583496
133	0xbd4e3c8a	-0.050350703
134	0xbe02c467	-0.12770234
135	0xbeb65226	-0.3560955
136	0xbe106b6d	-0.1410348
137	0x3c2eed38	0.010676675
138	0xbde1e0f5	-0.11029235
139	0x3e12535b	0.1428961
140	0xbe05f608	-0.13082135
141	0x3d076909	0.033059154
142	0x3e150653	0.14553194
143	0x3de8a214	0.11359039
144	0xbd135c4d	-0.035976697
145	0xbf1dc4b7	-0.6162829
146	0xbd67726a	-0.056505598
147	0x3bc7d2f2	0.0060981447
148	0xbd3ec60b	-0.046575587
149	0xbedf31ff	-0.43592831
150	0x3d883972	0.06651582
151	0xbdc7a6ff	-0.09748649
152	0xbe19c662	-0.15017083
153	0xbd597651	-0.05309135
154	0xbe7f38b1	-0.2492397
155	0xbdeb25e6	-0.11481838
156	0x3bdf94ce	0.006823159
157	0x3dc7a17b	0.09747597
158	0x3cadec33	0.021230793
159	0xbde48720	-0.111585855
160	0xbd17136f	-0.036883768
161	0x3c8c2498	0.017107293
162	0x3de7e443	0.11322834
163	0xbce75d10	-0.028242618
164	0xbea6ef8f	-0.32604644
165	0xbe5c3f5d	-0.21508546
166	0x3d968a36	0.073505804
167	0x3dc8c5b4	0.09803334
168	0xbe6212e2	-0.22077516
169	0xbf03fbe2	-0.5155622
170	0xbe3a5068	-0.18194735
171	0x3ba52cde	0.005040749
172	0xbf1441cf	-0.57912916
173	0xbf4a306d	-0.7898014
174	0xbf34c885	-0.7061847
175	0xbddc9982	-0.10771467
176	0x3dcdb254	0.10043779
177	0xbbd7b20a	-0.006582503
178	0xbdbdb271	-0.092625506
179	0x3e537235	0.20649035
180	0xbc80c53e	-0.015719052
181	0x3c56b96e	0.013105733
182	0x3e44efc2	0.19232085
183	0x3d31059f	0.04321825
184	0x3e64370c	0.22286624
185	0x3d9879b6	0.074450895
186	0x3dac45ee	0.084117755
187	0xbdc8c945	-0.09804014
188	0xbe95cca1	-0.29257682
189	0x3db944d1	0.09046329
190	0xbbca7a25	-0.0061791115
191	0x3b80b082	0.0039272914
192	0xbc83dca1	-0.016096415
193	0x3d178734	0.036994174
194	0xbd921df6	-0.07134621
195	0xbd9a265a	-0.07526846
196	0xbdf61037	-0.120148115
197	0x3dae3c62	0.08507611
198	0x3d2115ae	0.039327316
199	0xbf04482f	-0.51672643
200	0xbe5ca2e7	-0.21546517
201	0xbe2876db	-0.1645159
202	0xbe599a8f	-0.21250366
203	0xbebb2f6f	-0.36559626
204	0xbfdaf1f2	-1.7105086
205	0x3e1c1a21	0.15244342
206	0x3d5e5703	0.0542822
207	0x3e105f2f	0.1409881
208	0x3d574d0b	0.05256371
209	0xbdaec9b9	-0.08534569
210	0xbd24b2cc	-0.040209576
211	0x3e0fcfe3	0.14044146
212	0x3ce699d7	0.028149528
213	0x3c7ee4fb	0.015557523
214	0x3d2f7108	0.042832404
215	0x3ca6c153	0.020355856
216	0xbaa98366	-0.0012932837
217	0x3d3578e5	0.044304747
218	0x3de68a50	0.1125685
219	0xbee5c0ad	-0.44873562
220	0xbd9f2918	-0.0777151
221	0xbbff7d16	-0.007796894
222	0x3e7495ea	0.23885313
223	0xbd300bdb	-0.042980056
224	0xbf1f6354	-0.6226094
225	0xbf00bae5	-0.5028518
226	0xbe695252	-0.22785309
227	0xbcbc63f6	-0.022996884
228	0x3e8ad88b	0.27118334
229	0x3dd3d2ca	0.10342939
230	0xbe916171	-0.28394654
231	0x3e415b25	0.18882425
232	0x3e8a8188	0.2705195
233	0x3e440fa7	0.19146596
234	0x3e11e835	0.14248736
235	0x3ce824ed	0.02833792
236	0x3e227a0c	0.1586687
237	0x3e8c4a5d	0.27400485
238	0x3cac0bcd	0.02100172
239	0x3c0dd048	0.008655615
240	0xbe45f436	-0.1933144
241	0xbcb50af5	-0.022099951
242	0x3e86d5ae	0.263349
243	0x3e745ee3	0.23864321
244	0xbe484944	-0.19559199
245	0xbeaac73c	-0.3335513
246	0xbdcb2ce5	-0.09920672
247	0xbe301019	-0.17193641
248	0xbca01321	-0.019540371
249	0xbe172b58	-0.14762628
250	0xbe9c7dcc	-0.30564725
251	0xbe4a179e	-0.19735572
252	0xbe744041	-0.23852636
253	0xbde84674	-0.11341563
254	0xbf586fcf	-0.84545606
255	0x3e289ac0	0.16465282

cnn.model.3.bias f4 [16]
0	0x3c7b5887	0.015340931
1	0x3d210501	0.039311413
2	0xbe4987df	-0.19680737
3	0xbda47f44	-0.080320865
4	0x3e3fdb36	0.18735966
5	0xbe34cdde	-0.17656657
6	0xbde3e524	-0.111276895
7	0xbdda5a4e	-0.106617555
8	0xbd56fe4e	-0.052488618
9	0xbdfbb4fb	-0.12290379
10	0xbd939008	-0.07205206
11	0x3d6a6b7e	0.05723142
12	0xbe55c3ae	-0.20875427
13	0xbe05d8d6	-0.13070998
14	0xbdf833ff	-0.121192925
15	0xbdf74573	-0.12073793

fully_connected.0.weight f4 [128, 597]
0	0x3d15a766	0.036536597
1	0x3d18e9bd	0.037332285
2	0x3e59a630	0.21254802
3	0xbda8b4ca	-0.08237608
4	0xbdeb1ed8	-0.11480492
5	0x3e2518ff	0.16122817
6	0xbda527c6	-0.08064227
7	0x3acc6f1e	0.001559708
8	0x3cef02b5	0.029176096
9	0xbe6e9ea8	-0.2330271
10	0x3dbd42ca	0.09241255
11	0xbe78d212	-0.24298885
12	0xbe1d71d9	-0.1537546
13	0x3d50d2d9	0.05098233
14	0xbd807c48	-0.06273705
15	0xbe488e9d	-0.19585653
16	0x3d308700	0.043097496
17	0xbe0604ef	-0.1308782
18	0xbe9d3fb4	-0.30712664
19	0xbe3d7f4d	-0.18505593
20	0xbec36f71	-0.3817096
21	0x3e34b8c5	0.17648609
22	0x3a69a7fa	0.0008913275
23	0xbda387cc	-0.079848856
24	0x3c933624	0.017970152
25	0xbd97f46d	-0.074196674
26	0x3d51343c	0.051075205
27	0x3e3e89da	0.18607274
28	0x3c8f415c	0.01748722
29	0x3e8fda88	0.28096414
30	0xbc4edf21	-0.01262644
31	0x3d8f8161	0.07007099
32	0xbd8cc7ba	-0.06874032
33	0x3d1ae3d4	0.03781493
34	0xbd9e0299	-0.07715339
35	0x3e84c4c3	0.25931367
36	0xbe8ac798	-0.27105403
37	0x3c5abc61	0.013350577
38	0xbe7f7d93	-0.24950247
39	0xbd8ff3c3	-0.07028916
40	0xbe5aaa8e	-0.21354124
41	0xbe13ceba	-0.14434329
42	0x3e56afe6	0.20965537
43	0xbe6afbab	-0.22947566
44	0xbd18ecf1	-0.03733534
45	0xbe7c3fea	-0.24633756
46	0x3dd6c2bb	0.10486361
47	0xbe067379	-0.13129987
48	0x3e8d7dda	0.2763508
49	0xbd444188	-0.047914058
50	0xbd1e26f0	-0.038611352
51	0xbe254f5f	-0.16143559
52	0xbe261786	-0.16219911
53	0x3dca55ab	0.09879621
54	0x3e9356ca	0.28777152
55	0x3e3ced7d	0.1844997
56	0xbd8f9651	-0.070110925
57	0x3d92e1a1	0.071719415
58	0x3e5c5f77	0.21520792
59	0x3ea5adf0	0.32359266
60	0x3da5f96f	0.08104216
61	0xbe803840	-0.25042915
62	0x3d49ada6	0.04923787
63	0x39a7bf95	0.00031995462
64	0xbdb8c27a	-0.090214685
65	0x3d56695c	0.052346572
66	0xbd5471ae	-0.051866226
67	0xbe3e09bb	-0.185584
68	0xbe8ef5c0	-0.27921867
69	0x3ccbb4fd	0.024866575
70	0x3cd8e60a	0.026476879
71	0xbc8aecbe	-0.01695859
72	0x3dca73bc	0.09885356
73	0x3d11212a	0.03543202
74	0xbe3866eb	-0.1800801
75	0x3c382f4e	0.011241747
76	0x3ea4307d	0.32068244
77	0xbe996882	-0.29962546
78	0x3d8d9a85	0.06914238
79	0x3da17600	0.07883835
80	0xbf0d821e	-0.5527667
81	0x3e116944	0.14200312
82	0xbe2b4ccb	-0.16728513
83	0x3e87120f	0.26380965
84	0xbf79be64	-0.9755614
85	0xbea5280b	-0.32257113
86	0xbe4b6dca	-0.198661
87	0x3e1fc335	0.1560181
88	0x3dce0837	0.100601606
89	0xbea5b6cc	-0.32366025
90	0xbf3c60cb	-0.73585194
91	0xbd57002f	-0.05249041
92	0xbed4d03e	-0.41565126
93	0x3d6d1dfa	0.057889916
94	0x3d444fa8	0.04792753
95	0xbeb4e83d	-0.35333434
96	0xbeba261b	-0.36357197
97	0xbe03495e	-0.12820956
98	0x3e19a145	0.15002926
99	0x3dbb3fcd	0.091430284
100	0x3ecb9e5d	0.3976926
101	0xbe8081c3	-0.25099
102	0xbecdae1d	-0.401719
103	0x3b509311	0.003182594
104	0xbdec6b0d	-0.11543856
105	0xbe88621f	-0.2663736
106	0xbe02949b	-0.12752001
107	0xbda3a50d	-0.07990465
108	0x3d721eae	0.05911129
109	0x3e89a2cc	0.26882017
110	0x3e364082	0.17798045
111	0xbe1df4fc	-0.15425485
112	0xbde7feb2	-0.11327876
113	0xbdc63edf	-0.096799605
114	0x3d9a86f1	0.07545269
115	0x3e831fd5	0.25610223
116	0xbeadab84	-0.3391992
117	0x3d94297c	0.07234475
118	0xbee1a319	-0.44069746
119	0xbc3c254a	-0.0114835
120	0xbded4c0c	-0.115867704
121	0x3dde4446	0.10852866
122	0xbe40b895	-0.18820412
123	0xbceb4847	-0.028720988
124	0xbeee8500	-0.46585846
125	0xbda6a4de	-0.08136915
126	0xbe31f679	-0.17379178
127	0xbe62ff56	-0.22167715
128	0xbdb334ce	-0.08750306
129	0xbe65d9f8	-0.2244643
130	0xbcd0a6df	-0.025470195
131	0xbde04613	-0.109508656
132	0x3d794ca3	0.060864102
133	0xbe50b179	-0.203802
134	0xbdb22948	-0.0869928
135	0xbe9a6e6b	-0.30162367
136	0xbedda9fc	-0.4329375
137	0xbed49bd5	-0.4152514
138	0xbe26c2ad	-0.162852
139	0x3e235479	0.15950193
140	0x3cca678c	0.024707578
141	0xbf04ef03	-0.519272
142	0xbe9f3a0a	-0.31098968
143	0x3d7ec14f	0.062196072
144	0x3ca5f568	0.02025862
145	0xbcdd4965	-0.027012536
146	0xbd11fe09	-0.035642657
147	0x3d8c0a96	0.068379566
148	0xbd732ee1	-0.05937088
149	0xbcac98fe	-0.021069046
150	0xbcd05a6b	-0.02543374
151	0xbd648553	-0.05579121
152	0xbd7a9c4e	-0.06118422
153	0xbd9c2768	-0.07624704
154	0x3e1d36e2	0.15352967
155	0x3e127e6d	0.1430604
156	0x3c95e3b4	0.018297054
157	0xbdb17923	-0.08665683
158	0xbd9b83a0	-0.07593465
159	0xbc4ed6c1	-0.0126244435
160	0x3d744828	0.059639126
161	0x3d52f36d	0.05150168
162	0xbdd8379b	-0.10557481
163	0xbc7f1784	-0.015569571
164	0xbe154663	-0.14577632
165	0xbdcc7039	-0.09982342
166	0xbd498826	-0.049202107
167	0xbd291a71	-0.041284982
168	0x3d70d8ab	0.05880038
169	0x3d265a42	0.04061342
170	0xbd8d19e1	-0.06889702
171	0xbe48b32a	-0.19599596
172	0xbb465a64	-0.003026628
173	0x3c8f6156	0.017502468
174	0x3d2d45fb	0.042303067
175	0x3d07036e	0.032962255
176	0x3c598c7a	0.013278121
177	0x3d6b1d88	0.05740121
178	0x3c873822	0.016506258
179	0x3e04d228	0.12970793
180	0x3baf96c2	0.005358548
181	0x3e617181	0.22015955
182	0x3e5e150b	0.21687715
183	0xbf0d7e21	-0.5527058
184	0xbe33a2d2	-0.1754258
185	0xbf11c54c	-0.56941676
186	0xbe29ad0e	-0.16569921
187	0xbca67644	-0.020320065
188	0x3d306141	0.0430615
189	0xbef840fa	-0.48487073
190	0xbeea8b7e	-0.4580955
191	0xbf351e50	-0.7074938
192	0xbb3553a1	-0.0027668255
193	0xbe9850d4	-0.29749167
194	0x3e0d4f3b	0.13799755
195	0xbecacc3d	-0.39608946
196	0x3d42e271	0.047579233
197	0xbf131a51	-0.5746203
198	0xbefdc4e2	-0.49564272
199	0xbdf2a5b4	-0.118480116
200	0xbf1fe38d	-0.6245659
201	0xbf0e78dc	-0.55653167
202	0x3eb44144	0.35206044
203	0xbe9c7d82	-0.30564505
204	0xbf084bd3	-0.532407
205	0xbe971878	-0.29510856
206	0x3e466083	0.19372754
207	0xbdd246d4	-0.10267416
208	0x3d02f32e	0.031970195
209	0xbf10026c	-0.56253695
210	0x3c677c59	0.014128768
211	0xbecd681c	-0.40118492
212	0xbf05e4a3	-0.52301997
213	0xbf2ebae5	-0.6825393
214	0xbd8fae8f	-0.07015716
215	0xbeac44a1	-0.3364611
216	0x3daa4e91	0.083157666
217	0x3df77eb0	0.120847106
218	0xbe64840a	-0.22315994
219	0x3cc4f92f	0.024044601
220	0xbf3a92ba	-0.72880137
221	0xbed52b7d	-0.4163474
222	0xbe52ce68	-0.2058655
223	0x3e3f5e34	0.1868828
224	0x3d1f2e44	0.03886248
225	0x3d76a981	0.060220245
226	0x3c473679	0.012158983
227	0xbea84a61	-0.32869247
228	0xbd1a1ae9	-0.03762332
229	0xbe44f2b8	-0.19233215
230	0xbe4d2892	-0.20035008
231	0xbcf03fcb	-0.029327294
232	0x3e140c04	0.14457709
233	0xbeaea0bc	-0.34107006
234	0xbf212d68	-0.6295991
235	0xbed86bb2	-0.42269665
236	0xbd249ee8	-0.040190607
237	0x3c89c362	0.016816799
238	0xbecfb8d9	-0.40570715
239	0x3d032ca7	0.032025006
240	0xbdaf6a55	-0.08565203
241	0xbe8e230a	-0.27761108
242	0xbeb12391	-0.34597448
243	0x3d645cd4	0.05575259
244	0x3e14d632	0.14534834
245	0x3d0437e1	0.032279853
246	0x3cbd3e10	0.023100883
247	0xbc5f6abf	-0.01363629
248	0xbe62e8ed	-0.22159167
249	0x3dc00909	0.09376723
250	0xbdfa8696	-0.122327015
251	0xbea534ea	-0.32266933
252	0xbde5ffbb	-0.11230417
253	0xbd501d0b	-0.050808948
254	0xbc929903	-0.017895227
255	0xbe5b5156	-0.21417746

fully_connected.0.bias f4 [128]
0	0x3e676e7b	0.22600739
1	0x3df7c1a3	0.1209748
2	0xbe2f1d7b	-0.1710109
3	0x3ed444f2	0.4145885
4	0x3e21476d	0.15749903
5	0x3e2f4896	0.17117533
6	0x3dc089de	0.09401296
7	0x3e592336	0.21204838
8	0x3c24d63c	0.010060843
9	0x3c20a204	0.009804253
10	0x3e37b946	0.1794177
11	0xbf6eed55	-0.9333089
12	0xbe7e53ee	-0.24836704
13	0xbeb4c2bb	-0.35304818
14	0x3e8f797e	0.2802238
15	0x3e3ec02a	0.18627992
16	0xbefa47ea	-0.4888299
17	0x3e05ce56	0.13066992
18	0x3d1a9aa3	0.03774513
19	0x3e99b897	0.30023643
20	0xbe95e69a	-0.29277498
21	0x3e510b06	0.20414361
22	0xbdade902	-0.08491708
23	0xbe8f461a	-0.2798317
24	0xbe4d0d1c	-0.20024532
25	0x3df6f4fc	0.12058446
26	0x3eb44610	0.35209703
27	0xbe9c6bb5	-0.30550924
28	0xbe314f5f	-0.17315434
29	0x3e7cd193	0.24689321
30	0xbe774344	-0.24146754
31	0xbeaa3a76	-0.33247727
32	0x3e677840	0.22604465
33	0x3e037888	0.12838948
34	0xbdf8e25f	-0.12152552
35	0xbec99157	-0.39368698
36	0x3e100d5e	0.14067599
37	0xbe35669f	-0.17714928
38	0x3e383555	0.17989095
39	0xbe43b98c	-0.1911375
40	0xbecdbff0	-0.401855
41	0xbef5e657	-0.48027298
42	0x3e7f5229	0.24933685
43	0xbe85ad26	-0.26108664
44	0xbf08bfc6	-0.53417623
45	0xbe7a3447	-0.24434005
46	0x3f10e603	0.5660097
47	0x3ea0309c	0.31287086
48	0x3f00927e	0.5022353
49	0x3e300196	0.17188105
50	0x3e67d43e	0.22639558
51	0x3e52beb2	0.20580557
52	0x3e9ac725	0.3023006
53	0xbdf6a333	-0.120428465
54	0x3ea1d473	0.31607398
55	0xbe32bd8a	-0.17455116
56	0xbe8162d9	-0.25270727
57	0xbe3cc546	-0.18434629
58	0x3ddab8b5	0.10679761
59	0xbd226541	-0.039647344
60	0xbebfdee7	-0.37474748
61	0xbe1c04d3	-0.15236215
62	0x3df8a8cc	0.121415704
63	0xbe7a870c	-0.24465579
64	0xbea53e2c	-0.32273996
65	0xbe8020ff	-0.25025174
66	0x3e521a14	0.2051776
67	0xbd9ad052	-0.07559265
68	0x3dd53547	0.104105525
69	0xbeaa3054	-0.33239996
70	0x3f05fb1d	0.52336293
71	0xbe44c3fa	-0.19215384
72	0x3eb63f47	0.35595152
73	0x3ea792dd	0.32729235
74	0x3e829166	0.25501555
75	0x3dc6b01b	0.09701558
76	0x3e05112a	0.12994829
77	0xbde1858e	-0.11011802
78	0x3e582f33	0.21111755
79	0xbde6940a	-0.11258705
80	0x3e74fe23	0.2392507
81	0x3db3052b	0.0874122
82	0xbe81c908	-0.25348687
83	0xbf0402cf	-0.51566786
84	0xbee2e5f9	-0.4431608
85	0x3e3633b9	0.17793168
86	0x3e46e495	0.19423135
87	0x3ee4fc4b	0.44723734
88	0xbe85673c	-0.26055324
89	0x3eb20b49	0.34774235
90	0x3ed0b854	0.4076563
91	0x3d89fd6f	0.06737792
92	0x3e1157d0	0.14193654
93	0xbe527350	-0.205518
94	0xbeb1c2b9	-0.34718874
95	0x3f59f2f9	0.8513637
96	0x3e98ada8	0.2981999
97	0x3d1c8ef9	0.038222287
98	0xbe923d00	-0.28562164
99	0xbec3305e	-0.3812284
100	0xbecf9a44	-0.40547383
101	0x3ebcb305	0.3685533
102	0xbe2ff29d	-0.17182393
103	0x3e503739	0.20333566
104	0xbe83f051	-0.25769284
105	0x3e74ce47	0.23906814
106	0x3e7a3e3c	0.24437803
107	0xbf4a89e2	-0.7911664
108	0xbe31580a	-0.1731874
109	0xbe392394	-0.18079978
110	0x3e07400d	0.13208027
111	0xbed6f518	-0.41983867
112	0xbeac78e2	-0.33685976
113	0x3e127dc2	0.14305785
114	0xbe1a8494	-0.15089637
115	0x3e65240b	0.2237703
116	0x3dddb949	0.10826356
117	0x3e05e468	0.13075411
118	0x3a8d09a1	0.0010760316
119	0xbc59add3	-0.013286072
120	0x3e760404	0.2402497
121	0x3e21bf47	0.15795623
122	0xbea94a7c	-0.3306464
123	0x3ea0e0a5	0.3142139
124	0x3d2832e7	0.04106417
125	0x3e5089a6	0.20365009
126	0x3dec4e01	0.115383156
127	0xbec04509	-0.3755267

fully_connected.2.weight f4 [32, 128]
0	0x3e31e2b7	0.17371641
1	0xbdbf001f	-0.09326195
2	0xbe5749d5	-0.21024258
3	0x3e14bb81	0.14524652
4	0x3eda2062	0.4260283
5	0x3e609eed	0.21935625
6	0x3d6fda7c	0.058557972
7	0x3e0c0655	0.1367429
8	0x3e030155	0.12793477
9	0x3dd65afc	0.10466573
10	0xbcad1684	-0.0211289
11	0xbe6d457b	-0.23171036
12	0xbebdc999	-0.3706787
13	0x3d938971	0.07203949
14	0x3ee8c012	0.45459038
15	0x3e2412b0	0.16022754
16	0xbc91e94d	-0.017811442
17	0x3e4644e1	0.19362213
18	0x3e1ba50c	0.15199679
19	0x3db0073f	0.08595132
20	0xbd1dd863	-0.03853644
21	0x3cc85b90	0.024457723
22	0x3dde3b89	0.10851199
23	0xbdb2c47f	-0.08728885
24	0x3c461ed4	0.012092311
25	0x3e25a47e	0.1617603
26	0x3e2adb37	0.16685186
27	0xbe07bbd6	-0.13255247
28	0x3e3a7dc5	0.1821204
29	0x3e1d1eec	0.15343827
30	0xbddf0fdb	-0.10891696
31	0xbd1b9af2	-0.037989564
32	0xbd41fd22	-0.047360547
33	0x3e789458	0.24275339
34	0xbe93fccf	-0.28903815
35	0x3de2beef	0.11071574
36	0x3de2e825	0.11079434
37	0xbe33e9ff	-0.17569731
38	0x3e6d3cf5	0.23167785
39	0xbc3f5f54	-0.011680443
40	0x3deedc14	0.1166307
41	0xbd8e4dea	-0.06948455
42	0x3dfc3803	0.12315371
43	0xbf042fa8	-0.5163522
44	0xbe6c958d	-0.23103924
45	0x3ddf8eb5	0.10915891
46	0xbd7f1334	-0.062274173
47	0x3e951378	0.29116416
48	0x3dcc7eb0	0.09985101
49	0xbd8e3c36	-0.06945078
50	0x3e219fe9	0.15783657
51	0x3e395217	0.18097721
52	0xbdbe0bd0	-0.09279597
53	0xbe8fa295	-0.28053728
54	0x3e8f941e	0.28042692
55	0xbd84df15	-0.06487862
56	0xbd6316ed	-0.055441786
57	0xbd934120	-0.07190156
58	0xbe4b9a2f	-0.19883035
59	0x3dcff1a7	0.101535134
60	0xbf0bd8fc	-0.54627967
61	0xbdbda56f	-0.092600696
62	0x3eb596af	0.35466525
63	0x3b071611	0.0020612518
64	0xbe325fdc	-0.1741938
65	0xbe3a4af0	-0.18192649
66	0x3e74f398	0.23921049
67	0xbf0a9435	-0.54132396
68	0x3dc213fa	0.094764665
69	0xbe7d17e6	-0.24716148
70	0x3e06b08e	0.13153288
71	0xbbf64ff4	-0.0075168554
72	0xbd40b5da	-0.047048427
73	0x3e6af8e9	0.22946514
74	0x3ed91489	0.4239848
75	0x3d8b82e5	0.068120755
76	0x3eb9b941	0.3627415
77	0x3d968c4b	0.073509775
78	0x3da9b431	0.08286322
79	0x3dc4a903	0.09602549
80	0x3e075699	0.13216628
81	0xbdb53962	-0.088488355
82	0x3d5481fb	0.05188177
83	0xbee3a025	-0.44458118
84	0xbf052812	-0.5201427
85	0x3dba4af2	0.09096326
86	0xbda160d1	-0.078797944
87	0x3d8c5e24	0.068538934
88	0xbea1fa75	-0.31636396
89	0x3ea8f217	0.329972
90	0x3f0c9fea	0.5493151
91	0x3df6f8a0	0.1205914
92	0x3cfb440f	0.030672101
93	0xbd9f7731	-0.07786406
94	0xbe9e5538	-0.30924392
95	0x3e08fa82	0.13376811
96	0x3e074371	0.1320932
97	0x3d53aabd	0.0516765
98	0xbf083e42	-0.5322
99	0xbeb176d6	-0.34660977
100	0xbe8df1c0	-0.27723503
101	0x3e8b3bbc	0.2719401
102	0xbcc869d2	-0.024464522
103	0x3e6642f7	0.22486483
104	0xbe28564b	-0.16439168
105	0x3ea43a19	0.32075575
106	0xbe099f7c	-0.13439745
107	0xbec70e28	-0.38877988
108	0xbe85020e	-0.2597813
109	0xbe96ffb3	-0.29491958
110	0x3e576947	0.21036254
111	0xbe5b6d3d	-0.2142839
112	0xbd14c95a	-0.036324836
113	0x3d926e6e	0.07149969
114	0xbda703a8	-0.08154994
115	0x3e1acf0d	0.15118046
116	0xbd03a4ca	-0.032139577
117	0x3e58676c	0.21133202
118	0xbe03ba28	-0.12863982
119	0x3e2f5be9	0.17124905
120	0x3e22a769	0.15884174
121	0x3de1739c	0.11008379
122	0xbde051b4	-0.10953084
123	0x3eb9dad0	0.36299753
124	0xbdc73248	-0.09726387
125	0x3b9d53fa	0.0048012706
126	0x3e20f2b7	0.15717588
127	0x3d8ef804	0.06980899
128	0xbecc1bef	-0.39865062
129	0xbe3ab86a	-0.18234411
130	0xbd4fae79	-0.0507035
131	0x3e2697b8	0.16268814
132	0xbef05edf	-0.4694738
133	0xbd02e632	-0.031957813
134	0xbe5fff40	-0.21874714
135	0xbc72857f	-0.014802336
136	0x3e6560b3	0.22400169
137	0xbc4772ce	-0.012173368
138	0xbf2c2ac9	-0.67252785
139	0x3ee01734	0.43767703
140	0xbd9764d0	-0.07392275
141	0xbe31c88c	-0.17361659
142	0xbe9dcfa0	-0.30822468
143	0x3da52e64	0.08065489
144	0xbd06cb37	-0.032908645
145	0xbacc6bcc	-0.0015596091
146	0xbedd413a	-0.43213826
147	0x3e24589f	0.16049431
148	0xbec2bd0c	-0.38034856
149	0xbee841aa	-0.45362598
150	0xbc8b81f7	-0.017029746
151	0x3d1714b8	0.036884993
152	0x3dcfc15d	0.10144303
153	0x3dad7d23	0.084711336
154	0x3ecb4da1	0.39707664
155	0x3e99dba1	0.30050376
156	0x3c4f764e	0.012662483
157	0xbd5048d1	-0.050850693
158	0xbe4595f0	-0.19295478
159	0xbe67c718	-0.22634542
160	0xbf5b3102	-0.85621655
161	0xbdf70983	-0.12062361
162	0x3e3f6cda	0.18693867
163	0xbe9cc4f5	-0.30619016
164	0xbe96b174	-0.2943226
165	0xbdf2029d	-0.11816905
166	0xbe84a4ab	-0.25906882
167	0x3e39d400	0.18147278
168	0xbcefd677	-0.02927707
169	0xbde8e7d6	-0.11372344
170	0xbedf02b9	-0.43556765
171	0x3e2c0062	0.16797021
172	0xbe9bec8f	-0.30453917
173	0x3cbe7563	0.023249334
174	0xbe54218f	-0.20715927
175	0xbe0aacbb	-0.13542454
176	0x3ed13859	0.40863302
177	0xbef0eba2	-0.47054774
178	0xbd3e6899	-0.04648647
179	0x3c789256	0.015171608
180	0xbd0f021e	-0.03491413
181	0xbd018633	-0.031622123
182	0xbc7dae79	-0.015483492
183	0x3da69297	0.081334285
184	0x3d97c762	0.07411076
185	0x3e40b863	0.18820338
186	0xbf830ac3	-1.0237659
187	0x3dba4038	0.0909428
188	0x3ceda445	0.029008994
189	0x3dc76048	0.09735161
190	0xbea43655	-0.32072702
191	0xbeea75cb	-0.45792994
192	0xbe2f1489	-0.17097677
193	0xbd90cd35	-0.0707039
194	0xbd0305bc	-0.03198789
195	0xbf123109	-0.5710607
196	0xbda1b3ea	-0.07895644
197	0xbe4ef809	-0.20211805
198	0xbe95d11d	-0.29261103
199	0x3e1028c4	0.14078051
200	0xbe91d213	-0.28480586
201	0x3d1f7d94	0.03893812
202	0xbedaeeef	-0.42760417
203	0xbe4414a1	-0.19148494
204	0xbd62907f	-0.055313583
205	0x3c6793ff	0.014134406
206	0xbdd75f61	-0.10516239
207	0x3de2e279	0.110783525
208	0xbbc3461c	-0.0059592854
209	0xbef8e692	-0.4861341
210	0xbd4a1826	-0.049339436
211	0xbda11cf4	-0.078668505
212	0xbe06a783	-0.13149838
213	0xbc3d8a3f	-0.011568605
214	0xbeec473b	-0.46148095
215	0xbe4c85fd	-0.19972987
216	0x3c89444c	0.0167562
217	0xbea83ef6	-0.32860535
218	0xbd5b6fd1	-0.053573433
219	0xbe8eb5d7	-0.27873108
220	0xbcf653e9	-0.030069308
221	0xbc4218f4	-0.01184677
222	0xbd634f3f	-0.055495497
223	0x3d98d1f6	0.07461922
224	0xbeb02d34	-0.34409487
225	0x3d66eccd	0.056378175
226	0x3d732d32	0.059369273
227	0xbe0aba76	-0.13547692
228	0xbe373a4c	-0.17893332
229	0xbdfdc86b	-0.12391742
230	0x3ea63fc3	0.3247052
231	0xbdb3912c	-0.08767924
232	0x3e5f4d80	0.21806908
233	0x3e7d405f	0.24731587
234	0xbea0f203	-0.3143464
235	0x3d46d7ed	0.048545767
236	0x3d4683c7	0.048465516
237	0x3db7498e	0.08949576
238	0x3e89fd31	0.26950982
239	0xbdfee0ad	-0.12445197
240	0xbe0257db	-0.12728827
241	0x394efe13	0.00019740341
242	0x3e87f41c	0.26553428
243	0x3d9b1564	0.07572439
244	0xbdc2baaa	-0.095082596
245	0xbc82d422	-0.015970293
246	0xbea96db0	-0.33091497
247	0xbdfd7cdf	-0.12377333
248	0xbd96103f	-0.073273174
249	0x3e8f262c	0.2795881
250	0x3e7f2d38	0.24919593
251	0x3bae01d5	0.005310277
252	0xbda18761	-0.078871496
253	0xbe1b0b85	-0.15141113
254	0xbe421b77	-0.1895579
255	0xbda14651	-0.0787474

fully_connected.2.bias f4 [32]
0	0x3e915845	0.28387657
1	0x3d78a4db	0.060704093
2	0x3e7c59a5	0.24643572
3	0x3eb3234c	0.34987867
4	0x3f069746	0.52574575
5	0x3ded265d	0.11579583
6	0xbe18773e	-0.14889237
7	0xbd9a5cf9	-0.075372644
8	0xbdf561d8	-0.11981553
9	0xbf1ad42f	-0.60480016
10	0x3d80f8e1	0.0629747
11	0xbf317341	-0.6931649
12	0x3dc16bc4	0.09444383
13	0x3eec4a6c	0.4615053
14	0x3ec4f13f	0.38465306
15	0x3ee64d50	0.4498086
16	0x3d3b85fa	0.045782067
17	0x3f22bbd5	0.6356786
18	0xbf123aa7	-0.57120746
19	0x3ee3e4b5	0.44510427
20	0x3ea58336	0.32326669
21	0xbcfe959b	-0.031077197
22	0x3eacbbff	0.3373718
23	0x3ed341e8	0.4126122
24	0x3e5d3631	0.21602704
25	0x3ec806ba	0.39067632
26	0x3d942c03	0.07234957
27	0x3e8716a1	0.26384452
28	0x3e23f134	0.1600998
29	0x3d0b04f9	0.03394029
30	0x3d79f1f6	0.061021768
31	0x3ec59654	0.38591254

fully_connected.4.weight f4 [1, 32]
0	0x3eca4f48	0.39513612
1	0xbf16ed55	-0.5895589
2	0x3f79aeda	0.9753243
3	0x3ed40720	0.41411686
4	0x3f7a4069	0.9775453
5	0xbebcfd91	-0.36912206
6	0xbca346e3	-0.019931262
7	0xbe9fa863	-0.31183156
8	0xbbc26a7a	-0.005933103
9	0xbed99541	-0.42496684
10	0xbed96fb1	-0.42468026
11	0xbed3a9f7	-0.4134061
12	0xbeb9100a	-0.3614505
13	0x3f113abb	0.5673024
14	0x3e6d76a1	0.23189785
15	0x3e529af6	0.20566925
16	0x3dc5a7ef	0.096511714
17	0x3f68e9a1	0.9098149
18	0xbe8ac50e	-0.27103466
19	0x3ec5c842	0.38629347
20	0xbfc3e6c6	-1.5304801
21	0xbe872288	-0.26393533
22	0x3f8024b1	1.0011197
23	0x3e95030c	0.29103887
24	0xbf71fa3a	-0.9452244
25	0x3ecb107b	0.3966101
26	0xbeea1419	-0.45718458
27	0xbfd6a26f	-1.6768321
28	0xbedee7c4	-0.43536198
29	0xbe9785a8	-0.2959416
30	0xbefb699d	-0.49104014
31	0x3e042c7e	0.12907597
