trained_models/classification_cnn_with_stereo.pth (torch, 341882 bytes, 9 tensors)

cnn.model.0.weight f4 [8, 2, 5, 5]
0.20036888 0.13685514 0.12029406 0.08535374 0.14072403 -0.11259559 -0.14517787 -0.083157495
-0.030976996 0.08735302 -0.27169308 -0.12675191 -0.30951205 -0.09100804 0.13944896 -0.29879263
-0.2984206 -0.20680153 -0.108023494 0.038367122 -0.16991198 -0.23583263 -0.1996226 -0.022474468
0.19084202 0.013983384 0.05655618 0.019914584 -0.06408982 -0.00906022 -0.041968454 -0.08463533
-0.038937885 -0.10302106 -0.0019171628 -0.068471625 -0.061080176 -0.031654943 0.04028873 0.034571506
0.03515165 -0.019155899 0.08311884 0.06294188 -0.005081834 0.060916703 0.033366542 0.0076200534
0.05155278 -0.08632407 0.15567385 -0.1709169 -0.28725472 -0.21891777 -0.20005666 0.08407782
0.023488794 -0.19264702 -0.12360884 -0.2556104 0.19839162 0.09510866 0.02688124 -0.15325701
-0.19144922 0.04992561 0.20365234 -0.05974688 0.11642503 -0.1735473 -0.051633783 -0.03173235
0.1592765 0.07506228 -0.015262603 0.082790256 -0.16641915 -0.11520195 -0.08199086 0.025554433
-0.080418624 -0.04685388 -0.13034835 0.06398017 -0.029736314 0.03218104 0.09097258 0.1029723
0.07661694 -0.14290984 0.09482635 0.07510033 0.03489176 0.07967911 0.0111446 -0.100070775
-0.06704729 0.024715653 -0.13282195 0.10645948 -0.055027563 0.11692516 -0.03664275 -0.24652442
-0.3397558 0.06321985 0.013640214 -0.0459541 -0.23312216 -0.20291185 -0.068782404 0.048415083
-0.078943506 -0.034202226 -0.005274805 0.073508024 -0.06411884 0.019292068 0.112631135 0.16133672
0.11840029 0.08221571 0.037365127 -0.063871235 -0.083949625 0.09060818 0.073439986 0.07426215
0.122470215 0.12103778 0.055630263 0.005579632 -0.008478985 -0.11580317 0.081732884 -0.118339315
-0.16399035 -0.12907729 -0.1345751 0.09594928 -0.24222125 -0.14482267 -0.12602447 -0.18969448
0.098044895 -0.14221424 -0.2866481 -0.16675237 -0.015860043 0.13898245 0.13078594 0.058486227
0.012630063 -0.00637086 0.09372952 -0.019083831 -0.029124787 0.20944628 -0.11681576 0.028225336
0.030583512 -0.027858917 -0.057999723 -0.025022624 0.20129485 -0.015936444 -0.049552754 0.11765876
0.0038018217 -0.11485727 0.18051142 0.06310932 -0.11065508 0.13597469 0.023314748 0.06033862
-0.08512849 0.15249711 0.07852181 -0.023952937 -0.07923161 -0.081460655 -0.17701818 0.10746255
0.15294729 0.1501274 0.11383257 -0.15898661 0.10112273 0.023291897 0.06543686 0.08160375
-0.021082547 -0.11524046 0.0591517 -0.0093169045 0.13692454 -0.012533824 -0.018920084 0.11651686
0.028686864 0.108928785 -0.010417046 0.093412355 0.18489715 0.06314001 -0.08456118 -0.13211714
-0.099051155 -0.11080236 -0.08722704 -0.0042586722 0.1140177 -0.10808395 0.010601413 -0.14794736
-0.029497689 0.05907195 0.06958196 0.09090949 -0.1047446 -0.17185816 -0.21738242 -0.03225052
-0.13019104 0.07428588 0.039559603 0.05738022 0.111726634 -0.025305951 0.048524935 -0.08847165
-0.02630514 -0.11339462 -0.06148474 -0.04397001 -0.043075252 -0.0859302 0.10932547 0.04566731
-0.0929902 -0.073238574 0.038716476 0.058052454 -0.05320162 -0.06924507 -0.20248936 -0.091451734
-0.19750178 -0.1484814 -0.1013236 -0.16077071 0.20239723 0.081789054 -0.1323923 -0.23019192
00000000: 802d 4d3e c123 0c3e bb5c f63d f1cd ae3d
00000010: f619 103e 8498 e6bd 82a9 14be 7a4e aabd
00000020: 78c3 fdbc 24e6 b23d 5b1b 8bbe 41cb 01be
00000030: 5d78 9ebe 6c62 babd b5cb 0e3e 59fb 98be
00000040: 96ca 98be c8c3 53be 6c3b ddbd d826 1d3d
00000050: 68fd 2dbe 1c7e 71be de69 4cbe 601c b8bc
00000060: 176c 433e 901a 653c 74a7 673d e923 a33c
00000070: 8641 83bd 5171 14bc 1de7 2bbd 4a55 adbd
00000080: 557d 1fbd b5fc d2bd 4f49 fbba da3a 8cbd
00000090: 352f 7abd 9da8 01bd cc05 253d da9a 0d3d
000000a0: 2dfb 0f3d d5ec 9cbc 363a aa3d ace7 803d
000000b0: 8385 a6bb cb83 793d 5bab 083d a4b1 f93b
000000c0: 0229 533d adca b0bd f768 1f3e d704 2fbe
000000d0: 0d13 93be fb2b 60be a7db 4cbe fe30 ac3d
000000e0: 926b c03c 4345 45be a226 fdbd 5edf 82be
000000f0: 2c27 4b3e 54c8 c23d 0c36 dc3c 68ef 1cbe
00000100: 440b 44be cc7e 4c3d 3d8a 503e 25b9 74bd
00000110: 3f70 ee3d 62b6 31be f27d 53bd c8f9 01bd
00000120: 6119 233e 41ba 993d ff0f 7abc f08d a93d
00000130: c869 2abe 00ef ebbd d3ea a7bd 8857 d13c
00000140: 85b2 a4bd dbe9 3fbd 0a7a 05be 0908 833d
00000150: 9299 f3bc 44d0 033d d54f ba3d 24e3 d23d
00000160: 58e9 9c3d f556 12be 5134 c23d 34ce 993d
00000170: aaea 0e3d cd2e a33d d797 363c e8f1 ccbd
00000180: 1750 89bd 7b78 ca3c 7a02 08be 6e07 da3d
00000190: 9564 61bd 7576 ef3d b516 16bd e670 7cbe
000001a0: 79f4 adbe 6979 813d 347b 5f3c 5e3a 3cbd
000001b0: 93b7 6ebe 20c8 4fbe cadd 8cbd e54e 463d
000001c0: 22ad a1bd a217 0cbd 45d8 acbb 608b 963d
000001d0: bd50 83bd 660a 9e3c 27ab e63d 7435 253e
000001e0: da7b f23d b660 a83d 2d0c 193d ecce 82bd
000001f0: c8ed abbd c890 b93d b467 963d c116 983d
00000200: aad1 fa3d a8e2 f73d 8fdc 633d 58d5 b63b
00000210: 71eb 0abc 362a edbd 9263 a73d e25b f2bd
00000220: 16ed 27be d62c 04be 0ece 09be 0e81 c43d
00000230: d908 78be 654c 14be 8f0c 01be 453f 42be
00000240: c3cb c83d 9ca0 11be 8ac3 92be 22c1 2abe
00000250: ecec 81bc 6a51 0e3e c0ec 053e 418f 6f3d
00000260: 53ee 4e3c a6c2 d0bb 43f5 bf3d b255 9cbc
00000270: 1b97 eebc 1679 563e 1a3d efbd d238 e73c
00000280: 468a fa3c 6238 e4bc 1e91 6dbd 3ffc ccbc
00000290: 3d20 4e3e 258d 82bc d4f7 4abd 13f7 f03d
000002a0: fc27 793b 4a3a ebbd fcd7 383e 763f 813d
000002b0: 219f e2bd f33c 0b3e 92fe be3c a125 773d
000002c0: d957 aebd 3428 1c3e 0bd0 a03d f338 c4bc
000002d0: 2f44 a2bd d8d4 a6bd 4144 35be 5315 dc3d
000002e0: 379e 1c3e ffba 193e 0d21 e93d 63cd 22be
000002f0: 6f19 cf3d a6ce be3c c303 863d de1f a73d
00000300: 4eb5 acbc 3103 ecbd 0e49 723d eea5 18bc
00000310: f235 0c3e ab5a 4dbc 4bfe 9abc 64a0 ee3d
00000320: b700 eb3c 0e16 df3d 42ac 2abc fa4e bf3d
00000330: ae55 3d3e 8d4f 813d 692e adbd b749 07be
00000340: 55db cabd 59ec e2bd 17a4 b2bd 558c 8bbb
00000350: 1d82 e93d 1e5b ddbd 8db1 2d3c 837f 17be
00000360: 23a5 f1bc 6ef5 713d fd80 8e3d c12e ba3d
00000370: 5684 d6bd 96fb 2fbe 7f99 5ebe 1f19 04bd
00000380: cd50 05be 3223 983d 4009 223d 8607 6b3d
00000390: efd0 e43d 6d4e cfbc 15c2 463d a030 b5bd
000003a0: e17d d7bc 703b e8bd 6cd7 7bbd e619 34bd
000003b0: ad6f 30bd 2cfc afbd 08e6 df3d a50d 3b3d
000003c0: a571 bebd 1bfe 95bd 2b95 1e3d 69c8 6d3d
000003d0: f1e9 59bd 5cd0 8dbd 5f59 4fbe 0c4b bbbd
000003e0: e83d 4abe 820b 18be bf82 cfbd 14a1 24be
000003f0: 3841 4f3e 0581 a73d d991 07be 6eb7 6bbe

cnn.model.0.bias f4 [8]
-0.2050115 -0.14248098 -0.21762194 0.06277067 -0.13348807 -0.1312077 -0.18405704 -0.068166554
00000000: 89ee 51be 89e6 11be 49d8 5ebe e98d 803d
00000010: 19b1 08be 505b 06be 7379 3cbe e89a 8bbd

cnn.model.3.weight f4 [16, 8, 5, 5]
-0.0069349934 0.15703852 0.08162829 0.055913318 0.0076226355 -0.011013172 -0.013164087 0.044780266
0.09399824 0.09671888 0.1452661 0.07078578 -0.027685268 -0.1191903 0.08086439 0.06953229
0.07471558 -0.0012297143 -0.19231492 -0.1289721 0.011720311 0.07724897 0.08118783 -0.00987103
0.020264216 0.039352633 0.05954247 0.044404887 -0.088190906 0.10769791 0.009209688 0.11696256
0.029219722 -0.0040295245 0.030123461 0.015229795 0.14162937 0.049003955 0.12584563 0.07842166
0.31395876 0.10523688 0.08835822 0.007546874 0.113696314 0.025841452 0.0021352235 0.11422053
0.12781274 0.13512598 0.008357092 0.07474017 0.071580455 0.091400996 0.039591424 0.042221174
-0.044021115 0.010954964 0.14118008 0.07774117 0.019583587 0.11267384 0.043543343 0.09142915
0.15578324 0.14538893 0.10979044 0.115099736 0.15721716 0.06968721 0.118836015 0.03741747
0.1556604 0.10625455 0.08144107 -0.08405511 -0.03218851 -0.025607511 -0.015084009 -0.092023015
-0.0775819 -0.0016201531 -0.07655667 -0.030540759 -0.087748356 -0.1406211 0.020476388 0.042087507
-0.050007634 0.075437225 -0.13529032 -0.09253735 -0.026672924 -0.08939967 -0.06057291 -0.3123413
-0.20833738 -0.08468069 0.021626845 -0.09174026 -0.10082579 -0.08833269 -0.09859186 -0.060000245
-0.04245287 0.024390979 -0.16471824 -0.22786544 -0.16979451 0.02762832 -0.023245318 -0.051360764
-0.14522728 -0.17847563 -0.027012503 0.043214384 0.04335243 -0.05192729 -0.101683386 -0.087555066
0.027379032 0.073901206 -0.033909094 0.033482317 0.09225296 -0.1307098 -0.068710946 -0.027741633
0.060387738 -0.1611815 -0.036360364 -0.00697408 0.020552592 0.03491246 -0.14854315 -0.16384837
-0.1403586 0.030053645 -0.025033096 -0.17456119 -0.1827121 -0.048454467 0.0075749927 -0.041281972
-0.08787901 -0.095990516 -0.10111998 0.0044283215 -0.09882295 -0.012718297 0.003783832 0.0021166068
0.08369936 0.04927009 -0.055031434 -0.047480475 0.07888806 0.11943318 0.12755466 0.07452352
-0.094446495 -0.20679961 -0.206748 0.021825265 0.19834156 -0.14926921 -0.17191072 -0.33865142
-0.25550744 0.15645918 0.06262258 -0.035648603 -0.21307836 -0.19476894 0.06748774 -0.009886748
-0.0328454 -0.10685019 -0.13094383 -0.18842773 0.030919898 -0.0075126714 -0.07495927 -0.09018126
-0.07583899 -0.0032897745 0.03287263 0.0006388042 -0.10669942 -0.13726048 -0.0070826304 -0.018587211
-0.09055017 -0.10206969 -0.049027085 -0.3475547 -0.2037088 -0.0665148 -0.0272822 -0.0009405841
-0.16176435 -0.08605584 -0.08222459 0.08558543 0.11276446 -0.0348349 -0.03895406 0.0903681
0.045078475 0.123592846 -0.01030854 0.027310817 0.069832124 0.105969794 0.03696532 0.074795336
0.076415375 0.07448088 0.08728394 0.06015361 0.21562119 0.08983461 0.12750275 0.09382433
-0.0033814332 -0.24381486 -0.19163136 -0.06377381 -0.09907218 0.02565472 -0.09330645 -0.02739606
-0.06667755 -0.03693949 0.061523743 0.04131993 0.050607502 0.040137447 0.061794676 0.052424382
0.05591212 0.010085466 -0.05928721 -0.04382671 0.016047137 0.100096546 -0.00084482983 -0.08574667
-0.1469312 -0.094945304 0.11906985 0.093837164 0.07914654 0.044294834 -0.034697317 0.059726384
00000000: f13e e3bb b5ce 203e bc2c a73d 5d05 653d
00000010: 4dc7 f93b 9770 34bc 2fae 57bc 836b 373d
00000020: 2682 c03d 8c14 c63d a3c0 143e 23f8 903d
00000030: 37cc e2bc 0b1a f4bd 3b9c a53d f266 8e3d
00000040: 7b04 993d 5d2e a1ba 34ee 44be 4311 04be
00000050: 8c06 403c b534 9e3d ce45 a63d 1aba 21bc
00000060: 2401 a63c 3a30 213d cee2 733d e6e1 353d
00000070: 6f9d b4bd b990 dc3d 3be4 163c 118a ef3d
00000080: 335e ef3c 1a0a 84bb 7ac5 f63c 6486 793c
00000090: 4a07 113e 5fb8 483d addd 003e 899b a03d
000000a0: 34bf a03e 6f86 d73d 28f5 b43d c54b f73b
000000b0: 9dd9 e83d 74b1 d33c 1bef 0b3b 74ec e93d
000000c0: 58e1 023e 775e 0a3e 2fec 083c 6011 993d
000000d0: c698 923d 7230 bb3d 9e2a 223d 1cf0 2c3d
000000e0: 7c4f 34bd 737c 333c 8391 103e c336 9f3d
000000f0: c26d a03c 8bc1 e63d 815a 323d 353f bb3d
00000100: a485 1f3e d6e0 143e cfd9 e03d 69b9 eb3d
00000110: 89fd 203e 2bb8 8e3d 4c60 f33d 1043 193d
00000120: 7165 1f3e fc9b d93d 93ca a63d 1625 acbd
00000130: 19d8 03bd d8c6 d1bc eb22 77bc 9076 bcbd
00000140: 42e3 9ebd 515b d4ba bec9 9cbd 9d30 fabc
00000150: 69b5 b3bd fafe 0fbe 19be a73c f363 2c3d
00000160: ced4 4cbd d57e 9a3d 8c89 0abe 3984 bdbd
00000170: 2d81 dabc 2d17 b7bd 4d1b 78bd 33eb 9fbe
00000180: 6556 55be 126d adbd c82a b13c 51e2 bbbd
00000190: c07d cebd c5e7 b4bd 87ea c9bd d1c2 75bd
000001a0: 10e3 2dbd 97cf c73c e6ab 28be 8f55 69be
000001b0: 9dde 2dbe c954 e23c f76c bebc aa5f 52bd
000001c0: 76b6 14be 51c2 36be 5349 ddbc 9101 313d
000001d0: 5192 313d b6b1 54bd 613f d0bd 1250 b3bd
000001e0: fe49 e03c 8459 973d 43e4 0abd c124 093d
000001f0: 1fef bc3d cad8 05be 53b8 8cbd 6c42 e3bc
00000200: 2259 773d c30c 25be 9bee 14bd d386 e4bb
00000210: e95d a83c 5e00 0f3d b21b 18be dec7 27be
00000220: 2aba 0fbe 1033 f63c 3512 cdbc 2bc0 32be
00000230: e118 3bbe 3178 46bd a537 f83b 4917 29bd
00000240: e9f9 b3bd ad96 c4bd fe17 cfbd 741b 913b
00000250: b063 cabd 6760 50bc 2bfa 773b c5b6 0a3b
00000260: 926a ab3d 6fcf 493d a468 61bd e37a 42bd
00000270: 1090 a13d 6299 f43d b09d 023e ca9f 983d
00000280: 2a6d c1bd 47c3 53be bfb5 53be e6ca b23c
00000290: 0d1a 4b3e 07da 18be 5d09 30be b863 adbe
000002a0: dfd1 82be d636 203e 4440 803d 4504 12bd
000002b0: 3731 5abe 8271 47be 0337 8a3d 07fc 21bc
000002c0: e688 06bd 46d4 dabd 2416 06be 33f3 40be
000002d0: ba4b fd3c db2c f6bb 3f84 99bd f4b0 b8bd
000002e0: 7951 9bbd 4299 57bb 73a5 063d 6d75 273a
000002f0: 3a85 dabd 038e 0cbe 6915 e8bb 3544 98bc
00000300: 5e72 b9bd ea09 d1bd a0d0 48bd b1f2 b1be
00000310: 0a99 50be e938 88bd ec7e dfbc 8891 76ba
00000320: 8ea5 25be 0b3e b0bd 5e65 a8bd 6a47 af3d
00000330: 0ef1 e63d 0aaf 0ebd 4b8e 1fbd e912 b93d
00000340: 35a4 383d 3f1e fd3d 27e5 28bc efba df3c
00000350: 2504 8f3d b106 d93d f368 173d 4c2e 993d
00000360: aa7f 9c3d 6e89 983d ecc1 b23d a263 763d
00000370: cdcb 5c3e 35fb b73d 1590 023e f826 c03d
00000380: 099b 5dbb 9aaa 79be 033b 44be d89b 82bd
00000390: 5be6 cabd d929 d23c 7417 bfbd b46d e0bc
000003a0: 3d8e 88bd dd4d 17bd 5200 7c3d 163f 293d
000003b0: d049 4f3d 2a67 243d 6a1c 7d3d f3ba 563d
000003c0: 1b04 653d 833d 253c 25d7 72bd a383 33bd
000003d0: 4975 833c 6bff cc3d 9277 5dba f39b afbd
000003e0: 2275 16be af72 c2bd e5da f33d b32d c03d
000003f0: 9517 a23d 806e 353d c61e 0ebd a7a3 743d

cnn.model.3.bias f4 [16]
-0.017452465 -0.058954325 -0.06080359 -0.08619185 -0.022101447 -0.022068558 -0.059754897 -0.09057456
0.08285003 0.05234522 -0.02358201 -0.06522091 0.08463379 -0.07488911 -0.048256304 -0.11349244
00000000: 79f8 8ebc 177a 71bd 2f0d 79bd 5a85 b0bd
00000010: 180e b5bc 1fc9 b4bc 8dc1 74bd 287f b9bd
00000020: 47ad a93d f167 563d 0f2f c1bc 8a92 85bd
00000030: 7b54 ad3d 765f 99bd 67a8 45bd b96e e8bd

fully_connected.0.weight f4 [128, 597]
-0.0992602 0.053777397 0.008029371 0.05364835 0.112281166 0.080088094 0.11859347 0.08071861
0.08970832 0.06803559 0.06283648 0.14115833 -0.030854063 0.0047753025 0.026733402 0.12978804
0.1772432 0.094136976 0.14162825 -0.002904577 0.03992642 0.09004695 0.14495698 0.033310752
0.23022972 0.029586803 0.04144466 0.12093122 -0.018844262 0.016151415 0.1306119 -0.079565056
-0.11357508 0.016403202 0.045149334 -0.07196985 -0.058576193 -0.02386687 0.09770684 0.026848458
0.022037808 0.065445825 0.03505809 0.01586829 0.04391932 0.11190591 0.14026828 0.15267615
0.12440725 0.23228185 0.12613367 0.083925195 0.10293134 0.09196913 0.20297101 0.074636534
0.14573617 0.16181815 0.0004820224 0.24006994 0.08442597 0.039522517 -0.004341399 -0.14209722
-0.13487896 0.026028031 -0.11631806 0.0085305115 -0.063434675 -0.16234972 -0.13255067 -0.065670684
0.08277868 -0.022777572 0.03558047 -0.0067810607 0.06761969 -0.02545462 0.05827472 0.123967305
-0.062644444 0.011106741 0.009701891 -0.12285568 0.08826521 -0.0007988872 0.036824092 -0.057603687
0.0006058562 0.014213744 0.0010879048 -0.10922812 0.11518098 0.13025242 0.16496046 0.22550544
0.21780321 0.07287951 0.14991343 0.010120009 0.15374604 0.035770115 0.07684325 -0.017756585
0.032744262 0.1001006 0.027663637 0.066126056 0.092791446 0.09499438 0.13276051 0.20932756
0.10774737 0.16467531 0.022793636 0.10133547 0.05713323 0.19392484 0.11274647 -0.08326965
0.1744786 0.18182503 0.008362158 0.12564781 0.22858179 0.023963239 -0.020510586 0.124795005
0.037625182 0.060704626 0.04007557 0.107445695 -0.24167289 0.07209935 0.0034054902 0.11230985
0.068907455 0.1965846 -0.17198958 -0.23638223 0.08934895 0.022962559 -0.005916366 0.203684
-0.06924718 -0.056446783 -0.040191557 -0.05346265 0.035444997 -0.13220039 -0.10075728 -0.05258511
-0.015316442 0.033313856 -0.003947528 -0.06738892 -0.09092784 -0.010612877 -0.014572565 -0.034310147
-0.057119448 -0.097649716 -0.14296934 -0.08264808 -0.002025388 0.03410862 -0.023754334 -0.101872005
-0.21957403 -0.20169996 -0.059325494 -0.085288554 -0.11954808 -0.16125256 -0.33880922 -0.3451284
-0.20012216 -0.24081498 -0.20188725 -0.1389833 0.07212449 0.08138454 0.105389334 0.050858624
0.14331591 0.16804013 -0.045443434 0.034425136 0.12609361 0.015670506 0.060170766 0.067868665
0.0885561 0.08260227 0.11379753 0.13956293 0.03200932 0.036567528 0.08205391 0.1390238
0.11671804 0.04727573 -0.011848677 0.17186898 0.048948485 0.101971254 0.11680572 0.06966935
0.13315064 0.16539888 0.008146398 0.014038032 0.027739255 0.06652455 -0.021120187 0.002338312
0.003927397 0.13814297 0.0058667646 0.08079291 0.11785887 0.06768289 -0.14127444 0.048207752
-0.052366607 0.089972876 0.10500405 0.10868451 -0.031290997 -0.022401433 -0.0019496062 0.13255662
0.17929332 0.16701142 0.102164075 -0.019292902 0.097293064 0.14699696 0.116349936 0.0787159
0.11148631 0.079955146 -0.022758024 0.02326104 0.039812114 -0.060381696 -0.009765575 -0.18289298
-0.025798915 -0.033666413 -0.014609447 0.21070735 -0.01416414 0.0767872 0.035775073 0.018145809
00000000: ef48 cbbd b045 5c3d 9f8d 033c 5fbe 5b3d
00000010: abf3 e53d 3a05 a43d 22e1 f23d cc4f a53d
00000020: ffb8 b73d 3e56 8b3d 6ab0 803d cf8b 103e
00000030: a9c1 fcbc 247a 9c3b 0200 db3c 28e7 043e
00000040: 3e7f 353e e3ca c03d ff06 113e b75a 3ebb
00000050: e389 233d 896a b83d 9a6f 143e db70 083d
00000060: 57c1 6b3e 0660 f23c e0c1 293d caaa f73d
00000070: 485f 9abc f94f 843c 20bf 053e 01f3 a2bd
00000080: 0d9a e8bd 0260 863c 82ee 383d ee64 93bd
00000090: 97ed 6fbd 7484 c3bc 861a c83d 4cf1 db3c
000000a0: a288 b43c 7608 863d 1299 0f3d 37fe 813c
000000b0: bfe4 333d ed2e e53d 7da2 0f3e 2357 1c3e
000000c0: 3ac9 fe3d 4bdb 6d3e 2f29 013e f9e0 ab3d
000000d0: abcd d23d 505a bc3d a2d7 4f3e 0adb 983d
000000e0: dd3b 153e a8b3 253e f4b7 fc39 e5d4 753e
000000f0: 86e7 ac3d 5de2 213d 4b42 8ebb ef81 11be
00000100: b61d 0abe bd38 d53c 2a38 eebd 8fc3 0b3c
00000110: 0aea 81bd 013f 26be 5dbb 07be 5a7e 86bd
00000120: de87 a93d 0898 babc d4bc 113d a933 debb
00000130: 317c 8a3d 3586 d0bc 79b1 6e3d 92e2 fd3d
00000140: bb4b 80bd 0cf9 353c aef4 1e3c c29b fbbd
00000150: 64c4 b43d 6a6c 51ba dcd4 163d d8f1 6bbd
00000160: 52d2 1e3a c3e0 683c 0798 8e3a feb2 dfbd
00000170: 01e4 eb3d e460 053e 65eb 283e e6ea 663e
00000180: ce07 5f3e da41 953d e882 193e 65ce 253c
00000190: 9a6f 1d3e af83 123d fe5f 9d3d 4276 91bc
000001a0: d91e 063d 8b01 cd3d da9e e23c 196d 873d
000001b0: 7109 be3d 6a8c c23d 5ff2 073e f759 563e
000001c0: a7aa dc3d a5a0 283e b8b9 ba3c f988 cf3d
000001d0: 8904 6a3d 3c94 463e 9fe7 e63d 4789 aabd
000001e0: 85aa 323e 5730 3a3e 6f01 093c d2a9 003e
000001f0: 5811 6a3e 8e4e c43c d105 a8bc 8694 ff3d
00000200: dd1c 1a3d 6aa5 783d 4826 243d 7d0c dc3d
00000210: 1979 77be d3a8 933d a52e 5f3b b502 e63d
00000220: 5a1f 8d3d 794d 493e 091e 30be 2f0e 72be
00000230: 95fc b63d fa1b bc3c 13de c1bb 8a92 503e
00000240: 77d1 8dbd be34 67bd e79f 24bd a7fb 5abd
00000250: c62e 113d 8a5f 07be d559 cebd 7c63 57bd
00000260: d0f1 7abc 1c74 083d 445a 81bb 3403 8abd
00000270: 6038 babd a2e1 2dbc c5c1 6ebc cc88 0cbd
00000280: 15f6 69bd 93fc c7bd 8e66 12be 6643 a9bd
00000290: 5fbc 04bb 7bb5 0b3d 7398 c2bc 45a2 d0bd
000002a0: 04d8 60be 6f8a 4ebe 4aff 72bd c4ab aebd
000002b0: a0d5 f4bd 641f 25be 6778 adbe abb4 b0be
000002c0: d3ec 4cbe 3498 76be 88bb 4ebe a351 0ebe
000002d0: 01b6 933d f0ac a63d 5dd6 d73d 2251 503d
000002e0: 68c1 123e b612 2c3e e522 3abd 5f01 0d3d
000002f0: af1e 013e 6f5f 803c 9f75 763d bafe 8a3d
00000300: e75c b53d 612b a93d ae0e e93d 96e9 0e3e
00000310: 341c 033d d5c7 153d e10b a83d 415c 0e3e
00000320: de09 ef3d 32a4 413d f420 42bc 6cfe 2f3e
00000330: 357e 483d 4ed6 d03d d637 ef3d ceae 8e3d
00000340: a458 083e 535e 293e 7878 053c c6ff 653c
00000350: 6f3d e33c 063e 883d 3e04 adbc 5e3e 193b
00000360: 65b1 803b 5a75 0d3e fd3d c03b c176 a53d
00000370: fe5f f13d 549d 8a3d 3faa 10be 7e75 453d
00000380: 5e7e 56bd b343 b83d 5d0c d73d fc95 de3d
00000390: fd2a 00bd 3683 b7bc ee89 ffba ecbc 073e
000003a0: ab98 373e 0b05 2b3e 663b d13d 260c 9ebc
000003b0: 9641 c73d 5f86 163e e048 ee3d cd35 a13d
000003c0: ef52 e43d 86bf a33d 096f babc f08d be3c
000003d0: 0712 233d cc52 77bd caff 1fbc 4c48 3bbe
000003e0: 3f58 d3bc cbe5 09bd 765c 6fbc abc3 573e
000003f0: b610 68bc 9c42 9d3d e288 123d 85a6 943c

fully_connected.0.bias f4 [128]
-0.034308 0.09128708 0.00048335645 -0.44593072 0.1310774 0.12147635 0.12217775 0.025773767
0.13542971 0.15613674 -0.07998452 0.042825963 0.09136466 0.13526843 -0.09889413 0.1258046
0.24050708 0.11156657 0.17229381 0.36601973 -0.9100444 0.017794786 -0.037678808 0.16715495
0.054321755 -0.92885923 -0.07337276 -0.012651751 0.03586121 0.06677021 0.14077485 0.10079298
0.097879544 0.16448143 0.11268711 -0.079431504 0.140132 0.014753461 0.028679125 0.105897255
0.15531854 -0.06466818 0.0061895675 -0.03337599 -0.04064478 0.07828554 -0.02560087 0.049449712
0.08772926 0.11830006 0.0015818223 -0.003934429 -0.046280198 -0.8654642 0.115768604 -0.058207322
-0.012309903 -0.007464254 0.15224177 0.0025482867 0.104394004 -0.061138242 -0.029969234 0.006046549
0.050263394 0.19623654 0.12985913 0.14112855 0.08238513 0.51243395 0.52703774 -0.040791217
-0.89033246 -1.0178292 -0.013816939 -0.14365144 0.06469599 0.1257501 0.015959626 0.068326205
-0.037704382 0.1405113 0.056683775 0.08873494 0.0885728 0.3570922 0.18288067 0.54257363
-0.0719517 -0.039308626 0.030206036 -0.27946988 -0.03565517 0.07694768 0.10897447 -0.086506955
-0.053141307 -0.06638933 0.21370575 0.0064464975 0.07152581 -0.16024761 -0.02940826 0.11384385
0.3679771 -0.015092543 0.14453326 -0.029661613 0.10645757 0.17022175 -0.01302002 0.14467682
-0.010366826 0.00084582553 0.027777867 0.14985652 0.13266966 0.056047775 -0.037455663 -0.00073864294
0.10457642 0.09026182 -0.2443789 0.22074275 -0.0048681023 0.058809828 0.10878501 -0.038511883
00000000: 8c86 0cbd b8f4 ba3d 016b fd39 0851 e4be
00000010: 2739 063e 98c8 f83d 5438 fa3d 8223 d33c
00000020: 16ae 0a3e 4fe2 1f3e edce a3bd 476a 2f3d
00000030: 651d bb3d cf83 0a3e 0189 cabd ecd2 003e
00000040: 7d47 763e 047d e43d ca6d 303e f066 bb3e
00000050: abf8 68bf 5fc6 913c 1855 1abd ab2a 2b3e
00000060: 7d80 5e3d b8c9 6dbf 7544 96bd 4a49 4fbc
00000070: 34e3 123d d2be 883d 4827 103e 8d6c ce3d
00000080: 1275 c83d d26d 283e 80c8 e63d fcac a2bd
00000090: c37e 0f3e 80b8 713c 7cf0 ea3c a9e0 d83d
000000a0: d30b 1f3e c070 84bd dbd1 ca3b 43b5 08bd
000000b0: 247b 26bd 2b54 a03d eab8 d1bc c88b 4a3d
000000c0: 66ab b33d 4d47 f23d 2655 cf3a 62ec 80bb
000000d0: 4e90 3dbd 108f 5dbf 1718 ed3d cd6a 6ebd
000000e0: 7aaf 49bc b396 f4bb 44e5 1b3e 2801 273b
000000f0: 86cc d53d 186c 7abd 0a82 f5bc 2122 c63b
00000100: fde0 4d3d 3bf2 483e cbf9 043e 0184 103e
00000110: 89b9 a83d df2e 033f f2eb 063f b114 27bd
00000120: d4ec 63bf 3a48 82bf 7160 62bc 5d19 13be
00000130: 557f 843d a2c4 003e c3bd 823c 9cee 8b3d
00000140: e96f 1abd 32e2 0f3e 3f2d 683d aaba b53d
00000150: a865 b53d cad4 b63e 1245 3b3e 1be6 0a3f
00000160: 6a5b 93bd 1502 21bd a672 f73c ad16 8fbe
00000170: 280b 12bd bf96 9d3d 022e df3d 8f2a b1bd
00000180: b3aa 59bd 21f7 87bd aed5 5a3e 243d d33b
00000190: 207c 923d f317 24be 97e9 f0bc f726 e93d
000001a0: 7f67 bc3e b746 77bc 8700 143e e9fc f2bc
000001b0: 6d06 da3d 9c4e 2e3e ec51 55bc 2926 143e
000001c0: 9fd9 29bc 64ba 5d3a 698e e33c fd73 193e
000001d0: 8eda 073e 5a92 653d 1c6b 19bd 7da1 41ba
000001e0: 292c d63d 30db b83d 763e 7abe 630a 623e
000001f0: 9a84 9fbb 93e2 703d adca de3d a3be 1dbd

fully_connected.2.weight f4 [32, 128]
0.039271597 -0.17263368 -0.013250442 -0.15511285 -0.20821393 -0.0604752 -0.09965667 -0.08548259
-0.26371926 -0.13841324 0.06261631 -0.10059687 -0.09631178 -0.25185248 0.29448035 -0.07616849
0.105964206 -0.10374233 0.09517227 0.16771825 -0.15645051 -0.13313684 0.074409604 -0.22232132
-0.05572154 -0.40805838 0.057230614 0.056304824 0.001994032 -0.03788545 -0.034415614 -0.30743724
-0.18391463 -0.34730414 -0.04457981 -0.09200196 -0.1692054 0.023999248 0.118392006 -0.08566916
0.0599083 0.06478175 0.09677117 -0.13583349 0.07209118 -0.053606916 0.005232331 0.039688874
-0.08644839 -0.13600995 0.15963376 -0.051697053 0.116405316 -0.33143118 -0.041137006 -0.026437322
0.08773938 -0.026333047 -0.268957 0.047221314 -0.11580407 -0.0056326906 0.017888859 0.16123249
-0.28542143 -0.09782664 -0.09031432 -0.29494095 -0.03503753 0.16147082 0.14983943 0.0077536847
0.005325271 -0.07997235 0.059446428 0.26923797 -0.2600411 -0.0966586 0.06697682 -0.20439646
-0.016514847 -0.45719615 0.14004447 -0.054017756 -0.2180037 0.089008436 -0.10766986 0.18418203
-0.088368125 -0.111081935 0.09973905 -0.009477027 -0.000606022 -0.2442082 0.12000362 0.0428926
0.22633411 -0.007299589 0.09516416 0.064189106 -0.16645296 -0.1336308 -0.13970205 -0.2607774
0.11470569 0.16883647 -0.027504174 0.054730225 -0.17625993 -0.22705504 0.036040276 -0.0040710936
0.13138494 0.11071275 0.088205434 -0.10177999 -0.27893925 -0.3025442 0.0048753875 0.15269049
0.006586062 -0.04199338 -0.016947715 0.07478735 0.025938982 0.09687583 -0.13303971 0.04623231
-0.23944457 0.03187701 -0.077338405 -0.39587823 0.12103592 0.20005135 -0.065346524 0.006866894
0.12584634 0.22646655 -0.20924842 0.055472754 0.12957895 0.12550807 -0.2665854 0.15735775
0.112081304 0.10703784 0.05294377 0.038671542 -0.3745667 -0.113208145 -0.07577113 0.07647116
-0.045730002 -0.35123125 -0.15963383 -0.22933972 -0.13411628 0.07576553 0.17315468 0.12568174
0.17076774 0.17016014 0.026930697 -0.07446526 0.16732259 0.008604954 0.10517666 -0.059407964
0.12787378 -0.1600478 -0.033586293 -0.26075113 -0.04757439 0.067945935 -0.08077362 -0.0004983405
-0.04719678 0.0445202 -0.19404517 -0.0774958 -0.21417864 -0.22314419 0.10765848 -0.23506081
-0.18444492 -0.1966666 0.14579885 -0.25067765 0.08559123 -0.056200422 -0.18175943 -0.023534475
0.20195709 0.16574702 -0.04914154 0.22921908 -0.029800689 0.06541488 0.1316409 -0.17704237
-0.34473228 -0.29146376 -0.1099902 -0.16890807 0.045764286 0.14100055 -0.0059422003 0.16141534
-0.080221504 0.22859727 0.014404973 0.073826045 0.08484375 0.11194161 0.07380629 0.076964654
-0.034472067 -0.27035424 0.0049912194 -0.38690013 -0.12949975 0.05226517 -0.052728605 -0.34170464
-0.27448186 -0.29828995 -0.06245776 -0.1977115 0.11082659 -0.07537785 -0.048507094 0.08032961
0.0010584256 -0.14185184 -0.060957704 -0.10530128 0.13687612 0.20136082 -0.11075186 0.094534725
-0.23086067 -0.29880738 0.013440576 0.11430141 0.05133736 0.17353399 -0.34080178 -0.22740358
0.06591705 0.13538173 -0.3700182 0.05150347 -0.14130741 0.008542269 0.2417804 -0.04935359
00000000: 41db 203d e2c6 30be 6218 59bc e7d5 1ebe
00000010: 0836 55be d8b4 77bd cc18 ccbd 7f11 afbd
00000020: 3606 87be 33bc 0dbe fb3c 803d bb05 cebd
00000030: 1c3f c5bd cff2 80be 21c6 963e 3afe 9bbd
00000040: c303 d93d dc76 d4bd aee9 c23d 55be 2b3e
00000050: 9034 20be 0655 08be 1064 983d 33a8 63be
00000060: 453c 64bd 07ed d0be a66a 6a3d e39f 663d
00000070: 4eae 023b c62d 1bbd 63f7 0cbd 6a68 9dbe
00000080: 1e54 3cbe d9d1 b1be 5299 36bd 866b bcbd
00000090: 2e44 2dbe 129a c43c 8277 f23d 5073 afbd
000000a0: 6862 753d 4bac 843d f72f c63d ef17 0bbe
000000b0: 8aa4 933d ed92 5bbd f973 ab3b cd90 223d
000000c0: da0b b1bd 3146 0bbe 0877 233e 4ac0 53bd
000000d0: e965 ee3d 59b1 a9be 477f 28bd 1593 d8bc
000000e0: b4b0 b33d 67b8 d7bc bbb4 89be 236b 413d
000000f0: af2a edbd 6f92 b8bb a88b 923c 211a 253e
00000100: c222 92be 5559 c8bd b7f6 b8bd 8002 97be
00000110: 8383 0fbd 9b58 253e 826f 193e 9f12 fe3b
00000120: 9c7f ae3b 8bc8 a3bd 197e 733d 8fd9 893e
00000130: 1b24 85be f2f4 c5bd 252b 893d 4e4d 51be
00000140: 254a 87bc 9d15 eabe d167 0f3e b941 5dbd
00000150: 5d3c 5fbe 0e4a b63d 0482 dcbd 379a 3c3e
00000160: 59fa b4bd ed7e e3bd fd43 cc3d 8845 1bbc
00000170: 73dd 1eba b711 7abe 75c4 f53d 27b0 2f3d
00000180: 21c4 673e 6431 efbb 6de5 c23d 9475 833d
00000190: a572 2abe 83d6 08be 0e0e 0fbe 9e84 85be
000001a0: d1ea ea3d 78e3 2c3e 6f50 e1bc cd2c 603d
000001b0: 7c7d 34be 1e81 68be f89e 133d cf66 85bb
000001c0: c689 063e 5ebd e23d 0da5 b43d 0772 d0bd
000001d0: 20d1 8ebe 13e7 9abe b7c1 9f3b e55a 1c3e
000001e0: e4cf d73b 4001 2cbd efd5 8abc 1c2a 993d
000001f0: fd7d d43c d666 c63d 903b 08be 175e 3d3d
00000200: f530 75be 7891 023d 9963 9ebd 8db0 cabe
00000210: aee1 f73d 43da 4c3e 66d4 85bd af03 e13b
00000220: dddd 003e d9e6 673e 3845 56be 6637 633d
00000230: 58b0 043e 3085 003e e27d 88be 6422 213e
00000240: e28a e53d a836 db3d 91db 583d 0d66 1e3d
00000250: 35c7 bfbe acd9 e7bd e52d 9bbd e99c 9c3d
00000260: 624f 3bbd 95d4 b3be 0d77 23be 08d8 6abe
00000270: c755 09be f52a 9b3d 764f 313e b7b2 003e
00000280: bddd 2e3e 763e 2e3e c49d dc3c 3e81 98bd
00000290: 9d56 2b3e cbfb 0c3c dc66 d73d c455 73bd
000002a0: 58f1 023e 92e3 23be c891 09bd 2c81 85be
000002b0: 5ddd 42bd 3d27 8b3d a46c a5bd 11a3 02ba
000002c0: 6951 41bd d05a 363d c7b3 46be 1eb6 9ebd
000002d0: a551 5bbe e97f 64be 0d7c dc3d c8b3 70be
000002e0: 21df 3cbe f862 49be 4b4c 153e d258 80be
000002f0: 744a af3d 6a32 66bd 251f 3abe 5fcb c0bc
00000300: d7cd 4e3e 96b9 293e a448 49bd 68b8 6a3e
00000310: 9320 f4bc 3df8 853d dfcc 063e 984a 35be
00000320: c080 b0be bd3a 95be 8b42 e1bd 3df6 2cbe
00000330: 5573 3b3d 7362 103e cab6 c2bb 104a 253e
00000340: 2c4b a4bd 6715 6a3e d602 6c3c 1c32 973d
00000350: 8fc2 ad3d a541 e53d c127 973d a59f 9d3d
00000360: 9532 0dbd df6b 8abe 628d a33b c617 c6be
00000370: 959b 04be 0114 563d f3f9 57bd e9f3 aebe
00000380: e388 8cbe 76b9 98be b5d3 7fbd e274 4abe
00000390: 0df9 e23d b45f 9abd 60af 46bd da83 a43d
000003a0: dfba 8a3a 9c41 11be c9ae 79bd 33a8 d7bd
000003b0: 4129 0c3e 8831 4e3e dfd1 e2bd 6c9b c13d
000003c0: bd66 6cbe 48fd 98be dd35 5c3c dc16 ea3d
000003d0: 2047 523d e5b2 313e 927d aebe 7cdc 68be
000003e0: 85ff 863d 82a1 0a3e 0773 bdbe 4df5 523d
000003f0: e4b2 10be dff4 0b3c 4895 773e fd26 4abd

fully_connected.2.bias f4 [32]
0.005493607 0.20761892 0.045320116 0.2170372 0.026591863 0.4386004 0.14827506 -0.008727352
-0.52483827 0.03731465 0.1605609 -0.0410905 -0.0577588 0.2324938 0.13785851 -0.3482863
0.19966623 0.20970424 0.24840724 0.29079378 0.21527264 0.32396725 -0.034734316 0.3064314
0.1142141 0.10133338 -0.09617767 0.19703668 0.24126872 -0.64521724 0.2987699 0.19727226
00000000: b703 b43b 0e9a 543e 96a1 393d 003f 5e3e
00000010: 2ed7 d93c 3b90 e03e 6bd5 173e 2bfd 0ebc
00000020: cd5b 06bf 3fd7 183d 146a 243e 834e 28bd
00000030: 7e94 6cbd db12 6e3e c82a 0d3e 9552 b2be
00000040: 4e75 4c3e b5bc 563e 785e 7e3e ece2 943e
00000050: 6e70 5c3e 09df a53e 9245 0ebd 94e4 9c3e
00000060: 15e9 e93d e087 cf3d ccf8 c4bd fcc3 493e
00000070: 260f 773e f52c 25bf 5ef8 983e bd01 4a3e

fully_connected.4.weight f4 [1, 32]
-0.21384014 0.618893 -0.21828039 0.269612 -0.23603928 0.35305977 -0.21099031 0.10902904
-0.1724812 0.0060465434 0.33401662 0.009702701 -0.1470468 0.36150742 -0.29158112 -0.1232986
0.28019732 0.38950115 0.6257018 0.4107989 0.41442868 0.24012919 -0.20140558 0.47752306
-0.27875277 -0.27328944 -0.0031064246 0.28049374 0.4291646 -0.30567205 0.43685776 0.38523346
00000000: e9f8 5abe c66f 1e3f e584 5fbe 960a 8a3e
00000010: 48b4 71be 40c4 b43e d80d 58be 9e4a df3d
00000020: e99e 30be 1522 c63b 3a04 ab3e 14f8 1e3c
00000030: 7093 16be 8017 b93e 1f4a 95be fa83 fcbd
00000040: 0676 8f3e b26c c73e fe2d 203f 3c54 d23e
00000050: ff2f d43e 6de4 753e 443d 4ebe e77d f43e
00000060: afb8 8ebe 98ec 8bbe 2895 4bbb e09c 8f3e
00000070: 76bb db3e 0c81 9cbe d2ab df3e 523d c53e
