trained_models/classification_cnn_with_hillas_stereo.pth (torch, 350172 bytes, 9 tensors)

cnn.model.0.weight f4 [8, 2, 5, 5]
00000000: 92e5 18bd 540c 6ebe 545a c3be ff5d 26be
00000010: 33cd 053e 6e42 f3bd d0ff b8bd 83dd 85be
00000020: 6756 ecbb fc84 c93d 8926 20be 7888 753b
00000030: f02d 013e 7f1f 123e c6ff ebbb 1d92 033e
00000040: bdcb 403e 7cc7 ceba 1adc 1cbc f8c5 8bbd
00000050: 9196 333e 508b ca3c 0096 27be 783f 0fbe
00000060: 0c4e ae3d 656e 203e 6270 8e3e 1932 04be
00000070: b366 b33d 41b8 38be 28aa 373e bebb 48be
00000080: 6e88 9fbe 5c62 f4bd 3810 a9be fef4 763d
00000090: 3799 5fbe 1584 b8be 7af5 eebe 9510 76be
000000a0: e334 2c3e b0cd 4b3e 41d9 b8bd 04be 4dbe
000000b0: 3ab3 243e 91f0 863e d8c1 d1bc 8fde 63bd
000000c0: f5cd b03e 72e7 ab3e 9547 79be d773 c4be
000000d0: 4d74 a83e 0847 093e 058d f73d 5826 11be
000000e0: adc6 a53e 0112 c63e 5c70 7abe 39c4 44be
000000f0: 6b46 c4bd 7403 8a3e 26bc 383d 37e2 e9be
00000100: d7ef b6be b689 f1bc 8aea 6abb 9186 0cbd
00000110: 4b61 1fbe f225 d8bd 76e9 6e3d 764d 5fbc
00000120: 8d7c fdbc 3339 22be 6cec 27bd 77e1 04be
00000130: a02b b93d c4de 3c3e 4c9e 97bd fbbe 083d
00000140: e6a2 21be ebf3 b9ba a3bc 2b3e 49b8 e73d
00000150: 95ad 83be 3211 42be 8746 353e 3e4e 443e
00000160: 90fe 5ebe 1445 1bbe 1e6e 81be 03d8 dc3b
00000170: f050 8d3c bd84 dabd 893b 0ebb 6005 30be
00000180: 7533 453d c7a2 7c3d 4e80 de3c 6d94 9fbb
00000190: 56e5 54bd 32e6 9dbd 00fe 8abe 96d5 6c3e
000001a0: 542c 413e f215 893d b9dc 3ebd 242b 90be
000001b0: ee67 00be a5a8 87be 0ec4 163e 9d1b ffbc
000001c0: 43f5 a5be 0876 1abe 2c5d 7e3c d06e 833e
000001d0: 8d60 503e 22e5 9b3d 9778 b53d 6542 853d
000001e0: 8e52 483e 3ce7 73bc 55f8 883d 46f4 03be
000001f0: 78be 5f3c b2b1 e0bd 19f3 45be 018b a2bb
00000200: da99 593e 265d 963d e569 d93c 623c 773e
00000210: 9acd 5e3e 61b7 343d 0384 b33d a617 6a3e
00000220: be4c 563e c7a9 613d 2968 1a3e 1dc0 513e
00000230: ea15 c63d 8fe6 b6be 3729 a2be 199b 9c3c
00000240: b049 243e dec6 a9be b4f3 7bbe 76dd c7be
00000250: b85a 3cbe ff4d 73be 89b2 31bb d440 24bb
00000260: b2aa 813d 1b31 e33d 3512 b4bd fdbc 5a3d
00000270: 39a9 1bbe cf14 b63d 2543 603d 00ad 65bc
00000280: c9ab 75bd c7b3 b3bc 851c 89bd b8cc 203e
00000290: ce6e c23d eb32 8b3d 9083 23bd 82b2 43bc
000002a0: 0d51 243e f9f8 99be 3c01 a0bd c4b3 933d
000002b0: 22e7 47be b16d 943c c2ea 003e a8f4 25be
000002c0: 2c65 37bd 5b01 573e d9e2 99be 19f2 09be
000002d0: dd5c 57be cd49 073e 00e0 df3c 1052 e2bd
000002e0: dead 06be 3da5 ba3d 9ffb 2b3e 5191 14be
000002f0: 0fd7 8bbe bd43 9ebe 45e9 8f3e 1c56 2a3e
00000300: baf8 16bd f36b 7abe 63ce 97be 9eaa 903e
00000310: e03c 8e3e 025e c33d ae13 a73c e48a c8be
00000320: 2356 853d 6ff6 cebc c38f 123d 4cc7 a53e
00000330: 8a19 4c3e abab 94bd 769e 53be 4331 26be
00000340: 087c aa3e bcad a03e 5eb8 dd3d 7008 9e3d
00000350: 7679 03bf 0cc1 92be 29d9 ed3c fb7c c9be
00000360: 1acf dfbe ab66 06be d686 fdbd 4066 7bbd
00000370: b077 143e 533f 063b 4f43 233c bbe4 953e
00000380: ce8a 603e 9b27 273e 8756 013e ea6a 0f3d
00000390: 4381 673d 94fd 223e 7c71 e5bc 8279 8a3d
000003a0: 762e 803e 314d 823e 7e31 f4bc 0536 c6bd
000003b0: 4982 a9bd 0698 a3bd 7d38 52bd ae23 88be
000003c0: 9e87 25be bf3c f4bd da53 03be 3bab 0cbe
000003d0: dee3 96bd f8d7 ce3c d08a bdbc 813d 753c
000003e0: b830 6ebc 3b26 893e 0a21 333e 0072 253e
000003f0: 3a72 fa3d 7325 1d3e fded 593e dc43 17be
-0.03732831 -0.2324689 -0.38154852 -0.16246794 0.13066559 -0.11877905 -0.09033167 -0.26145563
-0.0072124484 0.09839818 -0.156397 0.0037465375 0.1261518 0.14269827 -0.0072021214 0.12848707
0.1882772 -0.0015776004 -0.009573961 -0.06824869 0.17537905 0.024724633 -0.16365814 -0.13989055
0.0851098 0.15667112 0.27820116 -0.12909736 0.08759823 -0.18039037 0.17936003 -0.19602868
-0.31158775 -0.11932823 -0.33020186 0.060292237 -0.2183579 -0.3603827 -0.4667166 -0.24029763
0.1681705 0.19902682 -0.09025813 -0.20092016 0.16083995 0.26355413 -0.025605127 -0.05563217
0.34532133 0.33575016 -0.24343713 -0.3836963 0.3290123 0.13406003 0.12087444 -0.14174783
0.3237814 0.3868561 -0.24456924 -0.19215478 -0.09583744 0.2695576 0.045101307 -0.456804
-0.35729858 -0.029484611 -0.0035845363 -0.03430802 -0.15564458 -0.105541125 0.058328114 -0.013629308
-0.03094318 -0.15842132 -0.040996954 -0.12976633 0.09041524 0.18444353 -0.074032396 0.03338526
-0.15784797 -0.0014187073 0.16771178 0.113144465 -0.2571837 -0.18951872 0.17702685 0.19170472
-0.21776795 -0.1516307 -0.25279325 0.006739618 0.017250508 -0.10669849 -0.0021702966 -0.1718955
0.048144776 0.061678674 0.02716079 -0.0048699887 -0.051976524 -0.07709922 -0.27146912 0.23128352
0.18864566 0.06693639 -0.046597216 -0.28157914 -0.12539646 -0.26495853 0.14723226 -0.031141097
-0.32413682 -0.15084088 0.015525144 0.2567048 0.20349331 0.07612063 0.08860891 0.065068044
0.19562742 -0.014886674 0.066879906 -0.12886152 0.013656251 -0.10971393 -0.19331016 -0.004960418
0.21250096 0.073419854 0.026539752 0.24144128 0.21758118 0.044120196 0.087654136 0.22860584
0.20927712 0.055093553 0.15078796 0.20483442 0.096721485 -0.35722777 -0.3167207 0.019116925
0.16043735 -0.33159536 -0.24604684 -0.3903615 -0.18393981 -0.23760222 -0.0027114472 -0.0025063055
0.06331386 0.110933505 -0.08792535 0.05340289 -0.15201272 0.08890688 0.054751534 -0.014018297
-0.05997828 -0.02193631 -0.06694893 0.15703094 0.094937906 0.06796821 -0.03992039 -0.011944415
0.16046543 -0.30072764 -0.078127354 0.07212022 -0.19521764 0.018118711 0.12589553 -0.1620661
-0.04477422 0.20996611 -0.30055884 -0.13471259 -0.21031518 0.13211747 0.027328491 -0.110508084
-0.13152263 0.09113548 0.16795205 -0.14508559 -0.27312514 -0.30911055 0.28107658 0.1663441
-0.036858298 -0.24455242 -0.29649648 0.2825517 0.2778082 0.09539415 0.020395126 -0.39168465
0.0651057 -0.025263993 0.035781633 0.32378614 0.19931617 -0.072593056 -0.20665917 -0.1622973
0.33297753 0.3138255 0.10826181 0.07716453 -0.5135721 -0.28662908 0.029034214 -0.39353165
-0.43712693 -0.13125102 -0.123792335 -0.06137681 0.14498782 0.0020484522 0.009964778 0.2927607
0.2192795 0.16323702 0.12630664 0.03501407 0.056519758 0.15917045 -0.028008215 0.06761457
0.25035447 0.25449517 -0.029808756 -0.09678272 -0.08276803 -0.079879805 -0.051323403 -0.2658972
-0.16165015 -0.11925649 -0.12824956 -0.13737194 -0.07367681 0.025249466 -0.02313748 0.014968277
-0.014537983 0.2678698 0.17493072 0.16156769 0.12228818 0.15346317 0.21282192 -0.1477198

cnn.model.0.bias f4 [8]
00000000: 90b8 85be 158a 78be bca7 d2bd 7272 47be
00000010: 8c54 7bbe 485a 51be e1b1 37be 5215 75bf
-0.26117373 -0.24271424 -0.10285899 -0.19477251 -0.24543971 -0.20444596 -0.17938949 -0.9573566

cnn.model.3.weight f4 [16, 8, 5, 5]
00000000: 0efb 213e 866a 5bbe eab0 f4be 6493 a1be
00000010: 87e8 55be 8bb3 01bc 30e0 1e3c 2fc4 3f3d
00000020: 89ee 5abe d54f d5bd 2bd1 833d ef44 223e
00000030: 3dd6 323e b261 923e 9913 94bd 423d 2fbe
00000040: 3620 efbe 47b4 213e 4d86 cf3d aa0f 84bd
00000050: 2db5 063e d57e 61be b325 afbe e54a 49be
00000060: 066e 65bd 8ae6 14bd cb93 d13d f3d7 ddbe
00000070: d748 203e 8c38 af3e 76a8 4f3e 6bdf 7fbd
00000080: c4f8 02bf 6d74 5cbe 98dc 79be e0a7 f93d
00000090: 137e b03e 5de8 77bd 069b f23d 987a 983d
000000a0: 0ddb afbc 647d 9f3e 5fdd 843e 5397 df3e
000000b0: 977b a7bc b165 d0bd 95da d1bd 595b 80bb
000000c0: 2514 143e ed3d d43e 9ee1 9b3d c72b 85be
000000d0: 8c6c 6ebe e1b6 583d ef5e 503d 8d7a 7c3e
000000e0: 745f 973e 4b50 cd3d 95fc 7fbe f3de c93d
000000f0: 7127 e8bd 5c97 d93d 23d6 963e 8fa6 d43d
00000100: be0e 073c 51de 2dbe 62e1 47bd 8ef0 913e
00000110: 3ef4 263e db48 69bd 56ce 56bd 3053 69be
00000120: d86f 80be 7c1d 063e 0b81 b6bd 1f64 7b3d
00000130: 078d aabe 36a2 57be 08dd 4fbe a2c3 e6bd
00000140: 88bb 65bb 3fb6 b5be b857 af3e c983 07be
00000150: e92a 1fbf aa7b 653d 554c 75bd 1d73 203e
00000160: ee77 903e 5ab9 babc f557 163e 7caa bbbe
00000170: 6b3c b6bc df51 0c3e 3f86 e13b c4f8 3a3c
00000180: 6efc 173d fe14 43be a641 f93d 2c90 08be
00000190: ce35 5a3e b0b1 5dbd fa42 89bb 7f8f a13d
000001a0: 9070 483e cccc 58ba 0854 f4bd b2e0 8fbe
000001b0: 42db d5be 952c 17be 9d62 07bf 9151 0bbd
000001c0: 4a20 313e 537e 0bbd fa89 b0be e660 413e
000001d0: 91e4 3fbe d737 83bc 1621 a4bd 13bb ae3e
000001e0: e5d2 ecbe b56b 29be c330 943e 41eb 15be
000001f0: 8e15 f9bd d01a 9a3e 2049 423d 703f 61be
00000200: 6983 acbc df87 c33d b782 333e 0f07 203e
00000210: 6137 ce3e 324e 6bbe 2cf6 633c c9f9 253e
00000220: b000 65be bf93 303e 1e53 1d3e 708b 20be
00000230: b423 90bd c953 e6bc 7a82 5c3e ebc7 283e
00000240: a093 a6bd 936c 7abe 7296 7c3c 042a 473e
00000250: 8b83 093e f3dd bb3d f9e7 84be 98f9 e8bc
00000260: 971d bb3c 6ee3 70bd fc1b adbd cd80 a5bb
00000270: b748 08be ffb8 433d fe4d 993d 6f6b 2a3c
00000280: 2861 ba3d 8fa3 243d b4bd 853d 6b34 50bd
00000290: 7dcc 6bbd 8d98 32bd 4e22 05bc f25c a53d
000002a0: 8340 f63d 3777 4dbe e1d4 90bd af7f bdbd
000002b0: 84e7 42be e002 a53d 99f9 0b3c 2d67 24be
000002c0: 86b0 41be f704 cabe f2ec 33be 7bf8 bfbe
000002d0: f45a 9abe 61f8 dfbe 9a85 acbe 3d67 233e
000002e0: d035 7fbe 2d0b 6abe bb0f c0be a7f6 c0be
000002f0: 5854 c4be 9df8 d6be 1a38 00be ff0c c9be
00000300: 0552 9fbe d422 f2bd 8309 8dbe 9174 32be
00000310: 20ac dfbe 475a 30be 271f cebd f779 ddbd
00000320: da2f a4be 5d82 8a3d b8f1 edbd 8434 6ebe
00000330: d335 043e 91e3 73bd 79d1 41bd 5c05 b2bd
00000340: 028e f43c be19 443e c69f cfbd d1b7 6fbd
00000350: 3ad2 1a3e c6c6 723c 0cfe 9fbd a26f d5be
00000360: f7c2 98be 827b 1d3e 5190 5bbc b062 85be
00000370: 50e0 dfbe b6be a9be 0a7e 913c c0a9 9c3d
00000380: 2664 84bd bea0 22be 2841 4ebc 2c23 b1be
00000390: 272f a0bd c6c4 843e 410b 6abd a1a3 18be
000003a0: 71ab ccbd 0b09 373a 870c 5f3d 0ecc c23d
000003b0: 783a 283e 5a13 813e 5480 023d 0c1c 3b3e
000003c0: d29f 8cbd 1b75 8a3b e51a f8bd 8c20 a43d
000003d0: a115 f6bd a844 8bbe a443 bbbd 0a31 213e
000003e0: c46f 543e 8ebf 0fbb 5902 a9be 201b 7bbe
000003f0: 81ff c7bd 28ac a3bd 7e70 ca3d d2ce 7cbd
0.15818426 -0.21427354 -0.47791225 -0.31557763 -0.20889483 -0.007916342 0.009697005 0.046817955
-0.21380056 -0.104156174 0.0643638 0.15846609 0.17464538 0.2859016 -0.072303005 -0.17113212
-0.46704262 0.15791427 0.10133038 -0.064483 0.1315505 -0.22021039 -0.3420845 -0.19657476
-0.05601313 -0.03635267 0.102332674 -0.4332882 0.15652786 0.3422283 0.20279106 -0.062468927
-0.51160836 -0.21528788 -0.24400556 0.12190223 0.34471187 -0.060524333 0.118459746 0.07445258
-0.021466756 0.31150353 0.25950143 0.4367014 -0.020444674 -0.10175646 -0.10246769 -0.0039171395
0.1446081 0.41453496 0.076113924 -0.26009962 -0.23283595 0.052908782 0.050871786 0.24656124
0.29565012 0.1002508 -0.24998696 0.09856977 -0.11335648 0.10624573 0.29460248 0.10383331
0.008243261 -0.16979338 -0.048798926 0.2850384 0.16304109 -0.056954246 -0.05244287 -0.2278564
-0.2508533 0.13097185 -0.08911332 0.06137478 -0.3331072 -0.21057972 -0.2029916 -0.11267783
-0.0035054404 -0.35490605 0.34246612 -0.13233866 -0.6217485 0.05602614 -0.05988725 0.15668912
0.282165 -0.02279346 0.1468199 -0.36653507 -0.022245606 0.13703106 0.0068824585 0.011411849
0.03710597 -0.19050977 0.121707246 -0.13336247 0.21309587 -0.054124534 -0.0041888924 0.07888698
0.19574189 -0.0008270263 -0.1193009 -0.28101116 -0.41768843 -0.147631 -0.52884847 -0.034013335
0.17297474 -0.03405602 -0.34480268 0.1888462 -0.18739535 -0.016017837 -0.08014123 0.341271
-0.4625465 -0.16544993 0.28943452 -0.14640523 -0.12162314 0.3009858 0.04743302 -0.21996856
-0.021058755 0.095474 0.17530333 0.15627693 0.40276626 -0.22979048 0.013913672 0.16208567
-0.22363544 0.1724386 0.15363738 -0.15678191 -0.0703806 -0.028116124 0.21534148 0.16482513
-0.08133626 -0.2445548 0.015416728 0.19449621 0.13429086 0.09173193 -0.2595823 -0.028439328
0.022841258 -0.058810644 -0.08452603 -0.0050507546 -0.13308989 0.047783848 0.07485579 0.010401591
0.09100562 0.040195044 0.065303236 -0.05083124 -0.057568062 -0.043602515 -0.008125855 0.080743685
0.120240234 -0.20065008 -0.070718534 -0.09252869 -0.19033629 0.08057189 0.008543395 -0.16054983
-0.18914995 -0.39456913 -0.17570856 -0.37494263 -0.30147517 -0.43744186 -0.3369568 0.15957351
-0.24922872 -0.22855826 -0.37512 -0.3768818 -0.383456 -0.41986552 -0.12521401 -0.39267728
-0.31117263 -0.11823049 -0.2754632 -0.17427279 -0.43686008 -0.17221938 -0.100645356 -0.108142786
-0.32067758 0.06763146 -0.1161837 -0.2326222 0.12911157 -0.059543196 -0.04731891 -0.086924285
0.02985287 0.19150445 -0.10137896 -0.05852491 0.15119258 0.014817899 -0.078121275 -0.41686732
-0.29836246 0.15379146 -0.013401107 -0.26051855 -0.43725824 -0.33153313 0.017760295 0.07649565
-0.06464414 -0.15881631 -0.012588777 -0.34597147 -0.078214936 0.25931376 -0.05713964 -0.1490617
-0.09993637 0.00069822435 0.054455306 0.095115766 0.16428554 0.25210077 0.031860664 0.18272418
-0.06866421 0.004225386 -0.12114505 0.0801402 -0.12015844 -0.27200818 -0.09143761 0.15741363
0.2074576 -0.0021934244 -0.33009604 -0.24522066 -0.097655304 -0.079918206 0.098847374 -0.061720677

cnn.model.3.bias f4 [16]
00000000: 324c 68bd a9e0 8c3d f1ea e6bd b2cf c1bd
00000010: c399 1cbe 3b2b 9cbe ad7b 34bd 0874 dcbb
00000020: ac0b ca3c 8e76 fe3b 066f b2bd 7d1b 95bd
00000030: acf0 d9bd efcb 9dbc a048 01be e76d 53bd
-0.05671329 0.06878788 -0.1127528 -0.09463443 -0.1529303 -0.30501732 -0.04406326 -0.006727699
0.024663769 0.0077655977 -0.08712582 -0.072806336 -0.10641608 -0.019262282 -0.1262536 -0.051618483

fully_connected.0.weight f4 [128, 613]
00000000: 51e7 053e f7f1 d7bb 5bba 1d3e e4e3 133d
00000010: 22de 0fbe 0ed3 81be 8853 bcbd c9fa 8b3d
00000020: 5650 83be 69d4 bdbc 5e01 96bd ba33 26be
00000030: 092e 53bc d249 d23d 0777 07be b67c 4fbe
00000040: 649a 593d 76db 1fbe 08ba 17be 2c95 b83d
00000050: d022 413d 3726 503d 0838 38be 2e76 af3d
00000060: 0feb a83d e06e 41be a246 e13c a4c7 fc3d
00000070: 7579 b93d 74d4 db3d 8931 8fbd c3f0 373e
00000080: f6d0 543e f26b 853e 0a35 b53d 9a3e 423c
00000090: 7aa2 dbbd c2e7 243e 6d2a 353e d937 a03c
000000a0: efa2 a0bd d2d0 ccbe 3bb3 68be 2fd5 fd3c
000000b0: 06cd a2bd faa9 333e b04e 0a3d b795 efbe
000000c0: d260 4bbe 7fd6 d93d 120d 85be 2f53 e93b
000000d0: 523d 383c 0fe5 e9bd 4a13 8abe 906d a13d
000000e0: e745 dbbd 9df0 723e ccaf a1be 1655 6d3e
000000f0: 6485 543e e0f8 d0bd 7394 12bd e9dd a43d
00000100: 13f0 853e 480e 71bc 7c14 1e3d ccf1 27be
00000110: b3bb 3cbe b086 343d 38f6 9dbe 4952 74bd
00000120: 6d3a 1bbe 4323 2abe dc94 74be a223 c33d
00000130: 7cf3 e5be 1886 d9bd a316 75bd 664a cebe
00000140: 1c28 7a3d 0611 c8bd 9732 71be b2f6 0abe
00000150: 832e 82be b3d3 36be 0042 fabe 072f 3cbe
00000160: 9793 df3d 1551 afbe 5375 37be 5ed0 e8bc
00000170: bc07 8dbe d105 ee3d 43ad 58bd 1153 08bf
00000180: 3421 f43d 4fb0 d4bb 9ede 95bd 8077 27be
00000190: a496 22be 00f8 73be 6bce 72be f1a2 61be
000001a0: 986e 3abe ca98 b8bd a81f bdbe 38fa 653d
000001b0: 0976 063c f8db 233e c214 86be a31f 143e
000001c0: de9d 8a3e aa4e ef3d cba6 963d ade0 23be
000001d0: 0083 9ebc 74b1 27be 012c 1e3e c4d9 b4bd
000001e0: b488 fe3c a9ff ab3d 9141 debb f059 5a3d
000001f0: 91d2 78bd b58a bf3d 1ddc 0d3b 09f4 183e
00000200: cd07 f9ba 5a20 2d3d 1797 3a3e 50bc 1d3e
00000210: f2fd ae3d e230 49bc 967d 743d e0ff 713d
00000220: 2dec 133e 4381 31be b3c0 38be fb72 513e
00000230: 61d2 d03d 390f 4e3e 1fd6 c03e 4b79 5c3d
00000240: be12 95be 6fb6 28be 048a 9f3d c058 833d
00000250: 1bce 1ebe db18 2dbe 7e0f e6be f56a 8c3d
00000260: b990 eebe eef2 f63d 7fd7 1bbe a958 e4be
00000270: 39e2 4abe 8a66 83be 0441 0cbe 6ca8 ecbe
00000280: ad24 5bbe 5a4f edbc 6f3a 5dbe 59a7 303e
00000290: c4dc 02be 7cf7 8bbe bb35 8bbe c5fb 1bbe
000002a0: f42d 1fbd e3bf 943d 2c3d d4bd 66df 85be
000002b0: 43b8 71bd 4705 05be ff00 ee3c d446 5dbe
000002c0: a676 23bd 23f5 b43d 3e9f d13c a47f 093e
000002d0: 1872 973e 631b d53d 4155 dabd 5aa4 dbbe
000002e0: 88d1 4cbe 3dcc 10be 33e7 af3d 271c a33e
000002f0: ebba e13d db00 02be bb75 1d3e a5aa f0bb
00000300: 7973 143e ec16 9b3d c123 bcbd ba10 a9be
00000310: 5fea 1f3e 3615 c439 6002 3d3d d2c4 bbbe
00000320: cd75 b03d e79b e3bb 9bc9 28be c4d8 02bf
00000330: 6e06 6c3e 1f84 2abe 850e 83be e732 623e
00000340: 8625 72bd 912f 64be 0665 743e 1248 0ebd
00000350: 28f6 74bd 6397 36bd d1e4 0bbf b995 adbe
00000360: c1ce 323e 5028 343d 0393 5fbe 735f 26bd
00000370: 1713 c6be 5e6b 8dbe 80e2 923d 9f9b bc3d
00000380: 56d3 8a3d b97b a5bd 5663 9c3d ef77 8b3e
00000390: ad01 40be de05 cd3d f98d 553e 4406 0bbe
000003a0: 8aa5 8a3d dc69 4cbe fbb6 a1be f6de 9abe
000003b0: 643e 8abd 07e3 603d b68a 52be 364d d83c
000003c0: 3984 66be a473 4d3d 55e5 16bd 5302 833b
000003d0: e20a 643e 4731 6abe 1dc8 323e ac08 1e3d
000003e0: d09a 5c3d 97eb 733d d7d6 c5bd f9db 0ebf
000003f0: 186d 86be 6e7a e4bd 04c0 27be 27a3 933d
0.13076521 -0.0065901238 0.1540312 0.036106005 -0.1404958 -0.25356334 -0.0919562 0.06834943
-0.2564723 -0.023172574 -0.073244795 -0.1623067 -0.012889394 0.10267986 -0.13228999 -0.20262417
0.053125754 -0.15611061 -0.14817059 0.09012827 0.04715234 0.050817695 -0.17990124 0.08567463
0.08247959 -0.18889952 0.0274995 0.12342766 0.09056369 0.107338816 -0.0699187 0.17962937
0.20782837 0.26058918 0.08848007 0.011855746 -0.10724349 0.16104034 0.17691965 0.01955788
-0.07843577 -0.40003067 -0.22724621 0.030985443 -0.07949261 0.1754531 0.03376645 -0.4679391
-0.19861153 0.10636615 -0.25986534 0.007120512 0.011245089 -0.114206426 -0.2696784 0.078822255
-0.10706692 0.23724599 -0.31579435 0.23176989 0.2075401 -0.10203719 -0.035786103 0.080501385
0.26159725 -0.014712878 0.038593754 -0.16400832 -0.18430977 0.04407376 -0.30851912 -0.059648786
-0.15159006 -0.16615014 -0.2388491 0.09528281 -0.44912326 -0.106212795 -0.05983604 -0.40291137
0.061073408 -0.09768872 -0.23554455 -0.1357067 -0.2542611 -0.17854194 -0.4887848 -0.18377315
0.109168224 -0.34241548 -0.1791585 -0.02841967 -0.27544963 0.11622203 -0.05289961 -0.5325175
0.119203955 -0.006490744 -0.073178515 -0.1635418 -0.15877777 -0.23825073 -0.23711555 -0.22034813
-0.1820625 -0.09013517 -0.36938214 0.05614683 0.008206853 0.1600188 -0.26187712 0.14465193
0.27073568 0.11684926 0.07356032 -0.16003676 -0.019349575 -0.16376287 0.15446474 -0.08830598
0.031071045 0.08398373 -0.0067827185 0.053308427 -0.060747687 0.09352628 0.002164609 0.14936842
-0.0018999517 0.04226718 0.18221699 0.15403867 0.0854453 -0.012279721 0.05969008 0.059081912
0.14445563 -0.17334466 -0.18042259 0.20454018 0.101963766 0.20122994 0.3766336 0.05382661
-0.29115862 -0.16475843 0.07789996 0.06413412 -0.1550831 -0.16904013 -0.44933695 0.06856338
-0.4659479 0.12058054 -0.15218924 -0.44598892 -0.1981286 -0.2566417 -0.13696676 -0.46222246
-0.2140071 -0.028968502 -0.21604322 0.17251338 -0.12779528 -0.27337253 -0.2718943 -0.15232761
-0.038862184 0.07263162 -0.1036323 -0.26147002 -0.059013616 -0.12990294 0.02905321 -0.2160905
-0.039908074 0.088358186 0.025588628 0.13427597 0.29579234 0.10405614 -0.10660792 -0.42898828
-0.20001805 -0.1414041 0.085890196 0.31857416 0.1102198 -0.12695639 0.15376942 -0.007344561
0.14497174 0.075727314 -0.09186507 -0.33020574 0.15616749 0.00037399837 0.046144843 -0.366736
0.08616219 -0.0069460752 -0.16483156 -0.5111201 0.23049328 -0.16651963 -0.25597015 0.2208973
-0.059117816 -0.2228377 0.23866662 -0.0347367 -0.059805065 -0.044577967 -0.5464602 -0.33903292
0.17461683 0.043983757 -0.21833424 -0.04061837 -0.3868644 -0.27620977 0.07172108 0.0920937
0.067785904 -0.08080239 0.07636134 0.2723994 -0.1875064 0.10010885 0.2085494 -0.13576609
0.06769855 -0.19962257 -0.31584916 -0.3024823 -0.06750181 0.05490401 -0.20560727 0.026404005
-0.22511376 0.05015911 -0.0368398 0.00399808 0.22269776 -0.2287036 0.1745915 0.03858249
0.05385858 0.059550848 -0.09660118 -0.558044 -0.26255107 -0.11156164 -0.16381842 0.07208853

fully_connected.0.bias f4 [128]
00000000: c605 83bc 2432 2d3d 75c9 c0bd a75d 82bc
00000010: 912d 6c3d 2964 8ebc 2809 88bd e034 873c
00000020: 2354 8b3d dab3 dcbe f9ec aa3d 2d1b 013d
00000030: e242 983d d0e6 883d b9f6 55be 1bc1 933d
00000040: 3b9b 6bbc ef04 88bd bc61 1c3d af06 50be
00000050: 88ba c4be 692e 20be 4315 81be f06d b43d
00000060: 79a4 f73c 70ae 09bc c61e 0abe 5a8b c4bd
00000070: c48e b3be 289c 8fbe 53d5 d6bc 2359 95be
00000080: b7b6 35be ae85 20be 4b01 16be df06 8abc
00000090: 4e1e 9b3d 733d 53bc f353 71be 72a0 f7bd
000000a0: 1142 aebc 8df3 25bc 1315 e03d 11f1 423c
000000b0: 8101 103d 362d e13c c685 2e3e 690d 77be
000000c0: b0d1 6dbe e35e 283d 997b b9be 8ce1 27bd
000000d0: 3af2 b93c 49d3 043d 7667 2ebe 09c1 b6bd
000000e0: c502 c8be e80a 083d c63c 6abc 4d94 c2bd
000000f0: e692 abbe e1c4 113e a57b bf3d 8cd0 23be
00000100: 0a08 2ebf 4061 79be 70f1 d9bd d6aa 83be
00000110: ae05 08bf 497b 8fbe 4a86 02be 1c85 9fbd
00000120: 5026 41be d9be d2bd ee77 4ebd 9557 8ebc
00000130: 13ab 4abe 65b7 a9be 9f23 0e3d ca2f cabc
00000140: c536 04be 3e33 44bd 1e14 46be 2d08 25be
00000150: 9767 26be 6a20 b53c c6c7 a9be ac4f 2cbf
00000160: d72d c3be 5a6c 82bd 2338 0ebd 91fc 563b
00000170: 6636 0ebd efa2 88be 9594 763d 2e13 93be
00000180: 45f0 d5bd 0749 51be 6bff 0bbe 0a8f f2bc
00000190: 4039 bcbd 2149 713d c05c 12bf 57da 96bc
000001a0: 5c9d a5bd a179 06be d5d9 e0be d434 31be
000001b0: 200b 0cbe a136 433e c4e1 68bd 13f6 08bf
000001c0: ff39 babe 09ad 75bd a886 77be d61d f5bd
000001d0: 058d 12be 6cbd d0bb a85c 393d feb6 373d
000001e0: 4d23 debc 50fc eabd 72b0 4bbd ab5b fcbd
000001f0: 52e0 9d3c a0a9 32be d6b7 50be bd3a 373c
-0.015993964 0.042284146 -0.09413425 -0.015913798 0.057660643 -0.017381744 -0.066423714 0.016504705
0.06803157 -0.43105966 0.0834598 0.031520057 0.07434632 0.06684649 -0.20894898 0.07214566
-0.014380272 -0.06641566 0.038179144 -0.2031505 -0.38423562 -0.15642704 -0.25211534 0.088100314
0.030229794 -0.008403406 -0.13488302 -0.09596892 -0.3506986 -0.28048825 -0.026224768 -0.29169568
-0.17745481 -0.15675995 -0.1464893 -0.01684898 0.075741395 -0.012893069 -0.2356718 -0.120911494
-0.021271737 -0.010128868 0.109415196 0.011898295 0.035157684 0.027487379 0.17043218 -0.2412621
-0.2322452 0.041106116 -0.3622711 -0.040986583 0.02269851 0.03242806 -0.17031655 -0.08923537
-0.39064613 0.033213526 -0.014296716 -0.095009424 -0.33510512 0.1423526 0.09349755 -0.15997523
-0.67981017 -0.24353504 -0.10641754 -0.25716275 -0.53133667 -0.28023747 -0.1274654 -0.077890605
-0.18862271 -0.102903076 -0.050407343 -0.017375747 -0.19791822 -0.3314773 0.03470194 -0.02468099
-0.12911518 -0.04790043 -0.19343612 -0.161164 -0.16250454 0.022110183 -0.33160228 -0.6730907
-0.3812091 -0.06368323 -0.034721505 0.003280435 -0.034719847 -0.26686808 0.060200293 -0.2872557
-0.104462184 -0.20438014 -0.13671653 -0.029609222 -0.09190607 0.05890763 -0.57172775 -0.01841466
-0.080866545 -0.13132335 -0.43916193 -0.17305309 -0.13676119 0.19063808 -0.056855932 -0.5350048
-0.36372373 -0.059979472 -0.24172461 -0.119685814 -0.14311607 -0.006370237 0.04525438 0.04485225
-0.027116442 -0.11473906 -0.04972882 -0.12322172 0.019272003 -0.1744752 -0.20382628 0.011183438

fully_connected.2.weight f4 [32, 128]
00000000: eb7f 543d 64f5 09be 58d5 59bc 65b5 a4be
00000010: 44ee ee3d 0d9d a23d d73e 063e a626 19bd
00000020: 42e8 053d 5a6c 22bd cb3f eebc 9cb0 4cbd
00000030: 8c38 743c d4f6 a4bd 9471 b23d 4c90 133d
00000040: 66bf 93bd f4cd 9e3d 9ec1 083c 0f50 0bbd
00000050: 349a 9c3e 77d7 413d 07c0 9abc fb27 37be
00000060: f8dc cf3d 7490 2d3c d00b 943d ec70 f43c
00000070: fa88 a43a 29c6 5b3e 99a6 cfbd 44c3 e8ba
00000080: c997 2a3e 51f6 e1bd b867 9a3d 9806 4f3c
00000090: d6e0 e6be 8a43 06be dd4a 843e 992a 0f3d
000000a0: e293 963e afc2 a6bc 6729 9f3d e949 47bb
000000b0: f870 e43c 3ee1 5abd a9aa 653e b144 44be
000000c0: 6a2c 51bd 72b1 333e 3572 113e a235 653e
000000d0: f9f6 7d3e 07f1 61ba 8dce 5f3e 6378 aebe
000000e0: 7514 4ebd 8b65 473d d9c5 3b3e 5633 133e
000000f0: 166b afbe bd03 cfbd 6517 c13d 2d20 3abf
00000100: 95e3 2ebe d22e a73c 85c2 b53e 5bac d0bd
00000110: 4cbb 21be e43e 223d 91a6 aabe ff81 b63e
00000120: b8e2 703e fcf1 9f3d f35f 343e d271 bf3d
00000130: c050 d53d cbab 83bd c17d 30bc 7c17 303e
00000140: 4b64 383e 955d cb3d 8e3d dfbd 00f2 28be
00000150: a654 413e c87f 0c3d 6d43 77bc 0320 f93c
00000160: b7aa 893d adb8 5bbe dc58 99bc b20f c7bb
00000170: 4ce1 2cbe 4bc1 0b3d 98b8 a3bd 7468 eabd
00000180: be25 fe3d 9aa1 0a3d ff0c 9dbd 1f8b 2ebe
00000190: fe1b 543d 6fcd 013e 6c7a aebc 01de 713e
000001a0: 552f 5f3e f26a 0f3e c976 623d 33d3 1bbd
000001b0: f666 c33d e0b9 8e3d 4c40 bb3d 6639 48bd
000001c0: a7fa 3dbe 7b62 95bc 1d8a 8f3d e988 953e
000001d0: bfdf d8bd 4ae0 e5bc 8ded 863a 6e25 aa3d
000001e0: 70c9 203e e8c1 11be e850 5c3e 7720 5b3e
000001f0: 8ac5 133e 45f0 9a3e 69f6 2a3e 5046 05be
00000200: d413 9b3e bb11 963e 1eaa a1bd d29c ee3c
00000210: 53c0 88be 386a 193e 162f 35be ce96 43bf
00000220: a481 8ebd a3d5 21bc 01fa 293e 7c86 413e
00000230: b98e ef3d 724a d3bd 77c8 803d 58c6 ee3d
00000240: a799 943e 5486 a83e a50b 9f3d 7160 993e
00000250: a71e ed3d 6270 0ebe 4aaf ba3e c124 e23d
00000260: 1e54 673e c684 443d b1e1 9c3e 5185 f0bd
00000270: 16d5 e4bc e82b e83d 6ce5 0cbe 5c69 523e
00000280: ce71 50be a8c0 603c ce45 cf3d 7766 4c3e
00000290: 3e77 e73d a444 4e3e 1466 64bf c541 dcbe
000002a0: cdea 43bd ce91 dc3c 8026 27be ca41 83be
000002b0: 4b78 68bc 741e 913e 56c2 713d 2cdb 533e
000002c0: a352 95bd 1de1 5abd 5ab4 b63d b54d bebe
000002d0: fbc5 8f3d 073c ea3e 23e8 853e a0fb 06bd
000002e0: fc45 383e 1c8a 4d3c 8ddf 693b 2bd7 b9be
000002f0: 8910 a03e ce1f 48bc c5cd 62be a896 62bd
00000300: 6c3c b5bd 00c0 fabb b82b 0ebe b7b6 4d3e
00000310: 5bc8 0abe 6a06 003e bdd1 dd3e a7cf 9c3d
00000320: 1736 003e 9e1a 703e ec78 f4be 2321 383e
00000330: e748 763e 63e2 b13d 1a05 27bd 82ad 90bd
00000340: ddde 76be b19b e4be 4f58 c6be aa43 2c3d
00000350: de22 8f3c e764 273c b489 643e 6ed8 23be
00000360: bd0c 0dbc 8a8f d33e 44dc 01bf e076 e63d
00000370: 8346 063e b191 6b3d 40a0 2a3e 0f36 3ebd
00000380: 32d8 a2bd 0031 99be 76bc 683e 6f76 623e
00000390: dece a93d b495 33be 9c07 3e3e 8953 87be
000003a0: 003f ce3e 4d8b 2f3e f1c3 233e 4fa8 8b3e
000003b0: fd19 b83c 63c9 b6be 00d9 dfbd 9763 c3bb
000003c0: b71e 5dbd d4cd b43e e1aa 6a3e 4ec7 8bbe
000003d0: ce86 9e3e 9000 0c3e ffaf ea3c e1cf 3e3e
000003e0: 2248 133e 6c89 fabe b917 1e3e c9b1 82be
000003f0: 1055 573e 255c 72be 0d47 96bd 9609 d63d
0.051879805 -0.13472515 -0.013295494 -0.32169643 0.11666539 0.07940111 0.13109909 -0.037390374
0.0326922 -0.039654113 -0.029083153 -0.049973115 0.01490606 -0.08054891 0.087130696 0.036026284
-0.07214241 0.07754126 0.008346943 -0.034011897 0.30586398 0.047324624 -0.018890394 -0.17886345
0.10149568 0.010593522 0.072288156 0.029839002 0.0012553029 0.21462311 -0.10139198 -0.0017758389
0.16659464 -0.11033309 0.07539314 0.012635849 -0.4509341 -0.13111702 0.25838366 0.034952734
0.294097 -0.020356504 0.07771569 -0.0030409044 0.027885899 -0.053437464 0.22428383 -0.19166829
-0.051067747 0.17548159 0.14203723 0.2238374 0.24801244 -0.0008618985 0.21856137 -0.34076223
-0.050312478 0.048680823 0.18337192 0.14375052 -0.34261388 -0.10108135 0.0942829 -0.72705346
-0.17079003 0.020408068 0.3549997 -0.10189124 -0.15794104 0.03961076 -0.33330205 0.35646054
0.23523986 0.07809827 0.17614727 0.093478814 0.104157925 -0.06429251 -0.01077217 0.17196459
0.18007009 0.09929959 -0.109004125 -0.16498566 0.18879947 0.03430155 -0.015091759 0.030410772
0.067220144 -0.21457167 -0.01871913 -0.006074869 -0.16882819 0.034119885 -0.07994193 -0.11445704
0.124095425 0.03384552 -0.076684944 -0.17045258 0.051784508 0.12676023 -0.02129861 0.23619844
0.217954 0.1400564 0.055289064 -0.038043212 0.095411226 0.069690466 0.09143123 -0.048882864
-0.18552648 -0.018235436 0.07008765 0.29206017 -0.10589551 -0.02806105 0.0010294184 0.083079204
0.15701842 -0.14234126 0.21515238 0.21399103 0.14430824 0.30261436 0.1669556 -0.13015103
0.30288565 0.29310402 -0.078937754 0.029127512 -0.26709232 0.14981925 -0.17693743 -0.76401985
-0.06958321 -0.009877595 0.16599275 0.18898958 0.11697144 -0.10316934 0.06288236 0.11658925
0.29023477 0.32914984 0.07765893 0.2995639 0.11578112 -0.13910058 0.3646186 0.110421665
0.22590682 0.047978185 0.3064094 -0.11744178 -0.027933639 0.113364995 -0.13759392 0.20548004
-0.20355913 0.013717808 0.10120736 0.19960962 0.113020405 0.20143372 -0.8921826 -0.43018928
-0.047831345 0.026924994 -0.1632328 -0.2563613 -0.014188836 0.28343546 0.059023224 0.20689076
-0.07291152 -0.05343734 0.08921118 -0.3716866 0.07020184 0.45748922 0.2615367 -0.032954812
0.17995447 0.012545135 0.0035686225 -0.36296973 0.31262615 -0.012214614 -0.22148807 -0.05531946
-0.08849415 -0.0076522827 -0.13883865 0.20089231 -0.13552992 0.12502447 0.4332408 0.07656794
0.12520634 0.23447654 -0.47748506 0.1798139 0.24051248 0.08685758 -0.04077635 -0.07064344
-0.24108453 -0.44650033 -0.3873925 0.042056717 0.01747268 0.010216928 0.22318155 -0.1600053
-0.008608994 0.4132045 -0.50726724 0.11253142 0.13112836 0.05751199 0.16662693 -0.046438273
-0.07951392 -0.29920197 0.22728142 0.22115491 0.0829141 -0.17537576 0.1855759 -0.2643092
0.4028244 0.17142983 0.15992714 0.27276847 0.02247333 -0.3570052 -0.10930061 -0.0059628
-0.05398437 0.35313284 0.22916748 -0.27300495 0.30962223 0.1367209 0.028648375 0.18633987
0.14382985 -0.4893297 0.15438737 -0.25526264 0.21028543 -0.23667963 -0.073377706 0.10451047

fully_connected.2.bias f4 [32]
00000000: 9863 b8bc 95d4 14be cead 8f3c ef13 9b3e
00000010: 267b 503e decb 613e a584 723d 2009 0b3e
00000020: a27b 0e3c e9b8 05be 40ff d33d c418 8c3e
00000030: a9b5 fb3d e7f6 3b3e b6b5 3e3e 81e2 4e3e
00000040: aaf2 05be 868b 243e 485b 0c3d 3fe2 babd
00000050: f467 ac3d 255d 083e d750 123d aaf0 243d
00000060: 3e3f 44bc e5f7 7a3e fecf b13c 5400 0abe
00000070: 2a07 333e 1ee0 c73e 09f1 a53e ba2e 993e
-0.022508428 -0.14534219 0.017538931 0.30288646 0.20359477 0.22050425 0.05920853 0.135777
0.008696469 -0.13058819 0.103514194 0.27362645 0.12290508 0.18355905 0.18624005 0.20203592
-0.1308085 0.16068849 0.03426674 -0.09125184 0.08418265 0.13316782 0.035721626 0.040268578
-0.011977969 0.24508627 0.021705624 -0.13476688 0.17483202 0.39038175 0.32410458 0.29918462

fully_connected.4.weight f4 [1, 32]
00000000: fb84 f23d ed5b ebbe f2ca be3e b04d b3bf
00000010: 2ba8 97bf 9585 27bf 47af 2e3e 52da 953e
00000020: c224 103f 3e25 2b3d 1664 9b3e 4bda f8be
00000030: d993 203e 007a 31bf d173 00bf 0408 10bf
00000040: c8d1 073f d876 eebe a19f 333e cb85 4fbd
00000050: 354d 9b3e 7c3b f2be 8955 27bf 2d43 a53e
00000060: ff92 35bf dfb1 1fbf 5e0e d63f 5252 833e
00000070: 2cfe b3be 4989 efbf d2e1 35bf 774e b6be
0.1184177 -0.4596857 0.3726421 -1.4008083 -1.1848196 -0.65438205 0.1705905 0.29268128
0.5630609 0.041783564 0.30349797 -0.48604044 0.156814 -0.6932678 -0.5017672 -0.5626223
0.53054476 -0.46575046 0.17541362 -0.050664704 0.30332342 -0.47311008 -0.6536489 0.32277814
-0.70927423 -0.62380785 1.6723135 0.25648743 -0.35154855 -1.8713771 -0.710477 -0.3560674
