trained_models/classification_cnn_with_hillas.pth (torch, 339322 bytes, 9 tensors)

cnn.model.0.weight f4 [8, 2, 5, 5]
-0.08669815 -0.14080441 -0.082269646 0.12337255 -0.30422497 -0.023748783 -0.061517864 0.01901922
-0.21527217 0.033870205 0.14247863 0.110838614 -0.28518274 -0.3130858 -0.048955314 0.25143257
-0.13102563 -0.1242452 0.039322928 0.19569097 0.12488095 0.058540072 0.14186534 0.18508646
-0.062127996 0.024736237 -0.13775718 0.0021428375 0.1517372 -0.14171769 0.08373091 -0.077068225
0.0813366 0.2140318 -0.018027842 0.060366344 -0.18190163 0.10687278 0.08582638 -0.1857997
-0.11319048 -0.17465135 0.018539464 -0.0475872 0.03094805 -0.045936055 -0.15538502 -0.07999578
0.2803369 0.081941254 0.4004563 -0.08634588 0.05238463 0.21561764 0.05178186 -0.27276886
-0.25382942 0.1713279 0.0703662 -0.1799288 -0.18094589 -0.26147595 -0.4131791 -0.23866107
-0.10142332 0.055674713 0.25745374 -0.16344725 -0.35203895 0.3569859 0.27542204 0.30003121
-0.42171583 -0.118067764 0.2753629 0.0075115156 0.21249445 -0.11278891 0.026951732 0.12544098
0.22613929 0.17149094 -0.21222164 -0.14946531 -0.1729286 -0.09908268 -0.4034172 -0.1938787
-0.15400295 -0.113565825 -0.25179985 -0.11423553 0.18306565 0.18784058 -0.18392363 0.0062885974
0.20942257 0.27720138 0.12199929 -0.10921404 -0.00895041 -0.11059847 0.039659407 -0.039804924
-0.027664233 -0.06635192 0.12588304 0.0982232 0.04940718 -0.1695372 -0.10183692 -0.21404114
0.098421685 -0.034166694 -0.24413817 0.043499254 -0.080323495 0.09461863 0.16807394 0.01937575
0.056912392 -0.033939056 0.18396084 0.11158392 0.15124564 -0.17848612 0.04222485 0.16612928
0.3455592 0.1709295 -0.107618764 0.14095224 0.12403884 0.06408278 0.10699499 0.06828112
0.05904009 -0.16359216 -0.08640952 -0.19928281 0.0026731694 -0.17620721 -0.20321032 -0.04340515
-0.23233172 -0.17426838 -0.3112727 -0.33455536 -0.33717796 -0.3463829 -0.043555047 0.034679998
-0.07019586 0.22500564 -0.0465692 0.18238427 -0.20604584 -0.23827995 -0.32972118 -0.27176306
-0.24312222 -0.21738468 -0.21127298 0.17861319 0.090852804 0.070370324 0.05274758 0.10937608
0.16106027 0.02271629 0.062340394 -0.3405135 0.040964324 -0.1581058 0.024420042 -0.16404863
-0.19060348 -0.17922288 0.109530054 -0.03789691 0.19462162 -0.034849115 -0.10298828 -0.18367109
-0.10377914 0.21162067 -0.28353196 0.105632894 0.2115194 -0.0773789 -0.2123461 -0.25062716
0.14954932 0.06759238 -0.09227096 -0.08746295 -0.11952137 -0.29903594 -0.04321607 0.03209754
0.013108034 -0.034984123 0.044708177 -0.055476278 0.032670304 0.1181168 0.22772047 0.015209656
-0.0737077 0.100518994 0.14744174 -0.011329116 -0.1560249 -0.20774311 0.07557787 -0.3479091
-0.17230125 -0.2204213 0.121997476 0.26692456 -0.30526215 -0.42730707 -0.006873473 0.15668261
0.11637758 -0.029494066 -0.02565245 0.037121058 -0.0062240623 0.01287145 0.058679935 0.05838859
-0.12856226 -0.22770631 0.032071076 -0.060308684 -0.028703619 -0.17467397 -0.30607706 0.16787076
-0.04102219 -0.16613778 -0.41289482 0.13538168 0.34820047 -0.04017607 -0.32866493 -0.20479347
0.13033961 0.13186501 0.04556915 -0.16028498 0.007664498 -0.058338273 0.06756416 -0.035257638
00000000: cd8e b1bd 082f 10be fd7c a8bd bfaa fc3d
00000010: 60c3 9bbe cf8c c2bc 28fa 7bbd 32ce 9b3c
00000020: 4f70 5cbe 7cbb 0a3d ebe5 113e 5bff e23d
00000030: 7903 92be c84c a0be 5e85 48bd c5bb 803e
00000040: 952b 06be 4474 febd 1411 213d 3763 483e
00000050: 95c1 ff3d b7c7 6f3d 2645 113e 4e87 3d3e
00000060: ed79 7ebd a6a3 ca3c 3810 0dbe d96e 0c3b
00000070: ff60 1b3e 711e 11be 1d7b ab3d f2d5 9dbd
00000080: ce93 a63d 272b 5b3e 20af 93bc b342 773d
00000090: 6c44 3abe 1ee0 da3d bec5 af3d 4742 3ebe
000000a0: 69d0 e7bd ced7 32be 13e0 973c ccea 42bd
000000b0: c486 fd3c 7227 3cbd 401d 1fbe d4d4 a3bd
000000c0: 5188 8f3e d1d0 a73d 9c08 cd3e 1cd6 b0bd
000000d0: 4491 563d dfca 5c3e 3719 543d 5ca8 8bbe
000000e0: eef5 81be 9570 2f3e 271c 903d 413f 38be
000000f0: e149 39be 2de0 85be 368c d3be 9163 74be
00000100: 08b7 cfbd 2b0b 643d fad0 833e b75e 27be
00000110: 733e b4be dbc6 b63e 1e04 8d3e b19d 993e
00000120: 23eb d7be 83cd f1bd 5efc 8c3e 2923 f63b
00000130: 2598 593e dffd e6bd e1c9 dc3c 9a73 003e
00000140: 0f91 673e 529b 2f3e a150 59be 6f0d 19be
00000150: 3214 31be dceb cabd b38c cebe 2388 46be
00000160: f3b2 1dbe 3395 e8bd e9eb 80be 51f4 e9bd
00000170: 9075 3b3e 4859 403e 7a56 3cbe 9410 ce3b
00000180: df72 563e 57ed 8d3e c4da f93d 9cab dfbd
00000190: bea4 12bc 7381 e2bd e771 223d 7d0a 23bd
000001a0: 1aa0 e2bc 84e3 87bd 7ce7 003e 3f29 c93d
000001b0: 2f5f 4a3d 299b 2dbe e08f d0bd 9a2d 5bbe
000001c0: 4f91 c93d 60f2 0bbd 5bff 79be 462c 323d
000001d0: a580 a4bd 6ac7 c13d 931b 2c3e e5b9 9e3c
000001e0: f81c 693d ae03 0bbd 3b60 3c3e 1c86 e43d
000001f0: 23e0 1a3e 11c5 36be f7f3 2c3d cb1d 2a3e
00000200: 23ed b03e 2508 2f3e 3a67 dcbd c955 103e
00000210: 1308 fe3d d53d 833d 3020 db3d f9d6 8b3d
00000220: 05d4 713d b484 27be 79f7 b0bd cb10 4cbe
00000230: 5730 2f3b aa6f 34be 5e16 50be 99c9 31bd
00000240: 5ee8 6dbe 6973 32be 235f 9fbe d74a abbe
00000250: 97a2 acbe 1959 b1be c766 32bd 9d0c 0e3d
00000260: d9c2 8fbd e167 663e 58bf 3ebd f1c2 3a3e
00000270: aefd 52be a9ff 73be 37d1 a8be 8724 8bbe
00000280: 08f5 78be 179a 5ebe f257 58be 60e6 363e
00000290: 0911 ba3d 511e 903d d90d 583d 9100 e03d
000002a0: fcec 243e 8317 ba3c a458 7f3d c957 aebe
000002b0: 35ca 273d 7de6 21be 8a0c c83c 5dfc 27be
000002c0: 8f2d 43be 3486 37be 4b51 e03d ca39 1bbd
000002d0: e44a 473e f2bd 0ebd 85eb d2bd 4614 3cbe
000002e0: 288a d4bd 17b3 583e 1a2b 91be 0f56 d83d
000002f0: 8b98 583e d478 9ebd 4271 59be 3452 80be
00000300: 7523 193e e06d 8a3d 8ff8 bcbd c61f b3bd
00000310: 9fc7 f4bd 3d1b 99be 5503 31bd b678 033d
00000320: 14c3 563c 834b 0fbd ec1f 373d 183b 63bd
00000330: 4cd1 053d 39e7 f13d 8e2f 693e ec31 793c
00000340: 10f4 96bd e7dc cd3d f8fa 163e c29d 39bc
00000350: fec4 1fbe 9cba 54be 92c8 9a3d 2421 b2be
00000360: bd6f 30be 1fb6 61be d0d9 f93d 56aa 883e
00000370: 524b 9cbe fec7 dabe df3a e1bb 6871 203e
00000380: 5e57 ee3d 8a9d f1bc 1625 d2bc 400c 183d
00000390: 38f3 cbbb c6e2 523c 5f5a 703d e028 6f3d
000003a0: d3a5 03be d82b 69be f65c 033d 3d06 77bd
000003b0: da23 ebbc bcdd 32be 22b6 9cbe 50e6 2b3e
000003c0: e206 28bd 0620 2abe f366 d3be 7fa1 0a3e
000003d0: 5547 b23e aa8f 24bd c546 a8be 61b5 51be
000003e0: bf77 053e 9f07 073e b8a6 3a3d bf21 24be
000003f0: 7826 fb3b 1df4 6ebd 145f 8a3d 506a 10bd

cnn.model.0.bias f4 [8]
-0.15333019 -0.27230346 -0.24275433 -0.22606447 -0.2742018 -0.033324145 -0.053849254 -0.73477924
00000000: 9702 1dbe 5c6b 8bbe 9794 78be 727d 67be
00000010: 2e64 8cbe e67e 08bd 0991 5cbd 7e1a 3cbf

cnn.model.3.weight f4 [16, 8, 5, 5]
-0.05900202 0.089595094 -0.09086921 0.061179236 -0.10314491 -0.059307214 -0.1036661 0.043111872
0.03724842 0.27825254 0.06770064 -0.24094847 0.1556081 0.033366024 -0.052265048 0.05604171
-0.17182942 -0.1332707 0.13652022 0.059182245 0.04520973 0.10936197 -0.23993 -0.11855099
0.07194782 0.21099722 -0.1267722 0.30172777 0.12605873 0.45949414 0.12815285 -0.01181972
-0.024332687 0.37731534 -0.113123134 0.5101824 -0.05714134 0.24410498 0.46972218 0.10751677
0.2553912 -0.036687285 0.0020152633 -0.16011973 0.32869256 0.48967007 0.10822451 0.6101602
-0.077013925 0.1678012 0.024202673 -0.15139224 0.19639258 -0.1438172 -0.3077009 -0.13361388
0.15409465 0.15868089 0.14675038 -0.038516957 -0.56604034 0.19300058 0.06327063 0.20034927
0.08049713 -0.3425772 -0.639127 -0.19173296 -0.113772854 -0.0987993 0.18479063 0.042495407
-0.19599248 -0.18204904 0.06347997 0.065003805 0.071951315 0.035415724 0.018982872 0.10749776
0.014718087 0.023442594 0.0077785593 0.16403563 0.053421397 0.07563867 -0.14119643 -0.18039332
-0.11388932 -0.12812568 0.0034814735 0.11285491 -0.22691728 -0.14249495 0.16455938 0.0356334
-0.06363204 -0.056092586 -0.012071311 0.25621325 0.056961745 0.02600633 0.27589855 0.24350077
0.18126589 -0.307782 0.18027923 0.33231342 0.21335681 0.2981645 -0.9734758 -0.46716875
-0.3241152 -0.35466835 -0.20942247 0.045806266 -1.0073047 -0.37535945 0.16520758 0.0064799846
0.42786413 0.41430005 0.16516538 0.3111235 0.080239646 -0.00319934 0.0020156999 0.12387274
0.06570449 -0.14141154 -0.042308174 -0.44583425 0.051939886 0.21580324 0.14443703 0.3150298
-0.12122236 -0.28664824 0.043109484 -0.22262456 0.041661102 -0.13448787 -0.61416036 -0.33906433
0.11575087 0.07058892 0.12470036 0.13598305 -0.09370345 0.021779388 0.004446814 -0.05595163
0.1259905 0.057968203 -0.36157358 0.0884984 -0.41804603 0.1301554 -0.026506485 -0.063487284
0.027487587 -0.06664748 -0.04369397 0.30272236 -0.15961115 -0.121769056 -0.1502237 -0.13046488
-0.27088323 0.018987192 0.07145004 -0.13851182 0.0036325955 -0.175761 0.09240443 -0.25845265
-0.24695732 -0.07251766 -0.5388873 0.05917706 -0.24836203 -0.4800078 -0.180818 -0.3725116
-0.593646 -0.17710358 -0.50186765 0.00036283332 -0.1513246 -0.5911047 -0.21595167 -0.20196131
-0.16799425 -0.30487335 -0.5133312 -0.2601196 -0.3469143 -0.32337195 -0.5689489 -0.075393274
0.1297905 -0.22481358 -0.21910414 -0.26732326 0.04356565 0.17096104 -0.25368363 -0.7256488
-0.15952015 0.3026725 0.06946748 -0.23513189 -0.15816878 -0.22567594 0.03739065 0.081027724
-0.01318255 -0.021483758 -0.045110483 -0.15062918 0.08820072 0.14373855 0.10629626 0.14407472
-0.036886226 -0.085123695 0.047388595 0.051918454 -0.026529836 -0.15184607 -0.044355515 -0.5438319
-0.46861342 -0.40266085 -0.16679446 -0.340401 -0.6949677 -0.96157295 -0.46112394 -0.38130373
-0.20039125 -0.26099804 -0.4153055 -0.15166287 0.064671256 -0.05154228 -0.07761105 0.2887369
0.027193174 0.11659104 0.14965285 0.02081703 -0.13027279 0.09703848 -0.21097115 0.18064117
00000000: 1aac 71bd a27d b73d a319 babd 1497 7a3d
00000010: a33d d3bd 1fec 72bd e44e d4bd 1396 303d
00000020: cd91 183d 1e77 8e3e a2a6 8a3d 32bb 76be
00000030: bb57 1f3e d0aa 083d e013 56bd fe8b 653d
00000040: 0df4 2fbe 1d78 08be f5cb 0b3e 1569 723d
00000050: d62d 393d 2bf9 df3d 36b0 75be ddca f2bd
00000060: 6159 933d a80f 583e 92d0 01be 107c 9a3e
00000070: 8a15 013e d142 eb3e 803a 033e 80a7 41bc
00000080: 5855 c7bc 7a2f c13e 1aad e7bd 509b 023f
00000090: 0a0d 6abd a8f6 793e 6d7f f03e c131 dc3d
000000a0: a3c2 823e 6845 16bd 8212 043b 6df6 23be
000000b0: 644a a83e 09b6 fa3e d0a4 dd3d 7533 1c3f
000000c0: 7ab9 9dbd 14d4 2b3e af44 c63c 9106 1bbe
000000d0: 231b 493e d144 13be f98a 9dbe 14d2 08be
000000e0: fdca 1d3e 3e7d 223e bb45 163e f5c3 1dbd
000000f0: 05e8 10bf f2a1 453e 0894 813d 5c28 4d3e
00000100: aedb a43d 4766 afbe d49d 23bf a555 44be
00000110: be01 e9bd 4a57 cabd c139 3d3e aa0f 2e3d
00000120: 41b2 48be 106b 3abe c901 823d b720 853d
00000130: 365b 933d 1410 113d f881 9b3c c927 dc3d
00000140: 2224 713c af0a c03c 49e3 fe3b f5f8 273e
00000150: 65d0 5a3d 72e8 9a3d cc95 10be 07b9 38be
00000160: ce3e e9bd 6133 03be 6f29 643b 7a20 e73d
00000170: 015d 68be 32ea 11be 4182 283e 54f4 113d
00000180: 8451 82bd 57c1 65bd bfc6 45bc 622e 833e
00000190: b850 693d 3a0b d53c 9342 8d3e 4458 793e
000001a0: c49d 393e 9a95 9dbe 1e9b 383e fc24 aa3e
000001b0: 357a 5a3e 04a9 983e b635 79bf be30 efbe
000001c0: 6df2 a5be 1797 b5be d872 56be 5a9f 3b3d
000001d0: 5cef 80bf 1d2f c0be 2d2c 293e 0d56 d43b
000001e0: 0211 db3e 231f d43e 1d21 293e 944b 9f3e
000001f0: af54 a43d 05ac 51bb d519 043b feb0 fd3d
00000200: 1390 863d 30ce 10be 564b 2dbd 6344 e4be
00000210: ebbe 543d 86fb 5c3e 4de7 133e 964b a13e
00000220: 6e43 f8bd 8fc3 92be 9293 303d b1f7 63be
00000230: d5a4 2a3d 30b7 09be 9d39 1dbf d799 adbe
00000240: cb0e ed3d ec90 903d e762 ff3d 243f 0b3e
00000250: 98e7 bfbd b06a b23c 94b6 913b 892d 65bd
00000260: a703 013e 1170 6d3d 2c20 b9be a63e b53d
00000270: 210a d6be 7547 053e 2124 d9bc 9f05 82bd
00000280: a62d e13c 797e 88bd 73f8 32bd 6dfe 9a3e
00000290: 1b71 23be 0e62 f9bd 3ed4 19be 9698 05be
000002a0: 35b1 8abe 078b 9b3c 6654 923d 0bd6 0dbe
000002b0: d710 6e3b b1fa 33be 893e bd3d e853 84be
000002c0: 61e2 7cbe 2484 94bd 85f4 09bf a563 723d
000002d0: 9e52 7ebe 95c3 f5be 5b28 39be d7b9 bebe
000002e0: 2ff9 17bf a45a 35be 667a 00bf aa3a be39
000002f0: d6f4 1abe a352 17bf 6f22 5dbe f2ce 4ebe
00000300: af06 2cbe 5c18 9cbe ac69 03bf 652e 85be
00000310: c09e b1be 0291 a5be a3a6 11bf ca67 9abd
00000320: cde7 043e 8835 66be d65c 60be 98de 88be
00000330: e571 323d 6910 2f3e d2e2 81be 1fc4 39bf
00000340: 4059 23be e4f7 9a3e f744 8e3d 6ac6 70be
00000350: fff6 21be 9817 67be f026 193d ddf1 a53d
00000360: 9ffb 57bc b5fe afbc c5c5 38bd 893e 1abe
00000370: 94a2 b43d 3330 133e dbb1 d93d 5388 133e
00000380: 0316 17bd 5555 aebd 8b1a 423d 72a8 543d
00000390: 1955 d9bc 897d 1bbe 21ae 35bd 9138 0bbf
000003a0: 19ee efbe 9029 cebe 2bcc 2abe 0a49 aebe
000003b0: 67e9 31bf a529 76bf 7018 ecbe 3e3a c3be
000003c0: 5d33 4dbe 89a1 85be eca2 d4be 834d 1bbe
000003d0: 5d72 843d ff1d 53bd 8bf2 9ebd 53d5 933e
000003e0: 38c4 de3c 48c7 ee3d 993e 193e 7a88 aa3c
000003f0: 3b66 05be 1cbc c63d d208 58be 00fa 383e

cnn.model.3.bias f4 [16]
-0.08802274 -0.052318957 -0.13281187 -0.120698586 -0.18067794 -0.10947059 -0.13131566 0.09336168
-0.16207133 -0.28106856 0.007994745 -0.13761331 -0.012338493 -0.015358324 -0.23902984 -0.077015795
00000000: 4445 b4bd 674c 56bd d6ff 07be d230 f7bd
00000010: a303 39be 1e32 e0bd 9d77 06be 6934 bf3d
00000020: 07f6 25be 38e8 8fbe 64fc 023c 81ea 0cbe
00000030: 6427 4abc 7ba1 7bbc 3dc4 74be 75ba 9dbd

fully_connected.0.weight f4 [128, 592]
0.17350316 -0.043890484 0.13578488 0.14618185 -0.027777838 0.028443532 0.2271205 0.23270768
-0.14318122 -0.014160364 -0.10343446 -0.26579013 -0.08041402 0.23631711 0.072555244 0.094519876
-0.039021596 0.15326443 -0.1257108 0.09914599 -0.12358267 0.03452475 -0.062469468 -0.20393048
0.042708218 0.1491752 0.0071583814 0.18256812 -0.0820545 -0.32686543 -0.15438974 -0.3697265
-0.08294531 -0.08141019 -0.10719263 -0.13650651 -0.17971674 0.20624231 0.0463998 0.0518651
-0.11059409 -0.26676944 -0.25322542 0.08094789 -0.1071811 -0.0145450765 -0.14147067 0.20925684
0.055253502 -0.011580147 -0.19935945 0.020709554 0.060768846 0.1523864 -0.065446936 -0.1388315
0.17125672 -0.25460345 0.08993564 0.17160149 0.23473567 0.15721214 0.17717525 0.11183637
0.040512152 0.044890516 0.03763283 -0.12900409 0.24083592 -0.026187256 -0.1710795 0.13771969
0.13632558 0.14809947 0.3179183 0.21065612 0.13354176 0.3106411 0.45733312 0.37681034
0.063749045 0.010954763 0.09872855 0.17949285 0.30790395 0.57156444 0.07553906 -0.14274116
0.05674985 0.34896883 -0.07646873 0.08527684 -0.01536588 0.007285252 0.11239901 -0.11190983
-0.10161614 0.23292544 0.3570856 0.04154767 0.13796796 0.17095448 -0.08571296 0.24130024
-0.028338136 -0.24122663 0.08770091 -0.13965622 0.046346854 -0.075472 -0.019357404 0.09523437
0.0570814 -0.15535973 -0.01912575 0.044984847 -0.14458749 0.11217505 0.037520308 -0.29198915
0.03700849 0.17814566 -0.032063268 0.114903174 0.082553 -0.08082012 -0.05524025 0.110302724
-0.08128578 0.0049737305 -0.025400972 -0.10158667 0.036795452 0.19217132 -0.062454585 -0.06712523
0.06978897 -0.15091465 0.040837113 0.16689852 -0.021770287 -0.071385324 0.18621922 -0.042320434
-0.020216646 0.220737 0.34843546 0.16772097 0.001283374 -0.0012117982 0.16039383 0.11933559
0.19742322 -0.011500833 -0.094227344 -0.22702196 0.24737947 0.07814987 0.08192838 -0.15531859
-0.23956786 -0.25904804 -0.06606653 0.12003948 -0.051027775 0.16616902 0.14429942 -0.10236639
-0.23748247 0.10453305 0.052416675 -0.21641286 0.12745543 -0.10708505 0.18664318 -0.09751625
-0.049229715 -0.07215737 0.2673219 -0.25433248 -0.0991656 0.08832261 -0.22438632 -0.120192446
-0.036169093 -0.15796041 0.3499366 -0.27762493 0.03303951 -0.022754017 0.04566954 0.15555374
-0.21179396 -0.4261542 0.10484152 0.35878652 -0.17287189 -0.3895174 0.22229794 0.16890085
0.05130742 0.11369467 0.20579724 -0.057643864 0.43335634 0.2456657 0.25693524 0.25665295
0.4419352 0.23479222 0.25095966 0.23343879 0.18057786 0.021804933 -0.22221722 -0.023620464
-0.10398532 -0.16696605 0.23348413 0.07804726 0.18164763 0.04308235 -0.17662832 -0.0031766035
0.100324504 0.096761875 -0.17442736 0.023052692 -0.20753701 0.019497085 -0.15569256 0.048653763
0.16782458 -0.089761734 -0.109540336 -0.15693265 -0.067705445 -0.0924485 0.029967409 -0.28681347
-0.032721926 0.14216678 0.029086798 -0.035884257 -0.35673162 0.06575363 -0.20392114 0.061877523
-0.25371432 0.21350782 -0.028743662 -0.05642772 -0.18090151 -0.038693275 -0.17294985 -0.3842174
00000000: d0aa 313e 82c6 33bd 310b 0b3e b2b0 153e
00000010: 598e e3bc 6902 e93c 4792 683e ec4a 6e3e
00000020: 199e 12be df00 68bc 72d5 d3bd a515 88be
00000030: 1bb0 a4bd 1dfd 713e d897 943d a393 c13d
00000040: 1cd5 1fbd 5af1 1c3e 55ba 00be 0e0d cb3d
00000050: e918 fdbd d369 0d3d fcdf 7fbd 27d3 50be
00000060: d0ee 2e3d 62c1 183e db90 ea3b 23f3 3a3e
00000070: 310c a8bd e85a a7be 5818 1ebe cb4c bdbe
00000080: 3bdf a9bd 63ba a6bd cf87 dbbd 5dc8 0bbe
00000090: aa07 38be 2f31 533e b70d 3e3d 8070 543d
000000a0: 277f e2bd 0196 88be c3a6 81be 02c8 a53d
000000b0: c481 dbbd 794e 6ebc b0dd 10be 6d47 563e
000000c0: 7f51 623d a8ba 3dbc e224 4cbe 15a7 a93c
000000d0: c1e8 783d 2e0b 1c3e 0b09 86bd d829 0ebe
000000e0: ec5d 2f3e 625b 82be 2d30 b83d 4db8 2f3e
000000f0: 8c5e 703e 38fc 203e 6e6d 353e 770a e53d
00000100: 12f0 253d 1edf 373d e224 1a3d a619 04be
00000110: b19d 763e a886 d6bc 772f 2fbe 6406 0d3e
00000120: ef98 0b3e 63a7 173e 30c6 a23e 3db6 573e
00000130: 2cbf 083e 5a0c 9f3e 9127 ea3e 49ed c03e
00000140: dc8e 823d 9b7b 333c 3232 ca3d f9cc 373e
00000150: 96a5 9d3e 0c52 123f 39b4 9a3d bd2a 12be
00000160: 8872 683d 0bac b23e a39b 9cbd a0a5 ae3d
00000170: 2cc1 7bbc 20b9 ee3b 7431 e63d fb30 e5bd
00000180: 1f1c d0bd 0284 6e3e ecd3 b63e e42d 2a3d
00000190: 7947 0d3e b10e 2f3e 478a afbd 6917 773e
000001a0: 6125 e8bc 1d04 77be 899c b33d 0a02 0fbe
000001b0: 33d6 3d3d 1091 9abd 6b93 9ebc 3d0a c33d
000001c0: 30ce 693d 9f16 1fbe 9bad 9cbc 0842 383d
000001d0: be0e 14be 08bc e53d e5ae 193d 9a7f 95be
000001e0: 3796 173d d16b 363e c654 03bd 5b52 eb3d
000001f0: 8c11 a93d 0585 a5bd 9a43 62bd 65e6 e13d
00000200: 2979 a6bd adfa a23b b315 d0bc ac0c d0bd
00000210: d4b6 163d 8fc8 443e 61d0 7fbd f478 89bd
00000220: 85ed 8e3d 5f89 1abe d144 273d 72e7 2a3e
00000230: 9a57 b2bc 7832 92bd 40b0 3e3e 3158 2dbd
00000240: 619d a5bc e108 623e 2266 b23e 0cbf 2b3e
00000250: e336 a83a 33d5 9eba 483e 243e 3866 f43d
00000260: 5029 4a3e fd6d 3cbc 44fa c0bd 7278 68be
00000270: 0b51 7d3e 0a0d a03d 11ca a73d d60b 1fbe
00000280: 4751 75be f2a1 84be e44d 87bd 42d7 f53d
00000290: 8002 51bd 3628 2a3e 3ac3 133e 78a5 d1bd
000002a0: 9b2e 73be 6c15 d63d deb2 563d 559b 5dbe
000002b0: ad83 023e 684f dbbd 641f 3f3e 9ab6 c7bd
000002c0: 19a5 49bd 3ec7 93bd 6bde 883e de37 82be
000002d0: 5617 cbbd 7ce2 b43d 87c5 65be 7527 f6bd
000002e0: 0b26 14bd 60c0 21be e42a b33e db24 8ebe
000002f0: 7054 073d a266 babc fc0f 3b3d 7b49 1f3e
00000300: 84e0 58be e230 dabe 27b7 d63d deb2 b73e
00000310: 5405 31be d36e c7be 12a2 633e 58f4 2c3e
00000320: bb27 523d c0d8 e83d 83bc 523e f91b 6cbd
00000330: e2e0 dd3e ca8f 7b3e 048d 833e 0468 833e
00000340: 5545 e23e 5f6d 703e c97d 803e 940a 6f3e
00000350: 67e9 383e 42a0 b23c e98c 63be b47f c1bc
00000360: 41f6 d4bd 26f9 2abe 7716 6f3e 3ed7 9f3d
00000370: d601 3a3e 1e77 303d 0ede 34be 902e 50bb
00000380: ef76 cd3d 172b c63d 169d 32be 00d9 bc3c
00000390: 9584 54be 5ab8 9f3c df6d 1fbe 2b49 473d
000003a0: 35da 2b3e 00d5 b7bd af56 e0bd f4b2 20be
000003b0: 27a9 8abd a455 bdbd 367e f53c 37d9 92be
000003c0: 6d07 06bd 2b94 113e 7047 ee3c 5ffb 12bd
000003d0: 87a5 b6be d7a9 863d b4d0 50be 4973 7d3d
000003e0: d8e6 81be cba1 5a3e d477 ebbc c120 67bd
000003f0: 3f3e 39be d77c 1ebd c419 31be 25b8 c4be

fully_connected.0.bias f4 [128]
-0.062312312 -0.21099477 -0.00074072496 -0.052155346 -0.099604584 0.037573352 -0.10942321 -0.11559497
-0.087951414 0.0657122 -0.011805147 -0.11305294 0.109740816 0.025430331 -0.22878887 -0.047720972
0.10385085 -0.07307963 -0.00673109 0.0952639 -0.1349068 0.10976324 0.2588354 -0.2121198
0.14861941 -0.15856728 -0.057168216 -0.12549898 -0.123801135 -0.2078449 -0.15227687 -0.19390717
0.09017775 0.09383327 -0.07122009 -0.028948812 0.035620283 -0.23831321 0.14799748 0.05635663
0.017229313 -0.24483223 -0.23487186 -0.26415208 0.21250409 -0.12427805 0.102986 0.1730561
0.033880744 -0.059635654 -0.15752271 -0.23913243 -0.07540119 0.07097056 -0.29139736 -0.13016395
0.13521323 -0.32204828 -0.11052109 0.025982501 0.14158323 -0.22896117 -0.46129146 -0.23765399
0.14885755 0.093930654 -0.3634934 0.04782371 0.009721817 0.3146967 0.095601566 -0.15966865
-0.04803559 -0.115194306 0.045185525 0.20047165 -0.12371142 0.0060091815 0.026760578 -0.19472983
0.022173895 0.09704442 -0.10829272 -0.16687585 -0.051181193 0.034381445 -0.018249944 0.11874231
0.03874628 0.057822704 -0.21605313 0.004481657 -0.042276535 0.10370947 0.021254731 -0.06264144
-0.1357479 -0.21587391 -0.22983101 -0.173635 -0.05227094 0.030275062 0.12583043 0.039297346
0.015029916 -0.07633069 0.0068286574 -0.13998495 0.15589367 -0.20065415 0.18816324 -0.2530518
-0.052769046 0.08605681 -0.15800025 -0.26652554 0.03505845 0.17999844 -0.092486076 0.03637575
-0.14046071 0.015381681 0.22403374 -0.17920409 -0.281114 -0.23346537 0.06964783 -0.067141555
00000000: 323b 7fbd 030f 58be 362d 42ba d8a0 55bd
00000010: 7dfd cbbd 84e6 193d 4719 e0bd 0ebd ecbd
00000020: df1f b4bd 1e94 863d 606a 41bc 4d88 e7bd
00000030: cbbf e03d 4553 d03c a147 6abe 1177 43bd
00000040: c1af d43d c6aa 95bd 7a90 dcbb b819 c33d
00000050: 0225 0abe 8dcb e03d 1386 843e ef35 59be
00000060: b02f 183e 765f 22be 3829 6abd ce82 00be
00000070: 738b fdbd 4bd5 54be 78ee 1bbe 9a8f 46be
00000080: 1daf b83d a82b c03d d7db 91bd 0f26 edbc
00000090: 93e6 113d 6108 74be a78c 173e 36d6 663d
000000a0: 7d24 8d3c 4db5 7abe 4082 70be f13e 87be
000000b0: ac9a 593e 7e85 febd 53ea d23d 9e35 313e
000000c0: 89c6 0a3d 8444 74bd a24d 21be 22df 74be
000000d0: f06b 9abd 0359 913d 0932 95be b349 05be
000000e0: 5675 0a3e 83e3 a4be e258 e2bd 41d9 d43c
000000f0: 32fb 103e cc74 6abe 652e ecbe 915b 73be
00000100: 1d6e 183e b75e c03d cf1b babe cbe2 433d
00000110: 4248 1f3c ed1f a13e c1ca c33d 2e80 23be
00000120: f8c0 44bd feea ebbd 7514 393d 7148 4d3e
00000130: 6a5c fdbd abe8 c43b 0039 db3c 4267 47be
00000140: 07a6 b53c 3abf c63d 93c8 ddbd 81e1 2abe
00000150: 5fa3 51bd 8fd3 0c3d e880 95bc 2b2f f33d
00000160: 6bb4 1e3d 80d7 6c3d 083d 5dbe ddda 923b
00000170: 292a 2dbd a165 d43d 671e ae3c 284a 80bd
00000180: 7f01 0bbe 0d0e 5dbe d258 6bbe 60cd 31be
00000190: 0e1a 56bd 6803 f83c b1d9 003e 41f6 203d
000001a0: 0940 763c 4453 9cbd eec2 df3b 3758 0fbe
000001b0: 97a2 1f3e 4878 4dbe ddad 403e 0190 81be
000001c0: 5b24 58bd 8e3e b03d d1ca 21be 0976 88be
000001d0: 7399 0f3d 8351 383e 5769 bdbd bdfe 143d
000001e0: efd4 0fbe 7203 7c3c 1a69 653e 4781 37be
000001f0: 2dee 8fbe 8c11 6fbe 86a3 8e3d 8381 89bd

fully_connected.2.weight f4 [32, 128]
0.1423618 -0.45490155 -0.2128839 -0.14646639 -0.1064698 -0.05112351 0.20289722 -0.05097731
-0.17987159 -0.15315056 0.22706734 -0.5479616 -0.2332846 0.090973966 -0.4753472 -0.21483943
-0.23990357 -0.27814567 0.14671615 -0.010210134 0.053529438 0.04733898 -0.12097894 -0.40148008
-0.29825103 0.103945 0.19892727 0.257561 0.023936871 0.008392904 0.08792589 -0.5486123
-0.3779238 0.0979429 -0.3937142 0.114592 0.022210432 -0.1825112 -0.063981764 0.068113886
-0.034775075 0.058992844 -0.31469887 -0.53075147 -0.06476378 -0.14790608 0.12091722 0.15585957
0.114100344 0.117934175 0.09913572 -0.17409895 -0.08708967 0.28992617 0.0021271918 -0.09649844
-0.15050256 -0.0456326 0.005864464 0.23416616 0.02698068 -0.92429614 -0.24052615 -0.43638965
0.11438693 0.20741351 0.052644208 0.0586112 0.040973715 0.22555913 0.089536466 0.35273522
0.004220035 -0.14166312 -0.5358036 0.043877937 -0.4629174 0.09957781 0.103041805 -0.4226216
0.088517055 -0.23888882 -0.36427575 -0.04053623 -0.10978962 0.10749075 -0.4956183 0.117938384
0.15383704 0.16062886 -0.66461587 0.13415073 0.16835636 0.19762711 0.024045028 -0.13029836
-0.28171456 -0.37440768 0.12497883 0.36547643 -0.5410653 0.13943362 -0.45996115 -0.3189333
-0.07007466 -0.20061001 0.067602746 -0.56364954 -0.22676025 -0.091289505 -0.03771403 0.31446806
-0.32444966 0.2503559 0.07832651 -0.32906562 -0.2780681 -0.40136075 0.27289686 -0.10945654
-0.1840973 -0.1682597 0.06059111 -0.2086707 -0.6302703 -0.10604448 -0.6598175 -0.55214196
0.2479898 -0.090261646 -0.43196425 -0.4136459 -0.18926348 -0.7311875 0.119017094 -0.06515905
0.2249591 -0.30108514 0.16372794 -0.5977601 0.05834105 0.12949592 -0.47349268 -0.21944645
-0.64140165 -0.6528594 -0.27083188 -0.46557972 -0.042602416 -0.11013994 0.043297194 -0.4144478
-0.44681168 0.04514883 0.21415752 0.14539851 0.04093081 0.04162941 0.043664243 -0.89898324
-0.6263707 0.028432291 -0.32105106 0.067772865 0.22588044 0.11992676 -0.333392 0.1520951
-0.23766497 0.032904908 -0.2884084 -0.5179234 0.079777084 0.035291374 -0.7682294 0.19137764
0.059257045 -0.0068615736 -0.13165979 0.098953545 0.014666098 0.18681848 0.029609358 -0.44612235
0.052395668 -0.028280305 0.04162984 0.41549602 0.04295797 -0.9016607 -0.76369756 -0.513248
0.15713249 0.12821183 -0.9482918 0.14680137 -0.8145822 0.22392222 0.26236495 0.25233817
-0.062794976 -0.41870743 -0.9362282 0.18861692 -0.5780444 0.15876842 0.12955047 -0.6725719
0.07969649 -0.5677619 -0.26051185 -0.1964307 -0.29489386 0.21914384 -0.33379552 -0.39146724
0.22251643 0.26522365 -0.58698434 -0.383361 -0.016597278 0.09371607 0.049766548 -0.6777709
-0.118878946 -0.6540185 -0.02716822 0.20191936 -0.44977793 0.07126353 -0.89639443 -0.12746705
-0.54882526 0.06493175 0.18014506 -0.47419977 -0.21446823 0.16432664 0.23886892 0.1814347
-0.032699358 0.25176412 0.2661665 -0.54626906 -0.58910406 -0.40321094 0.14161256 -0.60773563
-0.54964626 -0.20069438 -0.07192027 0.043764576 -0.827108 0.10463906 -0.4558444 -0.38596022
00000000: 4bc7 113e dbe8 e8be 3dfe 59be 49fb 15be
00000010: d70c dabd e366 51bd 4ac4 4f3e 95cd 50bd
00000020: 4230 38be 80d3 1cbe 5784 683e 3647 0cbf
00000030: 28e2 6ebe 8f50 ba3d b560 f3be defe 5bbe
00000040: 48a9 75be 1c69 8ebe c23c 163e 6848 27bc
00000050: af41 5b3d 85e6 413d cec3 f7bd cc8e cdbe
00000060: 5cb4 98be 1ee1 d43d 97b3 4b3e 09df 833e
00000070: 4217 c43c 6482 093c 7d12 b43d db71 0cbf
00000080: 3a7f c1be 4a96 c83d e894 c9be 36af ea3d
00000090: a7f2 b53c 37e4 3abe df08 83bd 4b7f 8b3d
000000a0: 4f70 0ebd 7ba2 713d 3620 a1be 54df 07bf
000000b0: dfa2 84bd b174 17be 73a3 f73d a799 1f3e
000000c0: 71ad e93d 7987 f13d ab07 cb3d ff46 32be
000000d0: 125c b2bd 3471 943e 5b68 0b3b f9a0 c5bd
000000e0: 581d 1abe 40e9 3abd b12a c03b 41c9 6f3e
000000f0: 9606 dd3c ac9e 6cbf 7d4c 76be 776e dfbe
00000100: b243 ea3d 3564 543e 74a1 573d 4c12 703d
00000110: 0ed4 273d f9f8 663e e55e b73d b699 b43e
00000120: 3848 8a3b 2310 11be 6d2a 09bf 5ab9 333d
00000130: 8203 edbe 73ef cb3d 9507 d33d dc61 d8be
00000140: 6e48 b53d 459f 74be 5a82 babe 5109 26bd
00000150: 61d9 e0bd 1c24 dc3d afc1 fdbe ae89 f13d
00000160: 7587 1d3e e47b 243e 4424 2abf cf5e 093e
00000170: 9c65 2c3e c35e 4a3e 14fa c43c ef6c 05be
00000180: e43c 90be 5db2 bfbe e7f4 ff3d ba1f bb3e
00000190: 4183 0abf b0c7 0e3e 0780 ebbe 3a4b a3be
000001a0: 4e83 8fbd b66c 4dbe 4f73 8a3d 564b 10bf
000001b0: d733 68be fef5 babd 077a 1abd f501 a13e
000001c0: 441e a6be a62e 803e a669 a03d 4a7b a8be
000001d0: f15e 8ebe 287f cdbe 23b9 8b3e c02a e0bd
000001e0: 0184 3cbe 454c 2cbe 622e 783d c6ad 55be
000001f0: 6559 21bf d92d d9bd cde9 28bf 2d59 0dbf
00000200: 0af1 7d3e 19db b8bd 6b2a ddbe 65c9 d3be
00000210: 49ce 41be 1b2f 3bbf 3cbf f33d 1c72 85bd
00000220: ae5b 663e d527 9abe 4ca8 273e ce06 19bf
00000230: 06f7 6e3d 949a 043e a26d f2be 92b6 60be
00000240: e632 24bf cb21 27bf 7aaa 8abe 7760 eebe
00000250: df7f 2ebd 0d91 e1bd 6658 313d 8132 d4be
00000260: 80c4 e4be fbed 383d 1c4c 5b3e 59e3 143e
00000270: 11a7 273d 9a83 2a3d 47d9 323d c423 66bf
00000280: d559 20bf d6ea e83c ce60 a4be 80cc 8a3d
00000290: 344d 673e 299c f53d 5bb2 aabe d1be 1b3e
000002a0: 725e 73be 4cc7 063d 44aa 93be a196 04bf
000002b0: 2b62 a33d b08d 103d afaa 44bf 80f8 433e
000002c0: 84b7 723d 0dd7 e0bb d3d1 06be 28a8 ca3d
000002d0: 134a 703c 584d 3f3e 538f f23c 266a e4be
000002e0: d79c 563d 19ac e7bc 0d84 2a3d e5bb d43e
000002f0: b2f4 2f3d 3cd3 66bf af81 43bf 3964 03bf
00000300: 57e7 203e f649 033e 40c3 72bf 1953 163e
00000310: 7688 50bf de4b 653e b354 863e 7832 813e
00000320: a79a 80bd d260 d6be a7ac 6fbf cb24 413e
00000330: b8fa 13bf 3094 223e e1a8 043e ac2d 2cbf
00000340: ea37 a33d d858 11bf cf61 85be 2125 49be
00000350: 54fc 96be 3e67 603e 3fe7 aabe 656e c8be
00000360: 59db 633e 65cb 873e 9b44 16bf e547 c4be
00000370: 04f7 87bc 36ee bf3d 02d8 4b3d 6582 2dbf
00000380: ce76 f3bd c26d 27bf e38f debc f3c3 4e3e
00000390: 4b49 e6be 9df2 913d 1b7a 65bf b986 02be
000003a0: d07f 0cbf f0fa 843d f277 383e 50ca f2be
000003b0: 8f9d 5bbe 3e45 283e 0e9a 743e 05ca 393e
000003c0: c3ef 05bd 3ae7 803e fa46 883e 4ad8 0bbf
000003d0: 86cf 16bf aa71 cebe e202 113e 9094 1bbf
000003e0: 9eb5 0cbf d482 4dbe ef4a 93bd 7c42 333d
000003f0: 5abd 53bf 014d d63d 7064 e9be 949c c5be

fully_connected.2.bias f4 [32]
0.31424955 0.28466544 -0.028299984 0.15297797 -0.00035078768 0.024138795 0.0399503 -0.080621436
0.31142136 0.40258422 0.105324924 0.29281622 0.3294922 0.39568534 0.17015508 -0.034454785
-0.04596463 0.3589617 0.0014857976 0.30184594 0.21586026 0.14552245 0.3677692 0.0016052934
-0.13794625 0.036832366 0.09496066 -0.0835392 0.0013297165 0.3115816 0.023685029 0.31852698
00000000: 51e5 a03e abbf 913e 5ed5 e7bc 42a6 1c3e
00000010: ede9 b7b9 b9be c53c eda2 233d da1c a5bd
00000020: 9f72 9f3e 851f ce3e 98b4 d73d 02ec 953e
00000030: 34b3 a83e 4597 ca3e 223d 2e3e 7620 0dbd
00000040: 6845 3cbd d4c9 b73e 18bf c23a 8d8b 9a3e
00000050: 790a 5d3e d603 153e 3f4c bc3e b568 d23a
00000060: c841 0dbe 89dd 163d bc7a c23d 9a16 abbd
00000070: e249 ae3a a087 9f3e 1b07 c23c f815 a33e

fully_connected.4.weight f4 [1, 32]
-0.5119482 -1.7616085 0.931298 0.3648605 0.426427 0.09146504 0.49044812 0.08841043
-0.4095848 -0.48297122 0.37049353 -0.54505503 -0.9876967 -0.6094851 0.9650652 0.37111512
0.32602713 -1.0462468 0.75805205 -0.46843514 -0.3503801 0.38255814 -0.8692349 0.48780647
0.49267185 0.46427673 0.69059604 -0.014748828 0.12764944 -0.6481266 0.1624277 -0.9473623
00000000: 0a0f 03bf 637c e1bf 8c69 6e3f ffce ba3e
00000010: a454 da3e 0652 bb3d 041c fb3e 8710 b53d
00000020: 19b5 d1be 0148 f7be 54b1 bd3e ba88 0bbf
00000030: b1d9 7cbf 3707 1cbf 830e 773f cd02 be3e
00000040: 07ed a63e 6aeb 85bf b30f 423f bbd6 efbe
00000050: 0565 b3be a9de c33e 2e86 5ebf c5c1 f93e
00000060: 7c3f fc3e aeb5 ed3e e7ca 303f 11a5 71bc
00000070: 89b6 023e a0eb 25bf 7253 263e 5686 72bf
