trained_models/regression_cnn_protons_hillas_stereo.pth (torch, 692878 bytes, 36 tensors)

cnn.convolutions.0.weight f4 [16, 2, 3, 3]
0	0x3d98a4be	0.07453297
1	0xbd00bef9	-0.031432126
2	0xbe0cebad	-0.13761778
3	0x3d8f1306	0.0698605
4	0xbe36af7b	-0.17840378
5	0xbd8fb9a2	-0.070178285
6	0xbcb7c239	-0.02243148
7	0xbc2e285d	-0.010629741
8	0xbe22f3d9	-0.15913333
9	0xbccd049f	-0.025026618
10	0xbe3bc794	-0.18337852
11	0x3e46a8bd	0.19400306
12	0xbe6da57e	-0.23207662
13	0x3d320f8e	0.043471865
14	0x3db261cb	0.08710059
15	0x3c8615bc	0.016367786
16	0x3c4b33f9	0.012402528
17	0x3e25e741	0.16201498
18	0x3cc4c5be	0.024020072
19	0x3df9bdac	0.1219438
20	0xbdfa9404	-0.12235263
21	0xbe113903	-0.14181904
22	0xbe2023c0	-0.15638638
23	0x3e130eb4	0.14361078
24	0x3d15b474	0.036549047
25	0xbe0c5ba9	-0.1370684
26	0x3e77152f	0.24129175
27	0xbd6722cf	-0.05642968
28	0x3d7205e4	0.05908765
29	0xbe4e46fe	-0.20144269
30	0x3cbcb4f9	0.023035513
31	0x3e29fc7a	0.16600218
32	0x3e0ab364	0.13544995
33	0xbdb8d6f9	-0.09025378
34	0x3e53e4b1	0.20692708
35	0x3dc5189a	0.09623833
36	0xbe235730	-0.15951228
37	0x3e4584dd	0.19288965
38	0xbd7a370a	-0.061087646
39	0xbb83570f	-0.004008181
40	0x3e466b6d	0.19376917
41	0xbe5a8129	-0.21338333
42	0xbe5d43b7	-0.21607862
43	0xbd91b085	-0.071137466
44	0xbddfbddc	-0.10924885
45	0x3df0033b	0.11719366
46	0x3e189d6f	0.14903806
47	0x3dc19137	0.09451526
48	0xbd73b9e2	-0.059503444
49	0xbd79d5b1	-0.060994808
50	0xbdc41850	-0.0957495
51	0xbcf21f8f	-0.029556064
52	0xbdb13cb0	-0.08654153
53	0xbb5e86bf	-0.0033954827
54	0xbdb187d6	-0.08668487
55	0xbe3e3677	-0.18575464
56	0x3c4ff5b7	0.01269286
57	0x3e68f319	0.22748984
58	0xbd475be0	-0.048671603
59	0x3d2f5a80	0.042810917
60	0xbe204e4c	-0.15654868
61	0xbe000283	-0.12500958
62	0xbcc6c9ee	-0.02426621
63	0xbe1ac3de	-0.1511378
64	0xbe422dcd	-0.18962784
65	0x3d26eaa4	0.040751114
66	0x3e63105a	0.22174206
67	0x3d1b5311	0.037921015
68	0x3e4de5b3	0.20107155
69	0xbe1e5f53	-0.15466051
70	0x3df56013	0.11981215
71	0x3e5f9c68	0.21837008
72	0xbe260f25	-0.16216715
73	0x3d99344f	0.0748068
74	0x3e300386	0.17188844
75	0x3e36f3da	0.1786646
76	0xbdcbaee6	-0.099454686
77	0x3e26d5a3	0.16292433
78	0x3daefcf9	0.085443445
79	0xbe2d701c	-0.16937298
80	0x3d551568	0.052022368
81	0xbe0a1481	-0.13484384
82	0xbe0aa61c	-0.13539928
83	0xbb58c080	-0.0033073723
84	0x3e0ba13a	0.13635722
85	0x3c848e09	0.016181009
86	0xbe09cc6e	-0.1345689
87	0x3e1f6e51	0.15569426
88	0x3e6da3e8	0.23207057
89	0xbd27a8a2	-0.040932305
90	0x3da28f9c	0.079375476
91	0xbd09387d	-0.033501137
92	0x3cc8e047	0.024521006
93	0xbe1ab62c	-0.15108556
94	0xbd0bc0ea	-0.034119524
95	0x3e51c13b	0.20483868
96	0x3d226058	0.03964266
97	0xbdff4d6f	-0.12465941
98	0xbd984461	-0.07434917
99	0xbd555700	-0.052084923
100	0xbdff96cb	-0.12479933
101	0xbd695874	-0.05696912
102	0x3d3d7e5b	0.04626308
103	0x3e1bd6cd	0.15218659
104	0xbe424704	-0.18972403
105	0xbe73c0ae	-0.2380397
106	0xbce5dc44	-0.028059132
107	0xbe3d61c3	-0.18494324
108	0x3bb72598	0.0055891983
109	0x3d822dda	0.06356402
110	0xbd93d209	-0.072177954
111	0xbd815dd8	-0.063167274
112	0x3e477fd4	0.19482356
113	0xbe5e0e3b	-0.21685116
114	0x3dfb6f47	0.12277084
115	0x3d8d2a89	0.068928786
116	0xbe4c4640	-0.19948673
117	0xbdbc171f	-0.091840975
118	0x3e2e481a	0.17019692
119	0xbdd6037c	-0.10449883
120	0x3ddb5bfb	0.10710903
121	0x3ce6889e	0.028141316
122	0xbe0e21c4	-0.13880068
123	0x3e218927	0.15774976
124	0xbe261a43	-0.16220956
125	0xbd2bef6a	-0.04197637
126	0xbe026b35	-0.12736209
127	0x3e2a6271	0.16639115
128	0x3d00439f	0.03131449
129	0xbe1c04cb	-0.15236203
130	0xbd9fd25f	-0.07803797
131	0xbcb8bcb8	-0.022550926
132	0x3d82111d	0.0635092
133	0xbbc9544d	-0.0061440826
134	0x3d3b3958	0.045708984
135	0xbb99dcfa	-0.004695532
136	0x3d359f58	0.044341415
137	0x3df3054b	0.11866244
138	0x3e474c0a	0.194626
139	0x3ddbb376	0.10727589
140	0x3e0f6fd2	0.140075
141	0x3ea14147	0.31495115
142	0xbe0e75cc	-0.13912123
143	0x3e41d4ef	0.18928884
144	0x3e482368	0.19544756
145	0x3e276e29	0.16350617
146	0x3c44fb99	0.012022876
147	0xbe097793	-0.1342452
148	0xbdeb9c66	-0.1150444
149	0x3e014dd3	0.12627344
150	0xbe308e71	-0.17241837
151	0xbe1bf298	-0.15229261
152	0x3d2aa8e8	0.041664988
153	0xbdb0e6b5	-0.08637754
154	0x3d73a949	0.059487615
155	0x3db9a1db	0.090640746
156	0xbd702efa	-0.05863855
157	0x3dd39f33	0.10333099
158	0xbdfbef1b	-0.12301465
159	0x3e704983	0.23465542
160	0xbe447832	-0.19186476
161	0xbdc5dbae	-0.09661041
162	0xbd2cb4f4	-0.042164758
163	0xbe2f1422	-0.17097524
164	0xbe325664	-0.17415768
165	0x3e2d72e6	0.16938362
166	0x3e1b678b	0.15176217
167	0xbe10690a	-0.14102569
168	0x3e2ebad3	0.17063455
169	0xbdd6d584	-0.104899436
170	0xbe225ab3	-0.15854912
171	0xbe2ef99a	-0.17087403
172	0x3e069e42	0.13146308
173	0xbe3f0872	-0.18655565
174	0x3d8d22e7	0.06891423
175	0x3e2d9ce3	0.16954379
176	0x3b7333c2	0.0037109707
177	0x3e09aa26	0.13443813
178	0xbe296398	-0.16541898
179	0x3d40ac9a	0.047039606
180	0x3d5ab63d	0.053396452
181	0xbd8d4d40	-0.068995
182	0xbe0d2309	-0.13782896
183	0xbe3ccaba	-0.18436709
184	0xbd1709d0	-0.036874592
185	0x3c3bbfb7	0.011459283
186	0x3d5e2490	0.054234087
187	0xbdb50253	-0.08838334
188	0xbde8c17b	-0.113650285
189	0xbe4ec936	-0.20193943
190	0xbdccca72	-0.09999551
191	0xbd867540	-0.065653324
192	0x3dfb0699	0.12257118
193	0xbcf7bcfe	-0.030241486
194	0x3e51427c	0.20435518
195	0xbe03b9ea	-0.1286389
196	0xbd894eec	-0.06704506
197	0xbe1370ee	-0.14398548
198	0xbcf202f2	-0.02954242
199	0xbe18e1b5	-0.1492985
200	0x3cd95a28	0.026532248
201	0xbe284e82	-0.16436198
202	0x3cf30fc7	0.02967061
203	0xbd6ff8e6	-0.058586977
204	0x3e0942a0	0.13404322
205	0xbd85e6c9	-0.065381594
206	0x3d89d011	0.06729139
207	0x3d1934f7	0.037404027
208	0x3e45ea6d	0.19327708
209	0x3d9f65d5	0.07783095
210	0xbe0c1146	-0.13678464
211	0xbdb111f5	-0.08646003
212	0x3d2915e0	0.041280627
213	0x3db32c8a	0.087487295
214	0x3d467bb0	0.0484578
215	0xbd198e09	-0.03748897
216	0xbe1a0299	-0.15040053
217	0xbd336106	-0.0437937
218	0xbe235a5e	-0.15952441
219	0x3da0bd10	0.07848561
220	0xbced3028	-0.028953627
221	0x3e4b4d7f	0.19853781
222	0xbe0d3042	-0.1378794
223	0x3e0c63a9	0.13709892
224	0x3df538c2	0.11973716
225	0x3dae3bc0	0.0850749
226	0x3e42cd7e	0.19023702
227	0xbe39d2ec	-0.18146867
228	0x3e555224	0.20832115
229	0xbe01760c	-0.12642688
230	0xbd1ed3f3	-0.03877635
231	0x3def0018	0.1166994
232	0xbddc671b	-0.10761853
233	0xbe4a542f	-0.19758676
234	0x3d19fa94	0.037592486
235	0x3e2c61ad	0.16834135
236	0xbe17430d	-0.14771672
237	0xbdeeaec7	-0.1165443
238	0xbdb35357	-0.0875613
239	0xbc93ad64	-0.018027015
240	0xbd918561	-0.07105518
241	0x3df5c9b6	0.12001364
242	0x3e5ae3ba	0.21375933
243	0xbdaf10eb	-0.08548149
244	0xbe4bc750	-0.1990025
245	0x3e286e3f	0.16448306
246	0xbb1c5c3f	-0.0023858694
247	0xbe228fb6	-0.15875134
248	0x3e3ca0a7	0.18420659
249	0xbe11a4a5	-0.14222963
250	0x3e400e75	0.18755515
251	0x3d8decbc	0.06929919
252	0xbb92f5f2	-0.0044848854
253	0x3d2c6776	0.042090856
254	0x3e4e6509	0.2015573
255	0x3d38c923	0.045113694

cnn.convolutions.0.bias f4 [16]
0	0x3dca2ce5	0.09871844
1	0x3d1feee8	0.039046198
2	0x3daf23b7	0.08551734
3	0x3bb6bad6	0.005576472
4	0xbe601711	-0.21883799
5	0x3dde6fbf	0.108611576
6	0xbc810154	-0.015747704
7	0x3d085f1e	0.033293836
8	0xbe69ee1f	-0.22844742
9	0xbe37f6ca	-0.17965236
10	0x3e500b93	0.20316915
11	0xbe52a0a3	-0.2056909
12	0xbe469b3b	-0.19395153
13	0xbd7fc157	-0.062440243
14	0xbe79aaec	-0.24381608
15	0xbe493dfb	-0.1965255

cnn.convolutions.2.weight f4 [16]
0	0x3f6b8186	0.9199451
1	0x3f785f04	0.9701998
2	0x3f712a13	0.94204825
3	0x3f785b5a	0.9701439
4	0x3f8497b6	1.0358799
5	0x3f74b056	0.9558157
6	0x3f80420c	1.0020156
7	0x3f755cf5	0.95844966
8	0x3f77689e	0.9664401
9	0x3f7921ee	0.973174
10	0x3f7f96f7	0.9983973
11	0x3f75994c	0.9593704
12	0x3f7f59e3	0.9974653
13	0x3f7713d5	0.96514636
14	0x3f79aafa	0.97526515
15	0x3f79c08c	0.9755943

cnn.convolutions.2.bias f4 [16]
0	0xbd5039a3	-0.050836217
1	0x3d24a5d8	0.040197223
2	0xbc91f6f9	-0.017817961
3	0x39feef6c	0.00048625038
4	0xbd0ce5a2	-0.034398682
5	0xbca0a869	-0.019611554
6	0x3c1fbe57	0.00974997
7	0xbcf09d5a	-0.029371906
8	0xbc1bfe52	-0.009521084
9	0xbc8cb250	-0.01717487
10	0xbba7e222	-0.0051233927
11	0x3b98d629	0.0046642018
12	0x3c7175aa	0.014737526
13	0xbad79d0a	-0.001645
14	0xbbc80d1d	-0.006105079
15	0xbb6bf635	-0.0036004905

cnn.convolutions.2.running_mean f4 [16]
0	0x3dfe898a	0.12428577
1	0x3d2df7dd	0.04247271
2	0x3ddff926	0.10936193
3	0x3cc99b99	0.024610328
4	0x3ca25e09	0.01982023
5	0x3e1526e5	0.14565618
6	0x3c1eb8aa	0.009687582
7	0x3d6e8354	0.058230713
8	0x3ba752f0	0.0051063225
9	0x3b70ac96	0.0036723963
10	0x3e7849f4	0.24246961
11	0x3bc26359	0.0059322533
12	0x3c3839c7	0.011244244
13	0x3c6fe948	0.014643021
14	0x3b8d813a	0.0043183835
15	0x3b1e6f95	0.0024175395

cnn.convolutions.2.running_var f4 [16]
0	0x3c959d4f	0.018263487
1	0x3da12682	0.07868673
2	0x3c158faa	0.00912849
3	0x3d8c74c7	0.06858211
4	0x3db312e1	0.08743835
5	0x3b3b29bb	0.002855881
6	0x3c591385	0.013249283
7	0x3eb41014	0.35168517
8	0x3c69e58e	0.0142759215
9	0x3c074aee	0.008257611
10	0x3b8ed021	0.004358307
11	0x3c79dd85	0.015250568
12	0x3d2473dc	0.040149555
13	0x3d1fac8e	0.03898292
14	0x3c1a0707	0.0094010895
15	0x3b95c415	0.004570494

cnn.convolutions.4.weight f4 [32, 16, 3, 3]
0	0xbda6dde9	-0.08147795
1	0x3d6f21ed	0.058381964
2	0x3cf22b2d	0.029561603
3	0x3d6dea19	0.05808458
4	0xbd047116	-0.03233441
5	0x3c1f7f55	0.009734948
6	0x3ca129fd	0.019673342
7	0xbd944d20	-0.07241273
8	0x3c9f86f8	0.019473538
9	0x3d24992c	0.04018514
10	0xbbc53b3d	-0.0060190246
11	0x3c51a4e7	0.012795663
12	0x3d0259b2	0.03182382
13	0xbd27ff06	-0.041014694
14	0x3a3fcb59	0.0007316373
15	0x3b38a4fc	0.002817451
16	0x3cc9a4f0	0.024614781
17	0x3d439e88	0.04775861
18	0xbd4f7840	-0.05065179
19	0xbbfef055	-0.0077801147
20	0xbd7c9a3c	-0.061670527
21	0x3c5d96e0	0.013524741
22	0x3c56a100	0.013099909
23	0x3c725561	0.014790864
24	0xbd971f3a	-0.07379003
25	0x3d36b1bb	0.04460309
26	0xbd8e96f6	-0.06962387
27	0x3d55c224	0.0521871
28	0x3d045f74	0.032317594
29	0xbd79a96d	-0.060952593
30	0xbd52a3e9	-0.05142585
31	0xbb651cac	-0.0034959717
32	0x3d7a228b	0.0610681
33	0xbc2d617e	-0.010582326
34	0x3d1ff3e6	0.03905096
35	0xbcf14221	-0.029450478
36	0x3d7d557b	0.0618491
37	0x3cd58b28	0.026067331
38	0x3d66a0e7	0.056305792
39	0x3c9ff63c	0.019526593
40	0x39c27fb1	0.000370977
41	0x3bb19cc9	0.0054203016
42	0x3d9956cd	0.07487259
43	0x3d826f73	0.063689135
44	0x3d819278	0.06326765
45	0x3da505e7	0.080577664
46	0xbbf0f54d	-0.007353461
47	0x3d3d9feb	0.046295088
48	0xbd4a7af8	-0.04943368
49	0x3ccb1f03	0.024795061
50	0xbc921c29	-0.017835693
51	0xbd958d58	-0.0730235
52	0x3d2ea62c	0.042638943
53	0x3d74b20c	0.05974011
54	0xbda39761	-0.079878576
55	0xbc877755	-0.016536394
56	0xbd06231a	-0.03274832
57	0x3db346c2	0.0875373
58	0x3be10184	0.0068666358
59	0xbd7d0f37	-0.061782088
60	0x3d617038	0.05503866
61	0xbcf1e4ba	-0.02952801
62	0xbd3a56aa	-0.045492806
63	0xbb34d40d	-0.0027592212
64	0xbd2a55ca	-0.04158572
65	0xbd4757c3	-0.04866768
66	0x3c5e21a1	0.013557822
67	0xbd20f2c4	-0.03929402
68	0x3cd30fdb	0.025764396
69	0xbd5c1b93	-0.053737234
70	0xbbcd34dc	-0.006262405
71	0xbbff4d0e	-0.007791168
72	0xbd813fab	-0.06310972
73	0xbd3ce4a2	-0.04611648
74	0x3d977eff	0.073972695
75	0xbd6e7dff	-0.058225628
76	0x3db18a0a	0.08668907
77	0x3d344b42	0.044017084
78	0x3cd18cce	0.025579836
79	0x3d97d127	0.074129395
80	0x3ca11fc0	0.01966846
81	0x3d0681af	0.03283852
82	0x3d4ccf34	0.05000229
83	0xbc10d18a	-0.0088390205
84	0x3d1918eb	0.03737728
85	0x3d538106	0.05163672
86	0xbd367a4c	-0.044550225
87	0xbc8c6026	-0.01713569
88	0x3d889bd9	0.066703506
89	0xbc0408dc	-0.008058753
90	0x3da5c436	0.08094065
91	0x3da7d4b1	0.081948645
92	0x3da89756	0.0823199
93	0x3db59cd2	0.08867802
94	0x3dab1a14	0.083545834
95	0x3d2b479a	0.04181633
96	0xbcd01570	-0.025400847
97	0x3dc6e35a	0.097113326
98	0x3d38193d	0.044945944
99	0xbc2f93a5	-0.010716354
100	0x3d254ff9	0.04035947
101	0xbcf8f0b2	-0.03038821
102	0xbd513318	-0.051074117
103	0x3c651b0e	0.013983501
104	0xbc1ab7f4	-0.009443272
105	0x3c25ff19	0.010131621
106	0x3c56a479	0.013100737
107	0xbd55bedc	-0.05218397
108	0xbd647190	-0.055772364
109	0x3c687b39	0.014189535
110	0xbdc29928	-0.095018685
111	0x3ce79d1c	0.028273158
112	0xbc22c6f5	-0.00993513
113	0x3d21809d	0.039429296
114	0x3be93e36	0.007118012
115	0x3c0818d0	0.008306697
116	0xbb850b44	-0.004060181
117	0xbbae8fd5	-0.0053272047
118	0x3d4978ef	0.049187597
119	0xbd656e8c	-0.05601363
120	0x3d60834a	0.054812707
121	0x3c88f5c5	0.016718755
122	0xbd2dc43c	-0.04242347
123	0x3c906ec7	0.017630948
124	0xbd26b018	-0.04069528
125	0xbca0a594	-0.019610204
126	0x3d15a8d6	0.036537968
127	0x3d996f42	0.07491924
128	0x3d2cbe8f	0.04217392
129	0xbd9b4248	-0.075810015
130	0x3da8095d	0.08204911
131	0x3d2cf2ff	0.042223927
132	0x3d073994	0.033013895
133	0x3d860268	0.06543428
134	0x3b86fc1e	0.00411941
135	0x3cd9d747	0.02659191
136	0x3d4666c6	0.048437856
137	0xbaf42ca6	-0.0018629029
138	0x3dc02f55	0.09384028
139	0x3d6bfdbd	0.05761503
140	0x3d3d51ed	0.04622071
141	0xbb4ff19e	-0.0031729708
142	0xbb15706f	-0.0022802611
143	0x3c8232a0	0.01589328
144	0x3d57eb85	0.052714843
145	0x3bbe4d37	0.0058075446
146	0xbd74d2cb	-0.05977134
147	0xbcc2756e	-0.023737635
148	0x3c851837	0.016246898
149	0x3c8fc547	0.017550124
150	0xbd892ce3	-0.066980146
151	0xbbd502c7	-0.006500575
152	0x3b8bf026	0.0042705713
153	0x3b354130	0.0027657263
154	0x3cde4b85	0.02713562
155	0x3c95d24e	0.018288758
156	0xbd55973e	-0.05214619
157	0x3d6b23d4	0.057407215
158	0xbcab9194	-0.02094344
159	0xbd957b0f	-0.07298862
160	0x3ca71702	0.020396713
161	0xbda48178	-0.08032507
162	0xbd864490	-0.06556046
163	0x3d906a5a	0.07051535
164	0x3d89acab	0.06722387
165	0xbdaec9d8	-0.085345924
166	0xbe07b476	-0.13252434
167	0xbdda3510	-0.10654652
168	0x3cb1371a	0.02163272
169	0xbd4e9c7b	-0.0504422
170	0xbc2ea625	-0.010659729
171	0xbda49ee9	-0.08038122
172	0x3d35acc5	0.04435422
173	0xbd7f968b	-0.06239943
174	0xbcc91642	-0.024546746
175	0xbc3d0002	-0.011535646
176	0xbd1c0e4a	-0.038099565
177	0x3d59f0ad	0.053208042
178	0x3d1b3fe0	0.037902713
179	0xbd898247	-0.067143016
180	0xbc35ed3f	-0.011103927
181	0xbd13fee4	-0.036131755
182	0xbc47ae1d	-0.012187508
183	0xbbe1679d	-0.0068788067
184	0x3d016900	0.031594276
185	0x3db486f6	0.08814804
186	0x3d8151c7	0.06314426
187	0x3c711de9	0.014716604
188	0xbcf65cdd	-0.030073578
189	0x3d6eacab	0.058270138
190	0xbbcfc60e	-0.0063407486
191	0x3d66d6cc	0.05635719
192	0xbcff7abc	-0.031186454
193	0xbce4a087	-0.027908577
194	0xbd87106b	-0.06594928
195	0x3d90295d	0.070391394
196	0xbddb2420	-0.1070025
197	0xbd244743	-0.040107023
198	0xbd0b4f2b	-0.034011047
199	0x3b2d7e69	0.0026473051
200	0xbdccb3c1	-0.09995223
201	0xbd152532	-0.036412425
202	0x3c93d4da	0.018045831
203	0x3d8bf337	0.06833499
204	0x3c462048	0.012092657
205	0x3d37fb0c	0.04491715
206	0x3cc659aa	0.024212677
207	0xbcb40020	-0.021972716
208	0xbcddde98	-0.02708368
209	0xbc80c0df	-0.015716968
210	0xbd3b85d5	-0.04578193
211	0x3d4d2046	0.050079606
212	0x3d87b263	0.066258214
213	0x3d94c5e1	0.07264305
214	0xba89a9fc	-0.001050293
215	0xbd085069	-0.03327981
216	0xbd1145d3	-0.03546698
217	0xbc96976d	-0.018382752
218	0xbb429d0a	-0.0029695653
219	0xbd860e0d	-0.06545649
220	0xbd5bb7d7	-0.05364212
221	0xbd6222c0	-0.05520892
222	0xbca47c3f	-0.020078776
223	0xbd306cec	-0.043072626
224	0x3d03bde6	0.032163523
225	0xbce42aef	-0.027852504
226	0x3ca11702	0.019664291
227	0xbcbf2ca2	-0.023336712
228	0x3da9e8a3	0.08296325
229	0x3cafd1ee	0.021462407
230	0x3d6bafeb	0.057540815
231	0x3cc8b071	0.024498196
232	0x3c46e259	0.012138926
233	0xbda4a56a	-0.08039363
234	0x3d1509f2	0.036386438
235	0xbd5e7e95	-0.054319937
236	0x3d6e6e03	0.058210384
237	0xbd2793db	-0.04091249
238	0xbd367ec5	-0.04455449
239	0x3cd7d088	0.026344553
240	0x3d2f19e8	0.042749316
241	0xbcb965c0	-0.022631526
242	0xbda86684	-0.08222678
243	0xbbc4d7cf	-0.0060071717
244	0x3c34eede	0.0110432785
245	0x3cba423f	0.022736667
246	0xbd5e3d27	-0.05425754
247	0xbcced46c	-0.025247775
248	0xbbae535c	-0.005319996
249	0x3cccd385	0.025003204
250	0x3d9b57db	0.075851165
251	0x3ccf8747	0.02533306
252	0xbd47e7ac	-0.048804924
253	0x3c2ae991	0.010431663
254	0xbd817159	-0.063204475
255	0x3d29ed31	0.04148597

cnn.convolutions.4.bias f4 [32]
0	0xbdae15cd	-0.08500252
1	0xbd5e885a	-0.054329254
2	0xbce2e149	-0.027695315
3	0xbd52aed9	-0.05143628
4	0xbd06e5a5	-0.03293385
5	0xbd88878e	-0.0666648
6	0xbd102f13	-0.035201143
7	0xbda38e21	-0.07986093
8	0xbda38255	-0.07983843
9	0xbd853a9b	-0.06505319
10	0xbd0c41fe	-0.034242623
11	0xbd721f4c	-0.05911188
12	0xbdc75140	-0.09732294
13	0x3d9cb05c	0.076508254
14	0x3ce5b97a	0.028042544
15	0xbe1313ac	-0.14362973
16	0x3d960d5f	0.07326769
17	0xbb2eacb2	-0.0026653227
18	0xbd55de47	-0.052213933
19	0xbd42539f	-0.04744303
20	0x3d4032e7	0.046923544
21	0x3cadc67a	0.021212805
22	0x3d8a90cc	0.06765899
23	0x3c58b942	0.013227763
24	0xbda409da	-0.080096915
25	0x3d60846f	0.0548138
26	0xbdc2a681	-0.09504414
27	0xbc866a3c	-0.016408078
28	0x3d9691ed	0.07352052
29	0x3da93c98	0.082635105
30	0xbc2cfe1e	-0.010558633
31	0x3d90f3cc	0.070777506

cnn.convolutions.6.weight f4 [32]
0	0x3f70eee1	0.941145
1	0x3f718e20	0.9435749
2	0x3f72ce9b	0.94846505
3	0x3f733ff4	0.9501946
4	0x3f7bc183	0.9834215
5	0x3f716434	0.9429352
6	0x3f7165b2	0.942958
7	0x3f841637	1.031928
8	0x3f72fc64	0.9491637
9	0x3f70120b	0.9377753
10	0x3f75049e	0.9571017
11	0x3f777ad5	0.966718
12	0x3f77076b	0.96495694
13	0x3f70d42b	0.9407374
14	0x3f745ce3	0.95454234
15	0x3f82355a	1.0172532
16	0x3f77dcb8	0.96821165
17	0x3f6f7cd4	0.9354985
18	0x3f733015	0.9499524
19	0x3f7515e9	0.9573656
20	0x3f79473b	0.97374314
21	0x3f71e2eb	0.94486874
22	0x3f74c35e	0.95610607
23	0x3f76ce7d	0.96408826
24	0x3f72c7e6	0.9483627
25	0x3f74548e	0.9544152
26	0x3f76189c	0.961313
27	0x3f71dfbc	0.94482017
28	0x3f779673	0.9671394
29	0x3f7bc0ee	0.9834126
30	0x3f7767e5	0.96642905
31	0x3f6f6748	0.9351697

cnn.convolutions.6.bias f4 [32]
0	0xbd59e171	-0.053193513
1	0xbcaf46ae	-0.021396007
2	0x3c08b309	0.008343467
3	0x3d05e8ea	0.032692827
4	0xbd86bc9f	-0.06578945
5	0xbac6897a	-0.0015147172
6	0xbd020aa8	-0.031748444
7	0x3cbe7fb4	0.023254253
8	0xbcb85123	-0.022499627
9	0xbd119658	-0.03554377
10	0x3bb55e3c	0.0055349153
11	0xbd9fb1dc	-0.07797596
12	0xbd039598	-0.032125086
13	0x3d20ce4c	0.03925924
14	0xbcb13b19	-0.021634625
15	0x3c5ad3f3	0.013356197
16	0x3bde4420	0.0067830235
17	0xbc341075	-0.010990252
18	0xbc887cf3	-0.016661143
19	0xbc6c55be	-0.014424739
20	0x3cf1ea34	0.029530622
21	0xbd83f476	-0.064431116
22	0xbd17e46d	-0.03708308
23	0xbd949d30	-0.07256544
24	0xbd27ee6a	-0.040998854
25	0x3d8f4d3f	0.069971554
26	0xbcb99ffd	-0.022659296
27	0xbd2e3a0c	-0.042535827
28	0xbcf4f85f	-0.029903589
29	0x3d57c9a7	0.052682545
30	0x3c53bb23	0.012923035
31	0x3c1b0fd7	0.009464226

cnn.convolutions.6.running_mean f4 [32]
0	0x3e6527d0	0.22378469
1	0x3dabaf06	0.083829924
2	0x3d8a2c1e	0.06746696
3	0x3e3667d5	0.17813046
4	0x3e017f3a	0.1264619
5	0x3dc0b1ed	0.09408937
6	0x3db129aa	0.08650525
7	0x3d3c338e	0.045947604
8	0x3d9c8fe7	0.07644635
9	0x3e52b883	0.20578198
10	0x3db4ccfc	0.0882816
11	0x3d8b3bd8	0.06798524
12	0x3d14aa3f	0.03629517
13	0x3e0602dd	0.1308703
14	0x3da4afca	0.080413416
15	0x3e033e40	0.12816715
16	0x3e18c5b0	0.14919162
17	0x3e167d2a	0.14696184
18	0x3daa0451	0.083016045
19	0x3d6c554e	0.05769854
20	0x3e406d63	0.18791728
21	0x3e8dec9f	0.2771959
22	0x3e84ac8b	0.2591289
23	0x3dc75d28	0.09734565
24	0x3e00c60f	0.12575553
25	0x3e6c06f3	0.23049526
26	0x3d6972d7	0.056994285
27	0x3ddf3173	0.108981036
28	0x3e321a11	0.17392756
29	0x3e13c4bb	0.14430515
30	0x3dd5e253	0.104435585
31	0x3dd3acf0	0.103357196

cnn.convolutions.6.running_var f4 [32]
0	0x3f3ee40a	0.7456671
1	0x3e859634	0.26091158
2	0x3e25b4f9	0.16182317
3	0x3fb38dc1	1.4027635
4	0x3f2de611	0.6792918
5	0x3f19d24f	0.6008653
6	0x3eab96ed	0.33513585
7	0x3c10a07d	0.008827326
8	0x3ecc6759	0.39922598
9	0x3f6b1386	0.91826665
10	0x3e2f8a53	0.1714261
11	0x3ea1f07c	0.31628788
12	0x3e3a51dc	0.1819529
13	0x3e81954d	0.2530922
14	0x3ea6ac8b	0.32553515
15	0x3f11f0c0	0.5700798
16	0x3ed7af1a	0.4212578
17	0x3e8da442	0.2766438
18	0x3ec2dfe8	0.38061452
19	0x3d93a55b	0.072092734
20	0x3d0cbdbb	0.03436063
21	0x3e245563	0.16048197
22	0x3e99515c	0.29944885
23	0x3e96ce2f	0.2945418
24	0x3e365e20	0.17809343
25	0x3f0d2f9d	0.5515078
26	0x3e9822d3	0.2971407
27	0x3f2f178a	0.6839529
28	0x3e73ce38	0.23809135
29	0x3d2dbb9f	0.042415258
30	0x3e9b1fba	0.30297643
31	0x3e2d42f2	0.16920069

cnn.convolutions.8.weight f4 [64, 32, 3, 3]
0	0xbd5fa2f5	-0.054598767
1	0x3b8bcbf1	0.004266255
2	0x3d08602d	0.033294845
3	0xbd159bc6	-0.03652551
4	0x3c2c29ab	0.010507981
5	0x3d505d18	0.05087003
6	0x3d0bf978	0.03417346
7	0xbd1b80ca	-0.03796462
8	0x3c933d26	0.017973494
9	0xbc6c1a95	-0.0144106345
10	0xbd561d84	-0.052274242
11	0x3caaf251	0.020867499
12	0x3cf16e4e	0.029471543
13	0xbb8ef613	-0.0043628304
14	0x3d471b46	0.048609994
15	0xbcff6f65	-0.031181047
16	0xbdae4652	-0.08509506
17	0xbc50f4ab	-0.012753646
18	0xbd8a2a2d	-0.06746326
19	0xbbc94753	-0.0061425357
20	0xbc6412d1	-0.013920502
21	0xbd3b97ad	-0.045798946
22	0xbcc743fa	-0.024324406
23	0xbc16f466	-0.009213543
24	0x39b5a58d	0.00034646355
25	0xbd22b9f5	-0.039728124
26	0xbd38df71	-0.045134965
27	0x3cd94061	0.026519956
28	0xbd36cac7	-0.044626977
29	0xbd49354f	-0.049123105
30	0xbd2ffec3	-0.04296757
31	0x3d0e15dd	0.03468882
32	0xbd918661	-0.07105709
33	0x3ca978f9	0.020687567
34	0xbd192091	-0.037384573
35	0xbd72a89f	-0.05924284
36	0x3d2913e1	0.041278724
37	0x3ccb875b	0.024844816
38	0xbc52b129	-0.012859621
39	0xbcb14c2f	-0.021642772
40	0x3d22e680	0.039770603
41	0xbd77fa7a	-0.060541607
42	0x3c8f8956	0.017521542
43	0x3c83b1a8	0.016075924
44	0xbd20ebd3	-0.0392874
45	0x3ac2b092	0.0014853647
46	0xbd242ea4	-0.040083542
47	0xbd3193d6	-0.043353878
48	0xbba995b0	-0.005175315
49	0xbd81e237	-0.06341975
50	0x3c3f8a69	0.011690714
51	0x3d863ffa	0.06555171
52	0x39277bca	0.00015972476
53	0x3d5de631	0.054174606
54	0xbd855d75	-0.06511966
55	0xbca05e90	-0.01957634
56	0xbca5ad88	-0.020224348
57	0x3b58a218	0.00330556
58	0x3cb5883d	0.02215969
59	0xbbb27672	-0.0054462487
60	0xbd1be31f	-0.038058396
61	0xbd8784ba	-0.066171125
62	0x3cc6b5ea	0.024256665
63	0x3c43bcf2	0.011946904
64	0x3d8e3c72	0.06945123
65	0x3c967998	0.018368527
66	0xbc909b2c	-0.017652117
67	0x3d882a06	0.0664864
68	0xbc1038e5	-0.008802627
69	0xbbacb408	-0.005270485
70	0x3daf7e71	0.08569039
71	0x3d810cce	0.063012704
72	0x3c545eaa	0.012962023
73	0x3c8a0d29	0.016851978
74	0xbbfc8561	-0.0077063297
75	0xbc508e5b	-0.012729253
76	0x3cded2ab	0.027200064
77	0x3c8e2de3	0.017355865
78	0x3d3b3c89	0.045712028
79	0x3cdbe5c1	0.026842954
80	0xbc4f78a9	-0.012663045
81	0xbcefa99c	-0.02925568
82	0x3d3be905	0.04587652
83	0xbce76901	-0.028248312
84	0xbd0ffb17	-0.035151567
85	0xbd037589	-0.032094512
86	0xbda02168	-0.07818872
87	0xbc1d17ea	-0.009588221
88	0xbd6a37e0	-0.057182193
89	0x3d1f37f5	0.038871724
90	0xbd44c6be	-0.048041098
91	0xbd78d115	-0.06074627
92	0xbcf62ee3	-0.030051654
93	0xbc4750ae	-0.012165232
94	0xbc1e03a8	-0.009644426
95	0xbc59f348	-0.013302632
96	0x3c651542	0.013982119
97	0xbd615557	-0.055013027
98	0xbd2a9fc3	-0.041656267
99	0xbc30784a	-0.010770867
100	0x3d214f6b	0.03938238
101	0x3be90510	0.007111199
102	0xbcfd2df7	-0.030905707
103	0xbccc1951	-0.024914416
104	0x3b5c2c33	0.003359568
105	0x3c8b2c55	0.016988913
106	0xbd6bdf34	-0.05758591
107	0x3c4859ff	0.012228488
108	0xbd16b5e2	-0.03679455
109	0xbd338c1d	-0.043834794
110	0x3cd63333	0.02614746
111	0x3d072537	0.032994475
112	0x3bd873c5	0.0066055977
113	0xbcda26eb	-0.026629886
114	0xbd43e835	-0.04782887
115	0xbd9f6817	-0.077835254
116	0x3ac53081	0.0015044363
117	0xbc181073	-0.009281266
118	0x3d012a27	0.03153434
119	0x3d4fe828	0.05075851
120	0xbc26e352	-0.010186033
121	0xbc8fbec3	-0.017547017
122	0x3d24887b	0.04016922
123	0x3d051bdd	0.032497276
124	0xbd388170	-0.045045316
125	0xbbd8957e	-0.0066096177
126	0x3cf8a6ed	0.030353034
127	0xbd18b3dd	-0.037280906
128	0x3cf159b5	0.029461721
129	0x3c51d3cf	0.012806847
130	0xbc93997b	-0.018017521
131	0xbcd794ea	-0.026316125
132	0xbcee9313	-0.029122865
133	0xbd8a511f	-0.06753754
134	0x3cbd6a96	0.023122113
135	0xbcf788b7	-0.030216558
136	0xbcdc41ec	-0.026886903
137	0x3d66429b	0.056215864
138	0x3a986bf5	0.0011628853
139	0x3c7ef99b	0.01556244
140	0xbd9268e6	-0.07148914
141	0xbd6cb97c	-0.05779408
142	0x3c9d339e	0.019189652
143	0xbdb8f68b	-0.09031399
144	0x3c9e6f3d	0.019340152
145	0x3d29f095	0.041489203
146	0x3d98e188	0.07464892
147	0xbc3b235b	-0.011422004
148	0xba00003f	-0.0004882849
149	0x3c8a1608	0.016856208
150	0xbc0a97e2	-0.008459063
151	0xbbaebdea	-0.005332698
152	0x3bb6becd	0.0055769444
153	0xbc417b7c	-0.011809226
154	0x3cb1df45	0.021712909
155	0xbc1b0457	-0.009461484
156	0xbc96e99d	-0.018421942
157	0x3d6b1381	0.057391647
158	0x3cb373b9	0.021905767
159	0x3d48c091	0.04901177
160	0x3ccc6209	0.02494909
161	0xbd06d2a0	-0.03291571
162	0xbbead060	-0.0071659535
163	0xbd39d3df	-0.04536807
164	0x3ca1651e	0.019701537
165	0xbd2e8ac7	-0.042612817
166	0x3cfb42f4	0.030671574
167	0xbc7f42e1	-0.01557991
168	0xba73e0f8	-0.00093032373
169	0x3d729ddf	0.05923259
170	0xbd3c5498	-0.045979112
171	0xbc31af99	-0.010845088
172	0x3c91d323	0.017800873
173	0xbb0a7402	-0.0021126275
174	0x3d0e8b38	0.034800738
175	0xbd90033b	-0.07031866
176	0x3c5357c2	0.012899341
177	0x3d255219	0.040361498
178	0xbd046569	-0.032323275
179	0xbdaf14b5	-0.085488714
180	0x3c60acba	0.013713056
181	0xbd916c97	-0.0710079
182	0x3cb3f6a0	0.021968186
183	0x3c700c25	0.014651333
184	0xbc7b4d05	-0.015338187
185	0x3840908f	4.5910998e-05
186	0x3c66407a	0.014053458
187	0xbdb1b389	-0.08676822
188	0xba9c164b	-0.0011908499
189	0x3d09217c	0.0334792
190	0x3d8b054f	0.06788122
191	0xbd2dfe98	-0.042479128
192	0xbd5023cc	-0.05081539
193	0xbc71db63	-0.0147617785
194	0xbd831d7f	-0.0640211
195	0xbd00c943	-0.031441938
196	0xbd66e7e5	-0.056373496
197	0x3c1f208c	0.00971235
198	0x3d4496bc	0.047995314
199	0x3c953286	0.018212568
200	0x3c1cac3f	0.009562551
201	0x3d199476	0.0374951
202	0xbd669097	-0.056290235
203	0xbcb0e394	-0.021592893
204	0xbcff7527	-0.031183792
205	0x3d0bcb70	0.03412956
206	0x3cd7b32a	0.02633055
207	0x3c067ccd	0.008208466
208	0x3ccc5d76	0.02494691
209	0x3d16ecbd	0.036846865
210	0xbb148b64	-0.002266609
211	0xbc0e3f89	-0.00868214
212	0xbc2e9b2f	-0.010657116
213	0x3ceb7e20	0.028746665
214	0xbd21ad55	-0.039471943
215	0xbd8608ed	-0.06544671
216	0x3cf412f6	0.029794198
217	0x3d3f7877	0.046745744
218	0x3d2ff4ba	0.042958
219	0xbd8139e3	-0.06309869
220	0x3ce2a952	0.027668629
221	0x3d8ae539	0.06782002
222	0xbced98e2	-0.029003564
223	0xbb00226c	-0.0019551767
224	0xba8c2540	-0.0010692254
225	0x3a2fda72	0.0006708271
226	0xbd18ef9e	-0.03733789
227	0x3c12964b	0.008946965
228	0xbc37d78f	-0.011220827
229	0xbb3b7837	-0.002860559
230	0x3c5b5e96	0.01338925
231	0xbd0f2faa	-0.034957565
232	0x3c685ae2	0.014181824
233	0xbd6564f4	-0.05600448
234	0xbbd9ee68	-0.0066507347
235	0x3c31db3a	0.01085549
236	0xbc4706ae	-0.012147589
237	0xbcc02d68	-0.023459151
238	0xbcd3bd1c	-0.02584701
239	0x3ce2f3b3	0.027704095
240	0x3ccc2bb9	0.024923192
241	0xbd325aef	-0.043543752
242	0xbd8283fe	-0.06372832
243	0xbc9b4931	-0.018955799
244	0xbc9970b7	-0.018730504
245	0x3d0272f7	0.03184792
246	0x3b9a8e64	0.0047166813
247	0xbd1ffbf5	-0.039058644
248	0xbc9783d2	-0.018495474
249	0x3bee5cc8	0.007274244
250	0xbd93f331	-0.072241195
251	0xbd274c8b	-0.04084448
252	0xbcccb6b7	-0.024989469
253	0xbcf1c896	-0.029514592
254	0x3cb487b6	0.022037368
255	0xbd3bab76	-0.045817815

cnn.convolutions.8.bias f4 [64]
0	0x3d0c2f0a	0.034224547
1	0x3d89d718	0.06730479
2	0x3d423dd8	0.04742226
3	0x3d7e49e5	0.06208219
4	0x3ceeb062	0.02913684
5	0xbd61c677	-0.05512091
6	0xbd43da11	-0.047815386
7	0xbd821749	-0.063520975
8	0xbda06569	-0.078318425
9	0xbc5eb51b	-0.013592984
10	0x3cce1770	0.02515766
11	0x3ca22838	0.019794568
12	0x3d8281eb	0.06372436
13	0xbdc870e3	-0.097871564
14	0x3d72f557	0.059316006
15	0x3d930b06	0.07179837
16	0x3cf3f0ce	0.02977791
17	0x3d3cbb22	0.0460769
18	0xbcce0a26	-0.025151324
19	0xbce75202	-0.028237347
20	0xbd7fc73f	-0.062445875
21	0x3ca34976	0.01993249
22	0x3cee3ace	0.029080775
23	0xbbd009a6	-0.0063488064
24	0xb92f997f	-0.00016746482
25	0xbdbf43fb	-0.09339138
26	0xbc85254b	-0.016253134
27	0xbce45faf	-0.027877657
28	0x3d9e1719	0.07719249
29	0xbd844433	-0.064583205
30	0x3d9071c0	0.07052946
31	0x3c728a3d	0.014803466
32	0xbd938ec1	-0.072049625
33	0x3c5d7839	0.013517433
34	0xbd0678c2	-0.032830007
35	0x3cdb7a89	0.026791828
36	0x3d99624f	0.07489454
37	0x3d0fa291	0.035067145
38	0xbd49e65f	-0.049291965
39	0xbd51a9b5	-0.051187236
40	0x3c539ebc	0.012916263
41	0xbd5104cf	-0.051029976
42	0x3d36e37b	0.044650536
43	0xbd3b9ac5	-0.045801897
44	0xbb4837c2	-0.0030550812
45	0x3d0d0bfe	0.034435265
46	0xbd2d767c	-0.042349324
47	0x3c84c006	0.016204845
48	0x3bbc9522	0.0057550827
49	0x3b321454	0.002717276
50	0x3d399616	0.04530915
51	0x3d169db2	0.036771484
52	0xbd41a00d	-0.047271777
53	0xbc991b54	-0.018689789
54	0x3ca60450	0.020265728
55	0x3c48d606	0.012258058
56	0xbd0e5238	-0.03474638
57	0xbd9d4cae	-0.07680641
58	0xbd5cf2c9	-0.053942475
59	0x3caa49e4	0.020787187
60	0xbd0e323c	-0.034715876
61	0x3ca25f0c	0.019820713
62	0xbd22a7b1	-0.039710704
63	0xbc8aa305	-0.016923437

cnn.convolutions.10.weight f4 [64]
0	0x3f72fba8	0.94915247
1	0x3f65f254	0.8982289
2	0x3f5f712e	0.87282073
3	0x3f7016d6	0.93784845
4	0x3f56534a	0.8372084
5	0x3f5c0101	0.8593903
6	0x3f55aa7e	0.83463275
7	0x3f542a44	0.8287699
8	0x3f5e004f	0.8671922
9	0x3f564023	0.83691615
10	0x3f5592d1	0.8342715
11	0x3f55fc79	0.8358837
12	0x3f589b82	0.84612286
13	0x3f571e93	0.8403103
14	0x3f59821e	0.8496417
15	0x3f639c22	0.88910115
16	0x3f5ad502	0.85481274
17	0x3f5a3778	0.8524089
18	0x3f54771f	0.82994264
19	0x3f527bba	0.8222004
20	0x3f582d36	0.84443986
21	0x3f539123	0.82643336
22	0x3f56eaf2	0.8395225
23	0x3f549b3b	0.8304936
24	0x3f4e5903	0.8060457
25	0x3f5ab74f	0.85435957
26	0x3f68b224	0.9089682
27	0x3f5801a5	0.8437751
28	0x3f5c35d5	0.8601964
29	0x3f5c3489	0.8601766
30	0x3f62efd0	0.88647175
31	0x3f6ed8a9	0.9329935
32	0x3f532376	0.82475984
33	0x3f587a87	0.8456196
34	0x3f574f9a	0.8410584
35	0x3f5ae960	0.8551235
36	0x3f5f1bf7	0.87152046
37	0x3f6804b5	0.9063218
38	0x3f5cc0ad	0.862315
39	0x3f576f6b	0.84154385
40	0x3f573cf4	0.8407738
41	0x3f4f3cde	0.8095225
42	0x3f598cee	0.84980667
43	0x3f5aca6e	0.85465133
44	0x3f519ad3	0.8187687
45	0x3f521077	0.82056373
46	0x3f5620fa	0.8364407
47	0x3f5acee4	0.8547194
48	0x3f596712	0.849229
49	0x3f5f90c3	0.87330264
50	0x3f5b8537	0.85750145
51	0x3f59f2c7	0.85136074
52	0x3f56d2d3	0.8391544
53	0x3f6c6615	0.92343265
54	0x3f59a1b3	0.8501236
55	0x3f53772a	0.82603705
56	0x3f55ea7f	0.8356094
57	0x3f501cbb	0.8129384
58	0x3f5765f7	0.8413996
59	0x3f70b6d9	0.94029003
60	0x3f60f3ee	0.8787221
61	0x3f54b486	0.83087957
62	0x3f56788f	0.8377771
63	0x3f56c504	0.8389437

cnn.convolutions.10.bias f4 [64]
0	0x3c5a5b4e	0.013327433
1	0x3cbfc786	0.02341057
2	0x3c84a0ed	0.016190017
3	0x3cda28df	0.026630817
4	0x3cd01ecc	0.02540531
5	0xb9d75f2c	-0.00041078904
6	0x3c28d7a5	0.01030532
7	0xbc1e9d0b	-0.009680997
8	0x3b9e6ece	0.0048349863
9	0xbc9d1b8e	-0.019178178
10	0xbb1006dc	-0.0021976745
11	0x3cd4a118	0.025955722
12	0xbbf3c862	-0.007439659
13	0x3c0d2155	0.008613904
14	0x3c26c3cf	0.01017852
15	0xb934becf	-0.0001723722
16	0x3b9aec54	0.0047278795
17	0x3c9897a6	0.018627
18	0x3c8d4d76	0.01724885
19	0x3a140a0e	0.000564725
20	0x3b9d7303	0.00480497
21	0x3c8a1070	0.016853541
22	0xbc9bf33d	-0.019036883
23	0x3c771ce7	0.015082574
24	0x3bb930b9	0.00565156
25	0x3c2cc21b	0.010544325
26	0x3cff17b5	0.031139234
27	0x3c0117d0	0.0078792125
28	0xbc07b0b3	-0.0082818745
29	0xbb9a2cf0	-0.004705064
30	0xba045dae	-0.000504936
31	0x3b4701b8	0.0030366015
32	0x3cd13234	0.025536634
33	0xbbbcc656	-0.005760948
34	0xbbd64cea	-0.0065399306
35	0x3b800d13	0.0039078086
36	0x3c6bace4	0.014384482
37	0x3ca0163f	0.019541858
38	0x3a4145da	0.00073727744
39	0xba355c4a	-0.0006918354
40	0xbb018ae4	-0.0019766623
41	0x3c242759	0.010019147
42	0x3d30443b	0.04303382
43	0xbc604100	-0.013687372
44	0x3a410a47	0.0007363897
45	0x3b9e6489	0.004833762
46	0xbbec1b8e	-0.007205433
47	0xbc02cf21	-0.007983954
48	0xbc8c17f8	-0.017101273
49	0xbc83a65c	-0.016070537
50	0xbb18e30c	-0.002332869
51	0x3c4a746a	0.012356857
52	0x3c04dbe4	0.008109067
53	0x3c220aa1	0.009890229
54	0x3a881917	0.0010383454
55	0x3b81579b	0.003947211
56	0x3cc6b1c9	0.024254696
57	0x3c0b80bd	0.00851458
58	0xbb991c7d	-0.0046725855
59	0x3cef96ff	0.029246805
60	0x3b9784b6	0.0046239747
61	0x3c3eafb3	0.01163857
62	0x3c9e7cb7	0.019346578
63	0xbc744a10	-0.014910236

cnn.convolutions.10.running_mean f4 [64]
0	0x3e62818d	0.22119732
1	0x3e526970	0.20548034
2	0x3ed78489	0.42093304
3	0x3e9cfb40	0.3066044
4	0x3e97c6a3	0.29643735
5	0x3e6bd35d	0.23029847
6	0x3ea42e3c	0.32066524
7	0x3e73781a	0.23776284
8	0x3e6098d0	0.21933293
9	0x3e78ce1d	0.24297376
10	0x3e921a78	0.2853582
11	0x3e8faf70	0.28063536
12	0x3eaabe18	0.33348155
13	0x3e549fd2	0.20764092
14	0x3ec2a560	0.38016796
15	0x3eb15335	0.34633794
16	0x3e8eb1ad	0.2786993
17	0x3eb8e5bb	0.3611277
18	0x3ec50bc8	0.3848555
19	0x3e82c4cb	0.25540766
20	0x3e7c4c7a	0.24638548
21	0x3e5b30a2	0.2140527
22	0x3e88f9f5	0.26753202
23	0x3eb6cc64	0.35702813
24	0x3e9a9111	0.30188802
25	0x3db97914	0.09056297
26	0x3e3d40fd	0.18481822
27	0x3ea75248	0.32679963
28	0x3ea378ac	0.31928003
29	0x3e82751f	0.2547998
30	0x3e93464e	0.28764576
31	0x3e8c380e	0.27386516
32	0x3df9f29f	0.122044794
33	0x3e9a5ca6	0.3014881
34	0x3ead13fa	0.33804303
35	0x3e11a6e7	0.14223824
36	0x3e9a2415	0.30105653
37	0x3e98245b	0.29715237
38	0x3dde5db4	0.10857716
39	0x3e2c6332	0.16834715
40	0x3ee9be8b	0.45653185
41	0x3eb532b8	0.35390258
42	0x3e84d8dd	0.25946704
43	0x3e7d239d	0.24720617
44	0x3e4df583	0.20113187
45	0x3e726299	0.23670425
46	0x3e8e1c9c	0.27756202
47	0x3e9a64a6	0.30154914
48	0x3e842993	0.2581297
49	0x3ea2cf74	0.317989
50	0x3e320451	0.17384459
51	0x3e4b5b23	0.19858985
52	0x3ea3f0a8	0.32019544
53	0x3e7f28ba	0.2491788
54	0x3e4c2d8a	0.19939247
55	0x3ede97d1	0.43475202
56	0x3e605e86	0.21911058
57	0x3e20c64a	0.15700641
58	0x3ebb809a	0.36621553
59	0x3e8b6643	0.27226457
60	0x3dc2e7f9	0.095169015
61	0x3e82f314	0.2557608
62	0x3e4618be	0.19345376
63	0x3ea4dadf	0.32198235

cnn.convolutions.10.running_var f4 [64]
0	0x3e1cb3f5	0.15303023
1	0x3e14b466	0.14521942
2	0x402c6ce5	2.6941464
3	0x3e756878	0.23965633
4	0x3f302667	0.688086
5	0x400871f7	2.1319559
6	0x400fb0dc	2.2451696
7	0x3efc8ac0	0.49324608
8	0x3feb5569	1.838544
9	0x3f4a96a3	0.79136103
10	0x3f018993	0.50600547
11	0x3fea6f8a	1.8315289
12	0x3faa445c	1.3302112
13	0x3f6459d2	0.89199555
14	0x4019ac30	2.4011345
15	0x3f66e1cf	0.90188307
16	0x3f79d2e8	0.9758744
17	0x4018acd6	2.385549
18	0x406578d8	3.5855007
19	0x3fdd3dec	1.7284522
20	0x3fa33df0	1.2753277
21	0x3f946b9c	1.159534
22	0x3f0f1389	0.55889183
23	0x402c7e28	2.6952
24	0x40194945	2.395097
25	0x3ed52090	0.41626406
26	0x3df7dc4e	0.12102567
27	0x3ec09e1a	0.37620622
28	0x3fa68391	1.3008901
29	0x3f892620	1.071476
30	0x3f760d96	0.9611448
31	0x3df68799	0.12037582
32	0x3f1669a6	0.58754957
33	0x400f530d	2.239444
34	0x402e6885	2.7251294
35	0x3ec42f72	0.38317448
36	0x3f816d0f	1.0111407
37	0x3ea2f4bf	0.3182735
38	0x3ef7587e	0.48309702
39	0x3f892cfc	1.0716853
40	0x401c34d6	2.4407248
41	0x40549592	3.321629
42	0x3fdf4417	1.7442654
43	0x3fa91404	1.3209233
44	0x3eeb1aa3	0.4591876
45	0x3efdd694	0.49577773
46	0x3f1cbccd	0.6122559
47	0x3f230d0b	0.63691777
48	0x3fbd7fbf	1.480461
49	0x3f803a54	1.00178
50	0x3ef60ba0	0.48055744
51	0x3e97d87c	0.29657352
52	0x401ff8b8	2.4995556
53	0x3e523407	0.2052766
54	0x3f8799be	1.0593793
55	0x40501059	3.2509978
56	0x3f89cdf7	1.076598
57	0x3f808018	1.0039091
58	0x4015ad69	2.338709
59	0x3e66a08f	0.22522186
60	0x3ec774d4	0.3895632
61	0x3fa264eb	1.2687048
62	0x3f9b8ef1	1.2152997
63	0x403bc6c6	2.9340072

fc.0.weight f4 [128, 1061]
0	0x3c788370	0.015168056
1	0x3abd3211	0.0014434477
2	0xba838a32	-0.0010035692
3	0x3d0d5d62	0.034512885
4	0x3d01f4b2	0.0317275
5	0x3c3fb557	0.01170095
6	0x3cb23ebe	0.021758433
7	0x3c6d5382	0.014485242
8	0x3beb83ed	0.0071873576
9	0x3d0c2b28	0.034220845
10	0x3c71ad45	0.014750783
11	0xbc1609e0	-0.009157628
12	0x3d051e49	0.032499585
13	0x3c943d04	0.0180955
14	0x3c3b5992	0.011434929
15	0x3ba17134	0.004926825
16	0x3c6b4da4	0.014361773
17	0xbc992e79	-0.018698918
18	0x3c7edd33	0.015555668
19	0x3c3a7cd8	0.011382304
20	0xbd2e5962	-0.04256571
21	0xbc21c5ee	-0.00987385
22	0x3c034695	0.008012434
23	0xbcb2691c	-0.021778636
24	0xbc63c520	-0.013901979
25	0xbc5d1498	-0.013493679
26	0xbb440b72	-0.0029914049
27	0x3cc8eef8	0.024528012
28	0xbcadd012	-0.02121738
29	0xbd104af7	-0.035227742
30	0xbb08b85b	-0.0020861838
31	0x3c8ea609	0.017413156
32	0xbc0da480	-0.008645177
33	0xbc22fa4e	-0.009947373
34	0x3c88c76e	0.016696658
35	0x3b22681e	0.0024781297
36	0x3cbd0237	0.023072345
37	0x3ccb490a	0.024815101
38	0xbcf02a30	-0.029316992
39	0xbcb35584	-0.021891363
40	0x3cef9de6	0.029250097
41	0x3b5a5807	0.0033316629
42	0x3d0afe9d	0.033934224
43	0xbd095676	-0.03352972
44	0xbc0eece8	-0.008723475
45	0xbb82d97b	-0.003993211
46	0xbc56034e	-0.013062311
47	0x3cf69be4	0.030103631
48	0x3d6b4998	0.05744323
49	0x3cacbab6	0.021085124
50	0x3c5b99d4	0.013403375
51	0xbd165231	-0.036699478
52	0x3d2a9114	0.041642264
53	0xbc9520e2	-0.018204156
54	0xbc559866	-0.013036823
55	0x3c4a8a52	0.01236208
56	0xbcc5bf63	-0.024139112
57	0x3adc8068	0.0016822936
58	0xbcaf7623	-0.021418637
59	0xbce2f95d	-0.027706796
60	0xbd3eff11	-0.04662997
61	0xbcd1560d	-0.025553728
62	0xbc958ccc	-0.018255614
63	0x3c15612b	0.009117405
64	0xbcbbb143	-0.022911673
65	0xbad2d976	-0.0016086537
66	0x3cdf1525	0.027231762
67	0xbbd3e6bb	-0.006466714
68	0xbccae98d	-0.024769569
69	0x3c85b46c	0.016321383
70	0xbcb5c9ce	-0.022190955
71	0x3cda4e77	0.026648743
72	0x3beec16b	0.007286241
73	0x3c1a220d	0.009407532
74	0xbcfc461c	-0.03079515
75	0x3ce7170f	0.028209237
76	0xbb9e7618	-0.004835855
77	0xbaeb1e48	-0.0017938102
78	0xbc208abf	-0.009798705
79	0x3b06896b	0.0020528685
80	0x3b98247a	0.00464302
81	0x3cde0197	0.027100367
82	0xbc1c3037	-0.00953298
83	0x3d1f0eb6	0.03883239
84	0x3d14693c	0.03623317
85	0x3cd5545f	0.026041208
86	0xbc7350a9	-0.014850774
87	0xbc80c162	-0.015717212
88	0x3d27451a	0.040837385
89	0x3cb65391	0.022256644
90	0x3d015ea5	0.0315844
91	0xbcdb11d9	-0.026741909
92	0x3cc17548	0.023615494
93	0xbc342366	-0.010994768
94	0x3c0fef1a	0.008785034
95	0x3c973cc6	0.018461596
96	0x3cb9c834	0.022678472
97	0xbcb5e7c7	-0.022205247
98	0x3becbae3	0.007224427
99	0xbc0aa189	-0.008461365
100	0x3b32ac4d	0.0027263344
101	0x3c9e9bbd	0.019361371
102	0x3ccd388c	0.025051378
103	0xbc8f8619	-0.017519997
104	0xbbe088d2	-0.0068522478
105	0x3b251fb9	0.002519591
106	0xbc579e92	-0.013160365
107	0xbc9e895e	-0.019352611
108	0x3cc44a2d	0.023961151
109	0x3c8ab6a3	0.016932791
110	0xbb8a33ed	-0.004217616
111	0xbcac344e	-0.021021035
112	0xbc8f51d8	-0.01749508
113	0x3ca1b699	0.01974039
114	0x3a456d43	0.0007531235
115	0x3bacfd19	0.005279195
116	0x3c68addf	0.01420161
117	0x3cb4b9d3	0.022061264
118	0x3cdf7bd5	0.027280727
119	0x3a8fb138	0.001096285
120	0x3caaaae6	0.020833444
121	0xbb62ae4f	-0.003458876
122	0xbc83cc98	-0.016088769
123	0x3ca52dd5	0.020163456
124	0x3cf8ffba	0.030395377
125	0x3c95f183	0.018303638
126	0xbc0ed72b	-0.008718292
127	0x3c446886	0.011987811
128	0x3ca36306	0.019944679
129	0x3c2cf554	0.010556538
130	0x3c4a413b	0.012344654
131	0x3d00688e	0.03134971
132	0x3c1ca64f	0.009561135
133	0x3b9743dd	0.004616244
134	0xbc8cfbf2	-0.01720998
135	0x3cb477b8	0.022029743
136	0x3c37fccc	0.011229705
137	0x3cb6b1fd	0.022301668
138	0x3c04a855	0.008096774
139	0xbbec655c	-0.0072142314
140	0xbc2601dd	-0.01013228
141	0xbbabdc4a	-0.0052447664
142	0x3c8ba2e7	0.017045451
143	0xbc4b6877	-0.012415043
144	0xbcf30198	-0.029663846
145	0xbc3eae70	-0.011638269
146	0xbc402078	-0.011726491
147	0xbc4d9e15	-0.012549897
148	0x3cb719ee	0.022351231
149	0xbc896bdb	-0.016775062
150	0x3d1d8cd1	0.03846437
151	0x3ca1964d	0.01972499
152	0xbc741ab3	-0.014898944
153	0x3cf1c971	0.029515
154	0xba3fd792	-0.0007318194
155	0x3c571207	0.013126857
156	0x3d0b6bac	0.03403823
157	0x3cccdeed	0.025008643
158	0xbb25be43	-0.0025290407
159	0x3c191dcb	0.009345482
160	0xba36fefa	-0.00069807435
161	0xbc4e1735	-0.012578775
162	0x3c246027	0.01003269
163	0xbcad87e3	-0.02118296
164	0x3cf241c7	0.02957238
165	0x3cf95174	0.030434348
166	0x3bd2b72c	0.006430527
167	0xbbc08d81	-0.0058762436
168	0xbcba5ec4	-0.022750266
169	0x3cceab7b	0.025228253
170	0xbb60ce6b	-0.0034302722
171	0x3ca0871b	0.019595673
172	0x3c4ed554	0.012624104
173	0x3b0e0542	0.0021670614
174	0x3c9d0384	0.019166715
175	0x3c0a28b2	0.008432554
176	0x3c742714	0.014901895
177	0xbbb9a3dc	-0.0056652855
178	0x3cf1e986	0.029530298
179	0x3c26ab23	0.010172638
180	0x3bcfb1b6	0.0063383235
181	0x3cef65b0	0.029223293
182	0xbba8b467	-0.0051484588
183	0xbced285b	-0.028949907
184	0xbc42cad7	-0.011889181
185	0x3c323dfd	0.010879037
186	0x3c03a239	0.008034282
187	0x3b644a98	0.00348345
188	0xbc08e176	-0.008354535
189	0x3cb848b8	0.022495613
190	0xbc1e216b	-0.009651522
191	0xbbfac72f	-0.007653139
192	0xbca212f5	-0.01978443
193	0x3c497dc6	0.012298053
194	0x3a80a9a1	0.0009816178
195	0xbb41f6c9	-0.0029596558
196	0x3cd26729	0.025683956
197	0x3c549de1	0.012977094
198	0x3ce93fff	0.028472899
199	0x3c8a2be1	0.016866626
200	0x3caa5cac	0.020796143
201	0x3cca5c84	0.024702318
202	0xbc86d5d4	-0.016459383
203	0xbc2385a2	-0.009980591
204	0x3cb5bac9	0.022183793
205	0x3ce86fbf	0.028373597
206	0xbb9d9465	-0.00480895
207	0x3ce49fac	0.027908169
208	0xbabbca69	-0.0014327291
209	0xbad9186e	-0.0016563067
210	0xbc8efafa	-0.01745366
211	0x3c487b96	0.012236496
212	0x3d50c276	0.050966702
213	0x3cc7a39b	0.024370005
214	0x3b0c7ee4	0.0021437937
215	0x3c114892	0.0088674
216	0x3c562961	0.013071389
217	0x3c474ec1	0.0121647725
218	0xbc965417	-0.018350644
219	0x3ca56ea7	0.020194365
220	0xbb6cbb14	-0.003612225
221	0xbacb68f9	-0.0015518955
222	0xbc1816c8	-0.009282775
223	0x3d085ae0	0.03328979
224	0xbbc2bd3a	-0.0059429677
225	0x3c9f0575	0.019411782
226	0x3cbf3cb6	0.023344379
227	0xbc452125	-0.012031828
228	0xbc370dd9	-0.011172735
229	0x3cc7a83b	0.02437221
230	0xbb0a475e	-0.0021099667
231	0xbb2193cd	-0.0024654747
232	0x3c9484ff	0.018129824
233	0x3ca9fa43	0.020749217
234	0x3b9052a8	0.0044043846
235	0xbc8a0ac7	-0.016850842
236	0x3c2c9d09	0.010535487
237	0x3c011cc2	0.007880392
238	0x3ccdff77	0.02514623
239	0xbb2c612b	-0.0026303034
240	0x3cdc2e31	0.026877495
241	0x3d007ce9	0.031369124
242	0xbc0482aa	-0.008087793
243	0x3cb76c0f	0.022390394
244	0x3c9602a3	0.018311804
245	0x3d1028a5	0.03519501
246	0x3c25c2eb	0.010117273
247	0xbcb1258e	-0.021624353
248	0xbbec212c	-0.007206103
249	0x3d264a04	0.04059793
250	0xbc83cd89	-0.016089218
251	0x3b69d7f6	0.0035681701
252	0x3bdaada2	0.0066735307
253	0x3c93532d	0.017983997
254	0x3cb384f9	0.021913992
255	0x3be6626b	0.0070307753

fc.0.bias f4 [128]
0	0x3c12fe9b	0.0089718355
1	0xbc798241	-0.015228809
2	0xbac9fcee	-0.0015410462
3	0xbc8d4436	-0.01724444
4	0x3c10ad19	0.008830332
5	0x3d08787d	0.03331803
6	0xbc6f36a4	-0.01460043
7	0xbc5acec1	-0.013354958
8	0xbc10f747	-0.008848018
9	0x3b108c84	0.002205641
10	0x3bf8455b	0.007576627
11	0xbb14b81b	-0.0022692743
12	0x3ba5c3dc	0.0050587486
13	0x3c4169c4	0.011805002
14	0x3d96442f	0.07337224
15	0x3d086449	0.033298764
16	0x3cc044ee	0.023470368
17	0x3c1e24fd	0.009652373
18	0x3c5d22e3	0.013497087
19	0x3c8f8157	0.017517729
20	0x3d61c693	0.055121016
21	0xbc670caa	-0.01410214
22	0xb9d8b7b7	-0.0004133561
23	0x3d8bafeb	0.06820663
24	0xbb03d0f3	-0.0020113557
25	0x3d95e45b	0.07318946
26	0xbbc1105a	-0.005891842
27	0x3bc0d2a6	0.0058844863
28	0xbc777e65	-0.015105818
29	0x3bdbdcd2	0.0067096734
30	0x3cf93442	0.030420426
31	0x3ce3735e	0.027764972
32	0xbc8706fa	-0.016482819
33	0x39fe8749	0.0004854745
34	0xbcfaf1d2	-0.030632887
35	0xbcfb229f	-0.030656157
36	0xbca0cd26	-0.019629072
37	0xbc4179fc	-0.0118088685
38	0xbba455a6	-0.005015093
39	0x3bfa8176	0.0076448275
40	0x3c1a21ad	0.009407443
41	0xbcb61f40	-0.022231698
42	0xb974d93d	-0.00023350581
43	0xbc2cde29	-0.010551014
44	0xbc1fd678	-0.009755723
45	0xbc4da618	-0.012551807
46	0x3c8fe74d	0.017566347
47	0x3d1ee0c4	0.038788572
48	0x3c2c9196	0.010532757
49	0x3b9d7dea	0.00480627
50	0x3ca94799	0.020664023
51	0x3b23633b	0.0024930972
52	0x3d08c5da	0.03339181
53	0x3c1f1499	0.009709501
54	0x3b2054b5	0.0024464552
55	0x3cd56210	0.026047736
56	0x3b52ac22	0.0032146056
57	0x3cb50173	0.022095418
58	0xbcad06a1	-0.021121325
59	0x3c08a446	0.008339947
60	0xbc83231c	-0.016007952
61	0x3b2373c4	0.0024940828
62	0x3c6b9553	0.014378863
63	0x3bba6246	0.0056879846
64	0x3b8da33d	0.004322438
65	0x3c68082c	0.014162105
66	0xbc4cc853	-0.012498933
67	0xbccbcdab	-0.024878344
68	0x3c2e0512	0.010621326
69	0x3bb21f40	0.005435854
70	0x3a065f73	0.00051259174
71	0x3c45f860	0.012083143
72	0x3bafd1b1	0.0053655733
73	0xbc1f8018	-0.00973513
74	0x3d4d22ed	0.050082136
75	0x3ba46aaf	0.0050176005
76	0x3bb52b37	0.0055288333
77	0xbb36c95c	-0.0027891016
78	0xbbdc3147	-0.0067197415
79	0xbbb532b3	-0.0055297255
80	0xbb42ab30	-0.0029704086
81	0x3d481d48	0.04885605
82	0xb9b921af	-0.00035311046
83	0x3a70844f	0.0009174989
84	0x3c0179c7	0.007902569
85	0x3c9997c1	0.01874912
86	0xbd016b90	-0.03159672
87	0x3c1258a6	0.008932268
88	0xbce15c05	-0.027509699
89	0x3d21dbc9	0.039516244
90	0x3c05e239	0.008171611
91	0x3b6383e3	0.0034716062
92	0x3c7d2950	0.015451744
93	0x3aad8bf5	0.0013240563
94	0x3c8e2955	0.017353693
95	0x3cb5bec9	0.0221857
96	0xbc8eb0b2	-0.01741824
97	0x3d02e8de	0.03196036
98	0x3cd64e35	0.026160339
99	0xbcde540a	-0.027139682
100	0xbc33da4a	-0.010977337
101	0xbc1c2f6c	-0.009532791
102	0x3d33e0c4	0.043915525
103	0x3c51834b	0.01278765
104	0xba8dc8cd	-0.001081729
105	0xbd04d610	-0.03243071
106	0x3c628fa4	0.013828192
107	0xbc6e8ebc	-0.014560398
108	0xbc127381	-0.008938671
109	0xbc826277	-0.015916092
110	0xbcb835a9	-0.022486525
111	0x3bb5a1a2	0.00554295
112	0xbb69c6bb	-0.003567143
113	0x3beb2a58	0.0071766786
114	0x3b4cc4b5	0.0031245176
115	0x3d625c79	0.05526397
116	0x3c5db79d	0.013532546
117	0xbbca4c22	-0.0061736265
118	0xbc2324e2	-0.009957524
119	0x3bdffc1a	0.006835473
120	0xb88d8f94	-6.7501474e-05
121	0x3d03065e	0.031988494
122	0x3ca45c87	0.020063652
123	0x3ca2aa0a	0.019856472
124	0x3ce5165d	0.027964765
125	0x3bd32878	0.0064440332
126	0xbbba9c0e	-0.0056948727
127	0x3cfd1931	0.030895801

fc.2.weight f4 [128]
0	0x3f691a79	0.9105602
1	0x3f7bba99	0.983316
2	0x3f6fb6a4	0.9363806
3	0x3f69ee3b	0.91379136
4	0x3f6402d0	0.8906679
5	0x3f751b67	0.9574494
6	0x3f7033ec	0.93829226
7	0x3f75616e	0.9585179
8	0x3f6bd502	0.921219
9	0x3f746ae2	0.9547559
10	0x3f68b38a	0.90898955
11	0x3f65429e	0.89554775
12	0x3f7b889a	0.9825531
13	0x3f6b1119	0.91822964
14	0x3f773a85	0.9657367
15	0x3f662da8	0.89913416
16	0x3f658c96	0.8966764
17	0x3f62b43e	0.8855628
18	0x3f6afbe0	0.9179058
19	0x3f649be8	0.89300394
20	0x3f787a46	0.97061574
21	0x3f6ccd78	0.9250102
22	0x3f6adf1c	0.9174669
23	0x3f7834d0	0.96955585
24	0x3f65a2c1	0.8970147
25	0x3f7274a7	0.9470925
26	0x3f699929	0.9124933
27	0x3f7410c7	0.953381
28	0x3f6b6fb5	0.91967326
29	0x3f70481b	0.93860024
30	0x3f6adfc8	0.91747713
31	0x3f772a7b	0.96549195
32	0x3f1b2fdd	0.6061991
33	0x3f6bf322	0.92167866
34	0x3f6b19ce	0.9183625
35	0x3f66a87f	0.90100855
36	0x3f6d026b	0.92581815
37	0x3f68b091	0.9089442
38	0x3fa372e6	1.2769439
39	0x3f6a3df5	0.9150079
40	0x3f7234b6	0.9461168
41	0x3f583b42	0.8446542
42	0x3f645187	0.891869
43	0x3f6ef27d	0.9333876
44	0x3f7de6ad	0.9918011
45	0x3f5c61a1	0.8608647
46	0x3f694355	0.91118366
47	0x3f7ad4aa	0.9798075
48	0x3f63d233	0.88992614
49	0x3f624f5b	0.88402337
50	0x3f76e9b9	0.9645038
51	0x3f74b013	0.9558117
52	0x3f790f34	0.97288823
53	0x3f6be65d	0.9214838
54	0x3f6f11d0	0.93386555
55	0x3f681b77	0.9066691
56	0x3f7184f1	0.9434348
57	0x3f63c4b8	0.88972044
58	0x3f67126f	0.902625
59	0x3f76e812	0.9644786
60	0x3f6580df	0.89649767
61	0x3f67025e	0.9023799
62	0x3f76a5ef	0.96346945
63	0x3f6ad171	0.9172583
64	0x3f65785d	0.89636785
65	0x3f6dbce4	0.9286635
66	0x3f74610e	0.95460594
67	0x3f6aeadf	0.91764635
68	0x3f6d5552	0.92708313
69	0x3f6c4808	0.9229741
70	0x3f7fe32c	0.9995601
71	0x3f60d084	0.8781817
72	0x3f6e60b1	0.9311629
73	0x3f7196bb	0.9437062
74	0x3f74f43b	0.95685166
75	0x3f685c9c	0.9076631
76	0x3f723109	0.9460607
77	0x3f696967	0.91176456
78	0x3f69f673	0.91391677
79	0x3ece2e83	0.4026986
80	0x3f633d95	0.8876584
81	0x3f741669	0.95346695
82	0x3f62577c	0.8841474
83	0x3f6c4114	0.922868
84	0x3f6fe87f	0.93714136
85	0x3f76ab36	0.96355
86	0x3f638038	0.8886752
87	0x3f6c8311	0.9238749
88	0x3f5873f8	0.84551954
89	0x3f7ae93f	0.98012155
90	0x3f667a00	0.9002991
91	0x3f5e214d	0.8676956
92	0x3f6ed71d	0.93296987
93	0x3f63fb2e	0.89055145
94	0x3f656e38	0.89621305
95	0x3f70bc43	0.94037265
96	0x3f610380	0.87895966
97	0x3f70312d	0.93825036
98	0x3f7228a1	0.94593245
99	0x3f639933	0.8890564
100	0x3f651268	0.8948121
101	0x3f6bfca5	0.9218238
102	0x3f71bc5f	0.94428056
103	0x3f6f0a4c	0.93375087
104	0x3f70b0ee	0.94019973
105	0x3f6a507d	0.91529065
106	0x3f62cb90	0.8859186
107	0x3f704f1a	0.938707
108	0x3f70766f	0.93930715
109	0x3f6a4a55	0.9151967
110	0x3f67fcaa	0.9061991
111	0x3f6b13d1	0.9182711
112	0x3f6885d8	0.9082923
113	0x3f728705	0.94737273
114	0x3f700999	0.93764645
115	0x3f6df280	0.9294815
116	0x3f6ef0ce	0.9333619
117	0x3f6e8b11	0.9318095
118	0x3f683b3c	0.90715384
119	0x3f6facbd	0.9362295
120	0x3f67cb4f	0.905446
121	0x3f75ae7d	0.95969373
122	0x3f70afdc	0.9401834
123	0x3f63b8e6	0.8895401
124	0x3f66b325	0.901171
125	0x3f735132	0.9504577
126	0x3f691740	0.910511
127	0x3f7a8399	0.9785705
