trained_models/regression_cnn_protons_stereo.pth (torch, 684364 bytes, 36 tensors)

cnn.convolutions.0.weight f4 [16, 2, 3, 3]
000000 4e 32 f1 3d 9a 63 14 3e dd a7 fa 3c 92 05 41 be
       0.11777173 0.1449112 0.030597622 -0.18849781
000010 69 b6 36 3e 56 41 82 3e 31 16 8e bc 61 38 7c 3d
       0.17843021 0.25440472 -0.017344566 0.061577205
000020 0b 00 82 3c a7 61 e4 3d c6 29 11 bd d1 6c 02 be
       0.015869161 0.11151438 -0.03544023 -0.12736823
000030 10 be f1 3d 57 39 c9 bd fd 01 2c be 3d 07 68 3e
       0.1180383 -0.0982539 -0.16797633 0.22659011
000040 72 97 5a bd 4c 4d 03 be cf f9 39 be 3a d4 c1 3d
       -0.053367086 -0.12822455 -0.181617 0.09464307
000050 0c 8c f7 3d 97 e1 f5 3d 30 16 6a 3e 15 76 cc 3b
       0.12087259 0.120059185 0.22860026 0.0062396624
000060 3d af d8 3d 2f 4c 19 be 78 7c 24 3e c2 43 b4 bd
       0.10580299 -0.14970468 0.16063106 -0.08801986
000070 b8 65 9b bd a7 63 dc 3d ec 4e 07 3d 51 1d 55 be
       -0.07587761 0.10761195 0.03303425 -0.20811965
000080 51 1b a4 3c 4f 03 0a 3e 39 02 07 bb a9 d0 48 be
       0.020032557 0.13477825 -0.002060069 -0.19610848
000090 74 8b 2b bd 0e 79 3a bd be d6 44 3e 00 5d e9 3d
       -0.04188104 -0.045525603 0.19222543 0.113946915
0000a0 b8 11 7d bc c2 ee e7 bd e7 87 00 3e 62 f7 4c bd
       -0.015446119 -0.11324836 0.12551843 -0.05004061
0000b0 2d b8 fe 3d 98 9d 93 3d a8 ee 7e 3d ca 5a 5a 3e
       0.124374725 0.07207793 0.06223932 0.21323696
0000c0 8b 7f 4a bd ba ec 28 bc 2d 6c 94 bd 2c 20 0e be
       -0.04943804 -0.010310346 -0.072471954 -0.1387946
0000d0 b6 25 04 be 7b 4a c3 bd 9c aa d0 bc 75 7e a5 bc
       -0.1290501 -0.095356904 -0.025471978 -0.020201901
0000e0 4e 4d 32 3d 5f 93 10 be 54 cd d5 bc 45 35 04 be
       0.043530755 -0.14118718 -0.026098885 -0.12910946
0000f0 3e 14 f8 3c 4e 04 12 3e 0e 43 88 3e df 66 b0 bd
       0.03028309 0.14259455 0.2661366 -0.08613371
000100 43 2d 42 3e a2 34 a3 3d 93 0d d6 bd e2 1d ff bd
       0.18962578 0.07969023 -0.10451808 -0.124568716
000110 2a bd 50 3d 80 e8 0f be fc 7e 1a bd 3b f6 4b 3d
       0.05096165 -0.14053535 -0.037718758 0.04979537
000120 db c7 6a 3e ba 72 67 be 5c 88 15 bc 16 a8 2f be
       0.22927801 -0.22602358 -0.009126749 -0.17153963
000130 ff 36 4b be fe 45 58 3e 9b 42 da 3c 65 74 6d 3e
       -0.19845198 0.2112045 0.026643088 0.23188932
000140 86 a2 66 bd 67 99 17 3b 2f 13 e5 3d 96 cd f0 3d
       -0.05630734 0.0023132206 0.111852996 0.117579624
000150 65 1d 79 bd 33 1a c0 bd d8 21 de bc 14 81 48 be
       -0.06081905 -0.09379997 -0.027115747 -0.1958049
000160 28 60 51 3d 1b 7f 95 3d d8 2c 80 3e 97 fb c1 3d
       0.051117092 0.07299634 0.25034213 0.09471815
000170 06 a8 98 bd c0 84 b4 bd aa 55 3c be 46 f1 f6 bd
       -0.07453923 -0.088143826 -0.18392053 -0.12057738
000180 76 42 36 3e 56 9d de 3c 7e 7f ee 3d 14 15 7f 3d
       0.1779879 0.027174633 0.11645411 0.06227596
000190 3b af a0 bd e0 24 22 be da bc ce bd 71 a2 aa bd
       -0.078459226 -0.15834379 -0.10094614 -0.083317645
0001a0 73 06 d0 bd e3 e8 02 be ee d4 18 3e 3b 18 87 bd
       -0.1015748 -0.12784152 0.14924976 -0.065964185
0001b0 41 88 22 3d 29 8f 40 3c c2 16 25 3e 4a 54 33 3e
       0.039680723 0.011752882 0.16121963 0.17512622
0001c0 77 01 af 3d 49 76 6d 3d 0f 6a 71 be fb fb 99 3d
       0.08545201 0.057974134 -0.23575614 0.075187646
0001d0 27 5a 96 3b 99 62 04 be 12 47 18 3e 65 85 48 be
       0.0045883837 -0.12928237 0.14870861 -0.19582136
0001e0 7e 7f 8d bd 51 d5 6b 3e f3 dc 14 3c 09 9c 8b bc
       -0.06909083 0.23030593 0.0090858815 -0.017042177
0001f0 a3 61 44 3e 95 c0 fc bd 8d 3c 24 3e 38 45 11 be
       0.1917787 -0.123414196 0.16038723 -0.14186561
000200 0d 63 0b 3e cd d1 6c 3e ba 1c 4b be da c5 7a 3c
       0.13612004 0.23126908 -0.19835177 0.015305961
000210 b3 d6 32 be d5 f5 90 3d 43 a4 04 3e db 66 06 3e
       -0.17464714 0.07078139 0.12953286 0.13125174
000220 a6 43 cc bd 32 44 d6 3d 62 4b 7b 3d 34 19 47 3d
       -0.099738404 0.10462226 0.061351188 0.04860802
000230 30 16 11 be 34 0b 91 bc 2f 0a 45 3e 1a 9a 03 be
       -0.1416862 -0.017705537 0.19242166 -0.12851754
000240 c6 c3 70 3d 46 28 2c be cf ca d8 3d e3 22 c9 bb
       0.058780454 -0.16812238 0.10585558 -0.006138192
000250 25 70 37 3e eb dc 99 bd f6 25 1f 3e 4e 18 20 3d
       0.17913873 -0.0751284 0.15541825 0.03908568
000260 e9 79 3f 3e e4 95 6a 3d d1 d4 1c 3e b8 bf 1f 3e
       0.18698849 0.057271853 0.15315558 0.15600479
000270 4f b6 f5 3d 57 40 db bd cd 29 49 3d 15 d7 68 3d
       0.11997663 -0.10705631 0.04911213 0.056845743
000280 dc 0c 9e 3d b3 c8 75 be 69 02 3a be c7 dc 0b be
       0.077172965 -0.24002342 -0.18164982 -0.13658439
000290 e3 40 06 3e ef 0c 1b be b1 0d 82 3e 53 9b b3 3d
       0.1311069 -0.15141653 0.2540107 0.0876986
0002a0 6c f4 38 3e 91 98 b3 3c 7e 14 fe b9 12 42 1f 3e
       0.1806199 0.021923335 -0.00048461923 0.15552548
0002b0 d3 44 da 3d cf 48 92 bd 54 f6 11 3c 0d 95 1a be
       0.106576584 -0.071427934 0.008908827 -0.15095921
0002c0 30 f5 fb 3d c3 c0 5a 3e ee 95 e5 bc b1 73 4a 3e
       0.12302625 0.21362595 -0.028025594 0.19770695
0002d0 f7 9d a2 3c 5d b3 ef 3d 91 1c f5 3d 26 da e9 bd
       0.019850714 0.11704133 0.11968339 -0.11418562
0002e0 ea a6 b9 3d 10 ef 21 3e 02 86 ef 3d f6 92 3e be
       0.090650395 0.15813851 0.11695482 -0.18610749
0002f0 94 f6 6f 3e 89 38 06 3e 9d a0 10 be ef bc 2f 3e
       0.23433906 0.13107504 -0.14123769 0.17161916
000300 0e 18 42 3e a2 d5 07 3d cb 7a 1b 3e 97 47 5e 3e
       0.18954489 0.03316272 0.1518356 0.21706997
000310 84 3f 4e 3e 5e 9f 2f 3c 64 ac 01 be da a5 59 be
       0.20141417 0.010719148 -0.12663418 -0.21254674
000320 e7 09 64 be 6b 26 25 3e 6b c2 36 3d 9f 8c d2 3c
       -0.22269402 0.16127937 0.044619005 0.025701819
000330 cf 72 39 3e 0c 50 4a bd 08 42 98 bd e0 69 d8 3d
       0.18110202 -0.049392745 -0.074344695 0.10567069
000340 2c 92 3c 3e c2 9c 44 3e 30 88 f5 3d cf 1c b8 3d
       0.18415135 0.19200423 0.11988866 0.0898987
000350 27 31 cc bd d0 29 0b 3e f5 50 5f 3c 00 01 e2 bc
       -0.099703126 0.13590169 0.0136301415 -0.027588367
000360 ae 76 76 be 30 ae 0c 3e 6a 92 78 3e a8 e5 54 3e
       -0.2406871 0.13738322 0.24274603 0.20790732
000370 ea 39 83 3e 7a b4 fa 3d 3a 5f 14 3d a7 c4 15 be
       0.25630122 0.122414544 0.036223628 -0.14625798
000380 ae d3 bd 3d d3 b2 10 bd bb 79 50 3e 6a 1d 62 3e
       0.0926889 -0.03532679 0.20358936 0.22081533
000390 90 a1 4e be 42 7a d6 bd 44 be f6 bd d1 48 d8 bd
       -0.20178819 -0.104725376 -0.12048009 -0.105607636
0003a0 2c f3 57 3d 7c 9a 6e 3d 26 42 3c 3e ca 5d 42 3e
       0.05272214 0.058252797 0.18384609 0.1898109
0003b0 82 c0 79 3e bf d6 f2 bd a3 f4 67 3e 6d 64 f8 bd
       0.24389842 -0.11857366 0.22651915 -0.1212853
0003c0 2f 9d bd bd ad 63 50 3e 74 fb 41 3e bf 68 bb bc
       -0.09258496 0.20350523 0.18943578 -0.022877095
0003d0 4a e7 05 be 91 92 f2 bd 90 13 2c be e8 9b 41 3d
       -0.13076511 -0.118443616 -0.16804338 0.047267824
0003e0 4e fd 76 3c ab 8f 26 3e 61 e5 78 3c c5 bd ca 3d
       0.015075041 0.16265742 0.015191407 0.09899477
0003f0 67 39 51 3e 88 a6 da 3d 4e b6 cd bb 0a d3 e3 bd
       0.20432054 0.106762946 -0.006277836 -0.11124237

cnn.convolutions.0.bias f4 [16]
000000 b9 48 68 bd 9b cd ed bd 4f 01 bb be e5 38 eb bd
       -0.05670998 -0.11611482 -0.36524436 -0.11485461
000010 e4 e3 81 3e c2 3c ea bd 65 04 20 3e ee 6d c4 be
       0.2536918 -0.1143737 0.15626676 -0.3836512
000020 35 f8 3e 3e 80 ab a8 3d 15 df 0b bb 66 63 45 3d
       0.18649371 0.08235836 -0.0021342684 0.048190497
000030 d9 5a 52 3e a1 8f f2 bd 91 33 9a bd 9c 56 93 bd
       0.20542468 -0.11843801 -0.07529367 -0.07194254

cnn.convolutions.2.weight f4 [16]
000000 0b f7 7c 3f f4 e2 72 3f db b9 82 3f 35 46 73 3f
       0.9881446 0.94877553 1.0212969 0.95029
000010 84 6e 6a 3f 47 a1 66 3f 11 6d 7a 3f d7 1a 88 3f
       0.91574883 0.9008984 0.9782267 1.0633191
000020 b5 1f 76 3f 03 bb 71 3f 1f 6f 79 3f 5c 5e 6c 3f
       0.9614213 0.9442598 0.9743518 0.9233148
000030 f1 b5 7c 3f 41 59 80 3f cb 2d 82 3f e0 51 7f 3f
       0.9871512 1.0027238 1.0170225 0.99734306

cnn.convolutions.2.bias f4 [16]
000000 c8 e7 86 bc 69 07 32 bc 5e ab 48 bd c8 3a 2d 3c
       -0.016467944 -0.0108660245 -0.048991553 0.010573097
000010 b7 b0 e2 3d 9d 2b 40 3d d4 d1 3c 3c 11 80 8e bc
       0.11068862 0.046916593 0.011524636 -0.017395051
000020 40 ab af 3c 7f 96 34 3d a4 b8 45 3d dc 7d 98 ba
       0.021443963 0.044088837 0.04827179 -0.0011634189
000030 59 68 31 3d 87 ea 23 3c 35 1f ed bc a9 42 82 bd
       0.043312404 0.010004646 -0.028945545 -0.06360371

cnn.convolutions.2.running_mean f4 [16]
000000 45 3c 12 3d 6d b0 c4 3c 05 42 32 3c 6e 8e 26 3c
       0.03570201 0.024009908 0.010879998 0.010165794
000010 0f 71 84 3e db c6 03 3c d1 4a 23 3e 18 a6 6e 3c
       0.25867507 0.008043016 0.15946509 0.014565967
000020 5a 08 44 3e 2b ea b6 3d 84 15 b8 3d 8a 39 84 3d
       0.19143811 0.08931383 0.08988479 0.06456287
000030 8c 65 59 3e 5c f1 4c 3d cd 1d 8e 3c af d3 0f 3d
       0.21230143 0.050034866 0.017348194 0.035113987

cnn.convolutions.2.running_var f4 [16]
000000 24 34 62 3e 69 e8 14 3e 08 50 28 3d 00 d4 fb 3c
       0.22090203 0.14541782 0.04109195 0.030740738
000010 58 fc 8d 3c fe af 9f 3c 41 b0 f4 3d 0e 81 54 3d
       0.017332241 0.0194931 0.1194768 0.05188089
000020 a3 b5 8f 3e 6c 4b 8c 3e f8 98 69 3f 6e 77 97 3e
       0.28068265 0.27401292 0.91249037 0.29583305
000030 9d 3e bd 3e 42 c6 f4 3e 98 36 6b 3d 44 b1 43 3e
       0.36961833 0.4780751 0.05742511 0.1911059

cnn.convolutions.4.weight f4 [32, 16, 3, 3]
000000 bb d6 4e bd 3a 05 9c 3c c6 60 3a 3d 02 1c 5f bc
       -0.05049775 0.019045461 0.045502447 -0.013617517
000010 c4 65 c1 3c db 05 5f 3d 3e ee b5 bd 25 e0 3f bd
       0.023608096 0.054448944 -0.08883332 -0.04684462
000020 6c 5d 90 3d d6 87 62 3d 76 67 06 bd 64 4b d9 bc
       0.07049069 0.055305324 -0.03281351 -0.026525207
000030 9e 2b 44 3d d4 f1 7c 3d f3 59 03 bd f6 fd 49 bd
       0.04789316 0.061754063 -0.032068204 -0.04931446
000040 39 bb a5 bd e2 26 72 bc 4e 5e 8a 3d 16 99 09 bd
       -0.080923505 -0.014779778 0.067562684 -0.03359326
000050 8e 4d 27 3d b9 b9 98 3d 19 ab d7 3c de 08 d4 3c
       0.040845446 0.07457299 0.026326703 0.025883134
000060 31 a5 97 3d f2 1e 6f bd bc 72 3e 3c 88 5a b8 bc
       0.07404555 -0.05837912 0.0116240345 -0.022504106
000070 cd 97 2c 3d dd 70 9d 3b b0 a3 0a 3d 9e 7a 3b 3d
       0.042136956 0.004804714 0.03384751 0.045771234
000080 5f 38 7d 3d c6 f1 80 bb 2c f1 6b 3c 7a 4b 2a 3d
       0.061821338 -0.0039350716 0.014400762 0.041575886
000090 cb 20 18 3d 9d 96 c1 3c a4 8a e9 bc 70 e9 16 3d
       0.03714065 0.023631388 -0.028508492 0.036843717
0000a0 8b f3 31 bd 30 59 3e bd 3a 19 a5 bd d7 06 e2 bc
       -0.04344515 -0.046471775 -0.08061452 -0.027591152
0000b0 90 87 81 bb ed 52 95 bc 38 06 cc 3c 9b 45 44 3d
       -0.003952928 -0.018228019 0.02490531 0.047917943
0000c0 60 3d 85 3c 76 e4 03 bc 2c 8a 63 bd 84 14 71 3d
       0.016264617 -0.008050075 -0.055551693 0.058857456
0000d0 33 1b 8a bd bb 4b b9 bd 61 6c 33 bd 60 2a cc 3c
       -0.06743469 -0.090476476 -0.04380453 0.02492255
0000e0 22 a4 bb bc 06 8e 9d bd 59 f5 2b 3d e5 1c 51 3b
       -0.022905413 -0.076931044 0.04198203 0.0031908092
0000f0 b3 1f 1a 3c 3e a7 8e bc 8a a7 77 bd a1 96 6c bd
       0.009406972 -0.017413732 -0.060462512 -0.05776084
000100 d1 c6 89 3d 4d ff 5e 3d a0 bf 7a 3d f8 bb 29 3c
       0.06727374 0.054442693 0.061217904 0.010359757
000110 be c9 78 bd 33 78 3a bd 3a 42 3c 3d 11 f2 e4 ba
       -0.06073927 -0.045524787 0.045961596 -0.0017467161
000120 2a ea ef bb f0 2f 70 bd 6a 62 19 bd db e7 94 bd
       -0.0073216157 -0.058639467 -0.03744737 -0.072707854
000130 f2 b3 a2 bd af 9d 8e 3d f6 8b ca bd 24 39 09 3d
       -0.07944478 0.069636695 -0.09889977 0.03350176
000140 ba 16 03 3c bb 0c 92 bd f8 ab 37 3d 25 77 15 3d
       0.008001024 -0.071313344 0.044841737 0.03649058
000150 68 45 5c 3d a8 30 85 bd 7c 64 77 3d aa 54 8e bd
       0.05377713 -0.06503421 0.060398564 -0.06949742
000160 31 cf 66 bd 52 ed 3a bd f1 16 29 bb c8 de 92 bc
       -0.056349937 -0.045636483 -0.0025801028 -0.017928496
000170 b1 3b 76 bd 5f 8b 44 3d 13 e9 7a 3d b5 45 6c 3d
       -0.06011552 0.047984477 0.061257433 0.057683665
000180 9a c3 fe 3b e0 d3 a0 bc 9d 34 44 3d 36 b7 90 bd
       0.0077747824 -0.01963228 0.04790174 -0.07066195
000190 d9 fb 92 bd 2b d4 53 3d 9c 46 54 bd 95 e7 d4 bc
       -0.071769424 0.05171601 -0.05182515 -0.025989333
0001a0 5b 00 05 3d d8 46 48 3d f8 cf 20 3d 78 a6 74 3d
       0.032471042 0.048895687 0.039260834 0.05972907
0001b0 96 6c cb 3d f5 cf 32 3d 97 5b 0f 3d 48 22 4a 3d
       0.099328205 0.043655355 0.034999456 0.0493491
0001c0 c1 d4 95 bd f0 01 c5 3c 81 5c 1a be a4 9d 9c bd
       -0.0731597 0.024048775 -0.1507435 -0.07647255
0001d0 55 65 da bc 5b b4 9c ba ad 36 9c 3b 0f 8e 33 3c
       -0.026659647 -0.0011955606 0.00476726 0.010959162
0001e0 5e d1 75 3d e6 82 58 bd 79 2d 3e 3d 14 f4 80 bd
       0.06001412 -0.05285921 0.046430085 -0.06296554
0001f0 0e 1e cf 3c 98 27 83 3d 19 83 cf 3c ea 8a b4 3c
       0.025282886 0.06404036 0.025331067 0.022038896
000200 92 2b 0a 3d 04 90 43 bd 9b ea 69 3d 85 12 6d bd
       0.03373296 -0.047744766 0.057108503 -0.05787899
000210 33 cc a4 3d 68 d1 00 bd 23 00 97 bd e5 8d 5b bd
       0.080467604 -0.031449705 -0.07373073 -0.053602118
000220 8c 12 67 3b f0 bc 73 3d 90 35 92 bd f8 db 49 3d
       0.0035258858 0.059506357 -0.071391225 0.049282044
000230 18 9f 18 3a f2 40 d8 bc 57 c5 35 3c f2 17 89 3d
       0.00058220467 -0.026398156 0.011094413 0.0669402
000240 4a e9 ba 3d 3c af 92 3d 45 bc 6d 3c 17 3d 09 3d
       0.091265276 0.071623296 0.014510219 0.033505525
000250 fc d5 59 3d 5c 77 b0 3b 9a d9 81 bd 49 df 1b 3d
       0.053182587 0.0053853225 -0.06340332 0.03805474
000260 c9 bb 75 3d 23 ed 0b bc 32 a3 1e 3d b7 40 95 bd
       0.05999354 -0.0085404245 0.038729854 -0.07287734
000270 54 ed 1c bd 5c 6b 83 b9 c7 e5 58 3c 69 a7 49 bc
       -0.03831227 -0.00025066256 0.013238377 -0.01230798
000280 a0 05 77 bd 2d f7 63 3d e9 28 52 3d bb 4f a3 bd
       -0.0603081 0.055655647 0.051308546 -0.07974192
000290 91 af b5 bc dd a9 c1 bd 8a 30 48 3d f0 3b b6 3c
       -0.022178443 -0.09456227 0.048874415 0.022245377
0002a0 7d f3 bd 3a 4f 9d e0 bc 05 2e 95 3d b2 c0 4d bd
       0.0014492121 -0.02741876 0.07284168 -0.050232597
0002b0 81 05 24 3d 1a 16 1d bd 00 c0 e1 3c 75 ca e6 bc
       0.04004431 -0.038351156 0.027557373 -0.02817271
0002c0 52 a8 36 3b bb 91 6d bd 0d f5 2b bd b6 2e 30 3d
       0.0027871323 -0.058000308 -0.041981746 0.043013297
0002d0 54 02 2b 3d c2 ae d6 bc c6 13 15 3c 32 88 0c bd
       0.041750267 -0.026206378 0.009098953 -0.034309573
0002e0 41 4c 35 3d ac 2d 38 bc 84 20 31 3d 01 7b 12 bd
       0.044262175 -0.011241358 0.0432439 -0.035761837
0002f0 94 1d b7 3d 4b af 6f bd 29 7c 18 3c 1d 86 67 3a
       0.089411885 -0.05851678 0.009306946 0.0008831935
000300 75 75 11 3d ef a9 97 bd 6c bf 65 3c 17 39 da bc
       0.035512406 -0.07405459 0.014022689 -0.02663855
000310 84 5c e8 3c cc 0c 92 3d 05 d7 90 3d 41 18 f3 3c
       0.028364427 0.07131347 0.07072262 0.029674651
000320 6b 29 34 bd d2 76 91 3d 94 a1 5b 3d 4c f9 46 3d
       -0.04398481 0.07102741 0.05362089 0.04857759
000330 95 2f 7f 3d bc b4 2a 3c 65 56 a2 3d 8e e4 00 3d
       0.062301237 0.010419067 0.07926635 0.031467967
000340 8a 4e 0f bd 7f 02 06 3d d1 67 9c bd 4e 06 92 bc
       -0.03498701 0.032717224 -0.07636989 -0.017825272
000350 06 80 9a bc 9e 99 66 bd 99 9f 8a bd d0 9d 59 3d
       -0.018859874 -0.056298845 -0.06768722 0.053129017
000360 ca 60 04 bd 65 e4 6a bc 2d 38 ab bc 9e da 1a bc
       -0.032318868 -0.01433668 -0.02090081 -0.009451536
000370 7d 74 41 3d 76 c3 d8 3d fc b1 69 bd e8 21 cd bb
       0.047230233 0.10584156 -0.057054505 -0.0062601455
000380 64 8a d3 bc c8 d0 cb 3c ff 29 26 bd 23 60 23 bd
       -0.025822826 0.024879828 -0.040567394 -0.039886605
000390 a8 e9 db 3c 2b a4 24 3d 76 0f 37 3c 8f fa 1e 3d
       0.026844814 0.040195625 0.01117312 0.03881317
0003a0 76 a2 55 bd b7 e2 71 3d 30 eb 02 bd e8 c7 49 bd
       -0.052156888 0.059054103 -0.031962574 -0.04926291
0003b0 57 5d 17 3d 0b 22 ed 3c 03 1f 7d 3d 37 87 2c bd
       0.03695425 0.028946897 0.061797153 -0.04212114
0003c0 8b c2 cb bc 86 28 f0 bc 0b cd 8d bd f4 4b 20 bd
       -0.024873039 -0.029316198 -0.069238745 -0.039134935
0003d0 d5 26 33 3d 46 6b 83 3d 75 b0 0e 3c 3b b9 4c bd
       0.043738205 0.06416945 0.008709063 -0.049981337
0003e0 8f 6f 90 3c 72 89 63 bc c9 9c b5 3d f1 8c 52 3d
       0.01763132 -0.01388775 0.08867795 0.051403943
0003f0 7a d3 26 bc 23 b8 b9 3d 23 22 9a 3c 1a 81 a1 bc
       -0.010182256 0.090683244 0.018815106 -0.01971488

cnn.convolutions.4.bias f4 [32]
000000 f7 34 31 3d 6c 09 97 3d 1b b1 a8 ba 97 0c 82 3d
       0.0432634 0.07374844 -0.0012870164 0.063500576
000010 75 93 68 bd 33 9c 27 be 01 30 01 bc 9b 64 d3 bb
       -0.05678125 -0.16368179 -0.00788498 -0.006451202
000020 4b 9b 45 bc 84 50 97 3c 92 81 8d 3c 96 11 cb 3d
       -0.0120609505 0.01847101 0.017273698 0.099154636
000030 09 d5 09 bd ed 8b 8f 3d 55 f5 98 3d 0b 27 e2 3c
       -0.03365043 0.070091106 0.07468668 0.027606508
000040 67 1a 54 be bd 45 f6 bb a4 40 82 3d a4 f0 6c 3d
       -0.20713197 -0.0075156377 0.063599855 0.05784668
000050 64 da f5 bd 4a 03 97 bd bc 4c 9f 3d d8 a0 b8 bd
       -0.12004545 -0.07373674 0.07778308 -0.090150535
000060 9b 37 19 3d 03 77 e5 3b a5 5b 05 3b 07 f8 82 bd
       0.037406545 0.0070027127 0.0020348814 -0.06394964
000070 cb d9 8d bd 23 fa 10 3d 64 b0 19 3d ce 5b 70 3d
       -0.06926306 0.0353948 0.037521735 0.0586813

cnn.convolutions.6.weight f4 [32]
000000 49 5c 78 3f 9f a6 77 3f 0e 74 74 3f 6d 1f 70 3f
       0.97015816 0.9673862 0.95489585 0.9379795
000010 74 d3 79 3f 8d 86 87 3f 39 f8 76 3f 19 06 76 3f
       0.97588277 1.0587937 0.9647251 0.96103054
000020 e3 96 6f 3f 3c 2c 7a 3f f7 29 76 3f 5b 1f 6e 3f
       0.9358961 0.97723746 0.96157783 0.93016595
000030 42 14 6c 3f 76 f5 6f 3f 1c 11 70 3f 08 13 78 3f
       0.9221841 0.9373392 0.93776107 0.9690404
000040 6a 9a 88 3f 0c a7 6f 3f 5c 88 75 3f ca 67 72 3f
       1.0672123 0.9361427 0.9591119 0.9468962
000050 b4 33 75 3f a0 4d 7a 3f d7 f1 72 3f f8 04 87 3f
       0.9578202 0.97774696 0.9490027 1.0548391
000060 2f cf 67 3f 5b b5 71 3f 8e ca 67 3f 13 36 75 3f
       0.9055051 0.9441735 0.9054345 0.95785636
000070 71 9a 7a 3f 07 c7 74 3f 02 be 72 3f 93 16 7d 3f
       0.9789191 0.9561619 0.9482118 0.9886257

cnn.convolutions.6.bias f4 [32]
000000 ee 66 ad 3c aa 62 93 3c 9d 99 2e 3c a4 95 a8 bc
       0.021167245 0.017991383 0.010656741 -0.020579167
000010 67 ee 15 bc d5 a5 b5 3b 47 dc e6 bc 77 90 bb 3b
       -0.009151078 0.0055434504 -0.028181208 0.0057240087
000020 45 06 d2 3b 28 ab 5b bc 3d f6 2c bd c7 05 32 3c
       0.006409439 -0.013407506 -0.04222702 0.010865635
000030 83 65 3c 3d 6f 22 25 3d 48 a5 e3 b9 6e df be bc
       0.045995247 0.04031604 -0.00043419958 -0.023299899
000040 74 85 65 bc 32 fa b1 bb d8 15 2b bd 71 f9 9d bc
       -0.0140088685 -0.005431437 -0.04176888 -0.019283982
000050 0a 80 4d bb f1 05 0b bc 83 44 93 3c 23 99 3f bc
       -0.0031356835 -0.008485303 0.017977005 -0.0116942255
000060 41 be 21 bc 3e 5a 02 3d c9 f9 b9 bc 50 70 6d 3b
       -0.00987202 0.031824343 -0.022702115 0.0036230274
000070 28 01 a5 3c cc 27 b9 3a 82 ea 5f ba b8 5d af 3c
       0.020142153 0.001412624 -0.0008541719 0.021406993

cnn.convolutions.6.running_mean f4 [32]
000000 ee 16 74 3d 0d 61 30 3e 13 14 dc 3d 86 53 f2 3d
       0.05959218 0.17224522 0.10746016 0.11832337
000010 57 5a 8e 3d b5 72 90 3c 0f 51 51 3d 6b 25 ae 3d
       0.06950825 0.017632822 0.051102694 0.08503231
000020 78 00 9d 3d 6c 39 f4 3d d6 cf 28 3d 07 11 0a 3e
       0.07666105 0.11925015 0.041213833 0.13483058
000030 14 b8 ca 3d 5c 49 2b 3e 07 b6 c4 3d 48 d0 2f 3e
       0.09898391 0.16727203 0.096050315 0.17169297
000040 c1 5b 86 3c a2 71 a6 3d 9e b4 86 3d c3 cf fe 3d
       0.016401174 0.081271425 0.06577419 0.12441971
000050 3f bf 43 3d 60 3a 69 3d 95 c4 27 3e 47 36 9e 3c
       0.04778981 0.056940436 0.16383584 0.01931299
000060 61 a5 c7 3d 99 65 3a 3e 71 e6 cd 3d 66 c8 3a 3d
       0.097483404 0.18202819 0.10053719 0.04560127
000070 19 64 96 3d 8c 39 a5 3d 3a b9 13 3e 3b 40 99 3d
       0.07343311 0.08067617 0.14426127 0.07482954

cnn.convolutions.6.running_var f4 [32]
000000 52 73 1a 3e d9 52 4f 3f a7 d6 8f 3f a6 73 5a 3f
       0.15083054 0.8098579 1.1237382 0.85332716
000010 da f4 42 3f 9a dd a4 3d ca 08 a5 3e 1d 55 fd 3e
       0.76154864 0.0805008 0.32233268 0.49479
000020 85 96 0e 3f 27 67 49 3f ac 42 d1 3e 9e 5f 09 3e
       0.55698425 0.78673023 0.4087118 0.13415381
000030 7c 1f 46 3f 8b ae ee 3e 16 30 ef 3d 88 68 44 3d
       0.7739179 0.4661754 0.116790935 0.04795125
000040 8d 5e a3 3d c0 ab 2a 3f 91 c3 32 3e e1 76 67 3f
       0.079770185 0.6666832 0.17457415 0.9041577
000050 b6 ce aa 3e 47 be 04 3f f6 d3 86 3f 7e 43 dc 3d
       0.33360833 0.5185284 1.0533435 0.107550606
000060 f0 4a 28 3d bf 54 1a 40 6d 02 82 3f 7d dd a8 3e
       0.04108709 2.4114225 1.015699 0.32981482
000070 0a 5c 22 3f ea 59 3e 3f b8 76 d0 3e f9 de 95 3e
       0.6342169 0.7435595 0.40715575 0.29271677

cnn.convolutions.8.weight f4 [64, 32, 3, 3]
000000 43 6e c3 3a 6a 18 7c bc cd d3 dd 3b 6a 57 c7 bc
       0.001491018 -0.01538668 0.0067696334 -0.024333674
000010 fe 06 21 bc c2 a7 ba bc 75 40 b1 3c 3a 5f 0a 3d
       -0.009828327 -0.022785071 0.02163718 0.03378222
000020 10 05 06 bd cb b8 65 3d 1a a2 af 3a 00 54 5e 3b
       -0.03271967 0.056084435 0.001339975 0.003392458
000030 42 dd 1c 3d d9 c6 0c 3d fc 3d 81 3b a9 10 40 bc
       0.038296945 0.034369323 0.0039441567 -0.011722722
000040 4f cb d1 3c fc 0a f8 3b 5c 0b 30 3b 63 b1 35 3c
       0.02560964 0.007569669 0.002686224 0.011089656
000050 93 98 c2 bc 37 2e ca 3b 39 ee 2f bc c8 26 10 bd
       -0.023754394 0.00617006 -0.010737949 -0.035193235
000060 d8 1f 69 3d 83 dd 1f 3c 62 11 40 bd 3c 6a bd 3c
       0.056915134 0.009757402 -0.046891578 0.023121946
000070 12 d4 19 bd 5c 64 eb bc ea 1d 24 3d 17 b4 81 3c
       -0.03755576 -0.028734379 0.04006759 0.015832944
000080 26 20 15 3d 52 93 1f bc 10 16 5d 3d e4 a7 27 bd
       0.036407612 -0.009739714 0.05397612 -0.040931597
000090 8a de 18 3d bc 6b 8f 3d 37 dd bb bc 9a 12 e4 3c
       0.037321605 0.070029706 -0.022932632 0.027840901
0000a0 37 a0 13 3d 10 77 89 bc f5 8f b5 bb 9e f6 92 3b
       0.036041465 -0.016780406 -0.0055408427 0.0044849655
0000b0 63 1d 13 bd 9c bc ae 3d 9a 40 8f 3d 18 c4 96 3d
       -0.035916697 0.08532068 0.06994744 0.07361621
0000c0 13 9b 05 3d 89 2c 73 3d e1 0d 8a 3c c8 3c c6 bc
       0.032618593 0.059368644 0.016852321 -0.024198905
0000d0 b8 52 39 3c 5d c1 c4 3c b9 66 5a 3d dd 37 b6 bc
       0.011311226 0.024017984 0.05332062 -0.022243435
0000e0 ae 28 c4 3c 17 86 33 3c 2f 88 21 bd 88 a4 c9 bc
       0.023945179 0.0109572625 -0.039436515 -0.024614587
0000f0 3f bc 16 bd 64 60 36 3d ed 59 1e 3d 5e 89 8f bc
       -0.03680062 0.04452552 0.03865998 -0.017521556
000100 32 4c 19 bd 56 30 b0 3b 35 ca 96 3c b0 d2 f8 3c
       -0.03742618 0.005376856 0.018406967 0.030373901
000110 69 08 b7 3c df 61 b9 bb de 47 6d bc 82 8b b9 3c
       0.022342877 -0.005657419 -0.0144824665 0.02264953
000120 19 9b 1b 3d 93 9a ea bb de e9 47 3d 66 90 94 3d
       0.03798971 -0.00715954 0.048807018 0.07254104
000130 d3 19 44 3d 1a 65 95 bc 1f 94 89 bc 30 03 2e 3c
       0.04787619 -0.018236686 -0.016794262 0.010620877
000140 55 a5 84 3b eb 95 91 bc e7 77 12 3d 66 47 0e bc
       0.0040480294 -0.017771682 0.03575888 -0.008684015
000150 02 3f bd ba f9 78 89 bc c8 0b a0 3b 9d 4f 67 3c
       -0.0014438333 -0.016781317 0.004884217 0.014118102
000160 2e 6b 73 bb a0 3b 7c bc 4f d8 8c 3b aa 76 04 bc
       -0.0037142741 -0.015395075 0.004298247 -0.008084932
000170 93 9a 63 3b ef 24 95 bb ac 88 3a bc db 78 47 bd
       0.0034729585 -0.004551522 -0.011385124 -0.04869924
000180 5a c2 0e 3c cb df 7b 3c b2 69 9f bb 15 69 19 3d
       0.008713329 0.015373181 -0.004864895 0.03745373
000190 3e 05 1e bc ef ac 13 bd 97 17 d2 bc ce 57 41 bc
       -0.0096448045 -0.036053594 -0.025646014 -0.011800719
0001a0 74 9e 41 3a 64 e7 ad bc 07 a4 4a bc 86 57 5c bc
       0.0007385977 -0.0212285 -0.012368209 -0.013448602
0001b0 0d 26 13 3d 6d fc 4d bd 80 0f 1d bd 86 d8 b4 bc
       0.03592496 -0.05028956 -0.03834486 -0.022075903
0001c0 d5 5b 11 bd 5b 82 cf 3c b6 00 67 bd af 75 0c 3d
       -0.03548797 0.025330713 -0.056397162 0.03429192
0001d0 2d a5 be 3b 14 26 39 bc 01 d0 11 bd 75 3b 11 3d
       0.0058180303 -0.011300582 -0.03559876 0.035457093
0001e0 ff 4c d0 bb 4f 77 e6 bc 19 7d 15 bd 26 58 83 3c
       -0.006356835 -0.028133063 -0.036496256 0.016033243
0001f0 d6 db 4b bd d7 d1 9a bc 98 f6 2a 3d f6 48 cf 3c
       -0.0497702 -0.018898888 0.041739076 0.025303345
000200 32 82 37 bd a8 ee 16 3d a5 41 7c 3c f9 19 44 3d
       -0.0448019 0.036848694 0.01539651 0.047876332
000210 31 e4 75 3d 41 15 4a 3b 14 bf 92 bd 53 f0 a3 3c
       0.060032073 0.0030835422 -0.071653515 0.020012056
000220 14 4a 5c bc b5 8f c8 3b 6e af 56 3c 65 92 d2 bc
       -0.013445396 0.006120647 0.013103349 -0.025704572
000230 48 26 e7 bb 05 5e 61 3c ce ad 16 bd 37 99 78 bd
       -0.007054124 0.013755326 -0.036786847 -0.060692992
000240 33 ae 9b 3d e0 cf b2 3d 86 c0 08 bc 4b 6f 9f 3c
       0.07601585 0.08731055 -0.008346682 0.019462248
000250 71 9b 9a 3d 79 f5 47 3c 31 66 22 ba 14 de 08 3d
       0.07549179 0.012204521 -0.0006195037 0.033414915
000260 f7 b7 95 3c c5 cd ea 3c b4 26 33 3d 0a bc 05 bd
       0.018276198 0.028662572 0.043738082 -0.03265003
000270 37 9a 2b 3d bd ba a7 bc 3a fb 0c 3d a8 7c 04 3c
       0.041895118 -0.020474786 0.034419276 0.008086361
000280 70 e6 b6 bc 73 aa fc 3c 51 0c b8 3c df 27 90 3c
       -0.022326678 0.030842995 0.02246681 0.017597137
000290 24 eb 0a 3c c5 e0 50 3d 91 30 0a 3d 7e f5 f2 3c
       0.008478913 0.050995607 0.033737723 0.029658075
0002a0 cb fd 86 3c 8c d2 8d 3b a6 65 13 3d 1a 22 3e 3d
       0.01647844 0.0043280777 0.03598561 0.04641924
0002b0 5f 95 3c 3d f8 97 25 3c c7 03 00 3c 1a 26 74 3d
       0.04604089 0.010107033 0.007813401 0.05960665
0002c0 c2 31 42 bc 19 3d 33 3c dc d4 f5 bc 3d 20 0d bd
       -0.0118526835 0.01093986 -0.030008726 -0.034454573
0002d0 fa f4 d0 3c 98 f1 10 3d ba 08 0a bd 85 d5 56 3d
       0.025507439 0.03538665 -0.03369973 0.05244972
0002e0 e6 59 8d bc a0 95 74 bc 28 b4 1e 3d 3d 11 44 3d
       -0.017254781 -0.0149282515 0.03874603 0.047868002
0002f0 16 d1 4f 3c 45 23 5a 3d 76 e9 7f bc 84 c4 15 bd
       0.012684127 0.053256292 -0.015619626 -0.036564365
000300 4a 4c 9f 3d 1a bf 7f bc 0d 5c a0 3c 86 31 56 3d
       0.07778223 -0.015609527 0.019575143 0.052293323
000310 df a9 27 bc ba 30 c3 3c 08 1b 82 bc c3 38 a2 bc
       -0.0102333715 0.023826946 -0.01588203 -0.019802457
000320 63 66 9f bc 99 46 49 bd 32 0a a3 3a 15 9a bb bc
       -0.019458001 -0.049139593 0.0012438952 -0.02290062
000330 6d c8 8d 3d 4f 31 c2 bc e4 e9 5e bd ff 34 69 3d
       0.06922994 -0.023705153 -0.054422274 0.056935307
000340 e8 39 a7 3d e1 d6 58 3c 2a 32 11 3c 89 3d 2a 3d
       0.081653416 0.013234825 0.008862058 0.04156259
000350 c9 bf 54 3d 06 2e 7a 3d b7 c0 69 3d 95 c8 3c 3d
       0.051940713 0.061079048 0.057068553 0.046089727
000360 a9 47 02 bb 8c c6 23 bd 4a 47 11 3d fb 3e 8f bc
       -0.0019879139 -0.03998427 0.035468377 -0.017486086
000370 cb 47 9d 3c a9 3f 5d bb 9f f9 9e bc 71 03 9b b9
       0.019199273 -0.0033759868 -0.019406138 -0.00029566468
000380 0f e5 95 3c 79 fd 40 bc 05 93 b2 3b 1c 9f 71 3d
       0.0182977 -0.011779183 0.005449655 0.05898963
000390 46 95 46 3d b8 e5 21 3d 31 90 5e 3b 4b 06 b0 3c
       0.048482202 0.039525717 0.0033960456 0.021487376
0003a0 14 31 67 bc d5 3e 3e 3a f9 ca 51 3d f2 ae 4c 3d
       -0.014110822 0.00072572875 0.05121896 0.04997153
0003b0 57 d6 95 3b c1 2d c9 3c 88 19 99 bb 36 cf b2 bc
       0.0045726704 0.02455795 -0.004672233 -0.021827321
0003c0 6a da 1e bd 39 69 a5 3b 94 96 82 3c c4 d1 e1 3c
       -0.038782515 0.005047944 0.015940942 0.027565844
0003d0 f2 15 28 ba ac 8b 14 3d da a9 3a 3d bb cf 7e 3d
       -0.00064119615 0.036266014 0.04557214 0.062209826
0003e0 3f 3f f6 3a d6 10 b7 bc b2 f4 bd 3c 80 07 80 3b
       0.0018787159 -0.022346895 0.023187969 0.003907144
0003f0 8c 47 94 3d 1d 74 68 3d b7 8b 48 3d e2 19 29 3d
       0.07240209 0.05675136 0.048961367 0.04128445

cnn.convolutions.8.bias f4 [64]
000000 80 22 88 bd 59 b1 8a 3c fd 75 5e 3d 7b b0 20 3d
       -0.06647205 0.01693027 0.05431174 0.039230805
000010 f1 23 7b bc 7d c6 0a bd 24 da 55 3d 66 e7 66 bd
       -0.015328393 -0.0338807 0.05220999 -0.056373022
000020 21 87 fc bc ed 76 a1 bc 42 81 90 bd 3a af 65 bd
       -0.030826153 -0.019710029 -0.07055904 -0.056075312
000030 f6 28 07 3d c6 17 9f bc 80 8f 92 3d 6e f4 81 bd
       0.032998048 -0.019420516 0.07156277 -0.063454494
000040 7a 1b 9e 3d dd 1f 27 bc 50 3d 23 bc d6 39 87 3d
       0.077200845 -0.010200468 -0.0099633485 0.06602828
000050 9f 43 c4 3c 5b 0b 45 bc 69 96 37 3c a3 94 8e bd
       0.023958026 -0.012026633 0.011205294 -0.06961944
000060 f2 bc 47 3c ee 3f 4e 3d cf 17 4d bd d6 ff 30 bd
       0.012191044 0.050353937 -0.050071534 -0.043212734
000070 a8 f3 14 bd 85 49 58 bd a8 37 2e 3d 61 31 b5 bc
       -0.03636518 -0.05280449 0.042533547 -0.022118272
000080 22 a0 11 bd af 63 85 3d f9 b7 8a bc 91 31 3b bd
       -0.035553105 0.06513154 -0.016933428 -0.045701567
000090 83 a2 12 bc 01 11 42 bc 4f d4 ab bd f9 66 57 bd
       -0.008949879 -0.011844874 -0.08390104 -0.052588437
0000a0 44 37 d7 3c 15 05 e8 bd 50 34 32 3d 4f 72 09 3d
       0.02627147 -0.11329094 0.04350692 0.03355628
0000b0 b0 f9 da bc 70 ea 75 bb 55 81 41 3d 70 32 76 3d
       -0.026730388 -0.003752377 0.04724248 0.060106695
0000c0 e1 fc 8d 3c 96 c7 08 bc 60 b9 ae 3c f0 84 17 bc
       0.017332496 -0.008348366 0.021328628 -0.009248003
0000d0 7d a9 ab bc ad ec 08 3d 71 0d 3b bc bd 17 91 bd
       -0.020954842 0.033428837 -0.011416779 -0.07084606
0000e0 f5 fe ca bc fc 2a bb bc cb 6e cc 3c 9d ac 9d bc
       -0.024779776 -0.022847645 0.024955174 -0.019247347
0000f0 9d b3 84 bc ad 3c bf bd 8a f1 06 3c ac 9d 80 3c
       -0.016198928 -0.09337745 0.008236298 0.015700184

cnn.convolutions.10.weight f4 [64]
000000 9d b2 53 3f 6b 64 5c 3f 0b 40 62 3f 23 65 5a 3f
       0.8269442 0.86090726 0.8837897 0.8531057
000010 f0 c2 50 3f 2f 40 51 3f 5f f2 5a 3f 67 ab 56 3f
       0.8154745 0.8173856 0.8552608 0.8385529
000020 e1 52 4e 3f fc ac 5f 3f 21 24 5b 3f 8a bc 61 3f
       0.80595213 0.8737333 0.85602003 0.8817831
000030 e5 23 5a 3f d3 0f 5c 3f 23 90 55 3f 0d 56 5c 3f
       0.8521102 0.85961646 0.8342306 0.86068803
000040 af 44 57 3f c1 c2 55 3f f4 de 59 3f e1 20 57 3f
       0.8408918 0.83500296 0.85105824 0.84034544
000050 b2 03 55 3f f9 ae 56 3f 87 1d 5d 3f 7c f1 54 3f
       0.83208764 0.8386074 0.8637318 0.83180976
000060 11 da 51 3f 8f 0a 5e 3f fb cd 5d 3f 56 c6 5d 3f
       0.8197337 0.8673486 0.86642426 0.8663076
000070 5c 92 53 3f 79 27 5b 3f 4c 9b 59 3f 5a a2 50 3f
       0.826452 0.85607105 0.8500259 0.8149773
000080 5a 95 56 3f 7b 1d 56 3f a9 3b 58 3f 94 be 53 3f
       0.8382164 0.83638734 0.84466034 0.82712674
000090 54 5c 57 3f 82 0b 56 3f cc b5 5a 3f b5 6b 5a 3f
       0.84125257 0.8361131 0.8543365 0.853206
0000a0 fe 62 5f 3f 8b 8d 57 3f c8 71 59 3f f8 f1 65 3f
       0.87260425 0.8420035 0.8493924 0.8982234
0000b0 80 71 57 3f 4f e7 5b 3f 33 17 60 3f 52 08 54 3f
       0.8415756 0.85899824 0.875354 0.82825196
0000c0 45 21 59 3f e6 e8 5d 3f c6 92 58 3f f1 c3 66 3f
       0.8481639 0.866835 0.8459896 0.9014273
0000d0 51 bf 52 3f 60 a8 60 3f c7 94 57 3f 6b d6 5a 3f
       0.82323176 0.8775692 0.8421139 0.85483426
0000e0 71 be 5b 3f 0d 10 5c 3f 22 b8 61 3f fb a2 5b 3f
       0.85837466 0.8596199 0.8817159 0.85795563
0000f0 20 54 5f 3f 89 40 56 3f 70 6e 5b 3f ee dd 4f 3f
       0.8723774 0.8369222 0.8571539 0.8119801

cnn.convolutions.10.bias f4 [64]
000000 b1 fd 6b 3c 1d 7e c1 3c d8 c1 76 3d 48 fa 92 bc
       0.014403746 0.023619706 0.060243458 -0.017941609
000010 7a 06 9e 3c 0b ae d9 3b c3 08 dc 3d b3 f2 2d 3d
       0.019290198 0.006643062 0.10743859 0.042467784
000020 3d 49 51 bd 53 3f 22 bd f6 7e e6 3c 93 d2 30 bd
       -0.051095236 -0.039611172 0.028136712 -0.04316957
000030 c2 84 c5 3d 76 89 99 3b 5b 8a dc 3c 01 d4 80 3d
       0.09644462 0.004685576 0.026921442 0.062904365
000040 86 ce 0d 3d 18 ad 66 3c 9d 99 26 bd 63 9e f2 3d
       0.034620784 0.014079355 -0.04067384 0.11846616
000050 a8 47 67 bc 9b 6a 9c bd e5 5b 20 3d 04 6c 3c 3c
       -0.014116205 -0.07637521 0.039150137 0.011500362
000060 33 3d 3d bd 9b dd e5 bc 3d 35 a1 3a 14 18 e3 3b
       -0.046200942 -0.028059771 0.0012299191 0.0069303606
000070 1e 93 8f bd f9 84 82 bc 5f a1 53 3d 4a c0 ac bc
       -0.07010482 -0.015932547 0.051667567 -0.021087784
000080 50 1f c8 bc 35 79 20 3d 48 70 95 bc e9 67 41 bd
       -0.024428993 0.039178092 -0.018242016 -0.047218237
000090 65 d3 b6 bd 81 7c 30 bd 50 d3 19 3c 5a d6 e5 bc
       -0.08927039 -0.043087486 0.00938876 -0.028056312
0000a0 ee cf 7f 3d d9 8f 5e bd f7 53 d4 bb b8 ce 77 bd
       0.062454157 -0.054336403 -0.006479736 -0.060499877
0000b0 84 b4 46 3b a5 94 3f 3d a9 41 49 3d 29 6a ad 3c
       0.0030319998 0.046772618 0.049134884 0.021168785
0000c0 59 ba aa 3d 83 96 8f 3c d3 80 b8 3d 8f 46 a4 3c
       0.08336324 0.017527824 0.09008946 0.020053176
0000d0 46 7b f0 ba cd 53 75 ba 19 9f f3 3c 5b 97 dd 3c
       -0.0018347285 -0.00093584956 0.02973895 0.027049711
0000e0 44 72 be 3b 61 c0 15 3c 83 f1 09 3c 0e 1e b3 bb
       0.0058119614 0.009140105 0.008419397 -0.0054662293
0000f0 7a a7 a6 3c 7a db 19 bd c2 f9 67 3d 03 b5 37 bd
       0.02034353 -0.037562825 0.056634672 -0.04485036

cnn.convolutions.10.running_mean f4 [64]
000000 17 1f b1 3e ca a5 e2 3e cc a8 53 3e ac 47 99 3e
       0.34594032 0.44267112 0.2066986 0.29937494
000010 ea f8 7a 3e 2a a5 97 3e f3 63 4f 3e ae 78 5a 3e
       0.24509016 0.29618198 0.20252971 0.21335098
000020 15 04 a3 3e bf 69 93 3e 81 60 35 3e 63 44 81 3e
       0.31839052 0.28791615 0.17712595 0.25247487
000030 f0 dd 22 3e e9 2a 7f 3e 67 d3 45 3e e6 26 7b 3e
       0.15904975 0.24918713 0.19318925 0.24526557
000040 bf 69 a5 3e 3b 06 b7 3e f9 b8 cc 3e 6b 2e d2 3e
       0.3230724 0.3574694 0.39984873 0.4105104
000050 1c 79 88 3e e3 66 a9 3e 82 a0 72 3e 70 72 b7 3e
       0.266549 0.3308631 0.23694041 0.35829496
000060 da 6c b3 3e 99 39 7e 3e e5 65 9a 3e 1d 12 91 3e
       0.35043985 0.2482666 0.30155864 0.28334132
000070 0f 1e c3 3e 7c 33 03 3e c7 f2 13 3e 7a 73 d6 3e
       0.3810887 0.12812608 0.14448081 0.41884977
000080 34 ab 87 3e db a4 b6 3e 4e 19 d6 3e 59 0a 64 3e
       0.26497805 0.3567265 0.4181618 0.22269572
000090 db 38 50 3e 3a 38 7f 3e 1f 51 7f 3e c6 2e bd 3e
       0.20334189 0.24923792 0.24933289 0.36949748
0000a0 d3 77 2f 3e 2a b5 7d 3e fa 28 ba 3e 85 e5 9d 3e
       0.17135553 0.2477614 0.36359388 0.30839172
0000b0 98 65 c0 3e f0 36 08 3e a6 a1 1b 3e 6b f3 c5 3e
       0.3757751 0.13302207 0.15198383 0.38662276
0000c0 b8 61 de 3d 19 85 c4 3e cc 48 06 3e b0 99 30 3e
       0.10858482 0.38382795 0.13113707 0.17246127
0000d0 fb f7 9d 3e 78 16 b0 3e 39 07 2d 3e a8 ae af 3e
       0.30853257 0.34392142 0.16897286 0.3431294
0000e0 b3 41 75 3e 00 8f 8d 3e f8 bc 9e 3e ea 9a b4 3e
       0.23950844 0.27648163 0.31003547 0.3527444
0000f0 fc ba 4b 3e 7c 17 6a 3e 4b 07 8a 3e 3c 52 8e 3e
       0.19895548 0.22860521 0.2695869 0.27797115

cnn.convolutions.10.running_var f4 [64]
000000 ce 8d 07 41 7a 83 1d 41 c8 24 96 3f 71 33 8a 40
       8.47212 9.844599 1.1729975 4.3187795
000010 ef 88 7e 40 fd 55 b9 40 2c ba f9 3f 5d a1 5d 40
       3.9771078 5.7917466 1.950994 3.4629738
000020 4f 28 cf 40 b7 75 b0 40 b2 38 04 40 b2 f3 87 40
       6.4736705 5.5143695 2.0659604 4.248498
000030 bf 4e b7 3e 35 83 98 40 2f 85 ee 3f 49 53 91 40
       0.35802266 4.7660165 1.8634394 4.5414166
000040 ea 4f 77 40 39 1a 05 41 6b b0 13 41 23 4d 00 41
       3.8642526 8.318902 9.230571 8.018832
000050 15 3e 73 40 fa 9a bf 40 36 47 55 40 97 f7 c6 40
       3.8006642 5.987668 3.3324714 6.2177234
000060 be 9f f1 40 de b0 43 40 d9 e3 b2 40 9f 8a 85 40
       7.55075 3.05767 5.5903134 4.1731715
000070 0d 7f 06 41 44 34 84 3f 25 a8 0e 3f 32 77 14 41
       8.406018 1.032845 0.5572532 9.2791
000080 73 6e 92 40 5d 29 e4 40 e3 8e 04 41 a1 1f 84 40
       4.5759826 7.130049 8.284884 4.128861
000090 4f 72 3d 40 bd 57 88 40 d6 48 7c 40 a0 28 e6 40
       2.9601018 4.2607102 3.9419456 7.192459
0000a0 93 44 9c 3f b4 39 86 40 c4 7d aa 40 6a 6c 50 40
       1.2208427 4.194544 5.3278522 3.256617
0000b0 67 42 d9 40 a7 70 8c 3f dc 05 8a 3f 4e c3 c5 40
       6.7893558 1.0971879 1.0783038 6.180091
0000c0 f6 c9 44 3d b2 c1 eb 40 d9 05 41 3f af 9c d9 3f
       0.048044167 7.3673944 0.7539955 1.7000941
0000d0 0c de b3 40 08 28 84 40 d1 a3 9d 3f 3f bc e6 40
       5.6208553 4.1298866 1.2315618 7.2104793
0000e0 79 37 8b 40 a3 5f 94 40 19 8f 93 40 67 88 be 40
       4.3505216 4.6366744 4.611218 5.9541507
0000f0 a6 d6 17 40 60 a5 72 40 47 a8 33 40 53 f4 aa 40
       2.372476 3.7913437 2.8071458 5.3423247

fc.0.weight f4 [128, 1045]
000000 18 89 30 bc fd a1 61 3c e7 24 5f 3c 7b 8b 29 bc
       -0.010774873 0.013771531 0.013619638 -0.010348196
000010 98 eb 68 bc 52 18 af bc bc 65 2e bb 86 51 ad bc
       -0.014216326 -0.021373902 -0.0026610931 -0.021157037
000020 46 c6 a4 bb c6 33 8a 3b e6 a0 ea bc a4 fa 09 3b
       -0.005028519 0.0042175977 -0.028641175 0.0021053934
000030 f3 ab 25 3c 50 d6 be ba 8d 9e c8 ba 74 19 f7 39
       0.010111797 -0.001455972 -0.0015306041 0.00047130475
000040 c5 ad 87 bc 1a 15 6a bc 11 3b 95 3b 75 a7 8f 3c
       -0.016562352 -0.014287258 0.0045541604 0.017535904
000050 6b ea bf bc 43 2e dc bc 28 a4 bb 3c 65 e1 e3 bb
       -0.023427209 -0.026877528 0.022905424 -0.0069543594
000060 e3 7e 8d 3c 73 ec 63 3b 74 1c 59 3b 63 e6 2a bc
       0.017272418 0.0034778386 0.0033128532 -0.010430905
000070 91 46 36 bc 7c b3 35 3b ed b8 c5 bc a8 d1 02 3c
       -0.011125223 0.002772539 -0.024136031 0.007984556
000080 e8 ed 9a b9 43 ac 18 3b 79 0e 96 3c 2f 97 01 bc
       -0.00029550423 0.0023296035 0.018317448 -0.00790958
000090 09 5e 16 bc 0b 9b 20 bb bd 29 78 3c e6 dc ad bc
       -0.009177693 -0.0024506475 0.01514667 -0.021223497
0000a0 52 1f 2b 3c a5 5c cc bc fd f5 af bc 1f ec 1f bc
       0.010444479 -0.02494652 -0.021479601 -0.0097608855
0000b0 51 30 c4 bc 7f 31 ac bb c2 85 0b 3c 3a c4 a2 3b
       -0.02394882 -0.005254924 0.008515777 0.0049672397
0000c0 f7 1f 3f bc 23 68 ea 3c 7c 26 b4 3c 3f 80 c8 3c
       -0.011665336 0.02861411 0.021991007 0.024475215
0000d0 83 9e 98 3c 54 a2 8b bc e0 0d c8 bc 46 1f 26 3c
       0.018630272 -0.017045178 -0.024420679 0.010139292
0000e0 3a 29 ec b9 01 43 3a bb 40 89 38 3c 14 5c 62 3c
       -0.00045044144 -0.0028421285 0.011263192 0.013815898
0000f0 af f7 93 3b 26 6f 44 bc 62 3b 64 3c ea 45 7c bb
       0.00451561 -0.0119893905 0.013930174 -0.003849382
000100 7d f4 7d bb 19 73 8e 3c 9d 82 05 3d 5f 2f 39 bc
       -0.0038750463 0.017388867 0.032595266 -0.011302798
000110 8a 11 b0 3a ab d1 89 3c ee dd c5 bc cb 67 33 3c
       0.0013432961 0.01682361 -0.024153676 0.010950039
000120 ae 4b 8e 3b 01 6b b2 bc fe c6 a2 3c 92 ad 89 3b
       0.004342518 -0.021779539 0.019870277 0.0042015994
000130 cc b7 7e bc d8 2b d1 3c 37 c6 88 bb a0 46 6a bc
       -0.01554675 0.025533602 -0.0041740197 -0.014299065
000140 24 b5 2d 3c 41 ab 73 bc df 35 bd bb f8 52 cf 3c
       0.010602269 -0.014872373 -0.005774244 0.025308117
000150 81 7d 71 bc e7 b0 31 3b f9 71 45 3b 44 9c c0 ba
       -0.014739395 0.0027113499 0.0030127747 -0.0014695008
000160 f5 a6 e3 3b 39 e5 97 3b f8 87 f4 3b ff 71 c7 3c
       0.006947393 0.0046354798 0.007462498 0.02434635
000170 11 82 84 bc ee 59 1e 3d 83 25 e7 bc df f7 bc 3b
       -0.016175302 0.038659982 -0.02821613 0.005766853
000180 fe e4 a8 bc 3f 91 2e 3b 76 21 82 3c d9 d6 b3 3c
       -0.020617004 0.0026636866 0.015885096 0.021953033
000190 e8 5e 04 3d 53 c5 90 3c 4c 7c 43 bc ab 2c 8d 3c
       0.032317072 0.017672217 -0.01193149 0.017233213
0001a0 20 9f c0 3c 3e aa 04 3c b2 cb 9f 3c 8f 8e 23 3c
       0.023513377 0.0080972295 0.01950631 0.009982719
0001b0 44 d6 1e 3d f3 7f c6 bb 5a b1 58 3c 11 cb 54 3b
       0.03877856 -0.006057733 0.013225878 0.003246967
0001c0 c5 4a 11 bc 0b 0e 5a bc 29 28 12 bc 87 1c d7 3a
       -0.008867924 -0.013309012 -0.008920708 0.00164117
0001d0 b1 c2 83 bb be 4d c0 3b 48 b5 16 ba 10 19 3e bb
       -0.0040210118 0.0058686426 -0.0005749059 -0.0029006638
0001e0 d6 8b f6 b9 d1 4a 8a bc fc 2a 72 bb 11 61 cd 3b
       -0.00047024962 -0.016881378 -0.003695189 0.0062676747
0001f0 34 e9 d9 bb 4c 1b a4 bc c2 3a d9 3b a1 77 a6 bc
       -0.0066501144 -0.020032547 0.006629319 -0.020320715
000200 89 d0 6e bc 8c 2a 9e 3c 94 2e 87 ba 83 62 d5 3c
       -0.014576086 0.019307397 -0.0010313564 0.02604795
000210 f9 c4 d6 ba ff af 96 bc a3 39 21 3c 9b f7 10 bc
       -0.0016385607 -0.018394468 0.009840402 -0.008848096
000220 75 45 c3 3c 64 7f d7 3c 8e 66 8e 3a ad 96 c3 3c
       0.02383683 0.026305862 0.0010864304 0.023875559
000230 4f 85 0d 3c e8 d9 96 3c 92 03 25 3c 7c f1 ee 3c
       0.00863774 0.018414453 0.010071652 0.029167883
000240 67 6c f6 bb 85 1f fb bc c8 b6 44 bc 65 f5 60 3c
       -0.007520247 -0.030654678 -0.012006469 0.013730382
000250 b2 1a ac ba c4 24 34 3c 29 81 97 bb 9d 88 d8 3c
       -0.0013130514 0.010995094 -0.0046235514 0.02643233
000260 91 c1 12 bc e0 1c 13 bc 02 5f a0 bc d5 b2 c3 3c
       -0.008957283 -0.008979052 -0.019576553 0.023888985
000270 3d da 43 3b 0f 1d 1d bc 8f 46 7a bb 0c 96 af bb
       0.0029884719 -0.009589448 -0.003818903 -0.005358463
000280 10 6c a6 bb f8 87 dd bc 68 b0 33 bc 0a c3 d0 3c
       -0.0050788 -0.027042374 -0.0109673515 0.025483627
000290 eb 43 22 3c 31 f3 80 3b 0b 18 bb bc 81 93 fb bc
       0.009903888 0.0039352407 -0.022838613 -0.030709984
0002a0 91 52 2f 3c bf 00 96 bc 7b cc b6 39 96 08 80 3c
       0.010700838 -0.018310903 0.00034866095 0.015629094
0002b0 8f ce 8e 3c f7 06 92 bc e0 9c f8 3b 25 4d a7 3c
       0.01743248 -0.017825587 0.0075870603 0.020422528
0002c0 99 9d 53 3c 6f af 7e 3c 95 7c 97 3c a8 50 b6 3b
       0.012915992 0.015544756 0.018492023 0.005563814
0002d0 2f f0 ba 3c 40 ab 31 3b 04 c3 aa 3c ab ce be 3c
       0.022819607 0.002711013 0.020844944 0.023291906
0002e0 fd b5 f8 3c 13 68 8d bc ff 7d 00 bd 10 80 b5 bc
       0.030360216 -0.01726154 -0.03137016 -0.022155792
0002f0 7f bc d6 3a 7d 62 7f 3b 4b b5 b4 3c ba 87 b5 3c
       0.001638308 0.0038968616 0.022059103 0.022159446
000300 9a a4 74 bb 3d f5 f1 bc ee 74 91 3b d5 02 87 bc
       -0.0037329555 -0.029535884 0.004438988 -0.016480843
000310 15 9d c2 3c 7d b2 8a 3c e0 b3 7a bc 8d 34 89 bb
       0.023756543 0.016930813 -0.015301675 -0.0041871727
000320 8f e1 cc bc 2f 3d 8b bc f6 c1 9a bc b7 01 12 bd
       -0.025009898 -0.016996948 -0.018891316 -0.035646167
000330 5a c9 9e bc 04 33 d6 3b 66 37 66 bc 02 24 69 3c
       -0.019383121 0.0065368433 -0.014051294 0.014229776
000340 cb 90 95 3b a7 9b c0 bc a9 05 c6 3c 57 60 bd bc
       0.00456438 -0.02351172 0.02417262 -0.023117227
000350 dd 61 98 3c 97 64 c4 3b ad 7e 89 bc 02 7a dc bc
       0.018601352 0.0059934366 -0.016784037 -0.026913647
000360 29 c1 46 3c 73 4f 17 bc d7 01 88 3c f2 01 02 bc
       0.012131014 -0.009235251 0.01660244 -0.007935034
000370 43 f1 80 bb 08 8a 70 3c 59 fa 5c bb a3 32 89 bc
       -0.0039350106 0.014681347 -0.0033718555 -0.016747778
000380 3e a7 12 3c a5 94 18 bc 00 f7 85 3b 53 e0 08 3d
       0.008951006 -0.009312783 0.0040882826 0.033417057
000390 51 18 19 bc 2b 47 86 3c ba 43 b0 bc 58 89 48 bc
       -0.009344176 0.016391357 -0.02151667 -0.012239777
0003a0 32 78 83 3c bf d7 e4 3b 4a 27 2c 3c d0 cc a2 3c
       0.016048525 0.0069837268 0.010507414 0.019873053
0003b0 94 d2 b9 bc c2 12 f4 ba 4c 37 9c 3b c4 92 07 3c
       -0.02268342 -0.0018621313 0.004767334 0.008274738
0003c0 b9 5d f1 bb 71 40 bc 3a 93 d8 c3 bc 48 05 30 3c
       -0.007365909 0.0014362467 -0.023906982 0.010743447
0003d0 2b 83 18 bc 2b 90 f5 3b 6f 39 8e 3c 09 0c 11 bb
       -0.009308617 0.007493993 0.01736137 -0.0022132418
0003e0 2a 18 94 bc dd 1d a5 bc ff c0 f7 3a 64 cb d6 3c
       -0.018077929 -0.020155841 0.0018902122 0.026220031
0003f0 a5 74 f3 3b 14 a1 8f 3c 69 2d 00 3c d1 ce 67 bc
       0.0074296766 0.017532863 0.007823327 -0.01414843

fc.0.bias f4 [128]
000000 4e 28 ce 3c 5a be a7 bb 0a 5f c6 3b fe 70 fb 3b
       0.025165703 -0.005119127 0.00605381 0.007673382
000010 a9 bc 2a 3e ab 56 c8 bc 3f 10 4a 3d c0 2e fd bc
       0.1667353 -0.024455389 0.0493319 -0.030906081
000020 27 56 6f 3c 20 3c 21 3d 01 f7 2a 3c 7b 80 89 3b
       0.014607943 0.03936398 0.010434867 0.0041962243
000030 76 5b bb bc 2b 21 6b 3d f8 d6 86 3d 08 fd 78 3d
       -0.02287076 0.05740468 0.06583971 0.060788184
000040 17 9b 05 bc da 65 de 3d 41 f1 25 3d 00 82 9c bc
       -0.008154652 0.108592704 0.04051328 -0.019104958
000050 1b c9 39 3d 42 2c db bc 50 3f 09 bd 66 93 1d 3c
       0.045357805 -0.026754502 -0.033507645 0.009617662
000060 e4 a3 06 3d 0a fc c2 3d 90 19 bb 3c b3 d1 58 3c
       0.032871142 0.09520729 0.022839338 0.01323359
000070 b5 49 3f bc a8 44 5c 3c fb 91 2c bd 6d 04 79 3c
       -0.011675288 0.013444103 -0.042131405 0.015198809
000080 9e 53 8b bc 6b 48 6f 3c df 7d 30 bd 00 1e e9 bc
       -0.017007645 0.014604668 -0.04308879 -0.028456688
000090 81 f1 73 bc b2 c7 2b 3c 4e 58 b2 bc 3b a5 4c 3d
       -0.014889122 0.010484623 -0.021770623 0.049962264
0000a0 20 a1 dc bc b6 28 45 3d 55 3f a7 3c 1d f9 a9 3c
       -0.0269323 0.048134528 0.020415941 0.02074867
0000b0 60 92 dc 3b 97 76 f6 3c 19 c2 99 3c 22 06 f6 3c
       0.0067313164 0.030085845 0.01876931 0.030032221
0000c0 0e a1 1f b8 c2 76 ae bb b8 08 8e 3c 93 3d 78 3d
       -3.8058548e-05 -0.0053242156 0.017338142 0.060605597
0000d0 f7 19 7e 3c 81 46 93 bc bb 82 35 3d 76 c5 23 3d
       0.01550912 -0.017977955 0.044314127 0.039983235
0000e0 70 a0 73 bc 90 7a c3 ba 8f 25 53 3d 01 2c 05 bd
       -0.014869794 -0.0014913846 0.05154949 -0.03251267
0000f0 8f ff c1 bc 4f 33 20 3d 95 22 b8 bb 72 f2 a6 3d
       -0.02368143 0.03911143 -0.005619357 0.081517115
000100 5f 38 b2 3c 5b 2a d3 ba 24 d6 12 3d 3d 7d d8 3b
       0.021755395 -0.0016110645 0.03584875 0.0066067264
000110 ed 8b d1 bc f4 20 39 bc 77 ee f5 bc 3a 0e ee 3c
       -0.025579417 -0.011299361 -0.030020935 0.029059518
000120 f0 83 15 bd e4 d3 3c bc 07 d3 f1 3d 02 9a 1b 3e
       -0.03650278 -0.011525128 0.118078284 0.15195468
000130 52 f8 39 bc 15 e7 58 bc 5b 11 3e ba 4b 33 8d bc
       -0.011350708 -0.013238688 -0.0007250511 -0.017236372
000140 ae de 27 bd 47 90 07 bd 1d 9a 14 3d 0a 5d 5a 3d
       -0.04098385 -0.033096578 0.036279786 0.053311385
000150 8b 3b e3 3d 44 e3 40 3d 98 2b 61 bc 2f 07 de bb
       0.11095341 0.047091737 -0.013743304 -0.0067757587
000160 8c c4 09 bd fb b3 11 bd 24 43 8d bc 5c 96 55 3d
       -0.033634707 -0.035572033 -0.01724393 0.052145347
000170 cd 4e 8e 3e 0e a2 2f bd 11 99 e8 3c 19 19 3a 3d
       0.27794495 -0.042879157 0.0283933 0.04543409
000180 4f 12 8e 3d 2b a6 98 3c 3b b0 36 3c ac 13 32 bd
       0.06937086 0.018633923 0.011150415 -0.04347579
000190 f9 b2 61 3c 5f 98 03 bd 65 e9 44 3d 0a 30 8a 3d
       0.013775581 -0.032127734 0.048074145 0.06747444
0001a0 e9 ae bc 3c ca 1e 06 3b fb 56 9c 3c 40 11 f9 3c
       0.023032622 0.002046513 0.019084444 0.030403733
0001b0 f0 9a a9 3a d4 ab ce bc f7 a4 ef 3c 76 46 36 3e
       0.0012939852 -0.025228418 0.029253466 0.17800316
0001c0 0e 8f 53 3d 7c 8e 99 3b cc e0 3b 3d c2 43 fb 3c
       0.0516501 0.004686175 0.04586868 0.030671958
0001d0 37 17 11 3c b3 f1 02 3d 37 e4 f3 3b 94 55 2c 3d
       0.0088556325 0.031968784 0.007442977 0.0420738
0001e0 af c3 29 3d ef c8 a3 3c 1b 12 9e bc e1 2d 57 bd
       0.041446384 0.019993274 -0.019295743 -0.052533988
0001f0 93 9b 05 3d c9 76 d9 3c e8 17 3a 3d 66 2b a2 3d
       0.03261907 0.026545899 0.045432955 0.07918434
