trained_models/regression_linear_gammas_m1_m2.pth (torch, 68258 bytes, 2 tensors)

linear.weight f4 [8, 2078]
-0.023124672 -0.009738929 0.020368975 0.0015160393 -0.0066713765 0.012152825 0.01276324 -0.0094402125
0.016753765 0.0012663153 -0.0030133703 0.0058144443 0.012621355 0.0029863983 0.01383201 -0.007196599
-0.0016031394 0.010862276 0.011987729 -0.005616222 0.0007976397 -0.0061437963 -0.0057991943 -0.0025295406
-0.004086598 0.0046315975 -0.00977163 -0.00018429436 0.003924221 -0.004149382 -0.011085417 0.013827166
0.013448406 -0.026184982 -0.007185857 0.01095229 0.0040253885 0.021494146 -0.008802545 0.009157141
0.00039806525 0.011830951 -0.014598389 0.009957106 -0.0023577346 0.0011244313 -0.0014669917 0.0022666177
0.016241211 -0.01281077 0.0015323455 0.01843533 -0.016417831 -0.0114061 -0.0029940677 0.0085378345
0.0038215863 0.015534433 -0.0034378676 -0.0028656567 -0.005219422 0.0045895507 -0.0059764236 0.0041616154
-0.0097063 0.007535602 0.0021848215 0.010177668 0.005324919 0.021921724 -0.0075864093 0.013495462
0.004714295 0.0026244011 -0.015604622 -0.00502727 0.012905666 0.0073681865 -0.009196759 -0.009840569
0.019534864 -0.00869056 -0.004165064 0.020622548 0.01034084 -0.02381869 0.012600287 -0.00637631
0.00023648475 -0.0015693477 -0.0091595 -0.0066879126 0.006394025 0.015877668 0.0007104327 0.0036623138
-0.005413827 -0.0037568444 -0.013355398 -0.0016320212 -0.010850493 -0.012682192 -0.0038172815 -0.0073203756
-0.0008052822 0.0021724603 -0.0031683925 0.003391306 0.008118618 -0.012023854 -0.004767485 -0.009810202
0.0076814895 0.006163987 0.0069252877 0.009770417 -0.0057367925 -0.008434128 0.0010570813 0.0041486896
0.016876 -0.0019446522 -0.0006228779 0.0018120281 -0.0034960757 0.018654013 -0.0152920205 -0.009823647
0.006453216 0.0014036517 -0.004936864 0.0048571927 0.0059292237 0.01078481 -0.008209803 0.026134374
0.0028750766 -0.0017103323 0.000562544 0.0034235052 0.01619215 -0.007934231 0.00020873289 0.016417429
-0.014335354 0.009613693 0.0081045795 -0.00031689226 -0.0061636213 0.011957224 -0.0014401203 0.016289363
0.007158099 0.0012045745 0.011148694 0.012414587 -0.008455122 -0.0015273814 0.013804008 0.0064743906
-0.019908931 -0.009028955 -0.010012084 0.006467323 -0.00346182 0.012433716 0.00999929 -0.0022579432
0.018366365 0.0015604027 -0.002275482 -0.0038809453 -0.00030053596 -0.013074994 0.01417071 0.007377038
-0.0011896896 -0.0067827464 -0.011035267 -0.0013118836 -0.00835927 0.012207641 -0.0019311005 -0.005472491
0.00033560538 -0.010552149 0.014274932 -0.021672009 0.024506768 -6.301837e-05 -0.01014744 0.008013811
0.0009877451 -0.010736176 0.015587352 0.00054190966 0.0014242746 0.00082695356 -0.01313226 -0.013360838
0.01020489 0.009842825 -0.003861139 0.0050303573 -0.010838027 -0.0017245115 0.0123045975 0.009093392
0.00059517764 0.007086402 0.0049010017 0.0026311022 -0.0019649554 0.0023805825 -0.002159817 -0.004278561
-0.009291554 -0.012010299 -0.0009922922 0.004298163 0.016788635 0.007709967 -0.00841534 0.00538068
0.00042522704 -0.010632513 0.015485963 -0.0044053327 0.02190348 -0.00089453754 -0.004166632 0.014637613
0.00023929465 0.0072691143 0.0024514825 -0.002604345 0.014872522 0.014591145 0.0038151697 -0.0020110006
-0.0022873871 0.01365826 -0.0027128365 0.011169238 -0.00945296 0.008612483 -0.0045375647 -0.015743205
-0.009955416 0.01789067 -0.0016587492 -0.014769637 -0.010836713 0.0004076829 0.0035584846 0.007656115
00000000: f46f bdbc 0790 1fbc d6dc a63c d6b5 c63a
00000010: 909b dabb a41c 473c e91c 513c 1fab 1abc
00000020: 313f 893c 7efa a53a f77b 45bb 1887 be3b
00000030: cdc9 4e3c 73b7 433b a89f 623c 73d1 ebbb
00000040: 6f20 d2ba b0f7 313c 2e68 443c 4908 b8bb
00000050: b218 513a e651 c9bb 2b07 bebb a6c6 25bb
00000060: dee8 85bb a8c4 973b 3019 20bc 243f 41b9
00000070: c096 803b 8af7 87bb 9c9f 35bc 568b 623c
00000080: b456 5c3c e381 d6bc 5677 ebbb 3c71 333c
00000090: 68e7 833b 7e14 b03c 8d38 10bc d507 163c
000000a0: 6ab3 d039 9bd6 413c 152e 6fbc 2123 233c
000000b0: 3984 1abb a761 933a 1348 c0ba 898b 143b
000000c0: 4a0c 853c 44e4 51bc fcd8 c83a b005 973c
000000d0: b07e 86bc a7e0 3abc 1f38 44bb 46e2 0b3c
000000e0: 9473 7a3b 2284 7e3c d94d 61bb becd 3bbb
000000f0: af07 abbb f163 963b e0d5 c3bb 295e 883b
00000100: 2c07 1fbc 36ed f63b 392f 0f3b 3cc0 263c
00000110: a87c ae3b 3095 b33c 6a97 f8bb 121c 5d3c
00000120: 5f7a 9a3b 25fe 2b3b 87aa 7fbc ccbb a4bb
00000130: 4972 533c d470 f13b 01ae 16bc 573a 21bc
00000140: 9407 a03c da62 0ebc 177b 88bb 9ef0 a83c
00000150: a06c 293c 6a1f c3bc 6f71 4e3c 5df0 d0bb
00000160: e4f8 7739 92b2 cdba ba11 16bc 4726 dbbb
00000170: f884 d13b e211 823c 553c 3a3a 6e03 703b
00000180: 7966 b1bb 6435 76bb 99d0 5abc 8be9 d5ba
00000190: 44c6 31bc f8c8 4fbc 5b2b 7abb c3df efbb
000001a0: 9319 53ba d65f 0e3b cea4 4fbb ac40 5e3b
000001b0: f403 053c b3ff 44bc 9038 9cbb f8ba 20bc
000001c0: 01b5 fb3b 45fb c93b 86ed e23b 1914 203c
000001d0: b4fb bbbb 4c2f 0abc c38d 8a3a bbf1 873b
000001e0: 8a3f 8a3c b3e3 feba a148 23ba 9381 ed3a
000001f0: 6b1e 65bb 4dd0 983c 628b 7abc 5df3 20bc
00000200: 8075 d33b bcfa b73a 6bc5 a1bb 1629 9f3b
00000210: ef49 c23b c6b2 303c 6982 06bc c117 d63c
00000220: c86b 3c3b 3b2d e0ba b077 133a e35c 603b
00000230: 66a5 843c 94fe 01bc 4fdf 5a39 d87d 863c
00000240: d5de 6abc c082 1d3c 12c9 043c 8f24 a6b9
00000250: 34f8 c9bb 3ce8 433c 6bc2 bcba 4571 853c
00000260: 7d8e ea3b d0e2 9d3a 03a9 363c 8d66 4b3c
00000270: 5a87 0abc 6a32 c8ba 352a 623c 2027 d43b
00000280: 0e18 a3bc 2fee 13bc b909 24bc d6eb d33b
00000290: b4df 62bb c9b6 4b3c 10d4 233c 00fa 13bb
000002a0: 0f75 963c 6d86 cc3a 4120 15bb 7557 7ebb
000002b0: 4191 9db9 8038 56bc 442c 683c 14bb f13b
000002c0: 5cef 9bba cd41 debb 44cd 34bc 82f3 abba
000002d0: 52f5 08bc 8f02 483c fb1c fdba 9552 b3bb
000002e0: 31f4 af39 ece2 2cbc 68e1 693c 7f89 b1bc
000002f0: 6bc2 c83c bb28 84b8 7341 26bc 5c4c 033c
00000300: 3a77 813a c9e6 2fbc 1862 7f3c f10e 0e3a
00000310: baae ba3a eac7 583a b128 57bc 6be7 5abc
00000320: 6932 273c cd43 213c 2a0b 7dbb b2d5 a43b
00000330: fb91 31bc 0109 e2ba 3999 493c 73fc 143c
00000340: b205 1c3a 0c35 e83b 9598 a03b 926e 2c3b
00000350: 7bc6 00bb 8c03 1c3b b78b 0dbb 2c33 8cbb
00000360: 9a3b 18bc d8c6 44bc cd0f 82ba 9bd7 8c3b
00000370: 5288 893c e4a3 fc3b 7fe0 09bc 6a50 b03b
00000380: 02f1 de39 fe33 2ebc d6b8 7d3c 9c5a 90bb
00000390: ed6e b33c 667f 6aba 3e88 88bb 99d2 6f3c
000003a0: 2beb 7a39 c031 ee3b 0da9 203b a9ad 2abb
000003b0: e1ab 733c b30f 6f3c ed07 7a3b feca 03bb
000003c0: fde7 15bb e5c6 5f3c d8c9 31bb 2eff 363c
000003d0: 97e0 1abc 5f1b 0d3c daaf 94bb e5f7 80bc
000003e0: 0b1c 23bc 748f 923c 636a d9ba 59fc 71bc
000003f0: 788c 31bc 46be d539 7735 693b 26e0 fa3b

linear.bias f4 [8]
-0.0015238491 0.0015278115 0.0016602528 0.0011991872 -0.0015359201 0.0016954897 0.00017715289 0.0007637871
00000000: e4bb c7ba d940 c83a d79c d93a 0c2e 9d3a
00000010: ed50 c9ba 323b de3a 1ec2 3939 e238 483a
