trained_models/regression_cnn_gammas_m1_m2.pth (torch, 673520 bytes, 36 tensors)

cnn.convolutions.0.weight f4 [16, 2, 3, 3]
000000 41 33 84 3d a5 73 00 be 87 86 2e 3d d3 ac 58 be
       0.064550884 -0.12544115 0.042608764 -0.21159677
000010 4d 26 65 be 81 c5 c4 bd fc ea 1a be 97 18 0a be
       -0.22377892 -0.096079834 -0.15128702 -0.13485943
000020 16 2e 90 be fe 2e ad bd 2e 94 97 3d 0d 8d 0b 3c
       -0.2816016 -0.08456229 0.0740131 0.008517516
000030 cc 02 87 3d c6 90 4a 3e 76 36 e9 bd cb cf e0 3d
       0.0659233 0.19781789 -0.11387341 0.10977133
000040 a1 d9 19 3e 58 d9 8a bc 45 61 89 bd 0f 6d d2 3d
       0.15024425 -0.01694934 -0.06708006 0.102747075
000050 09 53 16 bd 17 f7 18 3b 65 7b 5f be fb a6 23 be
       -0.036700282 0.0023340636 -0.21824415 -0.15981667
000060 ec d4 a0 bc 29 fb 4d 3e 09 88 10 3e 53 8b 73 3e
       -0.019632779 0.20115341 0.14114393 0.23783617
000070 66 ec 3a 3a 07 02 e9 bd 77 dd 2b 3e 6d cb 66 bd
       0.0007130563 -0.1137734 0.16783701 -0.056346346
000080 45 34 0a be 3f 17 24 be 0f d3 4b bd b5 33 9b bc
       -0.13496502 -0.16024493 -0.049761828 -0.018945554
000090 31 ac 57 3d 28 3f cc bb 85 81 5c 3d cf 69 97 3d
       0.05265445 -0.0062331147 0.053834457 0.07393228
0000a0 72 78 3c bd 78 8e 53 bd 12 a1 cc bc b2 21 0a 3d
       -0.046013303 -0.05164954 -0.024979148 0.03372354
0000b0 9d a0 f3 3c e2 b6 82 be c0 38 7f be 2b 9f 5f 3c
       0.029739672 -0.25530154 -0.24923992 0.013648788
0000c0 2b bd e1 bd ae 07 c8 bc da 65 70 3e f4 cc cf 3d
       -0.11022409 -0.024417724 0.23476353 0.101465136
0000d0 de 4e 92 3e 14 e2 b4 3d cb 7b cd bd 2d 79 f4 bd
       0.28575796 0.088321835 -0.10033377 -0.11937175
0000e0 82 24 97 3e 93 80 c9 bd 6f 49 e7 3d db b0 6c 3e
       0.2952004 -0.09838977 0.11293303 0.2311434
0000f0 fb 32 ec bd 6e 24 f1 bd 7f 06 08 be 76 6a c5 3c
       -0.11533161 -0.117745265 -0.13283728 0.024098616
000100 44 c5 f5 bc 42 2e 9e 3d 07 42 88 bb d7 3f 05 be
       -0.03000129 0.07723667 -0.0041582617 -0.13012634
000110 dc 98 1e be fa f0 c7 3a f2 79 1c 3b 39 d1 1e 3d
       -0.15487999 0.0015254312 0.0023876396 0.03877375
000120 41 97 36 be c7 97 33 be 6b a3 15 be e4 c7 1e be
       -0.17831136 -0.17538367 -0.1461312 -0.1550594
000130 d9 4e 20 be 65 a5 17 be 19 a3 7d be a3 08 3f be
       -0.15655078 -0.14809187 -0.24769248 -0.18655638
000140 dd dd 69 be 42 34 87 bc 5d 93 65 bb 31 36 9d bd
       -0.2283854 -0.01650441 -0.0035030462 -0.07676352
000150 a2 42 fa 3d 59 05 b4 bd 46 68 00 be f1 85 45 bd
       0.122197405 -0.087900825 -0.12539777 -0.04822344
000160 00 0d f0 3d 8b 7d c6 3d dc 3a ec 3d 68 3c 0b be
       0.117212296 0.09691914 0.11534664 -0.13597262
000170 1c 71 91 3d 4b 32 cd bd 9c e5 d0 bd 26 78 a6 3d
       0.07101652 -0.10019358 -0.102000445 0.08128385
000180 1d 49 62 bd 33 86 ca 3b 95 07 e9 3d ca 38 d8 3c
       -0.055245508 0.0061805486 0.11378399 0.026394267
000190 14 de 85 3d 0f 07 46 be 69 16 fc 3d 30 1c 13 be
       0.06536499 -0.1933863 0.12308962 -0.14366221
0001a0 53 df 1f 3e f5 f2 16 be 9d 06 4e bc 56 7b c8 3d
       0.15612535 -0.14741118 -0.012574819 0.097891495
0001b0 fa c1 1c 3d fe 82 57 3d db f4 c6 bd 52 7b 15 3e
       0.038270928 0.05261516 -0.09714671 0.14597824
0001c0 21 18 0f 3e 60 89 53 be 08 17 2e be cc 91 be bd
       0.13974048 -0.20657873 -0.17000973 -0.09305152
0001d0 12 61 b5 3d 35 ba fc 3d 78 0a 86 3d db 9a 8f 3e
       0.08856405 0.12340204 0.065449655 0.28047833
0001e0 22 40 b6 3d aa e3 05 3e ba 03 42 3e a3 89 68 be
       0.08898951 0.13075128 0.18946734 -0.22708754
0001f0 3f a2 41 bd d1 25 7b 3c 60 ed 4e be 67 15 bb bd
       -0.04727387 0.01532884 -0.20207739 -0.091349415
000200 28 31 35 be a7 06 e8 3c 90 02 92 3d 88 89 61 3e
       -0.17694533 0.028323485 0.07129395 0.2202512
000210 75 b9 b9 3d cd d2 ee 3b 0b 76 4f 3e 75 59 f2 bd
       0.09068576 0.007288313 0.20259874 -0.11833469
000220 77 e9 02 bd b5 09 e5 bd cc 98 7c bc 2a 5f 82 bd
       -0.03196093 -0.11183492 -0.015417289 -0.06365807
000230 1e 78 ee 3c 1c 76 18 3e cd d0 37 3e 96 08 f5 bc
       0.02911001 0.14888805 0.17950745 -0.02991132
000240 3d a8 b8 bd d8 da 09 3d 92 07 be bc 49 78 ae 3c
       -0.09016464 0.03365597 -0.02319697 0.02129759
000250 b6 03 4e 3b e7 70 08 3e 8f 5a d2 bc 42 78 6a bd
       0.0031435317 0.13324319 -0.025677947 -0.057243593
000260 66 92 4b 3d 1f 44 5e be bd 24 d2 bd a4 bc 73 be
       0.049700163 -0.21705674 -0.102609135 -0.2380243
000270 a8 4d 05 be 17 b4 10 be 49 9a 8e be bc 13 0a be
       -0.13017905 -0.14131199 -0.27852085 -0.1348409
000280 25 5e f4 bd cc 7f 7b be ef 9c 43 3e ba ec 22 3e
       -0.11932019 -0.2456047 0.19102834 0.15910617
000290 ac b5 5c be 80 2a 0a 3e 18 1b 16 be d4 f7 be bd
       -0.21553677 0.13492775 -0.14658773 -0.09324613
0002a0 d9 9a 41 3d 17 29 c6 bb 25 61 22 3e 07 d1 ec 3d
       0.047266815 -0.0060473788 0.1585737 0.11563306
0002b0 3f c7 3c 3e 66 b0 42 3e df c4 f3 bd 96 d9 54 3e
       0.18435381 0.19012603 -0.119027846 0.20786127
0002c0 a1 7f 03 3e be 46 8e bd 3d 30 b4 3d b7 21 2b 3d
       0.12841655 -0.06947087 0.08798263 0.0417802
0002d0 62 f6 06 bc a0 cc 7f bc 74 f1 39 bd 70 aa 73 3d
       -0.008237453 -0.015612751 -0.045396283 0.059488714
0002e0 ca 8a aa 3d e5 8f 1b 3e 1a 1f 38 3d 9f cc a9 3e
       0.08327253 0.1519161 0.044951536 0.33163926
0002f0 2d 21 47 3e 91 1b fe bd 5b 6c 4f bd 7f 38 01 3d
       0.1944625 -0.124076016 -0.050640445 0.03154802
000300 9c 0b ef bd 1a 70 40 3d cc ec 22 3d 6e f5 3c 3d
       -0.11672136 0.04698191 0.03977661 0.046132497
000310 75 53 22 bd 59 55 46 bd ec 74 18 be 08 97 07 3b
       -0.039630372 -0.048421238 -0.14888352 0.0020689387
000320 da eb 0d 3d 4a 55 1b be b0 65 bf 3d 05 34 81 3e
       0.034648754 -0.15169254 0.09345567 0.25235
000330 9e 45 cd bc 85 93 13 bd 4e 3f 80 3c 5a 16 d3 bd
       -0.02505761 -0.036029357 0.015655186 -0.103069976
000340 e4 40 3a 3d f1 d3 23 be e9 dc 52 bd 8c f1 46 3e
       0.04547204 -0.15998818 -0.051480208 0.1942808
000350 f8 9c 81 3d d5 c5 ca 3d 3f d9 31 bd ef 6b 0c 3d
       0.063287675 0.09901015 -0.043420073 0.03428262
000360 6b 96 93 bd a0 1d 99 3d e0 bd d0 3d 1c 83 b5 3c
       -0.07206424 0.07476354 0.10192466 0.022157244
000370 8d b6 4b bd a6 ce 40 be 6f 8d 32 be ee fd 61 be
       -0.04973464 -0.1882883 -0.17436765 -0.22069523
000380 f3 02 8e 3c d7 b8 7b 3e 7c e7 36 3e 58 e4 8e bd
       0.01733539 0.2458223 0.17861742 -0.06977147
000390 a2 69 a3 3d 4b 00 4a 3d d5 c3 52 be 78 66 58 be
       0.07979132 0.049316686 -0.20582516 -0.21132839
0003a0 53 22 25 be 62 7e ec 3d 91 c4 31 be 2f 9c 83 3e
       -0.16126375 0.11547543 -0.1736014 0.25705096
0003b0 2b 77 de bc 1b da 48 3e 14 e1 be 3d f7 53 13 be
       -0.027156433 0.1961445 0.09320274 -0.14387499
0003c0 06 03 a3 bd e0 ee 0f be 13 41 08 3e b2 d7 fc bd
       -0.07959561 -0.14055967 0.13306074 -0.12345828
0003d0 a5 a6 03 3e 60 a7 3d bc 1b e7 0b be ca b8 0f be
       0.12856539 -0.01157555 -0.13662378 -0.14035335
0003e0 98 a8 e3 3d 85 70 fb 3d 85 5e 01 be 09 9c 2c be
       0.11116141 0.12277321 -0.12633713 -0.16856398
0003f0 e6 d8 5c be c8 57 af bc 84 8f da 3c 4f 82 38 be
       -0.21567115 -0.021404162 0.026679762 -0.18018459

cnn.convolutions.0.bias f4 [16]
000000 8c 68 4d bd 1d b5 cd bd 66 3c 01 bd 0d 3a 17 bd
       -0.05014853 -0.1004431 -0.03155174 -0.036920596
000010 88 c8 ab 3e 5c 26 bb be 6f bf 85 3d 4f cd 53 3e
       0.3355143 -0.36552703 0.06530654 0.20683788
000020 cd 50 f9 bc 79 62 e1 bd 10 7f 91 3e b1 e7 97 bd
       -0.030434037 -0.1100511 0.28417253 -0.074172385
000030 5b 51 31 3e 84 f5 25 be 0f 50 66 3e 43 c1 c3 3e
       0.17316191 -0.16206938 0.22491477 0.38233384

cnn.convolutions.2.weight f4 [16]
000000 96 45 82 3f a8 bb 78 3f 87 e0 77 3f 45 a9 86 3f
       1.0177486 0.9716134 0.96826977 1.0520407
000010 f6 ca 7c 3f 64 30 6d 3f 29 2b 73 3f 42 f2 75 3f
       0.98747194 0.92651963 0.9498773 0.9607278
000020 ea c0 69 3f 6a cf 7a 3f 3a 70 87 3f c6 0f 7c 3f
       0.9130999 0.9797274 1.0581124 0.9846157
000030 59 c7 68 3f 08 a8 5c 3f af bb 7b 3f 8e 4a 7b 3f
       0.9092918 0.86193895 0.9833326 0.98160636

cnn.convolutions.2.bias f4 [16]
000000 a7 8a 95 bb bf 0e 1f bd 04 93 11 bc 9a 42 79 3c
       -0.004563648 -0.038832422 -0.008885149 0.015213633
000010 f9 1e f5 bc 56 6c a9 3c 37 6e 51 bc c0 d4 5e 3d
       -0.029921995 0.020681541 -0.012782625 0.054402113
000020 3e 1e 73 3c 7c dd 4b 3d b6 58 28 bc 06 d7 f0 bc
       0.014838753 0.04977177 -0.010275057 -0.029399406
000030 d9 76 a7 bb 1d 10 d9 bc e7 c3 33 3d 5e bd 90 bd
       -0.0051106033 -0.026496941 0.043888 -0.07067369

cnn.convolutions.2.running_mean f4 [16]
000000 5a 20 12 3d 51 41 2b 3c 72 3b f2 3c 66 88 3c 3c
       0.035675384 0.010452584 0.029569361 0.011507129
000010 e5 d5 d7 3e 9e 78 99 3b c7 c4 9f 3d ab f3 61 3e
       0.42155376 0.004683568 0.07801204 0.22065608
000020 a2 ea a4 3d c1 c6 81 3d 38 77 99 3e 46 57 94 3c
       0.08052565 0.063367374 0.2997377 0.018108021
000030 ea ef 52 3e 4c de 03 3c 29 d2 71 3e a2 e7 e9 3e
       0.20599332 0.008048605 0.23615326 0.45684534

cnn.convolutions.2.running_var f4 [16]
000000 13 ae b4 3d ed f9 d1 3c ec 6d f0 3d c9 e3 10 3d
       0.088222645 0.02563187 0.11739716 0.035373483
000010 c4 f4 83 3c 6e fb 1a 3c f7 7d 87 3e 37 20 d9 3d
       0.016107924 0.00945936 0.2646329 0.106018476
000020 88 6a 1a 3c 03 09 d7 3e 39 ab df 3e 89 db 55 3d
       0.009424813 0.41999063 0.4368532 0.05221132
000030 b5 37 20 3d a8 d1 b4 3c e3 33 48 3d 3b 7a 88 3c
       0.039115626 0.022072628 0.048877608 0.016659847

cnn.convolutions.4.weight f4 [32, 16, 3, 3]
000000 c1 c5 c0 3b 8f c2 4c bc 3a e3 cc 3d db 08 a2 3a
       0.005882949 -0.012497558 0.100042775 0.0012362258
000010 e4 ad 5d 3c 33 68 17 bd 67 6b 98 bd 80 f9 90 bd
       0.013530228 -0.036964606 -0.0744236 -0.07078838
000020 c5 0f b5 3c b2 87 85 3d c2 73 54 bc 4d ba f9 3c
       0.022102246 0.065200225 -0.012967052 0.030484343
000030 e3 4f 59 3d ad ec 96 bd 07 bf 26 3d ea 50 ac 3c
       0.0530547 -0.07369361 0.04070952 0.021034677
000040 75 41 8c 3c 7e 89 30 bd 64 f1 83 bd 7a ee 60 3d
       0.017121056 -0.043099873 -0.06442526 0.05491493
000050 e6 26 37 3c 20 0c b1 bd 3b 8f 63 3d 75 05 e9 3d
       0.011178708 -0.08644891 0.055556517 0.11377994
000060 f9 ca 88 3c ab bd bc bd fc 49 be 3c 64 a8 d1 bc
       0.016698347 -0.09215864 0.023228638 -0.02559299
000070 dd 88 97 3d ea 74 b9 bc 07 4c 6b bd d5 51 cd bc
       0.073991515 -0.022638757 -0.057445552 -0.025063435
000080 26 3d 81 3d 39 3f 81 bd e1 68 49 3d dc 72 69 bc
       0.06310491 -0.06310887 0.049172286 -0.014248576
000090 e2 d7 52 bb e9 a5 ac 3c fa e0 06 3c 2b af a5 3d
       -0.0032172133 0.021075206 0.0082323495 0.08090051
0000a0 77 e8 54 bd d4 4a 84 bc da ed 1a 3d 21 22 bb 3d
       -0.05197951 -0.016148962 0.03782449 0.09137369
0000b0 f2 81 7b bd 6a 0a c8 bc 19 41 8c bc c0 67 c8 bc
       -0.061403222 -0.024419028 -0.017120885 -0.024463534
0000c0 25 1e 4a 3c a6 25 45 bd c7 32 6e bd b0 c4 4d bd
       0.012336289 -0.048131607 -0.058153894 -0.050236404
0000d0 3b eb 13 bc a6 04 d4 3c 28 34 17 bc 5e 25 39 bd
       -0.009028251 0.025881123 -0.009228744 -0.04520165
0000e0 9e 7e d5 3d 31 af aa bc 19 c8 81 3d 87 13 f3 3d
       0.10424541 -0.02083549 0.06336994 0.11868959
0000f0 82 c4 7a 3c 4b 89 cb bc 6d 70 f7 3c ee 7a 6a bc
       0.01530564 -0.02484574 0.030204976 -0.014311535
000100 ff c6 4f 3d 88 50 b7 3c d9 ef 35 3c 86 05 92 bc
       0.050726887 0.022377267 0.011104547 -0.0178249
000110 47 80 82 3d 1a 77 a6 bd 9c 59 2a 3c 24 9f e3 bd
       0.06372123 -0.081281856 0.010397341 -0.11114338
000120 5a 5e 3d 3d 74 11 06 bd 5e c0 29 bd c9 c0 f0 bb
       0.04623256 -0.03273149 -0.04144322 -0.0073472005
000130 ba b9 ea bd e9 f3 1d bd ae 37 1e bd 36 35 c3 3b
       -0.11461206 -0.03856269 -0.03862732 0.005957271
000140 f4 61 52 3d fd 8d bd bc d8 ef 75 3d ad 6f 12 bd
       0.051362947 -0.023138994 0.060043186 -0.035751034
000150 e4 7d f1 bd 13 ff 76 bd 02 11 12 bd 71 62 3d bc
       -0.1179159 -0.06030185 -0.03566075 -0.011559115
000160 c8 bb 8b bd 49 0c a8 bd 9b e3 3d 3d 08 cf 24 bd
       -0.06822926 -0.08205468 0.04635964 -0.040236503
000170 a4 3d c0 bc 25 98 d7 bc aa 36 31 bd ac 44 63 3d
       -0.023466893 -0.026317665 -0.043265022 0.055485412
000180 14 94 94 bd 7c 39 04 bb 73 0a 3d bd eb 8a d9 bc
       -0.07254806 -0.0020175865 -0.046152543 -0.026555499
000190 02 50 68 bd 74 aa 5b 3d ef 93 6c 3d 4d cb 05 bc
       -0.056716926 0.053629354 0.057758268 -0.008166146
0001a0 2e 65 65 3d 20 04 5e 3c cb 98 71 bd 42 44 e1 bc
       0.056004696 0.013550788 -0.058983605 -0.027498368
0001b0 27 bb 56 3d c1 b1 e6 3b a2 5f 6c bd 68 19 4d 3c
       0.052424576 0.007040233 -0.05770839 0.012518264
0001c0 73 16 b3 3d a5 15 94 3d fc e1 ba 3c 5a f1 c3 bb
       0.08744516 0.07230691 0.022812836 -0.005979699
0001d0 24 3b c7 3d d4 ce 18 3d 22 64 32 3d 31 7f 09 3d
       0.09728077 0.03730662 0.043552525 0.033568565
0001e0 19 49 b8 bc 74 40 3a 3d d5 61 bc bd 5c 73 23 3d
       -0.022495793 0.045471624 -0.091983475 0.039904937
0001f0 e9 05 e9 3b 3e 3e 86 3b 39 32 12 bd ac 9c 35 3d
       0.0071113002 0.0040967753 -0.035692427 0.044338867
000200 c9 d7 d8 3b bf 7c b4 bb 3a 89 2b 3d 03 82 9e 3d
       0.0066175205 -0.005508035 0.041878916 0.077396415
000210 40 ea 25 bb d9 ec 86 bd e0 c1 d0 3d 3e ea 71 3d
       -0.0025316626 -0.06588144 0.10193229 0.05906128
000220 42 b0 84 39 03 6e cc bd b4 f3 a4 3d 2a 3a 83 bc
       0.00025308324 -0.099819206 0.08054295 -0.016018946
000230 af 42 2c 3c 23 14 8a 3a f3 0f 86 3d 95 83 3c bd
       0.0105139455 0.0010534566 0.06546011 -0.046023924
000240 78 6e 36 bd e5 2d f4 3c 58 c8 92 3c 4e 2a 86 bd
       -0.044538945 0.02980704 0.017917797 -0.06551038
000250 f0 b1 5d 3c 01 a9 7c 3d cc 90 e0 bc cb c7 9a 3c
       0.013531193 0.061684612 -0.027412795 0.018894097
000260 c8 7f ac 3d 3d 31 c4 bc 52 6f 72 bd 33 b0 f7 39
       0.0842281 -0.02394926 -0.059188195 0.0004724279
000270 4d d2 98 bd fd a5 8a bc 45 c4 80 3c fd 16 01 bc
       -0.07461987 -0.016924853 0.015718589 -0.007879016
000280 42 e5 4c bd 8f fe 8d bd 52 94 23 3d 6f 9f 90 bc
       -0.050023325 -0.06933319 0.03993637 -0.017654149
000290 60 d3 3a bb c7 a8 4c bb 0e 02 87 bb c0 c2 2f bd
       -0.0028507337 -0.0031228529 -0.004120118 -0.042910337
0002a0 d5 77 0b 3d 60 46 1c bc 49 27 19 3c a7 74 de bc
       0.034049828 -0.009538263 0.009347745 -0.027155234
0002b0 a9 7e 88 3d e8 ff 72 3d 39 e3 8f 3d 7f c4 bd bb
       0.066647835 0.059326082 0.07025761 -0.0057912464
0002c0 aa 76 42 3d 6c 4e 38 3c 6a ad 2d 3d 51 7d c2 bc
       0.047476448 0.011249166 0.04240171 -0.023741396
0002d0 04 9d 10 bd 78 7d 10 3d 45 96 8c 3d 11 e3 03 3d
       -0.03530599 0.035275906 0.06864599 0.03219897
0002e0 2c d4 8b 3c c3 08 aa 3d f4 4d c2 bc c9 24 ba bd
       0.017068945 0.083024524 -0.023718812 -0.090890475
0002f0 65 e7 32 bc 72 7a 4e 3c e9 ff 2b bc 74 40 e4 bc
       -0.010919427 0.012602435 -0.010498025 -0.027862765
000300 fa bc a3 bd 00 62 64 3c c1 53 b2 bb 80 51 1f ba
       -0.07995029 0.013939381 -0.005442113 -0.0006077513
000310 bf 10 b9 bd c0 a7 a1 3d 10 ef b8 bd 36 bc b4 3c
       -0.09036397 0.07893324 -0.090299726 0.022062402
000320 e7 0f 86 3c c4 a6 ad 39 22 20 0e 3d e0 86 5e bb
       0.016365005 0.0003312138 0.034698613 -0.0033954903
000330 5a e1 1b bd be 38 8e 3c 97 a3 e3 3d cb 94 df ba
       -0.03805671 0.017361041 0.11115187 -0.0017057894
000340 a4 69 a7 bd 6c e6 17 bd 09 d4 27 bc e1 a5 be bc
       -0.08174446 -0.03708498 -0.010243424 -0.023272457
000350 49 62 56 bd a5 10 10 bd 3b e5 79 bc 60 b4 49 3d
       -0.052339826 -0.035172123 -0.015252407 0.049244285
000360 6e ba e4 3b 64 4e 25 3d 7e 27 bb 3d 96 aa f0 3b
       0.006980232 0.040357962 0.09138392 0.007344554
000370 5e 5d 3d bc e6 81 ab bd fa 4a e3 3d 22 3e d7 bd
       -0.011557905 -0.083743855 0.11098285 -0.10509898
000380 9f db ff bc ab da 7d bd fd c1 5d bb 90 e8 8b bc
       -0.031232653 -0.061976116 -0.003383755 -0.017078668
000390 26 f9 6d 3c 22 4d 68 bb b2 c7 a6 3d 17 aa fc 3c
       0.014524734 -0.0035446365 0.081435576 0.030842824
0003a0 32 25 15 3d 42 73 31 3d 0b 46 60 bd a7 8d 3a 3d
       0.036412425 0.04332281 -0.0547543 0.045545246
0003b0 db 35 17 3c 97 b7 1e 3d bf 4c db bc 13 4f eb bc
       0.009229149 0.038749304 -0.026769994 -0.028724229
0003c0 b1 60 8e bd 17 d3 54 3d 00 0b a0 3d 86 de 9c 3b
       -0.06952036 0.051959123 0.07814598 0.004787269
0003d0 9c b4 6d bc 96 ec 99 bd 7c 50 93 bd 49 6d b6 3d
       -0.014508393 -0.07515828 -0.071930856 0.08907563
0003e0 66 7f be 3c 3d 33 a3 bb 09 a4 c8 bc 9b 75 85 bd
       0.023254108 -0.0049804733 -0.02449228 -0.06516572
0003f0 6d 98 f9 bd 53 d8 96 bd 90 b9 e1 bc 9b ce e0 3a
       -0.12187276 -0.07365479 -0.027554303 0.0017151417

cnn.convolutions.4.bias f4 [32]
000000 42 3f 3d 3d b2 17 c3 3c af 81 0f 3d 79 88 b1 bc
       0.046202905 0.02381501 0.035035785 -0.02167152
000010 86 2f df bc 85 a7 11 bd 22 11 28 3d f6 f3 9d 3d
       -0.02724434 -0.03556015 0.041031964 0.077125475
000020 20 ea 5c 3d 80 b5 80 3d d3 c4 08 3e 8f 48 41 bd
       0.053934216 0.062846184 0.13356332 -0.047188338
000030 07 bd b6 bd fb 40 bd 3d 19 0f 77 3c 86 f9 6a 3d
       -0.08922773 0.0924091 0.015079283 0.05736687
000040 ea 2a 15 be 0c f4 a9 bd 49 9e be 3c f1 c1 99 bd
       -0.14567152 -0.08298501 0.023268836 -0.075076945
000050 25 5a a0 3d fe 08 cf 3d fd 60 8c bd 05 f6 e5 bd
       0.07829694 0.10109137 -0.068544365 -0.11228565
000060 3a 69 e6 3c f5 28 23 bd a3 9d 8d bc e4 24 bb 3c
       0.028126348 -0.03983398 -0.017287081 0.02284474
000070 f9 45 07 be d6 d7 63 3b 68 74 63 3c 06 a7 53 bd
       -0.13210286 0.00347661 0.013882734 -0.051672958

cnn.convolutions.6.weight f4 [32]
000000 75 a0 76 3f 3b 05 81 3f 8f 6f 70 3f f1 e9 7b 3f
       0.9633859 1.0079721 0.93920225 0.9840384
000010 8f de 7a 3f f8 8b 73 3f ca 4e 78 3f 93 af 77 3f
       0.9799585 0.9513545 0.9699522 0.9675228
000020 3a aa 69 3f eb 97 7b 3f 5d d1 75 3f 4c 41 67 3f
       0.9127537 0.98278683 0.9602259 0.9033401
000030 fc 9c 72 3f 1d 6e 73 3f 32 5b 78 3f e8 14 6c 3f
       0.9477079 0.95089895 0.97014153 0.922194
000040 e8 22 73 3f bf 48 6a 3f 0e 70 79 3f d0 d7 72 3f
       0.9497514 0.9151725 0.97436607 0.94860554
000050 18 77 6c 3f 34 98 72 3f c6 4b 7b 3f cf dc 7a 3f
       0.9236922 0.94763494 0.98162496 0.9799318
000060 cb a5 77 3f 79 5f 7e 3f 73 b8 7e 3f c3 88 6b 3f
       0.96737355 0.9936443 0.995002 0.92005557
000070 32 8d 78 3f 5e cf 79 3f c9 9b 74 3f fc 6e 70 3f
       0.97090447 0.9758204 0.9555021 0.9391935

cnn.convolutions.6.bias f4 [32]
000000 c1 f5 73 3c 90 9f 4b 3d 0d e0 81 3d a6 70 28 bd
       0.014890135 0.049712718 0.063415624 -0.041123055
000010 1a a9 a4 3d c8 03 a2 bc 41 09 c3 bc 49 a4 6a 3d
       0.08040066 -0.019777194 -0.023808124 0.05728558
000020 22 2f 10 bd 97 0f 43 3d 3b af 90 3d f9 a9 e7 3c
       -0.0352012 0.04762229 0.070646726 0.028279291
000030 1e 17 41 3c 13 79 23 3d af 1e ab 3c b6 a8 43 bd
       0.011785297 0.039910387 0.020888655 -0.047768317
000040 45 5f b8 bc 9e 3b 9e bc 41 6a 98 3c 51 0f 06 3d
       -0.022506366 -0.019315537 0.018605353 0.03272945
000050 50 08 cd 3c e9 28 93 3d ac 8a 3d 3d 00 4a 16 3d
       0.025028378 0.07185537 0.046274826 0.036691666
000060 98 f2 3b bd fd a3 f4 bc aa 39 3d 3d b9 4d 5a bd
       -0.045885652 -0.029863352 0.04619757 -0.05329678
000070 7e d1 23 bd 6a 9d 1f bd d8 1e f0 3c 4e a4 f2 3c
       -0.03999471 -0.03896848 0.029311582 0.029619362

cnn.convolutions.6.running_mean f4 [32]
000000 ad 1f 05 3e b9 75 15 3e d3 d5 f0 3d b6 8f b0 3d
       0.13000365 0.14595689 0.11759534 0.08621161
000010 60 69 25 3e f0 2b 08 3e b1 57 84 3e 57 f3 49 3e
       0.16153479 0.13298011 0.25848153 0.19721733
000020 26 76 2d 3e 8b 9b 26 3e a7 36 60 3e e1 da c3 3d
       0.16939601 0.16270272 0.21895848 0.09563232
000030 1e c5 45 3d f5 b0 36 3e 13 43 bd 3d 64 e0 6f 3e
       0.04828369 0.17840941 0.09241309 0.23425442
000040 53 d9 01 3e fc a9 59 3d da bd 36 3e 0c 8a d5 3d
       0.12680559 0.053140625 0.1784586 0.10426721
000050 ca 01 2b 3e b7 25 0f 3e 43 30 dc 3d 9d 43 c9 3d
       0.16699901 0.13979231 0.10751393 0.09827349
000060 3d 08 14 3e 58 2f 1e 3e c0 43 e1 3d 27 18 9d 3e
       0.14456268 0.15447748 0.109992504 0.3068249
000070 da 01 41 3e bd 6b fd 3d 41 df 0b 3e ad f0 c7 3d
       0.18848363 0.12374065 0.13659383 0.09762702

cnn.convolutions.6.running_var f4 [32]
000000 49 ea 5b 3e 8c 41 a1 3e 4f 18 16 3e e1 ed 02 3e
       0.21476091 0.3149532 0.1465771 0.12786056
000010 f4 c1 e9 3e cb 7f c5 3d 8b 35 f4 3e e0 e2 37 3f
       0.45655787 0.09643515 0.476971 0.7183056
000020 20 79 57 3e a1 e5 aa 3d 2e 89 97 3d c0 7c 2e 3d
       0.210423 0.083445795 0.07399212 0.04259944
000030 68 e5 d6 3d 6c 7e 8e 3e 80 89 9a 3d 60 67 0d 3d
       0.104929745 0.27830827 0.07545757 0.034522414
000040 54 67 89 3e 8f be cc 3d a8 4e d3 3d ab 07 73 3d
       0.26836646 0.09997284 0.10317737 0.059333485
000050 57 ac 45 3e e5 29 4b 3e 6c 48 01 3f f8 52 eb 3e
       0.19304024 0.198402 0.5050113 0.45961738
000060 1e ff c1 3d 3b fe a0 3e 3a 61 6d 3e 7f 03 52 3e
       0.09472488 0.31443962 0.2318162 0.20509146
000070 eb d4 27 3f cf 3e 77 3d ac c5 07 3f 02 8d 08 3d
       0.6555926 0.060362633 0.53036 0.0333376

cnn.convolutions.8.weight f4 [64, 32, 3, 3]
000000 bf a9 8e 3c b1 56 6b bd 2f ad 13 bc aa d2 5f bc
       0.017414926 -0.057455722 -0.009013458 -0.013661066
000010 07 dd da ba 63 f3 5f bc 86 77 45 3d df 86 f7 3c
       -0.0016697951 -0.013668868 0.04820969 0.030215679
000020 76 cc 90 3b 85 96 13 3d ad 06 2f 3b 12 97 06 bd
       0.004418905 0.03603222 0.002670686 -0.032858916
000030 2c 98 ed 3a 57 70 7e bb 4f 40 43 bd d1 c8 a1 3c
       0.0018127016 -0.0038824284 -0.04766875 0.019749077
000040 b9 5d 51 3d fe 38 a8 3d 16 ba 81 3d 1a 20 23 3c
       0.05111477 0.082139954 0.06334321 0.009956384
000050 65 db b8 ba e9 f9 a7 bd 94 4a 47 bc 05 72 54 bd
       -0.0014103471 -0.082019635 -0.012163777 -0.05186655
000060 08 0f 5e 3c 3f 0e 1c 3d 50 46 be bc 81 84 c7 bc
       0.013553388 0.038099524 -0.023226887 -0.024355175
000070 2c da 74 3b 97 4a 21 3d 05 44 af bc 44 7a 9b 3b
       0.0037361486 0.039377775 -0.021394739 0.0047448
000080 8a 54 8d bd be 96 72 3d 32 4b 86 3d 92 9c ff 3c
       -0.0690089 0.05922579 0.06557311 0.031202588
000090 7f 65 34 bd 27 58 27 3b 82 24 e9 3c e4 4e 45 bd
       -0.044042107 0.002553472 0.028459791 -0.04817094
0000a0 19 fa d6 bc 24 e9 d3 bc 0c 88 bc bc 94 e2 1f bd
       -0.026242303 -0.025868006 -0.023014091 -0.03903444
0000b0 01 9f f3 3c d6 27 62 3d fd 6e c6 bc b2 8d 4b bd
       0.029738905 0.05521377 -0.024222845 -0.049695678
0000c0 95 13 87 bc ea 9f 86 3b 6d 97 da 3c 0c a9 fd 3c
       -0.01648883 0.0041084187 0.026683534 0.030964397
0000d0 eb 4f f4 3c dd d0 fd bb 78 7c 50 bd 7d 04 60 bc
       0.029823264 -0.0077458457 -0.050899953 -0.013672945
0000e0 de 98 9c bd d2 b3 df bc f6 74 9c 3c 47 4a c3 bd
       -0.076463446 -0.027307425 0.01909874 -0.09535652
0000f0 aa 14 5c 3c cb 8e 9b 3b ad ac a2 3c 79 86 11 bd
       0.013432661 0.004747247 0.019857729 -0.035528634
000100 ce bd 69 bd e0 a6 73 bd b8 fa a6 3c f0 5e 91 bd
       -0.057065777 -0.059485316 0.020383224 -0.07098186
000110 a7 e1 66 3d 5c dd 74 bb 59 f9 29 bc f2 5d de 3c
       0.056367543 -0.0037363386 -0.0103743905 0.027144406
000120 47 e8 05 bb 24 2c 17 bd 0a 0a 6b bd 1a f7 8b bc
       -0.0020432638 -0.03690733 -0.05738262 -0.0170856
000130 e1 51 40 ba d2 b8 fd bc 7c 10 e8 3b fb 73 57 bd
       -0.00073364197 -0.030971918 0.007082043 -0.052600842
000140 7e 9e 18 3d ec 05 a4 3c 33 ad 2c 3d 72 74 af bd
       0.037260525 0.020022355 0.042157363 -0.08567132
000150 fc 45 47 3b 31 25 fc bd 03 84 2c bd 80 61 26 3c
       0.0030406704 -0.12311781 -0.042118084 0.010155082
000160 95 7e 31 3d 96 84 63 3c a2 57 16 3d 18 a1 59 3d
       0.04333361 0.013886591 0.036704667 0.053132147
000170 43 c1 3c 3d b9 e1 1b 3d 4f f9 3a 3c 71 17 64 3d
       0.046082746 0.038057063 0.011411979 0.055686418
000180 ef 0e 8c bb 1a 18 6f bd f7 e1 25 bd b6 e7 b1 3b
       -0.004274241 -0.058372594 -0.0404987 0.0054292334
000190 0f a5 de bc 87 18 06 bd de 34 77 bd 11 22 80 bc
       -0.027178315 -0.032738235 -0.060353152 -0.015641244
0001a0 c4 24 8a bd ac 71 92 bd 19 aa 3c bd 7f 00 d1 bc
       -0.06745294 -0.071505874 -0.046060655 -0.025512932
0001b0 fe 0b 2f bc f9 c3 ea bc 78 d5 b2 bb 60 35 59 bd
       -0.0106840115 -0.0286579 -0.0054575764 -0.053029418
0001c0 ec d0 09 bd fc 3b fd bb c8 bc 66 bd 53 ca 91 3d
       -0.03364651 -0.007728098 -0.05633238 0.071186684
0001d0 07 63 c9 3c ce e0 1b 3c 1b 73 b6 3b f0 92 36 bc
       0.024583353 0.009514047 0.005567921 -0.011143431
0001e0 f7 d5 37 bd fe 83 89 bd 43 12 3c bd dd 5b 9e bd
       -0.044881787 -0.06714629 -0.045915853 -0.07732365
0001f0 b0 42 24 3d ce 8a 8a bd 1c cd 38 3b 4c 28 ca bc
       0.04010266 -0.06764756 0.0028198427 -0.024677418
000200 4f 06 8c 3c f4 17 8f bc 13 b1 60 3c 35 94 87 bd
       0.017092852 -0.017467476 0.013714093 -0.06620065
000210 d9 be 46 3c a8 ec 96 bb 2a 02 1e 3c 41 af 0d bd
       0.012130463 -0.0046058483 0.009644071 -0.034590963
000220 77 73 23 bd aa 63 4e bd cb 43 fe 3c 67 92 4a 3c
       -0.039905038 -0.050388016 0.031038186 0.012364007
000230 f4 e7 b7 b9 2a d9 5f bb 00 5a 0a bc 9c 25 d8 bc
       -0.00035077299 -0.003415654 -0.008444309 -0.026385121
000240 35 f2 1d 3d 23 61 2e 3d 55 b5 f0 bc 92 5a 8e bd
       0.038561065 0.042573106 -0.02938334 -0.06950869
000250 39 4b ed 3c c3 8c 85 bc d4 ea 0b 3d 05 24 f8 bc
       0.028966533 -0.016302472 0.034159496 -0.030290613
000260 08 bc 82 3c 44 0f 38 3d 58 43 0f bd a3 1f 5c bc
       0.0159588 0.044936433 -0.034976333 -0.013435277
000270 a4 f3 df 3c 6d a6 3b 3d f0 70 83 bc 7d 99 db bb
       0.027337857 0.045813013 -0.016045064 -0.006701647
000280 52 07 1d 3c 58 38 87 3c ae e6 17 bd ac 0f 23 3d
       0.009584265 0.016506359 -0.037085228 0.039809868
000290 a4 f2 c3 3a ea 0f 42 bd 30 5d 9c bd ca 47 e4 bb
       0.0014949632 -0.047378458 -0.076349616 -0.0069665657
0002a0 48 7a 32 3d 03 fd 02 3d 0f 55 eb bc 33 12 0d 3d
       0.043573648 0.031979572 -0.028727083 0.034441184
0002b0 b5 5b d3 bc e8 ae f8 bc a9 dd a0 3b 7e 4b 20 3d
       -0.025800565 -0.03035684 0.0049092364 0.039134495
0002c0 10 18 4d bd 31 ab 8c 3d e4 8a 19 bb 07 8e 1d 3d
       -0.050071776 0.0686859 -0.0023428733 0.038465526
0002d0 a3 2d 39 bd 2c fe 09 3c fa 51 b5 3c 53 50 43 bb
       -0.04520954 0.008422416 0.022133816 -0.0029802516
0002e0 0c 16 b8 3c a9 8e 95 bd 36 a3 82 bd fd ce 53 bd
       0.02247145 -0.07302601 -0.06378786 -0.05171107
0002f0 5d 68 f6 3c 24 bd 0b bc a4 65 db bc d9 22 05 3b
       0.030079061 -0.008528981 -0.026781864 0.002031496
000300 f3 f9 8a bb d7 27 e7 3c 00 e6 a4 bd d2 a7 31 3d
       -0.004241222 0.02821724 -0.080516815 0.043372937
000310 bb 2d 56 3d df e6 35 bd 0b 67 85 3c c1 56 45 3d
       0.052289706 -0.04440963 0.016284486 0.048178438
000320 75 3e b1 bc af 4c 80 3d 59 01 01 3d c3 0b fc bb
       -0.021636227 0.06264626 0.031495426 -0.007691832
000330 a7 60 9d 3c eb d1 e2 bc 49 c0 60 3d 3c d8 0f bd
       0.019211126 -0.027687987 0.054870877 -0.035118327
000340 4a 63 99 bc 62 49 02 bc 3b 87 3c bd 83 25 44 3b
       -0.018724103 -0.007952066 -0.046027403 0.0029929585
000350 79 0f 1e bd e0 94 0e 3d c1 dc cf 3c 42 45 57 bc
       -0.038588975 0.034809947 0.025373818 -0.013139071
000360 e1 cf 7a bc 13 1b 11 bc d5 4c 30 3d 3e cb da bc
       -0.015308351 -0.008856553 0.043042023 -0.026708242
000370 6e d6 d7 bc ad 4f 8c bd a1 b3 92 3c b8 98 27 3d
       -0.026347365 -0.068511344 0.01790792 0.04091713
000380 e0 c0 40 3c 2e 81 c6 3b 12 9a b7 3b 3a 3e 67 3d
       0.011764735 0.00605788 0.0056030834 0.05645583
000390 b1 20 1e 3d aa fb 81 bd 7e c7 da bc 72 b9 a6 bb
       0.038605396 -0.06346829 -0.026706453 -0.005088025
0003a0 cd 07 4d 3d af 55 5d 3c 9a 78 a3 3d 37 6a 16 bc
       0.050056268 0.013509198 0.07981987 -0.009180597
0003b0 4c 67 42 bd 39 91 3e bd 62 ce 7a bc 6f 3e 97 3c
       -0.047461793 -0.046525214 -0.015307995 0.018462388
0003c0 f8 c4 6c bc 69 0b b1 3d 89 cf 39 3d 43 f9 92 3d
       -0.014451258 0.086447544 0.045363937 0.07176449
0003d0 95 13 1a bd c9 c5 4f bb 0b 5a 9f bc 49 dc 91 3c
       -0.03761633 -0.0031703582 -0.019452116 0.017805235
0003e0 90 dc 26 3d c4 09 06 3d de 86 2f 3d 5a 6b 04 3d
       0.04073769 0.032724157 0.04285323 0.03232894
0003f0 37 82 22 3d 87 19 2e bd 9e 1b a4 3c 7a 63 ad bc
       0.039674964 -0.042504814 0.0200327 -0.021165598

cnn.convolutions.8.bias f4 [64]
000000 d0 11 6c bd 61 16 34 3d c4 15 3b 3e a9 ac 72 bc
       -0.057634175 0.043966655 0.18270022 -0.014811673
000010 9e 44 32 bc ad a2 c5 3c c3 8f 9d bc d0 99 23 bd
       -0.010880617 0.024125421 -0.01923359 -0.03994161
000020 f7 d4 31 3d 88 64 16 bd 3e f9 39 bd d7 29 e9 bc
       0.04341599 -0.036716968 -0.04540371 -0.028462334
000030 b1 e8 80 bd 8f 73 2c bd 8d fe 31 3d 13 7f 17 3d
       -0.06294382 -0.042102393 0.04345565 0.03698642
000040 bd b2 66 3c b7 c5 81 bd a8 0e 0d 3c b8 84 40 3d
       0.0140807 -0.06336539 0.008609451 0.04700157
000050 a4 d0 51 3d 93 a8 d3 bb 62 07 85 3c 8d 36 ab bc
       0.051224366 -0.0064593046 0.016238872 -0.020900035
000060 d7 b4 c2 3c ec 85 aa bc 9a b3 a9 3d f2 4d 89 bc
       0.023767872 -0.020815812 0.082862094 -0.0167608
000070 9b 52 af 3d 55 ce e6 bc a5 07 79 bc ed cf 12 3d
       0.085606776 -0.028174559 -0.0151995765 0.035842825
000080 5b 7d 7e bd 41 3c 44 bd 29 16 aa bc 7b 3e 23 3d
       -0.062131267 -0.047909025 -0.02076252 0.039854508
000090 b4 eb e1 3c 6c c0 23 bd 09 f6 6e 3c cc 8a 28 3d
       0.027578212 -0.03997843 0.014585027 0.041147992
0000a0 75 e8 01 bc 52 ef 1c 3a d1 5b 19 bd 3d d0 8c 3c
       -0.007928957 0.0005986589 -0.03744108 0.01718914
0000b0 4f 6e 29 bc 2c dc b3 bc 32 fa 42 bd 61 dd dd 3b
       -0.010341241 -0.021955572 -0.047601886 0.006770775
0000c0 f7 76 6e 3d c8 87 78 3c f6 c7 8c 3d e2 cb 02 bc
       0.058218922 0.0151690915 0.06874077 -0.00798318
0000d0 a0 37 58 3d c0 65 bd 3c cb e9 19 3d 64 6e 57 bd
       0.052787423 0.023119807 0.037576478 -0.05259551
0000e0 18 37 02 bd 3b 3d c8 bc 68 8a 40 bd 11 95 25 bd
       -0.031790823 -0.02444326 -0.047006994 -0.040425364
0000f0 21 5d da bc 11 be 5c 3d 4b 93 72 3c 5e 70 d3 3d
       -0.026655735 0.0538922 0.014805625 0.10324167

cnn.convolutions.10.weight f4 [64]
000000 b0 81 64 3f d6 26 61 3f 73 71 70 3f 3c c8 66 3f
       0.8926039 0.87949884 0.9392311 0.90149283
000010 05 9b 64 3f 7f 60 6b 3f 39 c7 65 3f fb a0 65 3f
       0.8929904 0.91944116 0.89757115 0.8969876
000020 34 ad 7b 3f 37 37 6a 3f f7 0e 64 3f fe 32 6c 3f
       0.9831116 0.914905 0.89085335 0.9226531
000030 8f 43 73 3f b9 bf 64 3f 23 0c 5f 3f 48 43 6d 3f
       0.9502496 0.89355046 0.87127894 0.9268079
000040 6c ff 6c 3f 1b 1a 6e 3f 60 c3 76 3f de 1a 5a 3f
       0.9257724 0.93008584 0.9639187 0.85197246
000050 c9 90 81 3f 85 e7 75 3f dc b2 81 3f 50 de 68 3f
       1.012231 0.96056396 1.0132709 0.9096422
000060 51 c2 71 3f 0f 92 6b 3f f6 9d 8c 3f bb df 64 3f
       0.9443713 0.9201974 1.0985706 0.89403886
000070 d2 27 6b 3f 01 26 62 3f 61 3f 70 3f 79 d4 63 3f
       0.91857636 0.8833924 0.9384671 0.8899608
000080 a7 55 72 3f 40 98 5f 3f 32 ab 6a 3f 85 30 72 3f
       0.94661945 0.8734169 0.91667473 0.94605285
000090 70 20 7e 3f 35 aa 60 3f 55 f7 6c 3f e7 6d 76 3f
       0.99268246 0.87759715 0.925649 0.9626145
0000a0 4a 50 5d 3f f8 b4 67 3f ea 1f 7a 3f df 46 66 3f
       0.86450636 0.9051051 0.97704947 0.8995189
0000b0 43 34 68 3f ba ec 72 3f 49 ad 66 3f 60 d1 64 3f
       0.90704745 0.94892466 0.9010816 0.8938198
0000c0 39 a4 5b 3f 77 56 64 3f a5 db 73 3f c3 75 62 3f
       0.8579746 0.89194435 0.95257026 0.8846094
0000d0 48 cb 6d 3f 74 d1 6a 3f ff f2 75 3f 3f d0 77 3f
       0.9288831 0.9172585 0.9607391 0.96802133
0000e0 af 9d 61 3f 83 5d 7b 3f 69 1f 5f 3f 13 e4 6a 3f
       0.8813123 0.9818956 0.87157303 0.91754264
0000f0 51 68 67 3f f8 72 74 3f b5 38 6b 3f b2 94 73 3f
       0.9039355 0.9548793 0.91883403 0.95148766

cnn.convolutions.10.bias f4 [64]
000000 e6 48 a2 bc e5 ea 20 3c 41 30 ad bb c6 8d 35 bc
       -0.019810151 0.009821628 -0.0052852933 -0.011081165
000010 29 e3 9e 3c bb 9b 3f 3b 85 b7 f4 39 29 f5 e6 bc
       0.019395428 0.002923711 0.0004667604 -0.028193073
000020 26 2f c9 bb ea 69 20 bd a2 bb cc bc 4c 0d b1 bc
       -0.0061396537 -0.039163508 -0.024991814 -0.021612786
000030 8b 79 b5 bc ac a6 58 bc 67 10 31 bd b1 7a bb bc
       -0.022152683 -0.013223331 -0.043228533 -0.022885652
000040 60 38 09 bd 2c 4f 97 bc 22 b1 07 bd 33 79 48 bc
       -0.03350103 -0.01847037 -0.03312791 -0.012235927
000050 14 88 f0 ba 4d 9a 10 bc f5 27 5f 3c 7e e3 e7 3a
       -0.0018351101 -0.008825851 0.013620366 0.0017691699
000060 47 a7 14 bd 69 34 0f bc 31 ca c8 3c bf 2c 0f 3c
       -0.03629234 -0.008740523 0.024510475 0.008738696
000070 bf e6 ce 3c b1 92 94 bb b8 dd c0 bc d9 29 02 bd
       0.025256513 -0.0045340885 -0.023543224 -0.03177819
000080 d4 4d 90 bc 5f a4 f3 bc cb a4 9a bb 4c 6d 1e bd
       -0.017615236 -0.029741464 -0.004719352 -0.038678452
000090 79 b4 8a bc a2 c7 02 bc 45 01 13 bd 77 a7 bc bc
       -0.01693176 -0.0079821665 -0.035889883 -0.023029072
0000a0 09 d9 32 bc 8a 88 c5 3c 79 2a e3 bc f6 49 af 3b
       -0.010916003 0.024112958 -0.027730213 0.005349393
0000b0 cf 81 24 3b 12 a5 13 bd 4d 90 a7 bb 38 6e 85 bc
       0.0025101786 -0.036046095 -0.0051136375 -0.016287908
0000c0 89 50 2f bc df a3 09 bd 61 d6 86 3b ec dc b7 bc
       -0.010700353 -0.033603545 0.0041149114 -0.022444211
0000d0 1b 8c 26 bd a2 b1 16 bd e1 be 04 3d 37 de 61 bc
       -0.04066096 -0.036790498 0.0324086 -0.01378589
0000e0 d9 63 01 3b ab 35 85 3c 50 7b 7b bd 79 d3 d2 b9
       0.0019743352 0.016260942 -0.061396897 -0.0004021188
0000f0 37 e3 bd ba e3 a0 01 bd 04 de 82 bc e1 46 b6 b9
       -0.0014487271 -0.031647574 -0.015975006 -0.00034766554

cnn.convolutions.10.running_mean f4 [64]
000000 f6 fb 9d 3d c3 e4 b6 3d c5 db a4 3e c3 09 00 3e
       0.07714073 0.089303516 0.3219892 0.12503724
000010 b2 44 e0 3d f4 2b 03 3e 64 fd c7 3d 35 bc eb 3d
       0.109506026 0.12809736 0.09765127 0.11510507
000020 1a df 34 3e 3f a0 87 3d 0f d4 08 3e fc f7 e6 3d
       0.17663231 0.066223614 0.13362144 0.11277768
000030 4e 19 b8 3d 2f a4 e0 3d 92 db 43 3e 0f f2 da 3d
       0.089892015 0.109688155 0.19126728 0.106907
000040 7d b6 bc 3d 30 ae b8 3d 92 e3 99 3d 77 27 4e 3e
       0.092144944 0.09017599 0.07514109 0.20132242
000050 6d 60 38 3e 1e e0 11 3e f7 c5 3a 3e 88 eb 2f 3e
       0.18005534 0.1424565 0.1823958 0.17179692
000060 56 cd 13 3e 7e bb d3 3d 3f 10 93 3e fe d2 c3 3d
       0.14433798 0.10338496 0.28723332 0.09561728
000070 3b bb 69 3e 5a 46 07 3e 6d 62 28 3e ed 15 26 3e
       0.22825329 0.1321043 0.16443796 0.16219302
000080 a2 c6 ae 3d 18 c3 26 3e 3b b9 35 3e 7e 86 c6 3d
       0.0853398 0.1628536 0.17746441 0.09693621
000090 32 c4 57 3e 9f 16 f9 3d 9f 62 c7 3d 19 4c ad 3d
       0.21070936 0.12162518 0.09735607 0.0846178
0000a0 ae 54 a0 3d c0 d9 07 3e eb 38 80 3d 19 04 25 3e
       0.07828651 0.13266659 0.06260856 0.16114844
0000b0 72 1b 91 3d 07 bb 83 3d c7 ff 59 3d 35 14 ed 3d
       0.07085313 0.06432157 0.053222444 0.1157612
0000c0 30 69 66 3e 13 5b 40 3e e5 1e 24 3e 07 9f 64 3e
       0.22501063 0.18784742 0.1602741 0.22326289
0000d0 60 56 5a 3e e5 68 f4 3d 8e e5 38 3e 55 07 04 3e
       0.21322012 0.119340695 0.18056318 0.12893422
0000e0 f4 3e 81 3d a2 02 e8 3d fe 55 20 3e b2 08 2d 3e
       0.063108355 0.11328627 0.15657803 0.16897848
0000f0 bf 86 83 3e 83 5c 46 3e c4 a3 c0 3d 68 af 10 3e
       0.2568874 0.19371228 0.09406236 0.14129412

cnn.convolutions.10.running_var f4 [64]
000000 bd ac e8 3d e3 7c 5c 3d f2 e1 be 3d 09 1a cf 3d
       0.11361072 0.05383004 0.093204394 0.10112388
000010 eb 8c 26 3e c0 77 40 3e ed 32 14 3d b8 eb 11 3e
       0.16264693 0.18795681 0.03618138 0.14250076
000020 9c ab cf 3d 47 23 79 3d 02 a5 a5 3e b3 2a 28 3e
       0.10140154 0.06082466 0.32352453 0.16422538
000030 25 04 c7 3d 4f 95 17 3e f4 70 1c 3e 58 a1 2f 3d
       0.097175874 0.1480305 0.15277463 0.04287848
000040 8c c2 b9 3d 3a b9 f9 3d 24 7a a2 3d cd c6 37 3e
       0.0907031 0.12193532 0.07933453 0.1794693
000050 4d cb 0d 3e 1e f9 0e 3e c0 32 c5 3d 05 dc c5 3e
       0.13847084 0.13962218 0.096288204 0.38644424
000060 7b 35 76 3d 5a 24 40 3e 1d ef dc 3d df 2b d6 3d
       0.060109597 0.18763867 0.10787795 0.104575865
000070 1a b7 4f 3e 9f 27 aa 3e 6d 3f 1d 3e 09 7f b7 3d
       0.20284691 0.33233353 0.15356226 0.08959777
000080 22 15 0f 3d 97 53 b4 3e 80 36 8e 3e d9 a8 04 3d
       0.034932263 0.35220024 0.27775955 0.03238759
000090 ce 62 41 3e 15 d0 18 3e 47 c0 a6 3d f6 4b b5 3c
       0.18885347 0.14923127 0.08142143 0.022130948
0000a0 b1 88 12 3d 17 29 1f 3e 5f fb 6f 3d 42 da 19 3e
       0.03577489 0.15543018 0.058589336 0.15024665
0000b0 63 22 73 3d 25 e1 d5 3d 32 d6 b0 3c 1f 6d d5 3d
       0.059358966 0.104433335 0.021586511 0.10421204
0000c0 b6 2a 97 3e dc 40 90 3e b9 0f d3 3d 9e 02 d7 3e
       0.29524773 0.28174484 0.10305733 0.41994184
0000d0 04 f2 dd 3d 4f f9 e8 3d 4d 4c 15 3e 27 da d8 3d
       0.108371764 0.11375677 0.14579888 0.10588484
0000e0 51 dc 92 3d 17 c3 30 3d 0a e2 bf 3d a5 e9 f1 3e
       0.07170928 0.043154802 0.093692854 0.4724857
0000f0 e9 69 8d 3e 21 27 ec 3d aa a6 89 3d 70 72 9b 3d
       0.27619866 0.11530901 0.06721242 0.075901866

fc.0.weight f4 [128, 1024]
000000 4c fb 9c 3a aa 54 b9 bc 4f 71 d9 3b 10 88 1c 3c
       0.0011976748 -0.022623379 0.006635822 0.009553924
000010 20 ad 4a bc 9e e0 08 bd 17 14 c5 bc 28 23 d5 3c
       -0.012370378 -0.033417337 -0.024057431 0.02601774
000020 f7 4b 1e bb 3d 88 f3 bc d0 fa 8c bc 74 4b 70 bd
       -0.0024154165 -0.02972805 -0.01720944 -0.058665708
000030 4f 0a be bd 07 e7 75 bd 1f 7c 51 bd 5a 6c d8 bb
       -0.0927931 -0.060034778 -0.05114376 -0.0066047134
000040 73 0f ff 3b f2 bb 23 bc b5 20 63 3c 1f 52 87 bc
       0.007783824 -0.00999354 0.013862778 -0.01651865
000050 c7 82 9b ba d8 ca 02 3d a0 2f 0b 3d 45 6e c9 3b
       -0.0011864536 0.031931728 0.033980966 0.0061471784
000060 b3 0c df 3b 2f 7f f3 39 2b 43 ac bc ff 69 c0 3b
       0.006806934 0.0004644333 -0.021028122 0.0058720107
000070 ed 55 87 3c cb 75 3e 3a 38 4d 81 3c ad 81 77 b8
       0.016520465 0.00072654773 0.015783891 -5.901016e-05
000080 6c 3b 30 bb 4f 81 4f 3c b0 43 a8 3c 8c 65 55 bd
       -0.0026890887 0.012665107 0.020540088 -0.052098796
000090 68 86 52 3d 43 90 86 bb 55 5c 48 bd 0c a7 8a bd
       0.05139771 -0.004106553 -0.04891618 -0.06770143
0000a0 4b 43 98 3b 5c 5d 88 bc c1 a7 ff bb 07 22 71 b9
       0.004646694 -0.01664608 -0.0078019802 -0.00022996227
0000b0 8b 67 64 bc 16 4d 00 3d eb 45 d0 3c 33 53 86 3c
       -0.013940702 0.031323515 0.025423964 0.016397094
0000c0 bb bd 53 3d 2a 37 aa 3b 19 8a 6a bc 5f 30 d8 3b
       0.051694613 0.0051945643 -0.014315152 0.006597563
0000d0 aa 08 ae 3c 9d f2 4c bc e1 d0 b5 3b e1 3d 00 3d
       0.021244366 -0.012509015 0.005548582 0.031309012
0000e0 73 ae dd bc 5a 04 33 3c 1a f7 a5 3c 43 20 15 bd
       -0.027060723 0.01092633 0.020259429 -0.03640772
0000f0 ce 38 86 bd 56 1c 30 3c 46 a1 88 3c 15 3c 3e 3d
       -0.065538034 0.010748943 0.016678464 0.046444017
000100 2d f2 07 bd ef 13 08 bd ba 62 f5 bc 66 df 6a bc
       -0.03318994 -0.033222135 -0.029954303 -0.014335489
000110 ce 85 9c bc dd b1 bb 3c b8 4a 4a 3b cc 83 be bb
       -0.019106772 0.02291196 0.003086729 -0.0058140513
000120 cd 28 83 bc 60 9f df bc 11 b7 b5 3c 7f 5f 32 3d
       -0.016010666 -0.027297676 0.02218202 0.043548103
000130 43 62 33 3c cf 48 94 3b 9a 7b 0d bc 45 a3 40 3c
       0.01094872 0.004525281 -0.008635426 0.0117576765
000140 dc cb a8 3c 8e 74 8d 3c 5e 99 00 bd 51 e6 8f 3b
       0.02060502 0.017267492 -0.031396262 0.0043914695
000150 06 0c 7b 3c e8 0b 07 bd 78 98 47 bd b0 89 de bc
       0.015322691 -0.03297034 -0.04872939 -0.027165264
000160 93 c2 e4 bc b4 cf b2 3c 72 a5 3a bc 85 21 cf bc
       -0.027924811 0.021827556 -0.011391984 -0.025284538
000170 57 d3 9f 3c d8 f6 ec bb 04 57 0d bc f3 61 ad bb
       0.019509954 -0.0072315745 -0.008626703 -0.0052912175
000180 a3 32 a1 bb ce 7d 5d 3a 99 bd b3 3c ec c1 eb 3c
       -0.0049193664 0.00084492273 0.021940993 0.028778993
000190 14 0b 10 3c 7d 4f 50 bb ae 40 84 3c 0c 8f f4 3c
       0.008791704 -0.003178566 0.016144123 0.029853366
0001a0 e2 c0 b0 3c 2d 26 04 ba c2 79 9e bc 8c 8f 42 bc
       0.021576349 -0.0005041089 -0.019345168 -0.011875045
0001b0 f7 c3 a9 3c c2 fd 61 bb d4 40 06 3d 3f 32 2e 38
       0.020723326 -0.0034483527 0.03277667 4.1531628e-05
0001c0 8f bf e9 3b 1c b9 1a 3b 76 2e 6e bc 14 fd 1f bd
       0.0071334313 0.002360887 -0.014537444 -0.039059713
0001d0 52 e7 17 bc 3c 54 09 3c 01 d9 a0 bb 7f fc 03 bd
       -0.00927146 0.008381899 -0.0049086814 -0.03222322
0001e0 a6 4e cb 3b ea 9f 97 bc a6 89 00 3b 38 eb d6 3c
       0.006204444 -0.01850887 0.0019613295 0.026235208
0001f0 cc 44 40 3b e8 bd 24 3d cd e7 c9 3a 90 6d aa 3b
       0.002933788 0.04022017 0.0015404165 0.005201049
000200 d1 78 b9 3c 31 14 29 bc f3 cd 3b bd 8c af 62 bd
       0.022640618 -0.010319755 -0.045850705 -0.055343196
000210 a5 6f 54 bc 1e db 80 3c ee 80 5f bc eb b0 fe 3c
       -0.012966071 0.015729483 -0.013641579 0.03109022
000220 72 e5 21 bc ce 59 a4 bc 0a 0d 7d bc c7 e4 07 3d
       -0.009881364 -0.020062353 -0.015445003 0.033177163
000230 92 5d 97 3c 5f 86 37 bd 24 e3 3a bd 52 94 3e bc
       0.018477235 -0.04480588 -0.045626774 -0.011632042
000240 f0 6b d7 bb fb c5 bd b7 4c 03 29 3d 6c 2b 0e bd
       -0.0065741464 -2.2622748e-05 0.04126291 -0.03470938
000250 14 7d 82 bc 9e 53 a6 bb 79 8e 73 bc 59 29 09 3c
       -0.015928783 -0.005075886 -0.014865511 0.008371674
000260 a1 e4 a1 bc fc 70 fc bb ae 59 71 3b 99 e5 a3 3b
       -0.01976234 -0.0077038985 0.0036827135 0.0050017354
000270 51 2a c8 3b b4 88 a7 3c 1f a4 b3 3c 76 7a 52 bc
       0.00610856 0.020450927 0.021928845 -0.01284658
000280 a6 e0 bf 3b 7a 07 b8 bc d6 07 d4 3c b5 12 95 3b
       0.0058556376 -0.022464503 0.025882643 0.004549349
000290 cf 32 3b bc 06 56 5b 3b 92 96 24 bb 21 37 80 bb
       -0.011425688 0.0033468022 -0.002511416 -0.003912822
0002a0 b5 ad fa 3b 89 d2 19 bd bb 8a 55 bd bf be 3a bd
       0.007650102 -0.037554298 -0.052134257 -0.045592066
0002b0 83 42 14 bd 62 ba 2e bd 79 99 38 3b 09 06 fe 3c
       -0.036196243 -0.042658217 0.0028167649 0.031008737
0002c0 8d 7e df bb 11 33 c0 3a 8d a4 b3 3c fa 3e 74 bb
       -0.006820506 0.0014663656 0.02192905 -0.0037268982
0002d0 b4 5b c4 bc f8 6a e3 bc 7b 96 68 bc a8 6e 8a 37
       -0.023969509 -0.027760968 -0.014196034 1.650241e-05
0002e0 a2 78 35 3d cb 0c 3d 3b b9 20 a2 3b ea 02 c9 3b
       0.044304498 0.0028846737 0.0049477485 0.0061343806
0002f0 2f ca ff 3a 07 9c 61 bb 66 a5 a7 bc 0f 5e 9b bc
       0.0019515211 -0.0034425275 -0.02046461 -0.01896575
000300 b8 d3 dd bb 36 45 a6 3c ec 1c a2 3a 3b 0b eb 3b
       -0.0067696236 0.020296674 0.0012368239 0.0071729696
000310 9b 72 4b bc 3d 40 dd bc 15 c0 ad bb 7c 51 06 ba
       -0.012417461 -0.02700817 -0.005302439 -0.00051238365
000320 7e b9 3c bd 86 fc 92 bd 13 cf 89 bd 07 14 c1 bd
       -0.046075337 -0.07177071 -0.067289494 -0.09427648
000330 32 17 2d bd 67 e8 c7 bd e8 4c ad bd 08 d1 0f bd
       -0.04225845 -0.09761124 -0.08461934 -0.035111457
000340 80 95 88 bb 70 68 ea 3c dc f5 76 3c e8 20 25 3d
       -0.0041682124 0.028614253 0.015073266 0.040314585
000350 fd 73 a6 bc d9 50 a8 bc fd b1 e7 bb ed 66 b8 3b
       -0.02031898 -0.020546364 -0.0070707784 0.005627504
000360 a7 06 25 3c 4e 0f 5b bc 65 39 16 3c 6e 1a ae bc
       0.010072387 -0.013370348 0.009168957 -0.021252837
000370 dd 05 8d 3b b6 da 8a bc 84 0f 8b bc db 0f c5 bc
       0.0043036775 -0.016949993 -0.016975172 -0.024055412
000380 51 3a ce bc b1 e2 2e bb eb 6e ee bc f9 e1 51 3c
       -0.025174292 -0.0026685412 -0.029105624 0.012810224
000390 1f df df 3b 12 a8 cb 3c e8 12 c6 bc 73 17 03 bd
       0.006832018 0.024860416 -0.024178937 -0.032004785
0003a0 93 44 ce 3c 80 37 94 3c f9 bc aa 3b 66 7c 1f 3c
       0.025179183 0.01809287 0.0052105156 0.009734249
0003b0 4d 06 e6 bc 7b 53 22 3c d8 ea b3 3c 6a 4a c0 3c
       -0.028079176 0.009907599 0.021962568 0.023472983
0003c0 f0 03 a2 bb 21 d1 84 bd 77 bb 9c bd 23 93 64 bd
       -0.004944317 -0.06485201 -0.076529436 -0.055804383
0003d0 e1 39 90 bc d2 58 aa 3c 5f 38 c0 bc 8d 2c 14 bd
       -0.017605724 0.020794306 -0.02346438 -0.0361753
0003e0 2f f2 54 3c 59 96 d1 3c 2a 2e 8f bc 3e 03 07 bc
       0.012997194 0.025584387 -0.017478067 -0.008240519
0003f0 88 6e f2 3c aa 5a a5 3c b2 6a a9 bb ba 6f 40 bb
       0.029593721 0.020184834 -0.00517019 -0.002936347

fc.0.bias f4 [128]
000000 3c f8 01 ba 2d 69 85 3c a0 82 0d bd 65 98 d6 3c
       -0.0004957949 0.016285503 -0.0345484 0.026195714
000010 6a d9 9a 3c 95 9d 04 3c fa 5e a4 3c 67 52 9f 3c
       0.0189025 0.008094211 0.02006482 0.019448472
000020 67 ec c7 bb 0e b2 05 3c 9c 46 79 3b 5c 03 3b bc
       -0.0061011794 0.008160127 0.0038036471 -0.011414375
000030 d0 c6 d0 3c 96 30 4b 3c 20 5c 2e bb 84 d6 c7 3b
       0.025485426 0.0124017205 -0.0026605204 0.0060985703
000040 16 71 02 3d 1e 17 a6 3b 5e 03 4c 3c 1f a6 6c 3d
       0.03184613 0.0050686738 0.012451975 0.057775613
000050 47 8a 76 3c ea 5f 34 bb e2 4d 9e 3c 1c 04 5d 3c
       0.015047616 -0.002752299 0.019324247 0.013489749
000060 1c 76 82 bc 58 fa d1 bb 1a ce 9b 3c 13 b4 1c bc
       -0.01592546 -0.006408017 0.019019175 -0.009564417
000070 bf 4e 2b 3c e5 dc ac bb d4 61 e9 3b b8 58 1d 3d
       0.010455786 -0.005275356 0.0071222577 0.038414687
000080 bc 9d 3a ba bb 76 0c bc 33 78 8f bc 1f 71 dd 3c
       -0.0007118841 -0.008573229 -0.01751337 0.02703148
000090 93 40 2a bd c5 89 71 bc ce 0e 33 bc 0c e8 86 3c
       -0.04156549 -0.0147423195 -0.010928823 0.01646807
0000a0 20 43 b5 3c fc 4e 7a bc 2a 02 db 3c 40 b0 ed bc
       0.022126734 -0.01527762 0.02673443 -0.029014707
0000b0 3e f6 23 3c e6 0d 26 3c aa b5 69 3b 46 48 84 3b
       0.010007439 0.01013515 0.0035661259 0.004036936
0000c0 0b e3 b5 3b f6 f0 8a bc ab fe 36 3d 14 bb 5c 3c
       0.0055507473 -0.016960602 0.044676464 0.013472337
0000d0 3c 56 ea ba 52 f6 e7 3c 6a 75 a9 3b 8c 37 ad bc
       -0.0017878483 0.028315697 0.0051714676 -0.02114465
0000e0 84 dc d4 3c 23 11 54 bd a2 ca 97 3b e6 55 96 3b
       0.025984056 -0.051774155 0.00463231 0.0045878766
0000f0 d9 1f 29 3d fa 68 46 3c e9 4c 90 3c ed 84 db ba
       0.041290138 0.012109989 0.017614799 -0.0016747989
000100 d2 4c a9 bb 73 d5 a4 bc 5e ee 85 3c db 8e d9 3c
       -0.0051666284 -0.020121312 0.016349014 0.026557377
000110 ae ce a3 bb 81 31 94 bc d4 94 85 3b 67 1e 1b 3c
       -0.0049990034 -0.018090012 0.0040765796 0.009467698
000120 5f ed 95 3b 1f 07 56 3a dd 99 62 bb 5b ff 7a bb
       0.004575416 0.0008164513 -0.0034576573 -0.0038299176
000130 1c ac 0a 3d f0 3f 0e bb 39 7f d6 3b cb a7 b2 bc
       0.033855543 -0.002170559 0.006545928 -0.021808526
000140 f3 f6 27 bc 31 d3 69 bc 53 41 e5 3c e1 7c f3 bc
       -0.010251748 -0.014271543 0.02798525 -0.029722633
000150 28 4f e6 3b 53 96 2b 3a 26 2b 85 3c 73 b2 17 bb
       0.007028479 0.00065455324 0.016255926 -0.0023147136
000160 98 6e c5 3b fe bc 0f bc 6c 80 7c 3b d1 a9 49 3c
       0.0060251467 -0.008773087 0.0038528694 0.012308554
000170 47 53 3c 3d 55 09 06 3c 99 24 9e 3c d4 f8 23 3b
       0.045977857 0.008180936 0.01930456 0.002502014
000180 4b c0 8c 3c 5d b5 78 3c c2 02 94 3c c7 a9 e3 3c
       0.017181536 0.015179959 0.018067721 0.027790917
000190 09 0e e7 3c ae aa 93 3b c1 41 f7 bb 04 24 8d 3a
       0.028204935 0.0045064306 -0.0075456803 0.001076818
0001a0 3f 1a 14 bc 77 f0 87 3c 8e a4 a7 3c 51 1f 0b 3c
       -0.009039461 0.016594155 0.020464208 0.008491353
0001b0 a2 be df bb 0e 9b 15 3d 03 59 24 3b e6 67 16 3a
       -0.006828145 0.036524825 0.002507747 0.0005737528
0001c0 ed bf 8e 3c b3 40 d3 bb 11 6c 19 bc a5 45 86 ba
       0.017425502 -0.0064469217 -0.009364144 -0.0010244144
0001d0 62 c8 c9 bc e2 f9 25 3c fa 2c a5 3b 3f fa a6 bb
       -0.024631683 0.0101303775 0.005040762 -0.0050957496
0001e0 90 d1 05 bc 52 6d e0 3c 0b 8f 18 bd e8 7f 74 3b
       -0.008167639 0.027395878 -0.03724579 0.0037307683
0001f0 0e e7 4f 3d 40 f3 52 3c fa f8 82 ba 63 16 e3 bc
       0.05075746 0.012875378 -0.0009992414 -0.027720636
