trained_models/regression_linear_protons_hillas.pth (torch, 68782 bytes, 2 tensors)

linear.weight f4 [8, 2094]
00000000: cc17 89bc 6cd1 81bc f1e1 46bb 8242 213c
00000010: 56e1 033c 12d8 003b 1f0a 963c c028 1438
00000020: f55a febb a470 ba3b 49e2 1dbc b21f 3abc
00000030: 7d53 823c 329c 46bb a317 1e3a 6129 fdba
00000040: 7018 cd3b ad5c 86bc 9646 17bc 7f70 0d3b
00000050: ca2f 9f3c 5248 cc3b e316 d53b d418 d73a
00000060: 2035 753c 7ef2 423c 5ca6 53bb 3500 ecbb
00000070: 8530 273c 8283 a83b 3579 15bc 22c7 2cbb
00000080: 88db 923b bdf6 9e3c cc60 acba d49f fcbb
00000090: 7adb 003c 8327 2ebc ed32 20bb ab2a 09bc
000000a0: 41d8 eabb c5b5 9b3c a696 dcbb 7b03 a1bc
000000b0: 02f7 083c 68e8 41bc 0774 44bc e3a9 9cba
000000c0: 010c 753c 0ea7 1cba b13d e03b a541 f9ba
000000d0: f1d4 e83b 218e 73bb 4e92 80bc 24f1 043c
000000e0: 4958 cf3b 528d b63c c815 4bbb e724 4f3c
000000f0: 2362 47bc ee9b 2dbc e9ca a43c dd04 8cbc
00000100: edb8 b33c b559 17bb bbfa 993c 3431 b43b
00000110: 48ae d839 989d 643b 72af 9c3b de4b 043c
00000120: d5b3 7c3c 5a60 523b 9863 343b ea80 91ba
00000130: a790 943b 609f 9dbc 3d9b 8fbc d526 4fbc
00000140: 981a 2a3c a56a c339 54bb 053c a5f0 3cbc
00000150: 5963 803b 8a03 933c 0f84 3e3c 50d2 19bc
00000160: 91c4 b538 a35a 6a3b 259f 03bc b2a9 243c
00000170: b7d8 e43b df2f 63bc beb9 b1bc 6565 e3ba
00000180: 3714 8d3c 4ff8 55bc 17eb 2ebb 2a0f b6bc
00000190: 675a ce3b 144d 98bb e2b4 49bc 440f 30bc
000001a0: 47b6 733c 14f1 8d3b 4093 f5b9 4b81 b0bc
000001b0: 1499 9d3c ecad 38bb c3e1 00ba b9aa 42bc
000001c0: bc3d 883c 4e83 cdbb ebac dc3b fffd 88bc
000001d0: 754a 8c3c 676b 19bc f869 98bc 78f7 c5bc
000001e0: ca5e 693c e269 afbb 0cb4 263b 3504 9a3b
000001f0: 2a03 4cbc 9783 6ebb d8ec 783c 7c7d 163c
00000200: 9cb9 75bc 25b8 013c 36c3 703c 5ca4 ad3b
00000210: cf1c 22bc e4ff abbc 1def 4c3c 30a0 f7bb
00000220: 91e9 21bc 1784 b03b 87f1 9839 11e0 3dbc
00000230: fa3e d23b 9ef2 03bc 9f24 113c 23d4 86bc
00000240: 20d7 5bbc c457 57ba 2eca 2fbc e7ef 0ebc
00000250: 26df 0abb 4fd8 2c3c 61ce 89bb 9a13 683c
00000260: eaf6 cabb 1cd2 0ebb 4277 e73b 79ff 21bc
00000270: aa47 b83b eb1c 1b3c 7800 153c b504 103b
00000280: f79e 03ba ad8b 4cbc b338 5c3c bab9 9f3b
00000290: 3146 a13a 537c 28bc 50e9 0b3c e316 95bb
000002a0: cc63 d53b 8052 e1bc d73e 823c 4a92 963b
000002b0: 8f64 383b 8c51 80bc 11cc 653c 09ca 383c
000002c0: cf5b 683b d3b9 c2bb 7100 d0bb 357e 993b
000002d0: 49fd e9ba 961c cebb 60fd 393c c64c 143c
000002e0: 6825 24b9 4147 d73a 0dc9 ad3c fe4a 77bc
000002f0: d7a7 c63b 780a da3b d4fb 25bc 5760 cd3a
00000300: f578 753c 62b2 2ebc 9b6b 51bc 2498 3e3c
00000310: 8e71 84bb 77f9 b63c c5b3 16bc bdf0 343c
00000320: 0a1e d4bb 7c2b 393c e2d8 83bb 4984 673c
00000330: eeec 4a3c 1cce d0bc 0099 56bc 1e47 8c3c
00000340: 0885 28bc d606 1c3b 85ba 95bb cd88 3abc
00000350: 45b5 143c 0d38 39bc 2785 52b9 c97d 20bc
00000360: 64c1 513c 5ad9 613a d0e9 823b 2797 afbc
00000370: ac9e 35bc 863d 7dbc 17f0 273c 366a 8e3b
00000380: e1c8 9fbb c05c 0a3c 734b b7bb 22bd 6aba
00000390: 3a82 1d3c d407 8d3b a104 163c 99d8 28bb
000003a0: 5a3b 843c 5181 9cbc b6f1 8fbb b650 883c
000003b0: 1088 0ebc 580d 853c 0a4c 00bb 82a9 903c
000003c0: 4197 0f3c 8e81 c0bc 10ca eebb cd73 8e3c
000003d0: 3f1f bf3b 469e 29bc 1979 973c 5957 94bc
000003e0: d5df c83c 4cf4 48bc bee8 4d3b 4b95 b03b
000003f0: 68e7 20bc 0169 9c3b c1b0 74ba e892 92bc
-0.01673498 -0.01584693 -0.0030347074 0.009842517 0.00804933 0.0019660038 0.018315373 3.53239e-05
-0.0077623078 0.0056896973 -0.00963647 -0.011360096 0.015908951 -0.0030305502 0.0006030744 -0.00193147
0.0062590167 -0.016401613 -0.009233138 0.0021581945 0.019431967 0.006234207 0.0065029725 0.0016410598
0.014966279 0.011898635 -0.0032295203 -0.007202173 0.010204439 0.00514263 -0.009123136 -0.002636381
0.0044817366 0.019404763 -0.0013151406 -0.0077094827 0.007864827 -0.0106295375 -0.0024444417 -0.008371989
-0.0071668928 0.019007573 -0.006731826 -0.01965498 0.0083596725 -0.011835195 -0.011990554 -0.0011952486
0.014956475 -0.0005975821 0.0068432917 -0.0019016756 0.0071054627 -0.0037163573 -0.015694764 0.008114133
0.006327663 0.022284184 -0.0030988324 0.012643076 -0.012169394 -0.010596259 0.020116286 -0.017092163
0.021938765 -0.002309424 0.018796315 0.0054990295 0.0004132858 0.0034883972 0.004781657 0.008074729
0.015423735 0.0032100887 0.0027525183 -0.0011101041 0.0045338455 -0.019241035 -0.017530078 -0.012643536
0.010382317 0.00037272755 0.008162338 -0.0115319835 0.003918093 0.017946023 0.011628165 -0.009388521
8.667366e-05 0.003575959 -0.0080335485 0.010050224 0.0069838422 -0.013866394 -0.021695014 -0.0017348944
0.017221553 -0.01305969 -0.0026690417 -0.022224028 0.006297398 -0.0046478603 -0.012311192 -0.010745827
0.014875001 0.0043317173 -0.0004683975 -0.021546027 0.019238032 -0.0028179837 -0.00049164536 -0.011881524
0.016631 -0.0062717563 0.0067344806 -0.016722677 0.017125348 -0.009363986 -0.018605217 -0.024165854
0.014243791 -0.0053531984 0.0025436906 0.0047002085 -0.012451926 -0.0036394352 0.015193187 0.009185191
-0.014997866 0.007917439 0.014694979 0.005299134 -0.009894564 -0.020996042 0.012508181 -0.0075569376
-0.009882347 0.00538684 0.0002917165 -0.011589066 0.006416199 -0.00805345 0.008858829 -0.016458577
-0.013417989 -0.0008214677 -0.010729356 -0.008724189 -0.0021190136 0.010549619 -0.0042055105 0.01416483
-0.006193985 -0.0021792715 0.007063777 -0.00988757 0.0056237774 0.009467344 0.00909435 0.0021975462
-0.0005020941 -0.012484473 0.0134412525 0.0048744353 0.0012304244 -0.010283547 0.008539513 -0.0045498475
0.006512141 -0.02750516 0.015899105 0.0045950757 0.002813611 -0.015663885 0.014025704 0.011278638
0.0035455113 -0.005942562 -0.006347709 0.0046842345 -0.0017851974 -0.006290029 0.011351913 0.009051507
-0.00015654194 0.0016424434 0.021214033 -0.015093563 0.0060624885 0.00665408 -0.010130841 0.001566897
0.014982452 -0.010662647 -0.012782003 0.011632953 -0.004041857 0.022335751 -0.009198134 0.011043725
-0.0064733075 0.011301871 -0.004023657 0.01413066 0.01238559 -0.025488906 -0.0130980015 0.017123755
-0.010285623 0.0023807785 -0.004569354 -0.011385155 0.009076421 -0.011304867 -0.00020076764 -0.0097956145
0.012802456 0.0008615457 0.003995158 -0.02143438 -0.011085194 -0.015456563 0.010250113 0.0043461574
-0.0048762416 0.008444965 -0.005593711 -0.00089545746 0.009613568 0.0043039117 0.009156377 -0.0025763868
0.016141582 -0.019104632 -0.004392828 0.016640048 -0.008699432 0.016241714 -0.0019576573 0.017658953
0.008764089 -0.023499276 -0.0072872713 0.017389202 0.0058325822 -0.010352677 0.018490361 -0.018108057
0.024520794 -0.012265276 0.0031419243 0.005388891 -0.009820797 0.0047732596 -0.00093342 -0.017892316

linear.bias f4 [8]
00000000: a0ae 0eba 3e30 5b39 ebee 93ba 17ea f239
00000010: f231 7db9 00c3 0dba f33e 81ba 4180 533a
-0.0005442891 0.00020903439 -0.0011286413 0.00046332247 -0.00024146566 -0.00054077804 -0.0009860679 0.00080681226
