trained_models/regression_cnn_gammas_stereo.pth (torch, 684318 bytes, 36 tensors)

cnn.convolutions.0.weight f4 [16, 2, 3, 3]
00000000: f316 23be e917 1e3c 51c6 8d3d c7a0 863d
00000010: dc6d 17bd 4ec9 1fbe bedf bc3d b589 143e
00000020: ab35 3f3e 3be6 a2bd 9096 403e 5a4e 973d
00000030: 1c8b f23d c18c a53d b463 633e d598 f9bd
00000040: 3141 5b3e 7226 933d a639 643b 7836 85be
00000050: 9d7e 1cbe 3f18 83bd bd67 46be 9f6e 23be
00000060: fde1 523e 0500 833e f5c5 6c3d 4c13 613d
00000070: c02d 91bd cc12 ae3d 897f b2bd 1d00 76bd
00000080: ec5e 583e 42c9 ad3d af84 98bc c449 71bd
00000090: 0476 9cbc 6260 92bd a2fd 0e3b 9ed4 1ebe
000000a0: f28a 2a3d 10f4 d03d 5b41 2cbe 9056 70be
000000b0: c183 bdbd 6fa0 2ebe 7856 2abe 32e3 d4bd
000000c0: 2c43 0cbe 92c6 703c 215e 473d f6b3 143e
000000d0: 8ceb 133e 903f e63c aa1a 083d d98e cf3d
000000e0: f3ec 86bd adcc 04bd f28d 243e ba5a 133e
000000f0: 7e8c 2ebd 64ee 3fbc 48c3 bf3d e7b2 9bbc
00000100: 238f a23d f754 fc3d ae28 02be b319 103d
00000110: 7092 d13d c78e 89bd 3fbe 40be dfe0 273e
00000120: d404 a4bd 5be3 643e 0c84 1b3e 1174 323b
00000130: 3e95 553d 46ac 30be 108f 9abd 0a41 423e
00000140: f295 543e 0fbb 843b 73ce 2fbe b3c0 7bbd
00000150: bf38 85bd a65b 04be 00dc 0cbe b9a0 56bc
00000160: f77b 58be fbd8 cfbd 2657 c73d 9582 543e
00000170: da46 5f3d a902 893e c544 363e 1d03 f7bd
00000180: ef08 253c f1fb 8d3d a4c5 d73d f14c d1bc
00000190: fb2d bbbd 1632 a8bd bcfb f5bd 4902 62be
000001a0: 9284 853c b264 9a3d 246f 3e3d 6108 2fbc
000001b0: e46c 94bd 4ff5 90bc 6a93 0cbe e162 333e
000001c0: 06e3 d53d e5e6 df3d 2070 873c 5e9f d13d
000001d0: 9752 013e af3c b43d 740d 4e3e f42a bb3b
000001e0: d68a 0b3e 8c03 b23d 5b3c 04be d6d6 9fbd
000001f0: 8a57 e9bd a9be 0ebe d097 ea3d 116c 2e3c
00000200: e7d7 203e 25e7 063e c7ea 413e 2b6a 5abd
00000210: 2ea6 023e 87df e9bd 70e5 4ebe e88d 9a3d
00000220: 5399 debd 3b7c bd3d cb3e e3bd c60c 003e
00000230: b321 b338 65a5 9b3d ffd9 05bc 5c5c a33d
00000240: af1a 8fbd b7d7 b03d d00f c9bd a0c9 933c
00000250: 0d90 4abd fa53 66bd c9c8 493e 48c3 d8bd
00000260: 1689 32be ebff 6cbd 74b8 c63d c7c3 553e
00000270: 06f6 14be 8e01 fb3d 4a44 f2bd cb26 06bd
00000280: f88c 043e 2ad2 4e3d d032 47be ff5f 5cbe
00000290: 243e 3e3c cd0b 473d eb1d ca3d 473c 663e
000002a0: b9cb 9b3d 7d84 993e 0847 d6bc 305b c33d
000002b0: 1904 663d 3d69 5fbd 3a73 553e 6f5b 42be
000002c0: 0c4f 4abe 29a8 9a3d 8924 14be 7cec e93d
000002d0: 8998 303d af9c c5bd 8422 083e 9cdf abbd
000002e0: 8908 0abe 0c77 b83d 8946 34be 45fc 67bc
000002f0: a22a 9a3d bcad 3ebe 38b6 f53d 59be 093c
00000300: fca9 163e f703 babd 82e4 8b3d d7e8 103e
00000310: 0b30 113e 024b 01bd 3d73 523e e7e0 4abe
00000320: 8504 6c3e ea6e ff3c 1294 603d aa71 12be
00000330: af37 013c 00aa b83d d7f4 cf3d 31a3 00bd
00000340: 834e 9ebc 12fc f23d a7ed 423e 18d5 24be
00000350: c01a debc 617e 1d3e f731 5e3e 1fad 533d
00000360: 7909 04bd b7b3 ad3b c961 e6bd f2b9 143e
00000370: 8935 9bbd bf4f 3abe 968d 03be fb35 a1bd
00000380: 6255 c7bd 718d 90be 555c 1cbe a721 9d3d
00000390: 110b 123d a465 1d3e 79ed 2d3e 6d12 3c3e
000003a0: c518 11be 6b00 623e 88a0 cdbd 19ab 613d
000003b0: 588f 16bd 7d0c 283e d82c 30be 0548 d2bc
000003c0: bf1a 403e b38e 653d 83ae 07be 5d83 a5bd
000003d0: bd0c 89bd 984f 79be 02bd 863d 6e35 153e
000003e0: b46a 53be 15ec 883e f727 043e a16f 49be
000003f0: fba5 373e eaf9 febc 000a cdbc dad8 d6bd
-0.15926723 0.009649255 0.069225915 0.065736346 -0.036970004 -0.15604135 0.09222363 0.14505656
0.18672816 -0.07954069 0.18807435 0.07387991 0.11842939 0.08083487 0.22206002 -0.121873535
0.21411587 0.07185067 0.00348244 -0.2601812 -0.15282674 -0.06401109 -0.1937551 -0.15960167
0.2059402 0.25585952 0.057805974 0.054950044 -0.07088804 0.08499679 -0.08715732 -0.0600587
0.2112996 0.084856525 -0.018617956 -0.05890824 -0.019099243 -0.0714729 0.0021818657 -0.15510795
0.041636415 0.10202801 -0.16821806 -0.23470521 -0.09253646 -0.17053388 -0.16634548 -0.103948966
-0.13697499 0.01469578 0.048673753 0.14521775 0.14445323 0.02810648 0.033228554 0.10134668
-0.06588163 -0.032421757 0.16069773 0.14390078 -0.042614453 -0.011714552 0.09363419 -0.019006206
0.079374574 0.12320893 -0.1271083 0.03518076 0.10233009 -0.06716686 -0.18822573 0.16394375
-0.080087334 0.22352354 0.1518709 0.0027229826 0.05214428 -0.17253217 -0.07546818 0.18970123
0.20760325 0.0040506194 -0.17168598 -0.06146307 -0.06504964 -0.12925586 -0.13755798 -0.013099843
-0.21141039 -0.101488076 0.09733419 0.20752938 0.05451093 0.26759842 0.17799671 -0.12061141
0.010072931 0.0693282 0.10535744 -0.025549384 -0.091396295 -0.08212678 -0.12010905 -0.22071184
0.016298566 0.07538737 0.04649271 -0.01068315 -0.07247332 -0.017695097 -0.13728109 0.17518188
0.10443692 0.109327115 0.016532958 0.10235475 0.12629162 0.08800637 0.2012232 0.0057119075
0.1362718 0.08692083 -0.12913649 -0.078046486 -0.1139365 -0.13939919 0.11454737 0.010645882
0.1570736 0.13174112 0.18937217 -0.053323906 0.12758705 -0.114195876 -0.20204711 0.07546598
-0.10869088 0.09252211 -0.11095961 0.12504873 8.541662e-05 0.07599906 -0.00816965 0.079766005
-0.06987511 0.08634894 -0.09817469 0.018040478 -0.049453784 -0.05623243 0.197055 -0.10584122
-0.17435107 -0.05786125 0.097031504 0.20875464 -0.14546975 0.12256156 -0.11829431 -0.03275184
0.129444 0.050493397 -0.19452977 -0.21520995 0.011611495 0.04859524 0.09868988 0.22483931
0.076072164 0.29983893 -0.026156917 0.09538877 0.05615625 -0.054543722 0.20844737 -0.18980192
-0.19756716 0.07551605 -0.14467062 0.11422059 0.04311422 -0.09649026 0.13294417 -0.083922595
-0.13479818 0.090070814 -0.17605032 -0.014159267 0.07527663 -0.18620962 0.11997646 0.008407199
0.14713281 -0.090827875 0.06830694 0.14151321 0.14178483 -0.031565674 0.20551772 -0.19812356
0.23048599 0.031180818 0.05482871 -0.14301172 0.007886811 0.090168 0.10154121 -0.03140563
-0.019324547 0.11864485 0.1903597 -0.16096914 -0.027112365 0.15380241 0.21698748 0.051678773
-0.032235596 0.0053009647 -0.1124912 0.14524058 -0.075785704 -0.18194483 -0.1284698 -0.07871624
-0.09733082 -0.2823291 -0.15269597 0.07672434 0.035655085 0.15370804 0.1698512 0.18366404
-0.14169605 0.22070472 -0.100403845 0.055094812 -0.036757797 0.16411014 -0.17204607 -0.025669107
0.18760203 0.05604429 -0.13250165 -0.08081696 -0.06691883 -0.24346769 0.06579019 0.14571163
-0.20646173 0.26742616 0.1290587 -0.1967149 0.1793441 -0.031125028 -0.025029182 -0.1049058

cnn.convolutions.0.bias f4 [16]
00000000: 981c 69bd bb91 60bc 40d0 b43d 7db7 b0be
00000010: d439 393e ce89 bb3d c7f0 3a3e ef22 91bc
00000020: 4c46 193d a7e6 a6bd f735 c83c 5e8a e33d
00000030: 06f0 f2bd 7936 cabd 7e6c 433d 2d84 05be
-0.056912035 -0.01370662 0.08828783 -0.3451499 0.18088466 0.091571435 0.18255912 -0.017716853
0.037420556 -0.08149462 0.024439795 0.11110376 -0.11862187 -0.09873671 0.047710888 -0.13038702

cnn.convolutions.2.weight f4 [16]
00000000: 4187 6c3f f8e2 693f 48bf 503f 4bb9 6b3f
00000010: 4e4c 763f 2310 813f 5a81 7a3f 9dd3 803f
00000020: 0106 6c3f 4216 783f 36a1 7b3f 1214 783f
00000030: cc68 743f 688f 803f 78dc 7a3f 8fa0 673f
0.9239388 0.9136195 0.8154187 0.9207961 0.9621018 1.008305 0.97853625 1.0064579
0.9219666 0.9690896 0.98292863 0.96905625 0.9547241 1.0043764 0.9799266 0.9047937

cnn.convolutions.2.bias f4 [16]
00000000: 395c 1c3d c43b a2bc e5bf af3c 555a b0bb
00000010: 7e17 52bc f864 53bd b0bd b3ba ea87 573d
00000020: 01d7 a0b9 5b2a 1f3d d4d5 a6bb 00a4 003c
00000030: 3abf 06bd 98e2 033c 0c87 02bc de62 bf3b
0.038173888 -0.01980389 0.021453807 -0.005381862 -0.012822984 -0.051609963 -0.0013713147 0.052619852
-0.00030677769 0.038858753 -0.0050914083 0.007851601 -0.03289721 0.00804963 -0.007966768 0.0058406433

cnn.convolutions.2.running_mean f4 [16]
00000000: 7426 803d 9e70 983c a0a7 0b3e aaf0 be3c
00000010: d887 683e 1975 ea3d 1405 443e a469 263d
00000020: 82ca 5f3d bf6d 003d b685 213d ba72 e93d
00000030: e102 a83c b313 3c3c 9767 713d 0993 dd3b
0.06257334 0.018608388 0.13638163 0.023308117 0.2270807 0.11448116 0.19142562 0.04062809
0.054636486 0.031354662 0.039434157 0.113988355 0.020509185 0.011479306 0.05893668 0.0067619127

cnn.convolutions.2.running_var f4 [16]
00000000: d6f6 dc3e ffd9 e73c 5881 463c 0f2c ca3d
00000010: 06b1 f43d b8e8 c93e d962 2e3e 3637 363e
00000020: bd20 533d 24e1 253e 3773 a33d 0303 803e
00000030: 14bc ac3d 729c 093d 1d65 3d3e 999a 763c
0.4315707 0.02830219 0.012115799 0.09871685 0.11947827 0.39435363 0.17029895 0.17794499
0.051544894 0.16199166 0.0798096 0.25002298 0.084343106 0.033596464 0.18495603 0.015051507

cnn.convolutions.4.weight f4 [32, 16, 3, 3]
00000000: 05bc 9c3c 7928 b43d 3ddb f33c 28f2 3c3d
00000010: fd1e 25bd ee14 55bd b112 ce3c 843e c13b
00000020: 937b a13a d0d8 2abc cd3c 2bbc aed2 d539
00000030: 0232 693d 4e41 16bd c191 60bd 68f3 40bc
00000040: 08e1 4abd e590 a93c 84a9 5abc 0aef 133d
00000050: 99be 06bb db45 72bd 39ed dd3b 1869 20bc
00000060: 603a 98bd 69d6 d7bc 1543 1bbb 9bbe 53bc
00000070: c4f9 a93c 0734 4b39 cab5 04bd 88e2 e6bb
00000080: 22f8 e6bd 0707 513d 612c 1dbd b760 483c
00000090: b1b8 773d 0f1c 83b9 074a bc3c eb24 463d
000000a0: 465d 40bc 9d11 863c a260 633b 89e9 8e3b
000000b0: fafb 00bd 5ecb 153d 3fb0 84bc 456a f53c
000000c0: b432 27bd a7bd 78bd 09e6 a63d e77f 0f3d
000000d0: 4aa5 22bd 227c 9fbc 8de4 68bc 77be 37bd
000000e0: 0907 e03c b29f ae3b 5e7e 8f3d 1e6a 8d3d
000000f0: 1579 afbd f7db 913d f469 4bbd 3943 e5bc
00000100: ebaf 6c3c 08a6 c03c fa3d 103d ec6d af3c
00000110: 4029 153d 6af0 3ebd 8682 94bd 6f3e 3bbd
00000120: 98b8 b63d 19a4 493c fc21 743d 2517 24bc
00000130: 0b10 7b3d 0a13 05bd 672e 3fbd b775 5cbd
00000140: d6e6 16be 6b26 363a 7190 d8bc 011a a43d
00000150: 910c 693d 0c84 8bbd bde8 ba3c cce2 bc3c
00000160: c142 b1bd 15d5 173d 48db fcbc 00a3 023d
00000170: 9970 df3d f510 87bd 584f cc3c 192f 16bc
00000180: a950 763b 51a4 46bd 2b96 d4bd acff 34bd
00000190: 536b 763d 146b 1fbd c342 f03c f255 b63c
000001a0: e6f3 91bd 6594 98bd dbaf b4bc 1973 a2bd
000001b0: 242e 6a3c ac7a cdbb c258 32bd db12 9abd
000001c0: 9501 373c 7417 133d c7a9 80bd c6e9 f4bc
000001d0: 6791 cd3d 014c f6bc 7ade f8bb 7546 253e
000001e0: 4988 d4bd 6bb5 a4bd fdda 13bd ff2a 87bd
000001f0: 5df9 09bd 6235 42bc 0718 3d3d f5af 463b
00000200: e13f a83c a969 97bd 6104 8a3c ddda b23c
00000210: 6c3c 383d 8c1b 11bd f0ab d3bd e472 e7bc
00000220: 9d81 dabc bc8f a83c 0c8b e0bc 1a5c 21bc
00000230: a894 4fbd d40b 063d 5a91 9ebd cef5 1dbb
00000240: 8688 aabd 1705 cabb 058f debc f879 853c
00000250: f340 99bc a4a3 7f3d c826 a33d 2877 65bc
00000260: 70ed 84ba 18f3 d4bd d410 69bd 02a4 c13c
00000270: 74b7 3dbc 8b19 1fbd 04f3 3a3d 9763 7d3d
00000280: ed54 00bc b97d a2bd 86d5 263d 4309 04bc
00000290: 4983 433b 32c9 013c 1568 31bd 7368 273b
000002a0: f6d8 c83b e0f1 9e3c 7607 01bd dd61 32bd
000002b0: c1e7 b2bd e344 b0bd 836a 293d 681a 3abd
000002c0: c9e2 9ebc af40 2abd ae90 273d 1985 1f3b
000002d0: aba4 38bd da6d 193d 2f58 0c3d 97ee d03c
000002e0: 9041 153d fe7a 60bd 8611 e6b9 a0ed 71bd
000002f0: a5d8 26bd 9f91 44bd d607 b73d e1dc af3d
00000300: 7462 163d cfda 5ebd 0271 b83c 3d27 9dbd
00000310: 5fff 98bc 026b 93bd d13c 93bc 07ef 12bd
00000320: 74d5 d5bc d512 943c 225c 59bd 76c0 22bd
00000330: 6993 a0bc 50b6 9dbd de98 bcbd a093 5ebc
00000340: 1f37 7c3d ce09 af3d c880 96bd 7822 633d
00000350: fa7c 45bc 9d30 f4ba 6e3f 62bd 9812 00bc
00000360: bb81 84bd 69d1 993c 8018 1dbd 3309 5c3b
00000370: 99ac eebb dc7e 95bc 1c76 93bc 1bcc 2f3d
00000380: 88e8 8ebd 2151 fabc ddc1 d23d 53ec 4cbb
00000390: 90f0 b6bd 5ac9 513d f1d7 dd3d 11cb f23c
000003a0: f7d1 a43d 44ee ebbc c6f5 053b bc51 703c
000003b0: 3492 2dbc 39ca fbba 8538 333c ddea d0bd
000003c0: 97d3 93bd 546e 6dbc 0dbd c4bd d6f1 8cbd
000003d0: 963a cebc bdc9 0d3d f255 493d 70b4 163d
000003e0: d739 a2bc a75f 303c efc5 b9bd 02a6 8cbd
000003f0: f267 69bd a700 f0bd b7cf 81bd 055e 313d
0.019132623 0.08796782 0.029767627 0.046129376 -0.040312756 -0.052021913 0.025155397 0.005897345
0.0012320153 -0.010427669 -0.010451508 0.00040783494 0.056932457 -0.036683373 -0.0548265 -0.011776783
-0.049531013 0.020698974 -0.01334608 0.036116637 -0.0020560382 -0.05914865 0.006772664 -0.009790681
-0.07433009 -0.026347356 -0.0023691107 -0.012923862 0.02074898 0.0001937897 -0.03239993 -0.0070460476
-0.11277796 0.051032092 -0.0383724 0.01223009 0.06047887 -0.00025007172 0.022984518 0.04837505
-0.011740988 0.01636582 0.0034695049 0.0043613357 -0.031490304 0.0365709 -0.016197322 0.0299579
-0.04081984 -0.06072774 0.081493445 0.035034087 -0.039708413 -0.01946837 -0.014214647 -0.044859376
0.027347105 0.0053290958 0.070065245 0.06905006 -0.085680164 0.07122033 -0.04966159 -0.027986156
0.014446239 0.02351667 0.035215355 0.02141472 0.036416292 -0.046615995 -0.07251458 -0.04571384
0.08921927 0.01230719 0.059602723 -0.010015284 0.061294597 -0.03248886 -0.046675112 -0.0538232
-0.14736494 0.0006948474 -0.026436063 0.08012772 0.05689675 -0.06812295 0.022816056 0.023057364
-0.086553104 0.037068445 -0.03086628 0.03189373 0.10910148 -0.06595031 0.024940178 -0.009166502
0.0037584698 -0.048496548 -0.10380205 -0.04418914 0.060160946 -0.038920477 0.02932871 0.022257779
-0.07126598 -0.07450179 -0.02205651 -0.079321094 0.014293227 -0.006270727 -0.043541677 -0.07523128
0.011169811 0.03591104 -0.062823825 -0.029896628 0.10037499 -0.030065538 -0.0075948806 0.16140158
-0.10377557 -0.08042415 -0.036097515 -0.06599998 -0.033685077 -0.011853548 0.046165492 0.003031728
0.020538272 -0.073932 0.016847791 0.021832878 0.044979498 -0.03542666 -0.10335529 -0.028253026
-0.026673133 0.02057635 -0.027410053 -0.009848619 -0.05067888 0.032726124 -0.07742567 -0.002410281
-0.08326821 -0.0061651575 -0.027167806 0.01629351 -0.018707728 0.06241192 0.07966381 -0.01400546
-0.0010141563 -0.10397929 -0.056900814 0.023637775 -0.011579383 -0.03884272 0.045641914 0.061862554
-0.007832748 -0.07934136 0.040730976 -0.008058849 0.002983289 0.007921504 -0.04331215 0.0025544434
0.0061293794 0.019402444 -0.031501256 -0.04355036 -0.0873561 -0.08606889 0.041361343 -0.04543534
-0.019395249 -0.041565593 0.04090946 0.0024340807 -0.045078915 0.03745828 0.034263786 0.025504394
0.03643948 -0.054804794 -0.00043882075 -0.059064507 -0.040733952 -0.047990438 0.089370415 0.08587051
0.036714986 -0.05440789 0.022514824 -0.076735 -0.018676458 -0.071981445 -0.017973335 -0.035872485
-0.026102759 0.018075386 -0.05306638 -0.039734326 -0.01960154 -0.07700789 -0.092088446 -0.013585001
0.061576005 0.08546792 -0.07348782 0.055452794 -0.0120537225 -0.001863021 -0.055236273 -0.007816933
-0.064700566 0.018776612 -0.038353443 0.003357482 -0.007283759 -0.018248968 -0.018000655 0.04291926
-0.069779456 -0.030556263 0.10290883 -0.003126879 -0.089326024 0.051217414 0.10832203 0.029637845
0.0804786 -0.028800137 0.0020440682 0.0146679245 -0.01059394 -0.0019210047 0.010938768 -0.102010466
-0.07218092 -0.014491636 -0.09606371 -0.06882064 -0.02517442 0.03461622 0.04915423 0.036793172
-0.01980297 0.010764993 -0.09070956 -0.06867601 -0.056983896 -0.117188744 -0.063384466 0.043302555

cnn.convolutions.4.bias f4 [32]
00000000: 0990 463d 2d26 1abd 50af 0a3e 5de6 af3d
00000010: 5008 fe3c be73 af3d c5df 1abd a163 d7bc
00000020: 9032 e83d a2e1 a13d 99d2 043d 3895 013d
00000030: 68b5 c03d 62ea 763d 7f3c 183c 0bce b23c
00000040: 9e6c be3d 7ed4 a33d 215f 23bd fbaa 1abd
00000050: 727b 30bd 2543 8a3c 72ff 96bd e786 7fbd
00000060: 2148 78bd e8a6 d23d fba3 bd3d e2d6 883c
00000070: 4c2c 893c 9499 8abd 615f eebc d2f2 a63d
0.048477206 -0.037634064 0.13543439 0.0858886 0.031009823 0.08566998 -0.03781106 -0.026292624
0.11337769 0.07904364 0.032427404 0.031636447 0.094096005 0.06028212 0.009291767 0.021826765
0.09298061 0.07999514 -0.039885644 -0.037760716 -0.043086477 0.01687772 -0.07372941 -0.062384512
-0.060615662 0.10285741 0.092597924 0.016704027 0.016744755 -0.06767574 -0.029098215 0.08151783

cnn.convolutions.6.weight f4 [32]
00000000: 56bf 6e3f c83b 6e3f a3fe 703f 4dcf 6a3f
00000010: cf5f 7d3f 47a0 683f ab37 693f 2e52 673f
00000020: 81d8 6c3f 1fb3 6a3f 95d9 683f 1c8c 643f
00000030: 9255 733f 3913 6e3f f504 7b3f 1a76 703f
00000040: 8517 6c3f 437f 673f a829 773f 2ec6 683f
00000050: 7400 6a3f 9827 6e3f eb0c 683f d8ef 713f
00000060: bf62 6c3f 64c5 753f 2c83 683f 7440 633f
00000070: 5383 663f 6ab9 643f 7e95 6f3f 3699 6f3f
0.93260705 0.9305997 0.94138545 0.91722566 0.9897432 0.90869564 0.9110057 0.9035977
0.9251786 0.9167957 0.90957004 0.8927629 0.95052445 0.9299808 0.9805444 0.9393021
0.9222339 0.9042856 0.9654794 0.909274 0.9140694 0.93029165 0.9064471 0.945066
0.92338175 0.9600432 0.9082515 0.8877022 0.90044135 0.8934542 0.9358748 0.93593156

cnn.convolutions.6.bias f4 [32]
00000000: bc28 423d 8dc6 e7bc 2a34 88bc 1dd1 50bc
00000010: ca4e abbc ea6a 813c cce2 8b3d 9772 40bd
00000020: 8cf3 20bd 4f9b 54bb 8975 3b3d 7719 b03c
00000030: aba1 8c3d f444 403d 9e77 1e3c e710 86bc
00000040: 955a fe3c 7db0 a33d d63b b0bc 8d23 123c
00000050: 5727 963b 0da4 4d3c 7795 faba c194 cf3d
00000060: 3b23 62bb 7c7e 423c 1be4 053d 92cf c7bc
00000070: dae4 333d 48fc c2ba f5e2 e8bc de23 ef3c
0.04740213 -0.028292919 -0.016626436 -0.012745169 -0.020911593 0.01579805 0.068303674 -0.04698428
-0.039294764 -0.0032441204 0.045766387 0.021496518 0.06866773 0.04694076 0.009672074 -0.016365482
0.031049052 0.07992647 -0.021512907 0.008919609 0.0045823264 0.01255132 -0.001911803 0.101357944
-0.0034505862 0.011870977 0.03268824 -0.02439097 0.04391942 -0.0014876211 -0.028428534 0.029191907

cnn.convolutions.6.running_mean f4 [32]
00000000: 0515 f03d a34f ba3d e53e 783e 29c5 363e
00000010: 771a df3d 0509 713e abfc f43d e323 893d
00000020: 61bf 5a3e 7bca 753e 2e06 d73d 9bc0 f63d
00000030: ac88 183e 9648 4a3e ab56 f83d 90c9 db3d
00000040: 6780 243e d61d 0b3e 0809 6a3d 80e1 493d
00000050: a457 b73d 4e7d be3d 9637 aa3d 826b 793d
00000060: ece2 5a3d 67ca 1a3e c316 853e ef79 573e
00000070: 0fb8 ed3d 8e4a 8d3d c896 c03d a001 0c3e
0.11722759 0.09097221 0.24242742 0.17848648 0.1089372 0.23538597 0.11962255 0.06696298
0.21362068 0.24003021 0.104992256 0.12048455 0.14895886 0.19754252 0.121259056 0.10731804
0.16064607 0.135856 0.05713752 0.04928732 0.08952263 0.09301244 0.083113834 0.060893543
0.053439066 0.15116273 0.25993928 0.21042608 0.11607372 0.06898986 0.09403759 0.13672495

cnn.convolutions.6.running_var f4 [32]
00000000: 7b32 e43d f39d d63c 72ea e23d 8896 0d3f
00000010: 3d41 213e fd04 813d a24f 323f 3126 773d
00000020: 2b36 293e fae7 4a3f 3a4e ce3e c457 8e3e
00000030: c194 fe3e 19a0 bd3f 7104 f33d a39e 9d3d
00000040: ae09 3d3e c11a 0b3e 40e7 a83e 8a12 283e
00000050: fc52 073f 4f84 ad3d d2db f33e cfbc 493c
00000060: 91d2 7a3e 5f74 233e 2e4d a03f f647 7c3c
00000070: 3c61 183f 7b03 c23e 8f89 b03d 5486 863e
0.11142441 0.026198363 0.11079873 0.5530782 0.15747543 0.062997796 0.6965276 0.060339157
0.1652457 0.7926022 0.40294057 0.27801335 0.49722865 1.4814483 0.118660815 0.07696273
0.18460724 0.13584425 0.3298893 0.16413322 0.52861 0.084725015 0.47628647 0.012313082
0.24494387 0.15962361 1.2523553 0.015398016 0.5952337 0.3789328 0.08619987 0.2627436

cnn.convolutions.8.weight f4 [64, 32, 3, 3]
00000000: 99d5 843d 5c4d 8e3d c35e 1e3d e652 0ebe
00000010: 65ab 5e3b d4f2 bebc 130c 08be f845 5cbd
00000020: 507c 273b d840 e2bc a1d0 23ba 52e5 ff3c
00000030: d618 d83b 119e 47bd 4af7 dbbb 1086 54bd
00000040: 56c6 3bbd 6402 9cbc f975 f7bc 2590 8dbc
00000050: c4e9 c93c 2c32 3cbd 45b0 7ebd dcfa 693c
00000060: 551e d63b 8e96 cabc 1bc1 163d b70c 3bbd
00000070: eae1 b83c 2ceb 8ebc 9a67 53bc b534 33bc
00000080: 3736 433c fc92 2bbd 628d 61bd 1a5b 18bc
00000090: 51a7 e83c 9ceb 4cbb ce7a ce3c 4722 49bc
000000a0: 2305 8fbd 3975 2e3d ae0d 8d3c 07d5 26bd
000000b0: 8e4f a8bd bc84 0cbc 4bdb 23bd dc42 e2bb
000000c0: 5680 1dbd f9aa b93b 53bc 833b 1250 5b3d
000000d0: 5265 593d cff8 cc3d 5cc1 5b3d c91b 2bbc
000000e0: 1daf bf3c 31af 88bc 39da aa3d c6c4 093d
000000f0: 887b 3abd 5b5c c1bc 01d9 3fbb ede0 313d
00000100: a804 4abc 3db9 89bd 4875 06bd 047b 3e3c
00000110: c8cc 7abb 3801 e73b 592b 73bb aaf6 6cbd
00000120: 3a62 96bd af60 37bc f854 2c3d aaa8 e3bc
00000130: f365 84bd 5726 85bd b2fb da3d 70e3 173c
00000140: 3ca6 143d d6bf 623c bf06 903b ac52 713c
00000150: 37be 74bd c232 05bc 544a 6b3d b6c1 1bbc
00000160: 4955 33bc 2ebc 8cbc 6e53 f93c 20ea a8bc
00000170: c9c1 fdbb 9ab8 99bc 060b 923c fda6 e0bb
00000180: 8e16 433d 6f29 2fbd e6ba 1e3d add8 3fbd
00000190: 34b3 5ebd 4a25 213c 8f50 033d be01 5abc
000001a0: 5f0f ac3c 7d92 863d 8625 d13c 1207 bbbc
000001b0: 5881 0a3d 6c50 143c d203 df3c c777 f5bc
000001c0: 1672 65bd 3778 4d39 e810 46bb 244e f6bc
000001d0: 61e5 333d 2b25 f0bc c8d8 1cbd 86fd 723d
000001e0: 6f70 423d 5a0c 64bc 3fef 563d 4e92 843d
000001f0: c0e1 1cbd 05b0 5b3d cd06 903d e4b7 543d
00000200: 3c58 583c c021 66bd 6da4 66bd 4c80 71bd
00000210: 4f9b e7bc bc03 a2bb 6821 c63c a0d6 7ebd
00000220: 98cf 943c 4ce0 fbbc 91ef 24bc a604 f83b
00000230: 0fb1 873c 3519 eabc dd22 503d 730a 0b3d
00000240: e74e b5bc 2196 0bbd 7d92 3cbb 1348 9dbd
00000250: 8a3d 59bc 74f7 c33c 23c5 543d 3d77 90bd
00000260: 96ba 05bd 1cc6 d3bb ea0e 223d c11f 483d
00000270: af6c 94bc f664 cfbc 11c4 76bc 71da 1bbd
00000280: d1b9 913b 91eb 413d f2f8 413d 9f22 c33a
00000290: 54fb 27bd cc84 093d d674 fbbc c6eb 783b
000002a0: 38e2 173d 2d0a 10bd 0dc1 18bd 2024 07bd
000002b0: 99d7 be3c a15e 883c abc7 3c3d 43a7 6dbc
000002c0: 3c75 8f3c be0a 07bd 7508 823d c039 25bb
000002d0: 8c9c fabc 387b 023d c109 533d 0309 c33c
000002e0: db9b c63c b4d2 e43c 43ce 54bb 0055 93bc
000002f0: 4958 c93c e915 2fbd 4813 c8bc 1bd1 85bc
00000300: f8f3 5abd 0e10 60bc 6a84 8fbc 815a 033d
00000310: 61a9 f4bc 8914 3a3d bab3 52bd 3f8b 863a
00000320: 66b9 583c 003b 09bd fb96 d73c 8bac 50bc
00000330: da49 03bc 1420 353c 90b7 b2bd 5dda 32bd
00000340: 8aa7 b6bb 90ca aabc 47eb 5ebd d832 da3a
00000350: 43c4 d43c 87bc c2bc 65d0 883c 949e 04bd
00000360: 709f fa3c a3a8 693d e8b0 283d 15f5 ff3c
00000370: 3ec6 17bc c153 e53c 4d77 b7bc d88f 6a3c
00000380: 698f 2abd b74b 47bc 7f13 353d 5099 593d
00000390: e8f9 99bc a816 ad3c 20fd 8a3c ca86 ffbb
000003a0: e8a3 f13c 404a 81bd 5dd1 583d d5dd 42bd
000003b0: 8e50 49bd 5c67 b0bc d064 a03c 4e11 f1bc
000003c0: 2636 453c 48b2 44bd 5064 793c 62a2 66bc
000003d0: 8136 b2bc 3a87 b5bc 431e 9dbc f78b 47bd
000003e0: 26fd 92bc b97d 693c fc31 633c ecb0 133d
000003f0: c816 fe3c fece 8c3a e782 153c 4990 debc
0.06486053 0.06948349 0.03866459 -0.1389881 0.003397667 -0.023309149 -0.13285856 -0.053777665
0.0025556274 -0.02761881 -0.00062490447 0.031237278 0.0065947575 -0.04873473 -0.0067128288 -0.051885664
-0.045843445 -0.019044109 -0.030207621 -0.017280648 0.024647601 -0.045946285 -0.062179822 0.014281001
0.0065343776 -0.024729993 0.036805253 -0.045666423 0.022568662 -0.017446123 -0.0129031185 -0.010937859
0.011914781 -0.041888222 -0.055066474 -0.009299064 0.028400095 -0.0031268364 0.025205042 -0.012276239
-0.069834016 0.04259226 0.017218437 -0.040730502 -0.08218299 -0.008576568 -0.040004056 -0.006904943
-0.03845247 0.0056661335 0.0040202527 0.053543158 0.053075142 0.10008394 0.0536512 -0.010443636
0.02339893 -0.0166851 0.08342404 0.033634923 -0.045527965 -0.023603609 -0.0029273632 0.043427397
-0.012330212 -0.067247845 -0.032826692 0.011626009 -0.0038269032 0.007049706 -0.0037104695 -0.057852425
-0.07342954 -0.011192485 0.04207322 -0.027790386 -0.06464758 -0.06501453 0.10692538 0.009270534
0.036291346 0.013839683 0.0043953354 0.014729183 -0.059751716 -0.008129777 0.05744393 -0.0095066335
-0.010945627 -0.017179575 0.03043529 -0.020619452 -0.0077440483 -0.018764783 0.017827522 -0.006855844
0.04762893 -0.042764124 0.03875246 -0.046837498 -0.05437012 0.009835551 0.03205925 -0.013306079
0.021003423 0.06570909 0.025530588 -0.02283052 0.033814758 0.009052377 0.027223501 -0.02996434
-0.056017004 0.00019595107 -0.003022248 -0.030066557 0.043919925 -0.029314598 -0.038292676 0.05932381
0.047470506 -0.0139189605 0.052474257 0.06473218 -0.03830123 0.053634662 0.07032547 0.051933184
0.01320463 -0.05618453 -0.056309152 -0.058960244 -0.0282723 -0.004944293 0.024185851 -0.0622164
0.018165395 -0.030746602 -0.010066883 0.0075689135 0.01656392 -0.028576473 0.0508145 0.033945512
-0.02213235 -0.03407872 -0.0028773837 -0.07679763 -0.013259301 0.023921706 0.051945817 -0.07053993
-0.032648645 -0.0064628255 0.039565004 0.048858408 -0.01811823 -0.025316697 -0.015061394 -0.03805012
0.0044472 0.047343794 0.047356553 0.0014887637 -0.04101117 0.03357391 -0.03069536 0.0037982329
0.037080973 -0.035165954 -0.037293483 -0.032993436 0.023296164 0.016646685 0.046088856 -0.01450521
0.017511956 -0.03296923 0.06349269 -0.0025211424 -0.030592225 0.03185579 0.051522974 0.023808008
0.02424424 0.027932502 -0.0032471574 -0.017984867 0.02457823 -0.042745505 -0.024423257 -0.01633506
-0.053455323 -0.013675703 -0.017519195 0.032068733 -0.029865922 0.04542974 -0.05144093 0.0010264887
0.013227796 -0.033503532 0.02631711 -0.01273645 -0.008013213 0.011055011 -0.08726418 -0.04366528
-0.0055741714 -0.020848542 -0.054423597 0.0016647233 0.025972491 -0.023771537 0.016700933 -0.032377794
0.030593604 0.05704559 0.041184336 0.031244794 -0.009263573 0.027994039 -0.022395754 0.014316522
-0.041640673 -0.012164048 0.044208046 0.053124726 -0.018795922 0.021128967 0.016966403 -0.0077980505
0.029497102 -0.0631299 0.05293404 -0.047574837 -0.04914909 -0.02153366 0.019579321 -0.029427197
0.012036836 -0.048021585 0.01522167 -0.014076801 -0.021754505 -0.022159208 -0.019179469 -0.048717465
-0.017942976 0.014251166 0.013866898 0.036057398 0.031016722 0.0010742841 0.009125448 -0.02716841

cnn.convolutions.8.bias f4 [64]
00000000: c272 023d c71a 09bd f199 433d 713f e0bc
00000010: 7281 d7bc 719d 163d d47e 97b8 5f3e 9e3c
00000020: 60b8 123c 75b9 2abd dfe7 9b3c 2238 93bc
00000030: 0d7b 45bb 47b3 b53c 9795 32ba 8c5a fc3c
00000040: 52ff 0ebc f2de c53c 2a30 903d 4519 f9bc
00000050: c0d8 9b3c 6f15 05bd cdd0 b73d 91c1 b33c
00000060: fe51 bb3c d7a4 b1bc 25ac 94bd 5104 313d
00000070: 4c47 1fbc bbe9 3cbc 278a 553d a3c5 d93c
00000080: a9a6 f93c fe5a 293d 20ba a63b a400 3b3d
00000090: ac2f f2bd 293d b13c 2053 45bd ec71 11bd
000000a0: 7998 343d 1ae2 ab3b f2d4 4d3d c424 33bc
000000b0: f069 17bc 2981 e33d e64e d23c 6f56 df3a
000000c0: 4ce3 ac3a fe17 6e3b 5cc3 12bc 3e8d 5b3d
000000d0: d34b 43bd 2f4f 83bd 77a0 fabc b5ef 1a3d
000000e0: 17cf 243a 6cbe 893d 885c 54bd ced5 db3b
000000f0: e06d cc3c 7610 563d 7598 133d 30fa 8f3d
0.031847723 -0.033472802 0.04775423 -0.027374001 -0.026306842 0.03677124 -7.223865e-05 0.01931685
0.008955091 -0.04168077 0.019031463 -0.017971102 -0.0030133158 0.022180213 -0.0006812452 0.030804895
-0.008727865 0.02415416 0.070404366 -0.030407557 0.019024253 -0.032491144 0.089753725 0.021942886
0.022866245 -0.021685047 -0.072593965 0.043217007 -0.009721588 -0.011530335 0.052133705 0.026583498
0.030474978 0.041346543 0.005088106 0.045654908 -0.11825499 0.021635609 -0.048174977 -0.035509035
0.04409072 0.0052454593 0.05025191 -0.010934059 -0.009241566 0.1110862 0.025672387 0.0017039309
0.0013190298 0.0036330218 -0.00895771 0.053601496 -0.047679733 -0.064115874 -0.030594094 0.03782626
0.00062869623 0.06725773 -0.051846057 0.006708837 0.024954736 0.052261792 0.036034066 0.07030141

cnn.convolutions.10.weight f4 [64]
00000000: bdac 493f bb9f 413f 38f3 433f 0f83 2e3f
00000010: ecd4 383f c939 363f f802 4f3f f9af 4f3f
00000020: 3878 323f d8b8 3d3f f989 6d3f 18ab 283f
00000030: 371d 443f 0624 523f 4051 493f d324 483f
00000040: b9a2 493f 3cac 423f a488 423f 8620 393f
00000050: fa3d 2c3f 2ec1 673f 4c48 453f acc7 2f3f
00000060: c2c8 383f 14b6 303f f41f 333f 2224 4c3f
00000070: 9280 4a3f 8844 3c3f 57cc 323f 3e99 443f
00000080: 1060 453f 1f5c 4f3f d6b0 3c3f ff25 433f
00000090: a5a9 303f 7afc 4f3f 34e0 3c3f d930 333f
000000a0: e3bb 4c3f fe48 453f 77fc 533f c913 563f
000000b0: 1d66 453f 7a3b 603f 2d4c 513f ab6d 333f
000000c0: d46b 4e3f 1daf 2a3f 25ad 413f 91b2 463f
000000d0: cbc8 443f c538 483f 19c9 313f a106 643f
000000e0: d290 383f c669 423f abe2 433f 0f92 473f
000000f0: 7586 3b3f f515 3f3f 1768 393f a24c 2f3f
0.787792 0.75634354 0.76543 0.6816873 0.72199893 0.71181923 0.80863905 0.8112789
0.6971469 0.74110174 0.92788655 0.6588607 0.7660708 0.8208622 0.786396 0.7818119
0.7876392 0.7604406 0.7598975 0.7231525 0.6728207 0.90529144 0.7706344 0.6866405
0.7218133 0.6902783 0.6997063 0.79742634 0.7910243 0.7354207 0.6984305 0.7679633
0.77099705 0.8099994 0.7370733 0.7622985 0.69008857 0.81244624 0.73779607 0.6999641
0.7997419 0.770645 0.82807106 0.8362394 0.7710894 0.87590754 0.8175686 0.70089215
0.8063328 0.6667345 0.7565482 0.7761622 0.76868886 0.78211623 0.69447476 0.89072615
0.7209598 0.7594265 0.7651774 0.7795724 0.7325204 0.7464288 0.72424453 0.6847631

cnn.convolutions.10.bias f4 [64]
00000000: 013c dc3c 6c9d a3bb 6262 ee3c 7894 0f3c
00000010: 8b23 fa3c 2eda 1c3b 5653 f73c dece 173d
00000020: 2df9 51bb bfa0 483d 2e0a 793b 91aa 733d
00000030: 9698 303d c744 afbc 4596 6f3c 95c9 063d
00000040: 8876 923b ddcf 413d ddb1 9b3c 04ec 483d
00000050: 44e9 333d 85e4 8d3c 0c7a d13c 10e9 643d
00000060: cdb8 2c3d 899a 233d c684 9a3d 914e d93c
00000070: 24ac d33b e199 07bc e95c 413d 5d34 2b3c
00000080: 5792 973c ff1f ae3c 54f1 ff3c 34d2 0c3d
00000090: 4d42 573d 7adf 633c da4f 9d3c c28c dcbb
000000a0: dd38 2d3b d73d 143d b31f 0a3d 0222 353d
000000b0: 7954 db3c 5f28 2d3d c0a5 7a3b 0a8f 383d
000000c0: e9f0 083d f3c4 c63c a783 c53c c261 aa3c
000000d0: d59e 1d3d 6c4a 733c b900 013d fff3 4f3d
000000e0: 6ed5 bd3c 8892 bd3b c50b ba3c 1edb 12ba
000000f0: 5d93 813a f60f 9f3c b905 473d ecdf 083d
0.02688408 -0.0049931314 0.029099647 0.008763425 0.030534526 0.0023933756 0.030191105 0.03706252
-0.003203939 0.048981424 0.0038000452 0.059488837 0.043114267 -0.0213951 0.014623229 0.032907087
0.0044696964 0.047317374 0.01900571 0.049053207 0.04392363 0.01732088 0.025570892 0.05588633
0.042168427 0.039942298 0.07544856 0.026526721 0.0064597297 -0.008276434 0.047207747 0.010449496
0.018502397 0.021255491 0.031243004 0.034380153 0.052553464 0.013908261 0.019203115 -0.006730647
0.0026431598 0.036191788 0.033721637 0.044221886 0.026773678 0.04227483 0.0038245767 0.045058288
0.033432875 0.024263835 0.024110628 0.020798568 0.038481552 0.0148492865 0.03149483 0.050769802
0.02317306 0.00578529 0.02271069 -0.0005602109 0.0009885837 0.01941679 0.048589442 0.033416674

cnn.convolutions.10.running_mean f4 [64]
00000000: e1af 043e ef3e d63e 6860 ae3e 0188 9b3e
00000010: 7259 eb3e 4196 823e aa5e 3a3e 3cdc 823e
00000020: 5640 ee3e 8bfc 863e 19d0 903e 491d 953e
00000030: 86b0 ad3e 3264 073e 6c80 8c3e ddbe 3c3e
00000040: 0e1c a53e 0e13 463e 8ecf af3d 9bb7 b83e
00000050: 0d94 a63e 3390 b23d f26f 8a3e 46e1 743e
00000060: 5984 d33e 97bf d03e 4cd8 c73e 717a 6b3e
00000070: 35ea e03d 9772 993e d643 0c3f 3438 bd3e
00000080: c13f 7c3e 8aac 603e 21b3 f63d dfcc a53e
00000090: 6f76 bb3e 8008 2f3e d808 343e 465e 223f
000000a0: a5c6 143e 879a 0e3e 16c8 3b3e 80f7 243e
000000b0: d75d c63e 07b9 7e3e 054f 2c3e ad7f 013f
000000c0: 1a58 b13e 8dd8 e53e 16b2 943e caf6 213e
000000d0: d3d9 423e 950c d33d ed4f a83e 7685 9d3e
000000e0: 13ce c23e 657b 663e 88ab d13e 9939 6c3e
000000f0: 26f3 c73e 3584 033f f5fc 903e 043a b13e
0.12957717 0.4184489 0.34057927 0.303772 0.4596668 0.2550526 0.18200174 0.2555865
0.4653346 0.2636455 0.28283766 0.29123905 0.3392374 0.13221815 0.27441728 0.18432184
0.32247967 0.19343206 0.0858451 0.3607758 0.3253483 0.0871891 0.27038532 0.2391406
0.4131191 0.4077117 0.3903221 0.22995926 0.109821714 0.29970238 0.5479101 0.36956942
0.24633695 0.21940818 0.12045885 0.32382867 0.36613795 0.17093086 0.17581499 0.634251
0.14528902 0.13926135 0.18338045 0.16110039 0.3874347 0.2487527 0.16827019 0.5058544
0.3463753 0.44891778 0.2904212 0.15816799 0.19028406 0.10305134 0.3287348 0.30765885
0.38047847 0.22508009 0.4095118 0.23068847 0.39052695 0.51373607 0.2831799 0.34614575

cnn.convolutions.10.running_var f4 [64]
00000000: 908f b03e f289 d63f fcb9 8d3f 7096 ed3f
00000010: e140 4740 eb08 a23e 4a9d 023f 2117 5e3f
00000020: ede7 953f e99f 5d3f d6c2 293e 154e be3f
00000030: 4aab e93f f863 923e e007 b63f e024 cd3d
00000040: 99c7 0440 e500 723f d7b7 a23d 178d ad3f
00000050: 9b0b 6d3f 039f b03d 696c d83e 81be 7e3f
00000060: db76 5040 abaf 2c40 6e3b 2540 3633 ea3e
00000070: b2f5 a63e 643c 2a3e 0079 9940 fdf3 e23f
00000080: f90c 113f 3a92 bc3e baac fa3d e9dd 953f
00000090: b3a0 0740 0c4c c83e d13d f03e 52f1 5c40
000000a0: 0fb9 d53e 7fa2 ce3e 355a 023f f05a 0a3f
000000b0: 853a 1c40 ec4b ed3d 4af9 9d3e f0bb 2c40
000000c0: 98fc a43f cb0e 0f40 ea7f df3f 0fde d43e
000000d0: cd92 4a3f 050d c33e 24dd 893f a4a9 9c3e
000000e0: c23b da3f 5b73 103f b041 2240 8ae7 3a3f
000000f0: a5db 2a3f 86e3 9d40 2b1e be3f 8639 143f
0.3448453 1.6760848 1.1072383 1.8561535 3.113335 0.3164743 0.51021254 0.8675404
1.1711403 0.8657213 0.1657823 1.4867579 1.8255398 0.28591895 1.4221153 0.10016799
2.0746825 0.94532615 0.07945221 1.3558682 0.92595834 0.08624079 0.4227021 0.99509436
3.2572544 2.698222 2.5817523 0.45742196 0.32609326 0.166246 4.7960205 1.7730709
0.5666042 0.36830312 0.12239976 1.1708347 2.1191833 0.3912052 0.46922162 3.452229
0.4174275 0.4035835 0.50918895 0.5404501 2.4410717 0.115867466 0.30854255 2.6989708
1.2889585 2.235278 1.7460911 0.41575667 0.7913025 0.3809587 1.0770612 0.30598176
1.7049487 0.5642602 2.5352592 0.7300955 0.667414 4.934024 1.4852957 0.57900274

fc.0.weight f4 [128, 1045]
00000000: f26f 8fbb aea5 c43a 4aae 2d3c e8e9 433c
00000010: 7e96 ee3c 9121 063c eb68 85bb 0f82 2e3c
00000020: 30a2 06bc 6f04 a93c b573 333d d895 053d
00000030: 3ab6 3a3c c893 e53c ce37 bc3b ac02 523c
00000040: 9c89 aa3b 44b2 e43b 99eb 9b3c ce02 9cba
00000050: 1904 ca3b 3b9a bcbb 27a2 803c 8c19 853c
00000060: a951 16bc e923 093c 0a45 2d3c f160 7e3a
00000070: 61e9 723c f5a4 9d3c 70fa 8b3b c1f9 543c
00000080: 7f9b 4ebb cc76 b2bb db46 01bb 23e1 cd3c
00000090: 14ad 76bc 62b5 843c 2f4d 4cbb c0c3 c6ba
000000a0: e9a9 afba 19ca 76bb 12bf 7a3b 7415 953c
000000b0: 1f16 24bb 4f08 103b caf5 61bb fcb2 76bb
000000c0: 25b0 293a 288e 87ba c159 f93a 1312 4d3c
000000d0: c4f8 60bb 1030 853b 02bc 163c faa8 093c
000000e0: 6729 d03b 52b4 c83b 4abe 703c 1048 063c
000000f0: e551 ea3b a67a da3c da89 a53c 280a 673c
00000100: 2373 ddba 6012 823b 72fb db3c 3d1c 9e3b
00000110: 52a4 43ba 73f8 be3b b009 1b3b ff05 973c
00000120: 8b2f 3abb 30e9 f83b 1419 133c 3242 a13b
00000130: b72d dd3b d5d8 40bb a78f 2e3b 2057 21bb
00000140: 1f92 f3bb 6397 ecba ec55 1e3c 7519 c339
00000150: 0c3f 22bc ce14 623c 43c7 8f3c 3b78 2ebc
00000160: 38c7 0b3c b7ba 343c ba31 5fbc 6b2d 1c3c
00000170: 7a30 d03c bf2f 2e3c f83f dfbb 41f8 d6bb
00000180: 5eb9 80bb 5148 15bc 53a6 d3bb efdc 85bc
00000190: 88e2 ed3b ba0a d8bb 745f 473b 4050 4b3c
000001a0: 3ba2 423c 6c27 ab3c 8f95 3c3c df65 973c
000001b0: c131 103b e12c 733b 24da 2b3d ab52 193d
000001c0: 24fd 35bc ba7f dd3b b88a 3ebb 09cf a33c
000001d0: 010b eabb 8b3b b93c 137e b03c 3030 2e3c
000001e0: 1370 fbbb f005 3b3c c1fb f63c 2e03 bd3c
000001f0: 086f a337 0456 233d 97a0 083c a93f 2a3c
00000200: 2087 3d3b 9285 893b e4de 0aba 0bf2 433c
00000210: 0f81 9aba e2fb 993b 2dda b43c 2368 24bc
00000220: bcbf 0bbc 62e8 8aba 7ec4 f53b 7bdb af3c
00000230: a27b b73c 780a 903c 8490 ad3b 22bd c93b
00000240: 8223 b7bb d466 e5bb b957 4ebc 03d1 1d3c
00000250: 6b68 2439 52b5 beb9 27b9 dc3c ef2d 853c
00000260: e79c 72ba c779 cc3b 6bde 2e3c 1254 caba
00000270: 373b 8f3c cd6c d13c a27f 203d 2590 233c
00000280: ba4a ad3a 42e9 f93b 9c4a 9ebc cacc deba
00000290: f008 3ebc e114 ffba 42c4 d0bc 08b6 45bc
000002a0: dab4 d7bc fb91 d73b c1e8 f4ba 3538 89bc
000002b0: abcc 14bc b466 313c 8950 94bb 4fa0 aebc
000002c0: 066e 5f3a 8dae 09b9 cbd9 1e39 4888 363c
000002d0: db80 5cbb 8386 653c 26dc b3bb 0fa1 863b
000002e0: 1730 40bc d4f4 d2bb a878 1c3a 85b0 893b
000002f0: 7221 20bc 53a8 08bb e488 563c b0cb 9aba
00000300: 72bc 6ebb 9c60 de3b 4ebd 353c cc17 fa3b
00000310: d353 b83a d5f4 46bb ef84 c1bb cedd 223b
00000320: 41d1 0f3c 59af 0f3c 07cb 803b 20cf 9b3b
00000330: c303 e43b 593e a4ba 5b41 723c b30d 483c
00000340: 24d2 e93b fde2 463c 5ce2 9e3c bd58 883c
00000350: f63e 483b 0c6d 023c 0b29 313c e46d bd3c
00000360: 4351 97bb 5d0c 00bd c27a 9abb a2e3 5e3c
00000370: 50af 7b3c 32b6 fe3b 3881 5abb 5f05 243c
00000380: a5f9 723b d1f5 803a 2253 973c 37d5 f23c
00000390: 9138 a53b 1353 9bba 28cd eeba 8a6d cb3c
000003a0: ce35 f7bb bf9b 003c ef32 48bc c96b 79bc
000003b0: a4ed aa39 7250 85bc fd40 883c ac24 a13c
000003c0: cf35 05bc e04b cbbb 5584 603b caf7 71bb
000003d0: 5c45 343c 1559 d8bb b4e2 86bc 5666 433c
000003e0: c8ef 1fbc 6a34 97bc a11e cfbc 9566 f03a
000003f0: 873c 88bc 9361 99bc 1a27 a139 2acf be3a
-0.0043773586 0.001500299 0.010600636 0.011957623 0.029124495 0.008186714 -0.004071345 0.010651126
-0.008217379 0.020631997 0.04381152 0.032613605 0.011395985 0.02802457 0.005743957 0.01281802
0.0052043926 0.0069792587 0.01903324 -0.0011902691 0.0061650393 -0.0057556904 0.01570232 0.016247533
-0.009174743 0.008370378 0.010575542 0.00097037764 0.01482615 0.019243697 0.004271798 0.012998999
-0.0031525788 -0.0054462906 -0.001972607 0.025131768 -0.0150559135 0.016199771 -0.0031173935 -0.0015164539
-0.0013402078 -0.003765708 0.003826086 0.018198706 -0.00250376 0.0021977609 -0.0034478777 -0.0037643304
0.0006473086 -0.0010342048 0.0019023941 0.012516516 -0.0034327963 0.0040645674 0.009200098 0.008402104
0.006352592 0.0061250115 0.014693806 0.008195892 0.007150876 0.026669811 0.020207334 0.0141015425
-0.0016895275 0.0039694756 0.026853297 0.0048251436 -0.00074631453 0.0058279573 0.0023656897 0.018435476
-0.0028409685 0.0075961575 0.008978147 0.004921221 0.0067498344 -0.0029426117 0.0026635916 -0.002461858
-0.0074331905 -0.0018050488 0.00966404 0.00037212265 -0.009902727 0.013798906 0.01755107 -0.010648782
0.008531384 0.011030844 -0.013622696 0.009532313 0.02541374 0.010631501 -0.0068130456 -0.006560356
-0.0039283475 -0.00911148 -0.0064590364 -0.0163407 0.0072596706 -0.0065930756 0.0030421885 0.01240927
0.011879499 0.020892821 0.011510267 0.018481193 0.0022002312 0.0037105607 0.041956082 0.037432354
-0.011107717 0.006759611 -0.0029074382 0.019996183 -0.007142425 0.0226114 0.021544492 0.010631606
-0.0076732724 0.01141499 0.030149342 0.023072805 1.9482817e-05 0.039876953 0.008339069 0.010391154
0.0028919652 0.004196831 -0.00052974955 0.011959563 -0.001178773 0.004699216 0.02207669 -0.010034594
-0.0085296 -0.001059782 0.0075002303 0.021466961 0.02239782 0.017583117 0.0052967686 0.0061565796
-0.0055889497 -0.0070007835 -0.012594157 0.009632352 0.00015679158 -0.00036374718 0.026943756 0.016257254
-0.00092549477 0.006240103 0.010673146 -0.0015436432 0.01748429 0.025564576 0.03918422 0.009983097
0.0013221123 0.0076266835 -0.019322686 -0.0016998288 -0.011598811 -0.0019461178 -0.025484208 -0.012067325
-0.026331354 0.0065786815 -0.0018685089 -0.016750434 -0.009082 0.010827709 -0.004526202 -0.021316675
0.00085231697 -0.00013130363 0.00015149188 0.01114089 -0.003364614 0.014009121 -0.00548889 0.004108555
-0.0117302155 -0.006437877 0.0005968907 0.004201951 -0.009773599 -0.0020852282 0.013094161 -0.0011809971
-0.003642824 0.006786419 0.011092497 0.0076322313 0.0014063068 -0.0030358334 -0.0059057395 0.0024851444
0.008777917 0.0087698335 0.0039304527 0.004754916 0.0069584562 -0.0012530788 0.01478609 0.012210297
0.0071356464 0.012139079 0.019395046 0.016643876 0.0030555106 0.007960569 0.010813008 0.023123689
-0.0046178414 -0.03126179 -0.004714341 0.013604077 0.015361622 0.007773184 -0.003334118 0.010011046
0.003707507 0.0009838884 0.018472258 0.029642684 0.0050421436 -0.001185032 -0.00182191 0.024832506
-0.007544256 0.007849633 -0.012219175 -0.015223452 0.00032601983 -0.01627371 0.016632551 0.019670807
-0.008130505 -0.0062041134 0.0034258564 -0.0036921375 0.011002865 -0.0066024163 -0.016465522 0.011926254
-0.009761758 -0.01845761 -0.02528316 0.0018341119 -0.016630424 -0.018723285 0.00030737446 0.0014557589

fc.0.bias f4 [128]
00000000: f73a 3f3b ceef f5bb f269 15bd 214a bb3c
00000010: edd8 1cbc 2fa9 ab3c b0af d73b cc78 9b3c
00000020: 12ba de3b ae56 893d 741e 963b 4707 f13c
00000030: cc04 5b3c bf44 ca3c 9d38 57bb 8a71 0d3d
00000040: d191 c53c 95e7 813d cc0c 733b 2b1e 97bb
00000050: f7f6 8f3b d1e1 393d f852 223c 3789 f23b
00000060: f9be f23b b2cd 023d abb1 a3bb 7788 bfbb
00000070: bada 973b c992 e93a 6eaa f83c 5d20 a33c
00000080: 263c a43d 0fce dd3b b3e6 a9bb 5def 3d3c
00000090: 53ef 723d 57b8 fe3b bcdb 8c3c e36d 02bd
000000a0: 4d83 853d a8dc 8abc e459 a23b 3438 773c
000000b0: ed09 6cb9 7fec ec3c b225 f53c 169f 7c3c
000000c0: 4f55 473d a41f ad3b 04b2 78bc f0ac 9c3b
000000d0: b0de 5b3c cd10 90bc aec8 aeba da27 aebc
000000e0: bbf9 1c3b 672a 8e3c 7ba3 933c 14e6 793b
000000f0: fbc0 6bbc 8f12 d53b 88c0 26bb c4bf c63b
00000100: 8abf 8a3b 4241 a23c 83de c13c 1ed2 123c
00000110: 5871 283c edd5 0e3d bd60 0fbc ffc4 813c
00000120: 88a8 a23b 4bad 1d3c fe7c b5ba 268f 05bd
00000130: 5476 013b 02ee 66bc 18db 243d 9fe0 433d
00000140: 74ad dc3c 51a5 37bc 8785 b1bc 69fc 8abb
00000150: 6e70 463c 8bce 853c f800 aa3c f0e0 4ebc
00000160: 74e2 fa3b 8100 923c 7cf4 da38 f362 b73c
00000170: 6cc9 8a3d 8442 b4bc 25d0 ed3d 6281 313c
00000180: 3d33 80bc 1ad4 d53b cb10 8f3d c7d0 6ebc
00000190: 9d3c e8bb 3eec 823c d915 1b3d a182 13bd
000001a0: 8dd4 423c ec6e 7abc fd44 5c3c 14bd 0bba
000001b0: c18b 6f3b d2bc af3b 6a20 213b 1b50 853d
000001c0: 904c 273b d629 a3bc 31f0 623c 373c 033b
000001d0: 36cc 873d 9061 743d 36f7 973c 5260 8c3c
000001e0: aa7c 6abc 2714 733c bf5a 6e3c 6ab9 0fbb
000001f0: 0599 603c 9916 efbc d12f 323d 791e edbc
0.0029179433 -0.0075053936 -0.03647799 0.022862496 -0.0095732035 0.020954696 0.006582223 0.018978499
0.0067970837 0.06705986 0.004581267 0.029422415 0.013367843 0.024690984 -0.003284014 0.034532107
0.024117382 0.06342999 0.0037086485 -0.0046117506 0.004393454 0.04538137 0.009907477 0.007401611
0.0074080196 0.031934448 -0.004995545 -0.0058451253 0.0046342285 0.0017820235 0.030354705 0.019912893
0.08019285 0.006768949 -0.005184972 0.011592713 0.05931027 0.00777344 0.017194621 -0.031843077
0.06519184 -0.01695092 0.0049545635 0.015089083 -0.00022510412 0.028921364 0.029925201 0.015418788
0.04866534 0.005283313 -0.015179161 0.004781358 0.013419792 -0.017586136 -0.0013334954 -0.021259237
0.0023952562 0.017354203 0.01802229 0.0038131522 -0.014389272 0.0065024565 -0.0025444347 0.0060653407
0.004234259 0.019806508 0.023665672 0.008961229 0.0102809295 0.034871984 -0.008751092 0.015841005
0.004963938 0.009623836 -0.0013846455 -0.03260722 0.0019754367 -0.014094831 0.040248007 0.047821637
0.026938178 -0.011208848 -0.021670116 -0.0042415154 0.012111766 0.016333839 0.020752415 -0.0126268715
0.00765639 0.017822506 0.00010440589 0.02238605 0.067766994 -0.022004373 0.11611966 0.01083407
-0.015649432 0.0065255286 0.06985625 -0.014576144 -0.007087304 0.01598179 0.037862632 -0.03601325
0.011891496 -0.015285235 0.013444182 -0.0005330604 0.0036551806 0.0053630853 0.002458597 0.065094195
0.0025527813 -0.01991741 0.013851211 0.0020024905 0.06630747 0.059663355 0.018550497 0.017135773
-0.014311949 0.014836348 0.014548003 -0.0021930584 0.013708358 -0.02918558 0.043502633 -0.028945195

fc.2.weight f4 [128]
00000000: c212 433f 5b2d 3c3f 54b6 7c3f 9cc9 543f
00000010: 5a1b 653f 22e9 633f 5342 7b3f 75eb 4f3f
00000020: a1a8 4a3f 0c25 5b3f e3c5 383f f8cd 5f3f
00000030: 34cd 433f 65b6 3f3f 35be 433f dded 5e3f
00000040: 7b2e 513f 2db0 6d3f 468b 423f e51f 413f
00000050: 37f5 463f 067a 543f 5155 5b3f d8ef 4c3f
00000060: 6739 5b3f 5dc1 573f 2d58 483f 37fd 4f3f
00000070: 4ef6 c43e e765 913e d733 643f d164 593f
00000080: 5b63 4b3f 08e1 4b3f 86d1 6e3f aaa1 4b3f
00000090: d1a2 7a3f cf67 533f ff0f 5a3f b8d0 6d3f
000000a0: e44c 5c3f 826e 463f 5d7c 503f ed50 523f
000000b0: 74d9 4d3f a62e 523f d7ad 503f 14c7 443f
000000c0: bf6a 583f a7c2 543f 8414 533f 598f 533f
000000d0: a158 483f c684 573f 87ce 423f f3e4 593f
000000e0: 3188 5b3f bbd6 553f efc2 4c3f de8b 733f
000000f0: f532 693f e0de 473f 5c2e 4f3f b717 553f
00000100: b7b1 533f 185f 483f 2f31 523f 4cf9 543f
00000110: 9e74 593f af2e 523f cbb6 583f 895f 483f
00000120: e643 543f 867a 473f 0ce4 5e3f 312f 923f
00000130: 31d3 5d3f 2ccb 503f ee5b 573f 2b41 613f
00000140: 85ce 633f d0d0 773f a1ae 5b3f 62e9 443f
00000150: 885f 413f fb77 4c3f aa90 5e3f f118 4d3f
00000160: 8e95 4e3f 2991 623f 1a69 5c3f a24b 503f
00000170: 6c2f 5d3f 6a37 803e 618d 973f 6d00 5e3f
00000180: 3499 5e3f a157 4d3f ae5f 683f 37ea 433f
00000190: af34 503f 0e70 523f 79d4 5e3f 119a 993f
000001a0: 65a6 453f bd15 4b3f c139 503f 405e 523f
000001b0: 0e53 573f daa6 553f c7c9 473f e6fa 5b3f
000001c0: f429 563f a820 563f ea7e 693f 5822 573f
000001d0: dc5e 833f 6c8d 683f a911 4f3f d8e9 5f3f
000001e0: 6332 263f a9e1 5c3f 2b10 613f 6261 4c3f
000001f0: 628a 493f 80c7 6e3f c031 493f 0280 473f
0.762005 0.73506707 0.9871571 0.8312013 0.8949486 0.8902761 0.9814808 0.81218654
0.7916356 0.85603404 0.7217695 0.8742366 0.7648499 0.74887687 0.7646211 0.870817
0.8171155 0.9284695 0.75993764 0.7543929 0.7771792 0.82998693 0.8567706 0.8005347
0.85634464 0.84279424 0.78259546 0.8124575 0.38469166 0.28398058 0.891416 0.8491946
0.7944848 0.79640245 0.9328846 0.79543555 0.9790469 0.82580274 0.8518066 0.92896605
0.86054826 0.7751237 0.81439763 0.8215473 0.8040993 0.8210243 0.8151526 0.7686627
0.8453788 0.83109516 0.8245318 0.82640606 0.78260237 0.8418697 0.76096386 0.85114974
0.85754687 0.8353078 0.79984945 0.95135295 0.9109338 0.78074455 0.80930114 0.8323931
0.82693046 0.782701 0.821063 0.83192897 0.8494357 0.82102484 0.8465392 0.78270775
0.82916105 0.7792133 0.8706672 1.1420652 0.8665038 0.81560016 0.8412465 0.87990063
0.88987 0.96803 0.8581334 0.76918614 0.75536394 0.79870576 0.8693949 0.8011618
0.8069695 0.88502747 0.8609787 0.81365407 0.86400485 0.25042278 1.184002 0.867194
0.8695252 0.80211836 0.90770996 0.7652926 0.8133039 0.8220223 0.8704296 1.2000142
0.7720702 0.79330045 0.81338125 0.82175064 0.84111106 0.8345772 0.7804226 0.85929716
0.83657765 0.8364358 0.9120928 0.8403678 1.0263324 0.9084079 0.8088632 0.8746619
0.64920634 0.8628183 0.87915295 0.79836094 0.7872678 0.9327316 0.7859154 0.779297

fc.2.bias f4 [128]
00000000: 274c 84bd 0dc3 613e b089 ed3c 21bb ee3d
00000010: 985f bf3d 1ca9 9c3d dc23 4bba c448 e4bd
00000020: 0ba9 a53d dbb8 653d 554a f2bd 23b3 4e3d
00000030: c5bf cd3c 1252 893d e0c1 03be 9550 723c
00000040: 8215 47bc 593c 9a3d 69c0 8dbc 41c7 0ebe
00000050: 6678 2f3e 9393 5a3d a9f7 23bd 3ee6 24be
00000060: 8936 883d 1aa9 13be ba09 703d 3e75 d3bd
00000070: 7ad2 44bd e70b e6bc 9e81 14be 9f2c 353e
00000080: 060b eabc 5e88 ddba ebc8 8dbd 19f2 a0bc
00000090: 9877 f0bc 2f5e 183c 4da3 c0bd 7d73 d03b
000000a0: 24a5 923c 9fd9 51bd f958 a63d 76c4 e93c
000000b0: eba8 0abc 4182 da3d 5aca 69bd 66b6 b5bc
000000c0: bbc9 c03b 0982 a7bd b89a 22be 72b6 cd3c
000000d0: 1ff7 0abe 759e 40bb 5936 b6bc 4022 7cbd
000000e0: 889e 253e 4ec8 103d 21f3 663e 3912 06be
000000f0: baff 253c 261b acbd 63ed 233d 5f4f c03d
00000100: 3287 7b3d ee74 debd 97a4 72bb 498b 683d
00000110: b328 e3bd a540 6fbc 4d22 5e3c 169b 453c
00000120: 6a62 7bbb aadd 8dbc e6de 17bd e70a e23d
00000130: 2d49 8abb 95f6 b63d 9913 cb3d 3559 e6bd
00000140: e4aa 50bd b7b1 f4bd 0b75 a0bd 8e44 e73d
00000150: f4b9 f1bc fcaa e53d 0179 503d c46d a23d
00000160: 0ed7 83bd 3476 eebd 2797 c7bd a3d5 3e3e
00000170: c33b 06bd b992 d4bd e0ef 013e 0627 a4bd
00000180: df7e 22be 68da 62bd 77b1 94bd e157 6f3d
00000190: a12d b9bd 1a36 40bd cb23 353d b9b3 fc3d
000001a0: 297d d1ba ce1e c93d 2128 cabd 592d 673d
000001b0: b7b3 a5bd 5eb3 c73c e037 c43b 0e3c 5f3c
000001c0: da12 e3bd 9c85 933d 0c4e e63c 91ea fbbd
000001d0: bf1d f0bd 2672 e1bc f747 a23d e0ec d93d
000001e0: 8c12 81bd e850 e2bd 6add f8bd 4098 05bd
000001f0: 3fdc 8dbd 5058 cbbd 132c 74bd 85f3 a8bd
-0.064598374 0.22047062 0.028996319 0.11656786 0.09344405 0.076494426 -0.0007749179 -0.111466914
0.08088883 0.056084495 -0.11830584 0.050463807 0.025115857 0.06705107 -0.12866926 0.01478972
-0.012151124 0.07531042 -0.017303662 -0.13943197 0.17135772 0.053363394 -0.04003111 -0.16103455
0.06651027 -0.14419976 0.058603026 -0.103250965 -0.04805229 -0.028081847 -0.1450257 0.17692803
-0.02856971 -0.0016901603 -0.06923088 -0.019646691 -0.029353902 0.009299799 -0.09406147 0.0063614235
0.01790101 -0.05123293 0.08122439 0.028536063 -0.008463125 0.10669375 -0.057077743 -0.0221817
0.005883423 -0.08179099 -0.15879333 0.02511141 -0.13570832 -0.0029391323 -0.022242712 -0.0615561
0.16173756 0.035347275 0.22553684 -0.13092889 0.010131771 -0.08403616 0.04002131 0.09390139
0.06140823 -0.10862146 -0.0037024373 0.056773458 -0.11091747 -0.014602815 0.013557983 0.012060901
-0.003835822 -0.017317612 -0.037077807 0.11037236 -0.004220149 0.089337505 0.09915847 -0.11247484
-0.050944224 -0.11947959 -0.07834824 0.11292373 -0.029507615 0.11214253 0.05089665 0.079310924
-0.06437503 -0.11643639 -0.09745627 0.18636183 -0.032771837 -0.103795476 0.12689161 -0.08015256
-0.1586871 -0.05538407 -0.07260411 0.058433417 -0.09041906 -0.046926595 0.044223588 0.12338967
-0.0015982735 0.09820329 -0.09870935 0.05643973 -0.080909185 0.024377521 0.005988106 0.013625158
-0.1108758 0.07203218 0.028113388 -0.12300599 -0.117244236 -0.02752025 0.079238825 0.106408834
-0.06302366 -0.11050588 -0.121516064 -0.0326159 -0.06926774 -0.09928954 -0.059612345 -0.08249573
