trained_models/regression_linear_gammas_hillas_stereo.pth (torch, 69458 bytes, 2 tensors)

linear.weight f4 [8, 2115]
0.017087838 -0.005029672 0.013479499 0.0030542745 0.008146089 0.0014816222 -0.00036779427 -0.010027958
0.010818575 -0.015078596 -0.006705592 0.008742867 0.0011647358 -0.0043135835 -0.009662276 -0.010696334
-0.0076329317 -0.007565953 0.00865035 0.009135154 -0.007486648 0.00030123448 0.0054940945 0.00344886
0.00552736 -0.015448805 0.009285512 -0.012337529 0.010012572 0.0102402 -0.007675281 -0.0008931544
0.014512515 0.008366912 0.012696812 0.0042425455 -0.016754003 0.009850922 0.0005734099 0.006412847
-0.00076526176 -0.0032656 -0.012879424 -0.004792962 0.0016161563 0.02235883 -0.012430805 -0.003275355
0.007090786 -0.020822048 0.006296614 -0.0009227492 0.013199838 -0.01821902 0.0016155818 -0.007121262
0.002594837 -0.018743645 -0.008228099 0.009534931 0.0022792553 -0.015790837 0.000108936765 -0.0019828281
0.01165781 0.0017982348 0.004627106 -0.00308921 0.014426623 0.009501643 -0.013105563 -0.0024799372
-0.0008439676 0.001296254 0.00082746806 0.007105821 0.005295347 0.008795047 0.009165923 -0.008289571
0.017178832 -0.004764251 0.014591778 0.00067585165 0.0031700274 0.008661067 0.00097055855 0.0026651577
0.0072025806 0.0016410347 -0.0014903714 -0.0067054457 0.014677295 -0.012021456 0.009754904 -0.021022843
0.0038262724 -0.009775548 0.009624088 0.0049019726 -0.017128825 0.008625656 0.0040598363 -0.009607217
-0.0011266686 0.005622757 0.012221622 -0.0049027456 -0.009324125 0.006782346 -0.015164493 0.0020401212
-0.009746558 -0.013332535 -0.0010751443 0.010483136 -0.01727866 0.008311101 -0.005700957 0.006512562
0.0077080596 0.010188005 -0.0070382087 0.008937845 -0.0141101945 0.004759163 0.010755429 0.011432314
-0.01383497 0.013150306 -0.0006965974 0.0042943754 0.016868457 0.011241954 -0.0029793375 -0.017466577
0.005678756 0.0066793878 -0.013153945 0.007731521 0.009510222 0.0027828973 -0.015785087 0.013652384
-0.0035876648 -0.0046558697 -0.005756216 0.01062674 -0.003918206 0.00944836 0.00083492015 -0.0032327943
0.014020323 0.007714525 0.0042440025 0.00072822906 -1.6349882e-06 0.004942665 0.008097014 0.00069537625
-0.014130196 -0.016053647 -0.0052196784 0.01022933 -0.010490039 0.00019035833 0.010109102 -0.009996521
0.00587593 0.010595813 -0.006644214 0.016580105 -0.015762882 0.013417516 -0.014401271 -0.0017940664
0.0047491025 -0.0056860107 0.0030347346 0.016673889 -0.016555166 -0.0010194234 0.009523228 -0.020560155
0.008180341 -0.0098251775 0.015168649 -0.0016474484 0.022412835 -0.0015615859 0.0034295905 -0.008530716
0.0039515416 0.00029007116 0.013236851 -0.018888095 0.01379891 -0.0070144613 0.01999888 -0.018511565
-0.00041954016 0.0044321967 0.009219405 0.0023729552 -0.011636198 -0.00080698327 0.0061768354 0.00017925596
0.019266501 -0.010110258 -0.010147078 0.008524368 0.014751261 -0.0027987484 -0.002231362 -0.0040554586
-0.0025713926 -0.0067968057 -0.0031520682 -0.004737491 -0.011937028 0.011983652 -0.0015718854 0.008708595
0.009970712 -0.008202048 0.013399437 0.0030386054 -0.0011289461 0.019581784 -0.013968968 0.01774373
-0.014850792 0.0076756454 -0.00017489321 0.009148462 0.00122581 -0.0060646674 -0.013310479 -0.002298267
-0.0082575325 0.01613041 0.0053285565 0.0074457987 0.0057020136 -0.016380437 0.0049328646 0.012649405
-0.0122457715 -0.0048832474 -0.0015923791 0.0027403776 -0.0039312197 0.0059756213 -0.0141461855 0.013706454
00000000: cbfb 8b3c f2cf a4bb 1ed9 5c3c 392a 483b
00000010: 2c77 053c fe32 c23a 83d4 c0b9 4e4c 24bc
00000020: 6440 313c 370c 77bc 95ba dbbb 3e3e 0f3c
00000030: 0caa 983a f658 8dbb 864e 1ebc ad3f 2fbc
00000040: ac1d fabb d0eb f7bb 33ba 0d3c 9dab 153c
00000050: 8e52 f5bb 02ef 9d39 ce07 b43b 4506 623b
00000060: db1e b53b fc1c 7dbc 4322 183c 5923 4abc
00000070: c50b 243c 83c6 273c ec80 fbbb 9422 6aba
00000080: e6c5 6d3c 5f15 093c 4a06 503c 0d05 8b3b
00000090: b13f 89bc c365 213c e350 163a dc22 d23b
000000a0: d99b 48ba ad03 56bb 3804 53bc 480e 9dbb
000000b0: 35d5 d33a dd29 b73c 93aa 4bbc 57a7 56bb
000000c0: d359 e83b 0093 aabc d453 ce3b a7e4 71ba
000000d0: 2244 583c 0e40 95bc eec1 d33a 7a59 e9bb
000000e0: 240e 2a3b 468c 99bc 26cf 06bc 6638 1c3c
000000f0: 8f5f 153b c95b 81bc fb74 e438 56f2 01bb
00000100: 6600 3f3c bfb2 eb3a fa9e 973b 5874 4abb
00000110: a45d 6c3c c7ac 1b3c b7b8 56bc 7186 22bb
00000120: b53d 5dba 11e7 a93a 71ea 583a f2d7 e83b
00000130: 9784 ad3b 1a19 103c ab2c 163c fbd0 07bc
00000140: 9fba 8c3c 6f1d 9cbb 5a12 6f3c a32b 313a
00000150: 3cc0 4f3b 26e7 0d3c 156d 7e3a eda9 2e3b
00000160: a003 ec3b fd17 d73a 9158 c3ba 5bb9 dbbb
00000170: 0a79 703c a4f5 44bc 08d3 1f3c 1938 acbc
00000180: 33c2 7a3b 9f29 20bc 5aae 1d3c baa0 a03b
00000190: c051 8cbc a052 0d3c 6008 853b 9767 1dbc
000001a0: baac 93ba 1b3f b83b 333d 483c 36a7 a0bb
000001b0: 37c4 18bc 713e de3b 7e74 78bc 8eb3 053b
000001c0: 07b0 1fbc b470 5abc dbeb 8cba 76c1 2b3c
000001d0: fa8b 8dbc 492b 083c 18cf babb 5467 d53b
000001e0: e493 fc3b 97eb 263c c6a0 e6bb 0a70 123c
000001f0: 722e 67bc c1f2 9b3b 8a37 303c 9a4e 3b3c
00000200: 12ac 62bc 6274 573c dc9b 36ba d5b7 8c3b
00000210: b82f 8a3c 2c30 383c fd40 43bb 1116 8fbc
00000220: dc14 ba3b c4de da3b a583 57bc b358 fd3b
00000230: c3d0 1b3c 4561 363b ba4f 81bc 40ae 5f3c
00000240: 071f 6bbb 4490 98bb a49e bcbb c71b 2e3c
00000250: 4b64 80bb 4bcd 1a3c 8bde 5a3a 4add 53bb
00000260: 7fb5 653c 20ca fc3b 4611 8b3b a0e6 3e3a
00000270: c471 dbb5 14f6 a13b 57a9 043c e949 363a
00000280: 5682 67bc f082 83bc d609 abbb eb98 273c
00000290: 6ade 2bbc ed9a 4739 a6a0 253c 73c8 23bc
000002a0: e08a c03b 109a 2d3c b5b7 d9bb 00d3 873c
000002b0: 2921 81bc 24d5 5b3c 4ff3 6bbc e126 ebba
000002c0: 5c9e 9b3b b751 babb 66e2 463b ae97 883c
000002d0: b39e 87bc 2c9e 85ba 5007 1c3c c56d a8bc
000002e0: d606 063c c8f9 20bc ed85 783c 32ef d7ba
000002f0: 1f9b b73c 21ae ccba fbc2 603b 6bc4 0bbc
00000300: ef7b 813b b114 9839 61df 583c 35bb 9abc
00000310: d314 623c 91d9 e5bb b1d4 a33c 91a5 97bc
00000320: baf5 dbb9 f63b 913b fd0c 173c 9583 1b3b
00000330: c0a5 3ebc bb8b 53ba 0d67 ca3b a8f6 3b39
00000340: c8d4 9d3c 7fa5 25bc ee3f 26bc caa9 0b3c
00000350: 46af 713c 356b 37bb 0b3c 12bb a7e3 84bb
00000360: cf84 28bb bdb7 debb ee92 4ebb f43c 9bbb
00000370: 8693 43bc 1457 443c b907 ceba 7fae 0e3c
00000380: 325c 233c e261 06bc 5089 5b3c 5723 473b
00000390: 25f9 93ba fa69 a03c 19de 64bc 4d5b 913c
000003a0: bc50 73bc fb83 fb3b 8a63 37b9 6ee3 153c
000003b0: 5cab a03a 1eba c6bb 3214 5abc 869e 16bb
000003c0: 9a4a 07bc ec23 843c 2c9b ae3b e3fb f33b
000003d0: f5d7 ba3b 4430 86bc dea3 a13b 733f 4f3c
000003e0: 7da2 48bc a603 a0bb 60b7 d0ba e897 333b
000003f0: 76d1 80bb 25cf c33b 67c5 67bc 0991 603c

linear.bias f4 [8]
-0.0014143642 0.0014616204 -0.00038709928 -0.0008857515 -0.0009926073 0.0007977641 0.0013016831 0.0006494498
00000000: 3062 b9ba d893 bf3a 96f3 cab9 c731 68ba
00000010: 601a 82ba 0b21 513a 3d9d aa3a d73f 2a3a
