trained_models/regression_linear_protons_m2.pth (torch, 34966 bytes, 2 tensors)

linear.weight f4 [8, 1039]
0.022986872 0.018039031 -0.008630457 0.025298463 -0.0054460405 -0.011029698 0.00053045293 0.0064930506
-0.003215512 0.006164381 0.0069047473 -0.0036226283 0.0011793105 -0.012269167 -0.004236028 0.0029103025
0.012237226 -0.0053267367 -0.006004379 -0.026149975 0.004083189 0.020512948 -0.023840697 0.014869962
-0.01584667 -0.018195514 -0.006813896 0.009820482 0.009124517 -0.011703849 -0.019319 -0.021129955
-0.01913856 0.015218124 -0.010105576 -0.021889 0.011579195 -0.012585434 -0.012555717 0.012819186
-0.009252619 0.018616546 -0.023161152 0.0028866797 0.0060131927 0.01860234 -0.0020225074 -0.02711643
-0.01178505 -0.0057789693 0.01358502 0.021479547 0.010162423 0.00925435 -0.013627436 0.027923364
-0.015741903 0.00330038 0.009848927 0.018461123 0.02359224 0.00512877 -0.0043854597 0.04340054
-0.0148897795 0.019062767 -0.033256624 -0.0039688526 0.022253983 -0.01383348 -0.0022151184 -0.0148311565
0.022735886 0.010080279 0.020815274 -0.013964333 -0.022694375 0.023344554 0.0025626658 -0.014426907
-0.012965033 0.02857216 0.013729531 0.002706133 0.02082572 0.017514363 -0.0009690811 -0.009078691
-0.005516409 -0.019771893 0.00073035026 0.00835048 0.032336444 -0.014634949 -0.004934559 0.002377425
-0.025273426 -0.0018671957 0.0131631605 -0.02508433 0.008557879 0.020401219 0.0026675728 -0.01507501
-0.020045567 0.009320569 0.0073089367 -0.01477491 -0.009577555 0.011121456 0.025898438 -0.028768875
0.012236065 0.019299524 -0.025411176 -0.01680844 0.009063342 0.0027497425 -0.018851824 -0.01746181
-0.028886825 0.0051223803 -0.014373135 0.003842207 -0.0025926654 0.0014520525 0.010892736 0.0020125667
-0.004253342 0.010589707 -0.008252807 0.003287822 0.030610448 0.008549734 -0.019545645 -0.028039983
0.018124217 0.02149719 -0.0009101704 -0.010815336 0.009081491 0.02088083 -0.02330685 0.0116474945
0.00622012 -0.0020662262 0.010892791 -0.019413782 0.005854271 -0.010625354 -0.0069552814 0.014598846
-0.0069301254 0.010567947 -0.0075874026 -0.016959406 0.014859439 0.0034772586 0.043378666 -0.022655014
0.018419176 0.025182024 -0.020124305 0.0005444824 0.013372254 -0.014731433 0.0035796263 0.018056635
-0.019599952 0.0074329223 -0.012379433 -0.0011688605 -0.02503558 0.026222732 0.006584597 -0.027965896
-0.0063609653 0.023272546 0.031431668 0.008249924 -0.017554421 0.0071326243 -0.00615847 0.0040489305
-0.010516117 0.014938566 -0.005077101 0.019223697 0.0014579204 -0.0014439737 0.002219997 0.0069386656
0.019778049 -0.022271158 0.022191778 0.0025185535 -0.0042328946 -0.02612264 0.009922181 0.027737306
0.014209281 0.01739236 -0.0051750625 -0.005106452 -0.012220505 -0.019057807 -0.00474728 0.008838366
0.012516991 -0.014056161 0.02407504 -0.004148728 -0.007012641 0.00056788744 0.0048308973 0.00014270646
-0.009376912 -0.0114247855 -0.005414445 0.019832848 -0.015900012 0.017645126 -0.01720431 0.027010407
-0.030214908 0.011823532 -0.019339519 -0.021333117 0.017296135 0.007024281 0.00925625 -0.025849737
0.020905226 0.0017725832 -0.010883506 -0.02765399 -0.014718781 0.01189106 0.02314256 0.0012482752
-0.024263019 -0.0023147902 -0.024912804 0.017895566 0.0018930825 0.009707999 0.007871362 -0.022962686
0.0053300117 0.012421654 -0.015712341 -0.002352194 -0.030127898 -0.005516339 -0.004898751 0.010714478
00000000: f74e bc3c 97c6 933c c366 0dbc b93e cf3c
00000010: b374 b2bb e8b5 34bc 180e 0b3a a8c3 d43b
00000020: 57bb 52bb 93fe c93b 3841 e23b 9e69 6dbb
00000030: 1893 9a3a 9e04 49bc 61ce 8abb c6ba 3e3b
00000040: a57e 483c e88b aebb 62c0 c4bb 7938 d6bc
00000050: 46cc 853b c50a a83c 914d c3bc 24a1 733c
00000060: e0d0 81bc c20e 95bc 1a47 dfbb 16e6 203c
00000070: 007f 153c 80c1 3fbc e142 9ebc ba18 adbc
00000080: 78c8 9cbc 7055 793c dc91 25bc 8f50 b3bc
00000090: aab6 3d3c 2333 4ebc 7eb6 4dbc 9007 523c
000000a0: 4c98 17bc ba81 983c 75bc bdbc 732e 3d3b
000000b0: 510a c53b ef63 983c 0b8c 04bb 4723 debc
000000c0: 1516 41bc 825d bdbb b493 5e3c e0f5 af3c
000000d0: 4b80 263c 8f9f 173c 9c45 5fbc 8abf e43c
000000e0: 2af5 80bc 304b 583b 655d 213c c83b 973c
000000f0: 8344 c13c 3e0f a83b e7b3 8fbb c4c4 313d
00000100: 43f4 73bc 8529 9c3c 1938 08bd 260d 82bb
00000110: fc4d b63c d2a5 62bc 852b 11bb 61fe 72bc
00000120: 9c40 ba3c c127 253c cb84 aa3c a8ca 64bc
00000130: 8ee9 b9bc 143d bf3c 66f2 273b d55e 6cbc
00000140: 4a6b 54bc 2a10 ea3c d4f1 603c 6159 313b
00000150: b39a aa3c 487a 8f3c ef09 7eba cabe 14bc
00000160: fec2 b4bb aaf8 a1bc fa74 3f3a 74d0 083c
00000170: 3873 043d 6dc7 6fbc 15b2 a1bb 93ce 1b3b
00000180: 370a cfbc b1bc f4ba 4caa 573c a77d cdbc
00000190: 5936 0c3c 7520 a73c 72d2 2e3b 2dfd 76bc
000001a0: 9a36 a4bc 4db5 183c ce7f ef3b 7712 72bc
000001b0: 2deb 1cbc c436 363c f628 d43c b4ac ebbc
000001c0: c779 483c 091a 9e3c 192b d0bc dbb1 89bc
000001d0: 697e 143c 0635 343b 246f 9abc 120c 8fbc
000001e0: 10a4 ecbc a4d9 a73b 4c7d 6bbc 89cd 7b3b
000001f0: b5e9 29bb cc52 be3a 7277 323c 44e5 033b
00000200: 9e5f 8bbb 7380 2d3c c836 07bc 8078 573b
00000210: c3c2 fa3c 2f14 0c3c 301e a0bc 1bb4 e5bc
00000220: 3d79 943c e01a b03c 8098 6eba cf32 31bc
00000230: 89ca 143c 460e ab3c 02ee bebc 22d5 3e3c
00000240: 26d2 cb3b 8669 07bb ad77 323c a709 9fbc
00000250: 2fd5 bf3b f715 2ebc 21e9 e3bb 0030 6f3c
00000260: 1b16 e3bb 2f25 2d3c bf9f f8bb 74ee 8abc
00000270: 0175 733c b8e2 633b d4ad 313d 0297 b9bc
00000280: d0e3 963c 884a ce3c badb a4bc 98bb 0e3a
00000290: 4c17 5b3c 1c5c 71bc 2a98 6a3b 82eb 933c
000002a0: 1490 a0bc df8f f33b 1bd3 4abc 7334 99ba
000002b0: 6b17 cdbc 0ed1 d63c 9ac3 d73b bc18 e5bc
000002c0: a56f d0bb 11a6 be3c 7ebe 003d b02a 073c
000002d0: 4ace 8fbc cab8 e93b fecc c9bb e4ac 843b
000002e0: cb4b 2cbc e3c0 743c cf5d a6bb 047b 9d3c
000002f0: b117 bf3a b843 bdba 5f7d 113b bf5d e33b
00000300: 9305 a23c 0172 b6bc 88cb b53c 510e 253b
00000310: 18b4 8abb 26ff d5bc a590 223c 5939 e33c
00000320: 0bce 683c 6c7a 8e3c 9293 a9bb 0654 a7bb
00000330: 8338 48bc 1e1f 9cbc 128f 9bbb cbce 103c
00000340: 1114 4d3c d04b 66bc 0539 c53c 0ef2 87bb
00000350: 4cca e5bb 48de 143a 814c 9e3b 79a3 1539
00000360: 9fa1 19bc 062f 3bbc a86b b1bb 7f78 a23c
00000370: be40 82bc 838c 903c 0ef0 8cbc ee44 dd3c
00000380: 4185 f7bc 7db7 413c e96d 9ebc cac2 aebc
00000390: a0b0 8d3c f12b e63b 87a7 173c d4c2 d3bc
000003a0: 7041 ab3c 0656 e83a bc50 32bc 9f8a e2bc
000003b0: 0b27 71bc b8d2 423c 7795 bd3c 2a9d a33a
000003c0: 3dc3 c6bc bcb3 17bb f015 ccbc b999 923c
000003d0: 4f21 f83a 4d0e 1f3c e3f6 003c 3e1c bcbc
000003e0: 61a7 ae3b 3184 4b3c 2bb7 80bc 4427 1abb
000003f0: c8ce f6bc 68c2 b4bb b485 a0bb c78b 2f3c

linear.bias f4 [8]
-0.000344754 -0.00054341456 6.772538e-06 0.0023933852 -0.0015771091 0.0018963488 0.0007162203 -0.00036654025
00000000: 19c0 b4b9 ef73 0eba a93f e336 57da 1c3b
00000010: 00b7 ceba e88e f83a bbc0 3b3a 332c c0b9
