trained_models/regression_cnn_gammas_hillas_stereo.pth (torch, 692832 bytes, 36 tensors)

cnn.convolutions.0.weight f4 [16, 2, 3, 3]
00000000: 968c 52be d5a7 2c3e eecb 4bbe fe87 193e
00000010: 0b66 ee3d ff32 493e 0832 a0bd b6fa 8639
00000020: 7e08 6b3c 0cac e6bd 6e08 e1bd ccb4 983d
00000030: 986a 383e 4f7f 963d a18a 573e 1e14 f1bd
00000040: 1d07 783e d855 a83d cf6b 053e ec66 b83d
00000050: 7eea 1f3e 4dfc 023e 7664 58be 6adb 74bd
00000060: c0ff e83d 974b 893d bf88 1f3e 3381 6c3d
00000070: 2063 babd 51f4 b73d f0fd 5b3e c1d3 9fbd
00000080: f239 053d 62f8 3abe c8cd 193e 3b14 5ebd
00000090: 0857 e0bd 56db 5cbe 61d2 153e 696a 3b3e
000000a0: c913 513e a306 31be af91 1ebe 5d19 20be
000000b0: 52d9 39be bd47 353d b185 f93d 92e9 77be
000000c0: edfa f53d 307e 713d 2b7d 07be 27d5 0abd
000000d0: 46b3 283d 7865 d33d 1190 943e a83a cebc
000000e0: ef95 f03c 9004 ffbd 03c4 2abe 1dbb 3cbe
000000f0: 2d6c 1ebd 2a12 18bd 5c69 8f3d 8cc6 a93d
00000100: 06db 653e fa00 963c a62f 26be 7f16 b2bd
00000110: 33f6 2f3d 5902 a2bd 8e98 0dbe 1d37 a93c
00000120: 365b 3abe 4cc2 833d 248b 23be 1855 f83d
00000130: 4613 cb3c 16ed 47be 487a fcbd 1f3d f1bd
00000140: 60d6 5bbe 97b4 13bb 3fcf 4cbe e835 53bd
00000150: dea4 eb3d fd7c 11be 60c1 693e 7767 29bd
00000160: 3008 503e 9be7 353e eafb fb3c 5130 3ebe
00000170: 5ee0 443e 7dfd 5b3e 1b9a 7cbe 6944 26be
00000180: 600a a4bd ccc8 1c3d 3227 d73d dc1e b3bd
00000190: d4c9 2dbe 258b 05be a905 37be 76df ba3d
000001a0: ea0d 2abe fb47 09be aa87 66be 1bff e5bd
000001b0: 5c8c 71bd 2769 863e 9a54 733e 9564 e33c
000001c0: fb2a d73d bf37 b4bd 545f f2bd 7e80 ddbd
000001d0: a0dd 6abe 1609 12be 88d4 6fbd 372a 313d
000001e0: 6823 1a3e 1743 bbbd 7ab3 703c 49c2 573d
000001f0: 27e5 7539 a41b 9e3b 5067 a2bd e0fc 0b3e
00000200: 481e 6a3e 69b7 8dbd 3f9f dcbc 6923 033d
00000210: 42be 08be 0729 77be b71c 89bd df00 2cbd
00000220: b616 d93b 8e4d 543e 78ec 293e a080 643e
00000230: 7c4f 02bd 2e48 28be 3771 703d 9204 39be
00000240: de17 23be 671b 7e3e 0461 263e bffa 3e3e
00000250: 38e2 edbd e3d7 913e 7a27 54be 0698 5abd
00000260: 48e5 e03d 2f55 debb d3d5 0dbe cd99 3bbe
00000270: c089 e1bd 2250 e5bb 150a 023d ec8c 1b3d
00000280: b3ce abbd 1263 28be 4666 5fbc 1053 0abe
00000290: 7255 2fbe f8ea b9bd e9fe c03d 6046 da3d
000002a0: ecd7 babd 67b7 453e 69f2 e43d 2fb6 c33c
000002b0: 109a 8dbd 03ae 8cbd 18c3 953d 7361 e0bd
000002c0: 2b7f 8f3c 4b59 18be aed4 323d 46c3 273e
000002d0: 0e53 87be ed2b 243e b1c4 3cbe 7d9b 3dbe
000002e0: 5381 28be 2f17 b43c 2ba2 103c ce9e 62be
000002f0: 6334 fc3d 1feb d43d 153b 2f3e 99e4 1cbe
00000300: 4ce6 0dbe 65a6 f8bd 1b94 583d 10e4 6abe
00000310: b204 3fbd f4e3 ba3d 1cb9 f7bd 1f44 77bd
00000320: b02f 8d3d 50a3 00be 47c3 903d 128d a0bd
00000330: 5f5c c13d 4cb0 0fbe 23f2 ca3d 9a05 653e
00000340: 7c18 b83d b2bc 25bd 9bd4 6e3e e459 0cbd
00000350: 3010 65be e33f 203e 8ff5 89bd e865 88be
00000360: 58a4 32be d9d0 003e 749c 4d3e 0720 91bd
00000370: f8cf f03d 91c2 613e ac4a 203e a141 ca3c
00000380: 792a aa3d fc22 bb3d 76c0 3f3e b823 c93d
00000390: a2bc 4b3e 83ff aa3b 83be d33d 745c d9bb
000003a0: 067f 49bd 3611 debc 4767 38bd 8436 04be
000003b0: 1a93 cf3d c0c9 dbbc 65f5 d3bd 4c31 9fbd
000003c0: 87cf 813b 234f cfbd f317 44be 43d0 283e
000003d0: 2fe2 4a3e 939a b93d 3332 be3c 4453 90be
000003e0: dfcb 423e 0c83 373e a1d6 133e 1eaa 0c3d
000003f0: 0877 813d 2ce7 2d3e 25db b23b 170b 9ebd
-0.20561442 0.16860898 -0.19902012 0.14993283 0.11640557 0.1964836 -0.07822043 0.00025745266
0.014345286 -0.11263284 -0.10987936 0.07456359 0.18009412 0.07348501 0.21048976 -0.11771415
0.24221464 0.082194984 0.13029407 0.09004006 0.15616795 0.12791558 -0.21132073 -0.059779562
0.113769054 0.06703871 0.15579508 0.0577404 -0.09100938 0.089821465 0.21483588 -0.07804061
0.032525964 -0.18258813 0.15019906 -0.054218512 -0.109541 -0.21568045 0.14631034 0.18302311
0.20417704 -0.17287688 -0.15485261 -0.15634675 -0.18149307 0.044257868 0.12183703 -0.24210194
0.12010751 0.058958232 -0.13231342 -0.033894684 0.041186593 0.10322088 0.29016164 -0.025174454
0.029368369 -0.12452042 -0.16676335 -0.18430753 -0.038677383 -0.037126698 0.070025176 0.08289823
0.22446832 0.018311013 -0.16229114 -0.08695697 0.042959403 -0.07910604 -0.13827726 0.020656163
-0.18198857 0.064335436 -0.15971047 0.12125605 0.024789464 -0.19524035 -0.12328011 -0.11779236
-0.21468496 -0.002253806 -0.20000933 -0.05156508 0.11506055 -0.14207835 0.22827673 -0.041358437
0.20315623 0.17764132 0.03075977 -0.18573119 0.19226214 0.21483417 -0.24668162 -0.16237034
-0.080097914 0.038277432 0.10505523 -0.0874612 -0.16971523 -0.1304136 -0.17873253 0.09124653
-0.1660687 -0.13406365 -0.22512689 -0.11230298 -0.058971748 0.262521 0.23762742 0.027757922
0.10506245 -0.08799695 -0.11834589 -0.108155236 -0.22936106 -0.14261279 -0.058552295 0.04325315
0.15052569 -0.09143656 0.014691228 0.05267552 0.00023450387 0.0048250724 -0.079298615 0.13670683
0.22863114 -0.06919748 -0.026931403 0.03201619 -0.13353828 -0.24136744 -0.0669493 -0.04199302
0.006625022 0.2073271 0.16594112 0.22314692 -0.031814083 -0.16433784 0.05870172 -0.1806815
-0.15927073 0.2481514 0.16247946 0.1865034 -0.116154134 0.2848502 -0.20718184 -0.053367637
0.10981232 -0.006785057 -0.13851099 -0.18320389 -0.11012602 -0.006998078 0.031747896 0.03797619
-0.08389034 -0.16444042 -0.013635224 -0.13508248 -0.17122439 -0.0907802 0.0942362 0.10657954
-0.09123215 0.19308244 0.111790486 0.023890583 -0.06914151 -0.068691276 0.07312602 -0.10956087
0.017516693 -0.14877813 0.04365986 0.16383085 -0.26430553 0.16032381 -0.18434407 -0.18516345
-0.16455583 0.021983711 0.008827726 -0.22130892 0.123146795 0.10396408 0.17112382 -0.15321578
-0.13857383 -0.12141112 0.05287562 -0.22938561 -0.046635337 0.0912551 -0.12095854 -0.0603677
0.06893861 -0.12562299 0.07068496 -0.07839407 0.094414465 -0.14032096 0.09909465 0.22365418
0.08989045 -0.040463157 0.2332329 -0.034265414 -0.22369456 0.15649371 -0.0673629 -0.26640248
-0.17445505 0.12579669 0.20079213 -0.07086187 0.11758417 0.22046877 0.15653485 0.024689497
0.08308882 0.09137532 0.18725762 0.09821266 0.19896176 0.0052184477 0.103390716 -0.0066333357
-0.049193405 -0.027107816 -0.045020368 -0.12911421 0.10135479 -0.0268296 -0.1034954 -0.077730745
0.0039615068 -0.10122516 -0.19149761 0.16485696 0.19812845 0.09062686 0.023217296 -0.28188527
0.19023083 0.17921084 0.14437343 0.034341924 0.063215315 0.16982716 0.005458253 -0.07716959

cnn.convolutions.0.bias f4 [16]
00000000: 5127 d63d 11ec 94be e3f7 24be 74c3 adbc
00000010: ae51 da3d ee8a 083e 786c cf3d 804d a9bd
00000020: d08a 8e3d 7e9c 80bd 54a1 ab3d cfe0 c3bd
00000030: c7f9 ce3c 8224 c83c 26e0 23bd 4b90 c1bd
0.10456718 -0.29086354 -0.16110186 -0.021211363 0.106601104 0.13334247 0.10128111 -0.08266735
0.0696007 -0.062798485 0.0838038 -0.09564363 0.025265587 0.02443147 -0.040008686 -0.0945135

cnn.convolutions.2.weight f4 [16]
00000000: 4a23 783f ddd3 813f 3c82 5f3f b327 773f
00000010: c789 753f 038d 613f 835e 733f eb0a 693f
00000020: bd73 7b3f 73ff 803f d782 533f c330 7e3f
00000030: 4982 743f fd9a 7d3f 0ffa 6f3f 8465 6b3f
0.96928847 1.014278 0.87308097 0.9654495 0.95913357 0.8810579 0.9506609 0.91032284
0.9822348 1.0077957 0.8262152 0.99293154 0.955113 0.9906462 0.93740934 0.91951776

cnn.convolutions.2.bias f4 [16]
00000000: 8e17 f6bc 4d1e 12bd 8899 393c c01a 173d
00000010: a0ed 5cbc 9fab 973d 0eb0 473c 8628 3d3c
00000020: 9437 863c e234 843b 2be0 8d3d 010e 0a3d
00000030: c56b d0bb ab05 ca3c 9dc6 b9bc 7109 8ebb
-0.030040529 -0.03567343 0.011328109 0.036890745 -0.013484389 0.07405781 0.012187971 0.011545306
0.016383924 0.0040346244 0.06927522 0.03370476 -0.0063605034 0.024660906 -0.022677714 -0.0043346216

cnn.convolutions.2.running_mean f4 [16]
00000000: 480c d63d 062f f33c 2df9 b53b 466f 613c
00000010: 91cc 183e 3d47 503e 6c49 e93d 17c6 9d3c
00000020: 1aab d33d 62c5 383c 5fdc 0f3e bd85 993c
00000030: 13a8 aa3d 39e4 583d 0815 dc3c a3b7 853c
0.10451561 0.029685508 0.0055533857 0.01375944 0.14921786 0.20339675 0.11390957 0.019259496
0.103353694 0.0112775285 0.14048909 0.01874053 0.08332839 0.052952025 0.026865497 0.016322916

cnn.convolutions.2.running_var f4 [16]
00000000: a853 5f3e 6fb1 033e 7140 3a3c a937 603c
00000010: 7024 8d3d 83f8 d33b 1549 523d 951f 913d
00000020: c8cf f63d be80 de3c 8c1a a93b 6c58 af3d
00000030: 630c 003f c864 543e f9f6 df3d f025 563d
0.21809256 0.12860654 0.011367903 0.013685145 0.068917155 0.006468834 0.051339228 0.07086102
0.1205135 0.027160998 0.0051606353 0.08561787 0.500189 0.2074157 0.10935778 0.052282274

cnn.convolutions.4.weight f4 [32, 16, 3, 3]
00000000: 2c95 95bc efcc 2fbd 5620 cebc fa29 413d
00000010: c453 be3d 7d82 e6bb 7884 6bbc 85f3 81bb
00000020: b8a3 6cbd ffe8 4a3c 7021 533d 0f56 443d
00000030: e3c0 21bd 7b9b aebc 080b ec3c b140 babd
00000040: eb5f 7bbd f615 b5bc 9186 833d d630 3abd
00000050: ff98 893d 3d0b 7a3d efef ba3c b5a1 2a3d
00000060: 7878 303d 94be a13c 6053 3c3d e6cd 253d
00000070: 69d1 7fbd 541d bcbd 8d74 d9bd b1a0 b43c
00000080: 4bcf d73c 372a f13c 9556 4fbc 74e4 f13d
00000090: 624f fc3c 8ef3 debc 132d 30bc c851 8f3a
000000a0: 98f6 07bd 5284 dfbc a4f8 cd3c 92af 7cbd
000000b0: 363a 0d3c 4b57 303d 002e 003d 186a 413d
000000c0: 3340 9b3b 009c 93bc e335 833c c35a e0bb
000000d0: e117 6abc ceeb b23c a510 583d 2cf5 6cbd
000000e0: de86 2fbd 0951 4bbd 925c 0fbd be4f 5dbc
000000f0: ad0d 5e3a 1e94 d13d b4b0 b43b 83a2 c33c
00000100: d3a6 78bd 8da2 95bc 1ee0 1bbd 812d 8a3d
00000110: f6ea b5bc 45d6 703c d3af 3d3d cfb4 cf3c
00000120: 6eda 9abd eb31 3abd 4fd5 b7bd 959a 883c
00000130: 8a2f 86bd c612 90bd d433 61bd a52e 8dbd
00000140: 5d75 2b3d d417 a73d daf5 b9bc 48f8 db3c
00000150: fc22 02bc 263c 003e ab5c 7a3d 3c58 04be
00000160: 20a2 d23c aa5c 2abc 5a7f 203d 2264 183d
00000170: b3d4 7abc fb0a 143d c04d cf3c ed6f 48bd
00000180: 5e47 6bbb 57e2 e73c 9ca2 50bd 8924 cfbd
00000190: 541f 98bc d98b 8d3c f3af ae3c be71 503d
000001a0: 1f53 2abd 70dd f63c fc35 3fbd 92c5 fabc
000001b0: 494e 40bd e5c8 683d 70be a93c 6194 c2bc
000001c0: c422 a33d cf3f 6abd ac2d 273d 4249 b5bb
000001d0: b5fc e73c e847 3c3c 0918 073b d055 14bd
000001e0: ebcf 87bd 088b 073a 875d 92bd bff1 02bd
000001f0: 18f9 483c 419d b9bd e8ea ab3c ac84 b23d
00000200: a89b 42bd 9ec0 47bd b8cc bd3d d531 d83d
00000210: e5ae 683d dbf1 11bb a372 4b3d e6ce e6bd
00000220: 1bf6 2bbd 6ef1 2d3d 87f5 11bd d943 143b
00000230: 0d5b 35bd c8af cfb9 ff7d 85bc 0d13 963d
00000240: 5605 b5bd a4c7 ffbc 09d3 2fbd 5298 8e3d
00000250: ee4a 8cbc 7ed4 0ebd 95c4 1d3d 60ef bfbd
00000260: 77d2 a63c 5777 75bd b13e c6bd 4942 0abd
00000270: 3075 5fbd 8dd4 96bd 5508 77bd d566 903c
00000280: ef9e 9cbd 89e4 9abd e851 fdbc f3ee cfbc
00000290: 24ae 173d 5aef 91bd 86e5 893d d813 4e3c
000002a0: 3139 96bc 2a6b a33c 919d 1c3c e5b9 abbc
000002b0: 7591 20bc 7211 723d a3db c337 9de6 ba3d
000002c0: 293e b8bd e45e 7fba 98d7 dd3c cf6e e3bc
000002d0: df32 20bd 3ff8 ff3b 3f70 62bd 861b 263d
000002e0: 02f6 423d 35cc 50bc 2092 2b3c 3d0a 8cbd
000002f0: 1547 623d d0d5 0c3d 6893 603d 115c 603d
00000300: 18f6 28bd e620 a3bd a889 9d3d da22 4bbc
00000310: 8a23 f13b 52c1 0fbc 7574 403c 51c9 a23d
00000320: b8c5 663b 7359 4fbd 8321 553d 931b 913d
00000330: 3f77 c0bd dde8 983d cd5d 673d 292d 1cbd
00000340: 6d06 edbc 90ed 83bd a38c 87bc 2876 603d
00000350: d0ad 7abd 0506 7b3d 732f 6fbd 4b6b 933d
00000360: 9d56 28bd 8bab 973d 4733 96bb c6f3 8e3d
00000370: 765f 09bd 162d f63c 1f56 9fbd 3bb7 49ba
00000380: e171 4e3c 6235 e33c 1096 e3bc f3c0 54bc
00000390: 4ad8 953d 7d34 4abc 4a67 f43b f9ed a9bb
000003a0: 4dd7 25bc 5a44 c33c 20be 5bbc fcc1 a8b9
000003b0: 4e6e 3bbd 75f4 a33c 7a39 63bc f601 09bc
000003c0: 50e9 edbc 475b 953d 89d4 87bd 4ef5 a4bd
000003d0: c578 0bbd 67e2 80bd 5d14 033d 0723 b93d
000003e0: 6ec5 91bd 454b 983c b642 ab3d 74e7 62bc
000003f0: b8ab 2dbd 05e9 4b3d cfc0 91bd 50cc 4cbd
-0.018259607 -0.04292005 -0.025161903 0.047159173 0.09293321 -0.0070345984 -0.014374845 -0.0039657974
-0.057773322 0.012384652 0.05154556 0.047933634 -0.03949059 -0.021314373 0.028813854 -0.0909437
-0.06137077 -0.022105198 0.06422151 -0.04545673 0.06718635 0.061045874 0.022819487 0.041658122
0.043083638 0.019744195 0.04597795 0.040479563 -0.06245557 -0.091852814 -0.106179334 0.02204928
0.026343962 0.029439075 -0.01265492 0.11811152 0.030799571 -0.027215745 -0.010752934 0.0010934407
-0.033194155 -0.027284775 0.025142975 -0.061690874 0.008619836 0.043052 0.03129387 0.04722032
0.0047378778 -0.018018723 0.016016906 -0.006846757 -0.01428792 0.021840956 0.05275025 -0.057851
-0.04285323 -0.049637828 -0.03500039 -0.013507782 0.0008470666 0.10233329 0.0055142287 0.023881203
-0.06070597 -0.018265987 -0.03805553 0.067469604 -0.022206765 0.014699523 0.046310257 0.025354771
-0.075611934 -0.04545776 -0.08976232 0.016675273 -0.06552036 -0.07034831 -0.054981068 -0.06893662
0.041859973 0.08158842 -0.022700239 0.026851788 -0.007942911 0.12522945 0.06112353 -0.12924284
0.025712073 -0.010398069 0.039183952 0.03720487 -0.0153095005 0.036143284 0.025305629 -0.048934866
-0.0035900692 0.02830617 -0.050936326 -0.101143904 -0.018569626 0.017278599 0.021324134 0.050889723
-0.041583177 0.030134887 -0.046682343 -0.030611787 -0.04694966 0.056832213 0.02072069 -0.023752393
0.079656154 -0.05718976 0.04081504 -0.0055324147 0.028318742 0.011491753 0.0020613691 -0.03621465
-0.06631454 0.00051705586 -0.07146745 -0.03196883 0.01226642 -0.09063197 0.020986035 0.087167114
-0.047511727 -0.04876768 0.09267563 0.1055638 0.056807417 -0.0022269401 0.049669873 -0.112699315
-0.04198275 0.042466573 -0.035634544 0.0022623448 -0.044276286 -0.00039613084 -0.016295431 0.073278524
-0.088389084 -0.031223126 -0.04292587 0.069626465 -0.017125573 -0.034870617 0.038517553 -0.09371829
0.02036403 -0.059928264 -0.09679926 -0.03375462 -0.054555118 -0.073647596 -0.06031068 0.01762716
-0.07647502 -0.07563121 -0.030922845 -0.025382495 0.037031308 -0.07125731 0.06733231 0.012577973
-0.018337818 0.01994856 0.009559051 -0.020962665 -0.009800305 0.05909867 2.3348088e-05 0.09126017
-0.08996231 -0.0009741618 0.027080342 -0.027762799 -0.039111014 0.0078115757 -0.055282827 0.040553592
0.047597893 -0.012743999 0.010471851 -0.0683789 0.05524357 0.034383595 0.054828078 0.0547753
-0.04125032 -0.07965259 0.076922715 -0.012398446 0.007358973 -0.0087741185 0.0117465155 0.07948554
0.0035213064 -0.050622415 0.052033912 0.070853375 -0.093977444 0.0746629 0.05648594 -0.038129006
-0.028933728 -0.06441796 -0.016546553 0.054800183 -0.061200917 0.061285038 -0.05839486 0.07198199
-0.041098226 0.07405766 -0.0045837495 0.0698009 -0.033538304 0.030050796 -0.07780098 -0.0007694845
0.012600393 0.027735416 -0.027781516 -0.012985456 0.073166445 -0.012341616 0.007458602 -0.0051858393
-0.0101221325 0.023836304 -0.013412029 -0.00032187987 -0.04575949 0.020014027 -0.013868684 -0.008362284
-0.029041916 0.072928004 -0.06632335 -0.08054601 -0.03405072 -0.06293183 0.03200184 0.09039884
-0.07117735 0.018590579 0.083623335 -0.013849128 -0.042400092 0.04978277 -0.071168534 -0.049999535

cnn.convolutions.4.bias f4 [32]
00000000: c342 5a3c b649 3abd 25db 98bc c8d0 4d3d
00000010: 365b 80bd 62f0 58bd c93d 243b 8d4c bb3d
00000020: 431e 233d 0c43 ad3d fc01 aabd 84ab 4b3c
00000030: 6d84 96bc e1bd cfbc 3960 1c3d 18cc f73c
00000040: e9f5 273d cdb2 7d3d 1634 d3bd dc9e 323d
00000050: 5677 533d afa5 873d bdac a23b 3df7 8e3d
00000060: 1976 043c 110a ddbb 1375 a33d 6094 9b3d
00000070: d91b 35bd 71bb e53c df9c b2bd ad42 63bb
0.013321581 -0.045480452 -0.018659184 0.050247937 -0.06267397 -0.052963622 0.002506124 0.0914546
0.03982378 0.08460054 -0.0830116 0.012431029 -0.018373692 -0.025359096 0.038177703 0.030248687
0.041006003 0.061938096 -0.10312669 0.04360853 0.05162748 0.066233985 0.0049644397 0.06980751
0.008084797 -0.006745585 0.079813145 0.0759666 -0.04421601 0.02804348 -0.08721327 -0.0034677193

cnn.convolutions.6.weight f4 [32]
00000000: e1b8 653f fc79 603f 9678 6e3f 09e3 643f
00000010: 47b9 6c3f cfeb 6d3f 6607 633f 1b71 643f
00000020: d40d 6f3f d0bc 653f 73bb 6b3f 03e9 6f3f
00000030: fdf8 5d3f ab4a 703f c69d 6a3f 395a 6a3f
00000040: 4ca5 6d3f ed80 653f 2da1 663f 22a3 713f
00000050: e05a 723f b621 6e3f 5f35 663f 4ee8 6b3f
00000060: 23e4 6e3f b840 663f 57d6 6a3f 0fa5 6d3f
00000070: 8620 6e3f 7b73 713f 954e 623f 29a7 613f
0.8973523 0.87686133 0.9315275 0.8940893 0.9247021 0.9293794 0.88683164 0.89235085
0.93380475 0.8974123 0.920829 0.9371492 0.8670805 0.93863934 0.91646993 0.9154392
0.9283035 0.8964985 0.90089685 0.94389546 0.94669914 0.9302019 0.8992519 0.92151344
0.9331686 0.899425 0.91733307 0.92829984 0.93018377 0.94316834 0.88401157 0.8814569

cnn.convolutions.6.bias f4 [32]
00000000: adf2 573c 2347 833c 41b5 823b 9984 1a3c
00000010: 87cf ff3c bb9b 873c bfe2 df3a bc13 01bc
00000020: 57ce ddba cf47 f9bc 2ef0 28bc 8f72 8e39
00000030: 7ed7 873d 4a62 c53c 8296 02bd e171 933b
00000040: 1dc8 02bd 5b81 75bc 2073 8bbb 4040 bfba
00000050: 78a7 b4bc 2e3e 19bc 07ad 2b3c 6082 e9bc
00000060: 85b5 413c 3305 b13b cb06 ab3c 9a1d adbc
00000070: ac69 023c b787 15bc 79a2 2cbd 3f90 3d3d
0.013180417 0.016025132 0.0039888923 0.009431028 0.031226886 0.01655375 0.0017081125 -0.00787824
-0.0016922456 -0.030429749 -0.01031117 0.00027169703 0.06632899 0.02409472 -0.031881817 0.0044996594
-0.031929124 -0.014984454 -0.0042556673 -0.0014591292 -0.022052512 -0.009353204 0.010478265 -0.02850455
0.011823063 0.005402231 0.020877263 -0.02113228 0.007959764 -0.009126595 -0.042147133 0.046280142

cnn.convolutions.6.running_mean f4 [32]
00000000: 3f0f df3d fa48 8f3d 80de 963d 51be c13d
00000010: 8de9 883d 5867 a13d 575e 633e 3e73 663e
00000020: a02e 3d3e c21b 3f3e ff24 ed3d c857 c83d
00000030: bbb5 0d3e f82d 033e c25c 393e 2a5b 3b3e
00000040: 78db 223e 4384 103e 294e 103e 8f97 073e
00000050: f161 553e a502 4e3e 2d3f df3d 548d 763e
00000060: b0fa 253e 02d9 e73d ecc4 723e 12c2 473e
00000070: c74a b63d caef 5c3e 9b9d ad3d 42ae da3d
0.1089158 0.06996341 0.07366657 0.09460128 0.06685171 0.078810394 0.22203957 0.22504899
0.18474817 0.18662933 0.11579322 0.09782368 0.13838856 0.12810504 0.1810179 0.18296495
0.15904033 0.14112954 0.14092316 0.13241409 0.20838143 0.20118196 0.10900722 0.2407735
0.16208911 0.11320688 0.23707932 0.19507626 0.089009814 0.21575847 0.084773265 0.10677768

cnn.convolutions.6.running_var f4 [32]
00000000: 2570 4f3e e44d e73d 2eda 7c3e d60f f23e
00000010: 5188 c53e 209b 2a3e c32d 643f 4632 c63e
00000020: e5b3 f33d b711 1d3e 1e66 2f3f 1d69 583e
00000030: 2093 d83e e2d8 e23e 6807 c53d c276 913f
00000040: ac63 5b3e 5f2b b93e 6702 823f 7879 143f
00000050: f77d 8e3e 93d6 ab3e 9739 bb3e 1176 2c3e
00000060: 3f07 5e3f ec69 653e 89ee 503e 00b5 7b3e
00000070: b5c1 4a3e 2912 4c3e e9fa 063f df4d ef3e
0.20257623 0.11294153 0.24692604 0.47277707 0.38580564 0.16660738 0.89132327 0.3871023
0.118995465 0.15338789 0.68515193 0.21133848 0.42299747 0.44306093 0.09620553 1.1364367
0.2142474 0.36165902 1.0156983 0.57997847 0.2783048 0.33562145 0.36567375 0.16841914
0.86729807 0.22403687 0.20403494 0.24580765 0.19800456 0.19928803 0.5272661 0.46739098

cnn.convolutions.8.weight f4 [64, 32, 3, 3]
00000000: 2dba 173d 5807 24bd 0016 d63c 1fae bcbc
00000010: 3b34 ddb9 7e86 3e3b 612c d33c 635f 0dbc
00000020: dca7 bf3b a265 793d a5ae 8fbc 3416 d73b
00000030: 1113 933c e28c 05bd 78ed d5bc 37b1 743d
00000040: dded 903d 5234 9dbc 1031 d93c 2201 29bb
00000050: f199 d1bc 385d edbb fb19 4bbc 8bb1 c3bc
00000060: 6ffd 93bd 20c7 59bd 0fe3 a33c d7e4 6ebd
00000070: a829 c9bc ddec bc3c 771d 6f3a f2b9 503d
00000080: ce2d 133d 4f25 c73c 621e 7e3c f6f4 c03c
00000090: 17a6 823d 434e d73c df6c fe3c e1de 8d3c
000000a0: b058 443d 5c3f 9a3d b1a0 3f3c 1139 0b3a
000000b0: 7ee0 933b 5272 883d a606 bfbb 7128 06bd
000000c0: c577 473d a3ee fb3b 209c 9e3c 5913 edbb
000000d0: 43e4 953d 52c7 843c 8482 143d 5ed4 003b
000000e0: e6a3 993c b427 3b3d 4c04 23bd f605 ba3a
000000f0: 39e4 26bd 7bac 633d b9f6 0dbb 133f 813b
00000100: 1035 34bc 7890 1b3d 2421 1abd 9823 5f3d
00000110: 6ba5 29bd ab38 65bd ff66 99bc 725a 4fbd
00000120: 5b6a 523d 736c 003d c89b 253b 765b 313d
00000130: f911 cfbc f2d9 9abc 6ec6 a53d 69ed 853d
00000140: 91b0 c2bc ad9d e5bc 5381 9abc 6deb a8bc
00000150: 957d e7bc 3891 4f3d a37d 0dbd 8448 66bd
00000160: aa4d 3cbd f64e c9bc 08de 2e3c a175 a8bc
00000170: b581 0f3c 1b3c 643c 6b27 7fbc d151 8cbd
00000180: 77dc 38bd d90a 103d 9e80 8cbd 2a62 03bd
00000190: 1ec2 31bd 737b 5c3d 5f40 1dbd 9e7d ecbc
000001a0: db55 c43c 4cf0 21bd 53e9 3f3c 117d 743c
000001b0: ac16 473d 8d82 a6bc 8c05 d53b a60a 743c
000001c0: 5fb7 59bc c632 74bc 399e a83c 31de 5bbb
000001d0: 4397 3f3d 1eb7 cdbc 830b be3c 0f79 91bc
000001e0: 3eef 1c3d 31b8 a0ba a426 80bc f187 663c
000001f0: 61fd a3bc 27cb f9bc f3b6 ad3b fab2 98bc
00000200: 1485 8d3d 283f b2bb f870 653c c3e1 0cbd
00000210: 8c01 823d 36f9 b23c 84bc b33c 86a4 49bd
00000220: 2c72 b43b 322c 8c3b d8c6 29bd 7a50 183d
00000230: 25d6 7dbd 9243 8cbd aeea c2bc c9dc 9ebd
00000240: 575d 20b9 a73f e43c 1eda 51bc d5b8 34bd
00000250: 9e7b 323d 61a8 5fbc 0991 41bb 9b19 9a3d
00000260: 0f69 efbc af47 dabc 6095 303d 44ab 1d3d
00000270: 4bb4 063d 2557 70bc 017d da3c 9571 8a3d
00000280: 67aa 6e3d ba7a cf3b c4ac a6bc 4049 063c
00000290: 9326 25bc 9a29 aabc 8c1f 7ebc badf cabc
000002a0: d898 f23c fa7a b53c b109 333c a6b9 9d3d
000002b0: f600 b23c f3cc e1bc e692 50bc 5777 d1bc
000002c0: cd3d 96bc 4607 e2bb cc6f e8bb fa40 75bd
000002d0: 2d3f 7d3a 8fa2 363c 5041 523d 62f1 acbb
000002e0: 0e43 643d adac 273c b896 e4bc 6d93 a2bc
000002f0: ffcf aa3c 4dba 8a3c d28c a9bc 42bd e1bc
00000300: f80f df3c 2e9b cabc 860b 8c3c 3278 0dbc
00000310: fa30 ee3c bc08 63bc d568 2cbd 57dd 6bbb
00000320: ba0f 7b3c 63ae ac3c d5fa 483d 5f39 85bd
00000330: 8a6b 4d3d 7682 143d f224 2fbd da30 73bc
00000340: 799a b8bb 0600 0bbd 9a3a 81bc 5d6d 133d
00000350: 85a5 1ebd 8aa7 173d ed81 2fbb c2dd 5bbd
00000360: 76fc 0e3d 26a1 b03b 9a50 4cbd 2c09 4abd
00000370: 6f09 f53c fb74 703c e660 a4bb af65 f53c
00000380: 7644 29bd 9f09 103d 0378 c7bc 3dc4 89bd
00000390: 5566 8e3d ad0e 263d 72f4 0d3d 7bbe 5fbd
000003a0: ff71 aa3b 3f29 2ebd 910c 0abd 8bac 2e3d
000003b0: 082d 27bd af50 ebbc aaa2 623d 6ac3 73bc
000003c0: 0c07 3f3d 23ee 69bc 85f6 033d d90f 453c
000003d0: cd3b 363d b16a 743d cc9a c8bc 936d cb3c
000003e0: 0332 babb a3ef 4b3d becf 01bd 7b80 8d3b
000003f0: 2b60 39bd f943 e33c e067 253d f8da 043c
0.037042785 -0.040046066 0.026133537 -0.023032246 -0.0004219132 0.0029071863 0.025777997 -0.008628699
0.005848868 0.06088794 -0.017539332 0.006563926 0.017953428 -0.03260506 -0.02611421 0.059739318
0.07076619 -0.019189987 0.026512653 -0.0025788029 -0.0255861 -0.0072437786 -0.012396331 -0.02388837
-0.07226073 -0.053168416 0.02000573 -0.058323707 -0.024555996 0.023062164 0.0009121517 0.05095858
0.035932355 0.024309782 0.0155101735 0.023554306 0.063793354 0.026282435 0.031057773 0.017318191
0.04793614 0.07531616 0.011696027 0.0005310933 0.0045128455 0.0666243 -0.00582965 -0.03275341
0.048698206 0.00768836 0.019361556 -0.0072349724 0.07318928 0.016208325 0.036257282 0.001965783
0.01875491 0.04569216 -0.03979902 0.001419245 -0.040744994 0.055584412 -0.002166195 0.0039442866
-0.010998979 0.037979573 -0.03762926 0.054477304 -0.04141752 -0.055962246 -0.01872587 -0.050623365
0.05137096 0.031353425 0.0025269855 0.043300115 -0.025277125 -0.018902753 0.08094488 0.06539423
-0.023765834 -0.028029287 -0.018860495 -0.020620072 -0.028258124 0.0506756 -0.034543645 -0.0562215
-0.045972504 -0.024573784 0.010673054 -0.020563902 0.008758952 0.013930346 -0.015573363 -0.06851543
-0.045132127 0.035166595 -0.06860469 -0.03207604 -0.043398015 0.053828668 -0.038391467 -0.028868493
0.02396672 -0.039535806 0.011713344 0.014922396 0.048605606 -0.020325923 0.0065009054 0.014895117
-0.013288348 -0.014904683 0.020583259 -0.0033549184 0.046775114 -0.025111731 0.023198849 -0.01775792
0.038314097 -0.0012261925 -0.015643425 0.014070497 -0.020018281 -0.030492378 0.0053013503 -0.01864003
0.06910148 -0.0054396577 0.014003985 -0.03439499 0.06347951 0.021847349 0.021940477 -0.049229167
0.0055067744 0.0042777294 -0.041449398 0.037186123 -0.061971802 -0.068488255 -0.023793545 -0.07756955
-0.00015293561 0.027862383 -0.012808351 -0.044121582 0.04357492 -0.0136509845 -0.002953591 0.07524415
-0.0292249 -0.02664551 0.043111205 0.03849341 0.032886785 -0.014669214 0.026670935 0.06759945
0.058267977 0.006331769 -0.020346053 0.008196175 -0.010079998 -0.02077179 -0.015510451 -0.024764884
0.029613897 0.022153366 0.010927604 0.07701425 0.021728974 -0.027563548 -0.012730336 -0.025569601
-0.018340016 -0.0068978397 -0.0070934054 -0.05987642 0.0009660598 0.011147155 0.051331818 -0.0052777985
0.05572801 0.01023404 -0.0279039 -0.019845689 0.020851133 0.016934538 -0.020697031 -0.027556065
0.027229294 -0.024732199 0.017095339 -0.008634614 0.029076088 -0.013857063 -0.042092163 -0.0035990083
0.015323574 0.021079248 0.049067337 -0.06505083 0.050151385 0.03625723 -0.042759843 -0.01484319
-0.005633649 -0.03393557 -0.015775014 0.03599297 -0.03873207 0.037025012 -0.0026780323 -0.05367828
0.034908734 0.005390304 -0.049881555 -0.049325153 0.029911725 0.014676328 -0.005016434 0.029955713
-0.041325055 0.035165425 -0.024349218 -0.067268826 0.06953112 0.04054134 0.03465695 -0.054625016
0.0052015777 -0.042519804 -0.03370339 0.04264502 -0.04081443 -0.028724996 0.05533091 -0.014878133
0.04663758 -0.014277968 0.03221752 0.012027704 0.044490624 0.05967206 -0.024487875 0.024832522
-0.0056822314 0.049789082 -0.03169226 0.0043182946 -0.04525773 0.027742373 0.040382266 0.008108847

cnn.convolutions.8.bias f4 [64]
00000000: ec36 623d e8fc d93c e534 5b3c 44fa 653d
00000010: ada1 4ebc 91c1 fbbc dba3 12bd 3714 9bbc
00000020: 2a8a 823d b3bb 80bd 77aa 483d 473a 453d
00000030: a780 623d 88eb f93b bb34 923d d75e 80bd
00000040: 9399 b2bc 243b bc3b bb9a bebb 9685 35bd
00000050: 424c 4dbd e487 733b 137e 2b3c 725b 83bc
00000060: 349e 0e3d aeb4 ff3d e467 cabc da12 15bd
00000070: 898b c1bd 639d 59bd 25b7 46bb f6d2 173d
00000080: 215c b6bc 8c5e 34bd 9f94 713d 0d6e 253d
00000090: 2cc2 3cbd 7087 463c a18f a13d 7623 8cbc
000000a0: 402e ee3d 9526 b03d 5fa2 b1bd e193 a33c
000000b0: 0b70 27bd 9939 09bc 0f47 67bd 9fc3 87bc
000000c0: 6aa3 d83b b417 c33c b2ad 09bc f088 143d
000000d0: 3d6d ff3b a99b 85bd 43d6 7bbd 0274 48bd
000000e0: d51c 2d3c 7629 3f3d fdcb 1abc 5f60 61bc
000000f0: 7469 ee3b 88bf fd3b 0646 e6bc f6de 9abd
0.05522816 0.026609853 0.01337931 0.056146875 -0.012611789 -0.030731948 -0.035800796 -0.018930538
0.06374009 -0.06285801 0.048990693 0.04815128 0.055298474 0.0076269545 0.07138964 -0.06268089
-0.021801746 0.005744355 -0.005816785 -0.04431685 -0.050121553 0.0037159855 0.01046707 -0.016034815
0.034818843 0.12485634 -0.024707742 -0.03639493 -0.09450442 -0.05312861 -0.0030321565 0.037066422
-0.022260727 -0.04403548 0.058979627 0.040388156 -0.046083614 0.012117252 0.07888723 -0.017106753
0.11629915 0.08601109 -0.08673548 0.019967975 -0.040878337 -0.008375549 -0.05646425 -0.016572772
0.0066112773 0.023815013 -0.008403229 0.036263406 0.0077950046 -0.065238304 -0.061483633 -0.04893876
0.010565956 0.0466704 -0.009448049 -0.013755887 0.0072757546 0.0077437796 -0.028109562 -0.07562058

cnn.convolutions.10.weight f4 [64]
00000000: 604d 3e3f 30f2 463f df8f 4d3f 0ccc 283f
00000010: 6eb0 383f 32e6 343f 6a83 2d3f cb29 443f
00000020: 2d18 423f 6ff1 3a3f e1f5 403f 1215 313f
00000030: 3cb5 483f 6c7a 613f 4bc6 323f 98eb 2f3f
00000040: f12a 453f e24e 343f 8d2b 453f 4bac 353f
00000050: e635 403f 03bd 343f f0ba 403f 23c6 2e3f
00000060: 83e7 393f 001b 5b3f d5b4 403f e097 393f
00000070: d1af 3a3f e873 273f 1562 2d3f 506b 373f
00000080: 42e2 3a3f 34f4 313f ffef 603f d8d7 313f
00000090: b31f 393f be6e 293f 339b 6b3f 7e57 3e3f
000000a0: 0353 393f 0339 443f 42e4 323f 1903 2e3f
000000b0: 136e 443f 5c0f 293f bd67 353f dd02 3d3f
000000c0: 599b 3b3f c3de 3b3f 1eb2 463f d46b 3f3f
000000d0: 0d3a 2c3f 5c85 373f 788f 473f 1b49 383f
000000e0: c963 363f 1fda 2d3f 6cf2 363f a165 3d3f
000000f0: 7f7c 383f c2d7 423f 764b 403f db02 353f
0.74336815 0.777133 0.80297655 0.6593635 0.7214421 0.7066375 0.67778647 0.7662627
0.7581814 0.7302465 0.7537518 0.69172776 0.7840154 0.88077426 0.6983382 0.6871886
0.7701865 0.70432866 0.7701958 0.70966023 0.7508224 0.7060091 0.75285244 0.6827108
0.72618884 0.85588074 0.7527593 0.7249737 0.72924525 0.65411234 0.67727786 0.7164812
0.7300149 0.6951325 0.87866205 0.69469976 0.72313994 0.66184604 0.9203369 0.7435225
0.7239229 0.7664949 0.69879544 0.67973477 0.7673046 0.6603906 0.7086142 0.73832494
0.73283917 0.7338678 0.77615535 0.7477391 0.6727608 0.71687865 0.7795329 0.7198655
0.7124601 0.6791095 0.71463656 0.739832 0.72064966 0.7611047 0.75115144 0.7070748

cnn.convolutions.10.bias f4 [64]
00000000: 34dd 0c3d b995 3c3d cbb3 b53c 7718 453c
00000010: 9edb 193c e559 713c 55c6 b63c 8869 843c
00000020: 9801 213c 4df7 07bb 15d0 d63b 437e 9b3b
00000030: f145 11b9 05fb 75bc a74b 0abb a9f9 613d
00000040: 9b58 603b 23ac d53c 3634 4b3d bddf 053d
00000050: 30a9 243d 78b9 603b 6eb9 3c3d 286f 583c
00000060: 8930 2f3d 2835 b4bc 1c74 0d3d d5bd c7ba
00000070: ad0c 263d a5e9 1c3d a747 f03c ef2c 623a
00000080: 7e8f c43c eeb3 dc3c 66d8 ea3c e37b f73c
00000090: c492 9f3c 202e 243d 569b f43c 60d8 b03c
000000a0: 1579 e03c 9842 a33c 3faa ee3c d3ff df3c
000000b0: e26a 5e3c 6aa3 6a3d 454c d63c dee0 91ba
000000c0: 4d1f 373d 7ce5 1a3d 015b b13c af2b b23c
000000d0: e82b 523d 453a 093d 1cbd c23c 8164 47bc
000000e0: 0738 f33c 1f53 fa3c 3475 103d d20a 783c
000000f0: bbbb 5e3c 6d85 483d f735 8c3c a28a 283d
0.034390643 0.046041224 0.022180459 0.012029759 0.00939074 0.014730905 0.022311369 0.016163602
0.00982704 -0.0020746768 0.006555567 0.004745276 -0.00013854333 -0.015013461 -0.0021102221 0.055169735
0.00342325 0.026083058 0.04961034 0.032684077 0.040200412 0.0034290235 0.046075277 0.013210095
0.042770896 -0.021998003 0.03453456 -0.001523907 0.040539432 0.03830876 0.029331041 0.00086279114
0.023994204 0.026941266 0.02866764 0.030210441 0.019479163 0.04008305 0.029859226 0.02158755
0.027401486 0.019929215 0.029133914 0.027343666 0.013575288 0.05728475 0.026159415 -0.0011129638
0.044707585 0.03781651 0.02164984 0.021749346 0.051311404 0.033502836 0.023771815 -0.012169958
0.029689802 0.030557213 0.035268024 0.0151392985 0.013594563 0.04895537 0.017115576 0.041147836

cnn.convolutions.10.running_mean f4 [64]
00000000: 36fa 843e 595a 903e 7339 bd3d 81b7 da3e
00000010: c74e 863e a2b5 5d3e 7d3b 793e 541c c73d
00000020: db38 873e 82a4 863e 9c48 2f3e 5497 c03e
00000030: 482c 393e c8d3 1a3e 7f85 983e f74d 953e
00000040: 9a96 073f 43be 023f 3911 5b3e f6e7 903e
00000050: a201 803e e66b b43e 9d8b 483e b29d b63e
00000060: eec6 973e 2507 503e 5f8b 5f3e 733f cb3e
00000070: f405 ad3e da83 a73e ecc9 663e ab3b 033e
00000080: 7b76 cc3e 8ad5 953e c2fb 2f3e 7663 9b3e
00000090: 7c78 d73e 505d 483e 2f9c 493e 00ff 363e
000000a0: 20c1 843e 2bc4 5f3e 3a7f 703e 8c3c 223e
000000b0: ed2f c83e db41 983e d810 963e 85f2 053f
000000c0: 4450 ca3e dc00 203e 7935 293e 655d 323e
000000d0: c76e 813e 2198 e73e c09a 543e 1d95 b43e
000000e0: c714 c63e 892d ca3e fbb6 d23e cd58 c83e
000000f0: 8fe2 6e3e cb85 643e e5b8 e33e 5510 7b3e
0.25972146 0.2819393 0.09239473 0.42718127 0.26231977 0.21651319 0.24339099 0.097222
0.26410565 0.26297385 0.17117542 0.37615454 0.18083298 0.1511985 0.2978935 0.29161045
0.52964175 0.51071566 0.21393289 0.28301972 0.25001246 0.3523857 0.19584508 0.35667187
0.2964396 0.20315225 0.2183051 0.39696845 0.33793604 0.32717782 0.22537965 0.1281573
0.39934143 0.2926448 0.17185882 0.3034932 0.4208411 0.19566846 0.19688486 0.17870712
0.25928593 0.21852176 0.23486033 0.1584341 0.39099064 0.29737744 0.29309726 0.5232318
0.39514363 0.15625328 0.16524304 0.1741844 0.2527983 0.45233253 0.20762157 0.35270014
0.38687727 0.39487866 0.41155228 0.3913025 0.23328613 0.22316663 0.44477 0.24517949

cnn.convolutions.10.running_var f4 [64]
00000000: 55ff 3e3f 8c39 b23f 20b4 453e d40a c63f
00000010: 0183 c33f 1039 ad3f 206f af3f f8b1 433e
00000020: 7c4e 9f3f 8059 d73f 347f dc3e bab2 e23f
00000030: 6b61 f23d ca76 8d3e f31b 553f 0b8a 1e40
00000040: db1b 3240 bc88 6b40 47da 823e 6340 e63f
00000050: 0f2d c13f afdb eb3f 2cfb 243f 22ac 0040
00000060: bdcf d63f 3999 173d 2ae0 7c3f 2cb3 4340
00000070: 3d61 3440 1b8c 0740 8424 7a3f 3dca 783e
00000080: 3791 2340 55ae ec3f 0bc3 8c3d 5010 0b40
00000090: eeeb 4940 f2ab 063f 119b d13d d46d 1f3f
000000a0: 823b e43e 9674 193f 32a4 b53f 513d 0e3f
000000b0: b0ee 4540 5daf f73f ad5b 1140 79b9 0640
000000c0: 70e9 2840 651c 0b3e 6e2d 683e 8206 be3e
000000d0: 6323 9a3f 9a28 4740 706d 483f a51c 0c40
000000e0: f144 1a40 d7e6 e03f 5c1c 2840 1d71 d73f
000000f0: af3c 893f 36a1 f93e b125 6640 1cef e33f
0.74608356 1.3923812 0.19306993 1.5472054 1.5274354 1.3533039 1.3705788 0.19110858
1.2445827 1.6824188 0.43065798 1.7710793 0.11834987 0.2762969 0.8324577 2.4771755
2.7829502 3.6802206 0.25557157 1.7988399 1.5091876 1.8426417 0.6444576 2.0105062
1.6782147 0.03701136 0.9877955 3.0578108 2.818435 2.1179264 0.9771197 0.24295898
2.5557382 1.8490702 0.06873139 2.1728706 3.155025 0.5260612 0.10234655 0.6227696
0.4457665 0.5994352 1.4190733 0.5556231 3.0926933 1.9350392 2.2712204 2.1050704
2.639248 0.1358505 0.2267358 0.3711434 1.2042049 3.1118531 0.7829199 2.1892483
2.4104578 1.7570447 2.626731 1.6831394 1.0721644 0.48755807 3.5960505 1.7807345

fc.0.weight f4 [128, 1061]
00000000: 8f0e cbbb 43e2 043c bad4 533c 9286 82bb
00000010: aa91 80ba 5f7e bbba 3eb3 943c 3ca0 cc3a
00000020: c4ad 52bb f450 263c 0a80 8d3a f1e3 293c
00000030: bb17 873c 6437 b43c 75bb 463b bb18 ad3c
00000040: 50ad 1fbc a394 293c 3990 a8ba 1667 daba
00000050: 9b8c 4d3c 106b 033c ad27 5abb 5fef 893c
00000060: 8e88 913c b32b 203b 4e41 463c faa5 0e3c
00000070: 8fed fcbc b357 ad3c 2132 94bb 6a8d 693c
00000080: 1d1c 9f3b 91a2 38bb 939d 893b 8831 e73b
00000090: 3581 aabb d920 ba3c df70 ab3c 31ef ae3b
000000a0: 9e60 ce3a 74a7 a03c 6d3e 403c ffac 353c
000000b0: ee9a 9f3c 41e2 143b ffdb ae3c 1a03 ff3b
000000c0: 4a07 12bb d474 19bb ae06 90bb c6a2 813b
000000d0: 23c4 92bc b6a8 ccbb c67d 70ba 9b0a 9dbb
000000e0: e8d9 28bc e5f1 31bc bd4d 6cbc 0518 3f3c
000000f0: 2bec 7ebc 79d9 54bb fc09 d5bb d411 5f3c
00000100: b338 febb 3969 aabb 8489 32b9 ebaa abbc
00000110: 057e 92bb e9d9 323c 7c44 47ba 491b 633c
00000120: 0001 c2bb db4b 9c3c 1ec2 2abc b1c6 203c
00000130: b381 6bbc d5d1 893c 66a9 8ebb 9e39 5e3c
00000140: f718 7f39 00bf 6a3b 0a44 373b cff3 343c
00000150: 3163 3cbb 0f8f 573c c01a 133c 2915 243c
00000160: bd76 3c3c eb78 c53c 807a 02bc 0556 5c3c
00000170: 3fb0 08bc 3392 993c 0550 5ebb b064 c73c
00000180: 6231 ccba bb26 6a3c c32a 263c 63bb 863c
00000190: 7018 46b9 1caa fb3b 22bc a53c 5fa3 69bc
000001a0: 9dd8 f4bb 9654 063c 7d40 82bb b147 2d3b
000001b0: 2875 45bc bc65 8d3c d59c 733b c8cf d3bb
000001c0: 7a1c 033c 64d7 923c 084e 843c 5cad f13b
000001d0: 6102 1f3c d093 bb3b 0343 f73c 537c 103c
000001e0: ad29 b83b deb6 003c f622 cf3c 0152 39bc
000001f0: a422 253b 3a28 c33c c351 1bba 2664 ee3b
00000200: 655e 663b 5d42 673c 18a3 393c 6559 9a3c
00000210: ccc0 603c c791 5b3c 21d7 183c 699f 05bc
00000220: 2d95 b03c 74dc 843c 9ee1 5dbc 0395 6d3b
00000230: 3d7f 153c 622e 763c ab76 85bc 22b1 33bc
00000240: 9a6d c6ba bff3 3138 916c 373c 474b b53b
00000250: 53de 823b 1967 683c b75c 70bc 6003 f73b
00000260: 5820 34bc e3c9 f43b e8e7 afbb f95d 10bb
00000270: 3fe1 833a 86b8 113b 0a4f 85bc 6d15 e5bb
00000280: 5d46 5b3c bd96 cc3b 0009 423c 33be 003c
00000290: 3450 9c3b c413 b1ba 3357 933c 87a4 8d3c
000002a0: 0370 cd3b 1d1b 483c 042a ca3b e001 363c
000002b0: b061 363c aef8 5c3c c00b b9bb b0d3 1f3c
000002c0: f964 cebb 47fb a2bb e859 763b 2baf feba
000002d0: 3ca2 4fbc 48ea 4d3c fa0a 39bb 9900 a2ba
000002e0: 681a ea3a 34eb 223c 0ffb 2abc d731 38bb
000002f0: d905 8dbb 52c6 953c 223c 8abc 7d3e 093b
00000300: be6f 39bc b719 1abc c734 ab3c acdf 873c
00000310: 9a31 063c b095 3c3c 6c05 413c 0a89 b03c
00000320: c16f a0b9 60a7 5d3c f12d f03b 4673 3bbc
00000330: 9f46 b7bc 36de 0dbb 4a52 b9bb ac16 343d
00000340: 3f8a 38bb 6543 f439 0628 8cbb add1 023c
00000350: 9ef8 cb3b 9d3c 923a aa88 eeba 7415 373c
00000360: b485 a23a c87d 6d3c 3820 ab3c b4db 48ba
00000370: e1b1 27bb b592 67bc 8270 063b 1d6b dc3b
00000380: eb52 4dbb 26e7 93bc c79d 98bc ed2c 09bc
00000390: 889d 41bc ea5f 113c 913e a8bb 5825 543b
000003a0: bc6f bcbb 8e0c 84bb c3b5 393c 3989 9dbc
000003b0: cd75 03bc 6803 803c ed3f 853c 806a 43bc
000003c0: a0d3 3dbb 9999 803b 79d1 e53b dde6 00bc
000003d0: 0728 6ebb be1b 3e3c 9225 0e3c d9a8 773c
000003e0: f624 333c 8d61 a03c 5f45 2c3c 3421 d03c
000003f0: 9f45 d33a 381c 1d3b c4fb 34bc e254 da3c
-0.006196804 0.008110586 0.012929136 -0.003983327 -0.0009809036 -0.0014304629 0.018151876 0.0015611718
-0.003214703 0.010151137 0.0010795605 0.010369287 0.016490808 0.021999069 0.0030324135 0.021129956
-0.009745911 0.010350379 -0.0012860365 -0.0016662802 0.01254573 0.008021131 -0.0033287809 0.016837774
0.01776531 0.002444011 0.012100531 0.008706564 -0.030874996 0.021159982 -0.0045225774 0.014254907
0.0048556463 -0.002817307 0.0041996925 0.007055465 -0.005203391 0.022720741 0.020927845 0.0053385724
0.0015745347 0.019611098 0.0117336335 0.011088609 0.019483056 0.0022717866 0.021345137 0.007782352
-0.0022282177 -0.0023415582 -0.0043953275 0.0039561717 -0.01791579 -0.006245698 -0.0009174015 -0.004792524
-0.010305859 -0.010860895 -0.014422831 0.011663442 -0.0155592365 -0.0032478257 -0.0065014344 0.01361509
-0.007758224 -0.005200532 -0.00017026631 -0.020955523 -0.004470589 0.010916212 -0.00076014525 0.013861486
-0.0059205294 0.01907914 -0.010422258 0.009812997 -0.014374184 0.016823689 -0.00435369 0.013563542
0.00024327995 0.0035819411 0.0027964138 0.011044457 -0.0028745646 0.013156666 0.008978546 0.010014811
0.011502919 0.02410551 -0.007963777 0.013448243 -0.008342802 0.018746471 -0.0033922207 0.024340004
-0.0015578682 0.014291461 0.010142031 0.016446775 -0.00018891855 0.0076801907 0.02023131 -0.014260142
-0.0074721114 0.008198878 -0.0039749728 0.0026440436 -0.012051858 0.017260425 0.0037172337 -0.0064639784
0.008002395 0.017924972 0.01615049 0.0073754024 0.009705157 0.0057244077 0.03018332 0.008818704
0.0056202025 0.007856099 0.025285225 -0.011311055 0.002519765 0.023822892 -0.0005924964 0.007275122
0.0035151478 0.014114943 0.0113303885 0.018841455 0.013717841 0.013401455 0.0093286345 -0.008155682
0.021555508 0.016218401 -0.013542561 0.0036252148 0.009124574 0.015025707 -0.016291937 -0.010967525
-0.0015138865 4.2427095e-05 0.011195318 0.0055326554 0.0039937883 0.014184737 -0.014670542 0.007538244
-0.0109940395 0.007470356 -0.0053682216 -0.0022028668 0.0010061635 0.0022235229 -0.01627304 -0.0069910795
0.013383475 0.0062435553 0.011842966 0.007857847 0.004770303 -0.0013509919 0.017985916 0.017290367
0.0062694564 0.012213496 0.0061695594 0.0111088455 0.011131689 0.013487024 -0.0056471527 0.00975506
-0.006298658 -0.0049738022 0.003759021 -0.0019430866 -0.012672957 0.012568064 -0.0028235302 -0.0012359797
0.0017860653 0.009943772 -0.010435834 -0.0028105879 -0.0043036756 0.018283043 -0.016874377 0.0020941787
-0.011318145 -0.009405545 0.02089919 0.016586147 0.008190537 0.011510298 0.011781078 0.02154972
-0.0003060084 0.013528675 0.0073296954 -0.011441058 -0.022372542 -0.002164734 -0.0056555616 0.043966934
-0.0028158573 0.0004658952 -0.004277232 0.007984561 0.006224706 0.001115698 -0.0018198688 0.011174548
0.0012399466 0.014495321 0.020889387 -0.0007662133 -0.0025588202 -0.014134099 0.0020513837 0.006726636
-0.003132994 -0.018054556 -0.018629922 -0.008372528 -0.0118173435 0.008872965 -0.0051344116 0.0032370891
-0.0057506245 -0.004029817 0.011334839 -0.019230472 -0.008023691 0.015626624 0.016265834 -0.011927247
-0.002896525 0.0039245603 0.0070134965 -0.007867542 -0.0036339776 0.011603294 0.00867595 0.01511594
0.010934105 0.019577766 0.010514586 0.025406457 0.0016118771 0.0023973119 -0.011046354 0.026651803

fc.0.bias f4 [128]
00000000: 7f7f 983c 76cd 97bc 1ec7 e23b 2341 4e3c
00000010: 5ad0 c23c af05 ea3d f22a 443b 3a1a 3bbc
00000020: 8954 8b39 9467 a93b fb43 823b 5038 4b3c
00000030: 8033 a43d 6fc6 313b 44bc 8a3c 6358 a13c
00000040: 4dc4 c1bc 39b7 253c b737 2dbb eb9e 573d
00000050: 40b3 b13d 634d 0d3d bbcc 0dbb 93b7 d5bc
00000060: b547 cc3d cdd5 b8bb 06eb d93c d7da ebbb
00000070: 4d13 8dbb 9eb1 68bc a3f4 f9bb 488e a93c
00000080: d91d 0a3e d23d debc 9930 4f3d a7e5 f8bc
00000090: 5cc1 92bb 2f3a 253c 4e91 523b 45da 1e3d
000000a0: 985c 0e3d 4a15 cf3c bac5 8439 caef 9c3b
000000b0: ae37 f23c fcd5 0f3c 3e97 b33c 1565 c23b
000000c0: 8a55 a33a 6edb f83b 3fa4 363c 96c5 853d
000000d0: 48f4 0e3c 4faa 1a3d be40 9d3c 6a74 b63d
000000e0: b4b3 3639 4df4 923c 4538 bebb f057 bb3c
000000f0: fc7e 2a38 bd47 ad3b b6bf 8fbc 1262 8a3d
00000100: 70d6 af3b 2a3f 7f3d 72af 1f3d a8ea bf3d
00000110: e4eb 083d ac24 eb3a b83d 27bd 0a78 f43c
00000120: df28 84bc 47c9 3cbc 2e25 ea3c 70da 09bb
00000130: 75d7 c83c c885 fc3c 6331 393b edfb f83c
00000140: b210 323d 535c 74bc ffcf 8abc 802d 6e3c
00000150: b401 053d 07c3 b23c 389d 513d a7e6 d7bb
00000160: 35e5 6f3c 86fa cb3b 65f1 493c 9306 2b3d
00000170: a756 6b3c 8902 a6bb 9a09 953d 664e 163d
00000180: b9a2 883b 418a b13d 9ded 1fbd cb48 1ebc
00000190: 0059 d7bc b3b0 8c3d e5dc 88bc cc46 833c
000001a0: 6500 b23c cd75 5c3b 19ec 92bc 8335 d83a
000001b0: 8891 0abd c425 b6bc 27c1 613c 4a4f 413b
000001c0: 8608 2b3d 9ac7 533b 58ce 8abc 777b a5bc
000001d0: 117f 23bd 43c9 c73c 3c9a eaba 230d c1bc
000001e0: a9a9 b23b 9733 95bc 976e 8c3c 6d1b 36bc
000001f0: dbb8 233b 4437 163c 25e2 153e 425c 1c3c
0.018615482 -0.018530589 0.0069207093 0.012588772 0.02378099 0.11426865 0.0029932824 -0.011419827
0.0002657513 0.005169818 0.003975389 0.012403563 0.08017635 0.0027126332 0.016935475 0.019695466
-0.023653174 0.0101144845 -0.0026430914 0.05264179 0.08676767 0.03449763 -0.0021636921 -0.026088512
0.099746145 -0.0056407214 0.026601326 -0.0071977186 -0.0043052793 -0.0142025035 -0.00762804 0.020697728
0.13487948 -0.027129088 0.050583456 -0.030382944 -0.0044786166 0.010084673 0.0032130065 0.038782377
0.034756273 0.025278706 0.0002532432 0.0047893273 0.029567566 0.008779045 0.021922704 0.00593246
0.0012461406 0.0075945174 0.011147558 0.06531827 0.008725233 0.037760075 0.01919591 0.08908923
0.00017423817 0.017938757 -0.0058050477 0.02286908 4.0649422e-05 0.005288093 -0.01754747 0.06756987
0.005366139 0.062316097 0.038985677 0.09370929 0.033428088 0.0017940006 -0.040830344 0.029842395
-0.01613277 -0.011522598 0.028582182 -0.002103474 0.0245168 0.03082551 0.0028258197 0.030393565
0.043472953 -0.01491459 -0.016944883 0.014537215 0.032472327 0.021821512 0.051175326 -0.006588775
0.01464205 0.006224933 0.012325619 0.041754317 0.014363921 -0.00506622 0.07277222 0.03669586
0.0041697887 0.08668948 -0.039044965 -0.00966091 -0.026287556 0.0686964 -0.016706893 0.01602497
0.021728704 0.003363955 -0.017934846 0.001649544 -0.033830196 -0.022234805 0.013778961 0.0029496723
0.041756175 0.0032315017 -0.016944095 -0.020200474 -0.0399161 0.024387961 -0.0017898749 -0.023565834
0.005452354 -0.018213077 0.017142577 -0.011114937 0.0024982009 0.00916845 0.14637049 0.00954348

fc.2.weight f4 [128]
00000000: 8eaf 3e3f 099b 543f c9d0 573f 0742 463f
00000010: af4b 4c3f 31fb 593f b2ea 723f 62a6 463f
00000020: 10eb 543f 9f6f 5c3f 5be7 6f3f 3404 483f
00000030: e78f 613f ef50 4d3f 98c8 503f f3c8 4a3f
00000040: ffd6 4f3f 2b4b 4a3f 5366 473f 9b8f 493f
00000050: 30f7 663f 1009 533f 753d 583f b40d 5d3f
00000060: c991 553f b798 3f3f ec38 553f 6d2e 403f
00000070: 7e7a 813f e84e e23e 1bd5 4d3f 398b 443f
00000080: b1c9 5c3f bbd1 5d3f d38b 4d3f 43ec 5e3f
00000090: 15e0 4b3f 6478 513f ac42 583f 715c 513f
000000a0: bf9e 5c3f b57e 5a3f 20b6 5a3f d797 543f
000000b0: 4e38 553f 5d25 513f 47c5 593f 0ac8 3f3f
000000c0: b3a9 613f 8f56 553f f632 563f 7b21 603f
000000d0: 65fc 433f 2c51 833f 7166 663f fc69 623f
000000e0: fa7b 553f 7b2e 3c3f 59a7 493f e8fe 553f
000000f0: 7c94 5e3f f08d 583f 0441 683f db6f 553f
00000100: 474b 403f 9a2e 5f3f 7a00 4f3f 10fd 733f
00000110: 7738 583f 030d 523f 8bb4 a73f 108f 633f
00000120: 464e 763f 2a87 5f3f e3f7 483f a03d 563f
00000130: 6ec8 593f 8fe0 523f da2f 4f3f 73d4 703f
00000140: ee4a 583f 0ac1 403f c0b3 5e3f 0db4 4b3f
00000150: d85c 6f3f 8960 523f b25a 4b3f 4aec 393f
00000160: 7fc0 603f e1a6 593f 611f 4b3f d8ec 513f
00000170: c8e0 4d3f 187c 503f b404 5a3f d067 573f
00000180: 79a6 463f 3d84 8a3f 1a9e 553f 20e0 613f
00000190: 9a21 533f ccaf 543f 06c2 4f3f baaf 4e3f
000001a0: fab7 5a3f 5c24 3a3f ccc0 763f b2db 5b3f
000001b0: f660 5a3f 1f48 4e3f c41a 3d3f 1970 5b3f
000001c0: 4de2 7b3f 461c 483f f98c 843f 49b7 483f
000001d0: 7384 4c3f 50ea 593f b15a 5a3f 2d58 463f
000001e0: 04a6 4b3f 812a 593f a471 533f 5ae4 583f
000001f0: 91dd 513f d9cc 593f 9367 5f3f 6a3e 573f
0.74486625 0.83049065 0.84302956 0.774445 0.79802984 0.8514891 0.94889367 0.7759763
0.83171177 0.8610782 0.93712395 0.78131413 0.881102 0.8020162 0.8155608 0.79212874
0.81187433 0.7902095 0.7789051 0.7873475 0.9022093 0.82435703 0.84468776 0.86349034
0.83425575 0.748424 0.8328998 0.7507084 1.0115507 0.44200826 0.804033 0.76774937
0.86245257 0.8664815 0.8029148 0.87079257 0.796388 0.81824327 0.84476733 0.8178168
0.8617973 0.8534959 0.8543415 0.8304419 0.8328904 0.81697637 0.85066646 0.7491461
0.88149565 0.833352 0.8367151 0.8755109 0.76557 1.0259147 0.90000063 0.8844297
0.833923 0.73508424 0.7877098 0.8359208 0.8694532 0.8459158 0.90724206 0.833738
0.75114864 0.87180483 0.808601 0.9530802 0.8446116 0.82051104 1.3101972 0.8889017
0.96213186 0.8731562 0.78503245 0.8368778 0.85071456 0.823739 0.8093239 0.9407417
0.84489334 0.75294554 0.86993027 0.7957161 0.93501043 0.8217855 0.79435265 0.72626173
0.87793726 0.8502026 0.79344755 0.8200202 0.80421114 0.8143935 0.85163426 0.8414278
0.7759777 1.0821606 0.8344437 0.8823261 0.82473147 0.83080745 0.8115543 0.8073689
0.85436976 0.7271173 0.96387935 0.85882103 0.853042 0.805788 0.73868966 0.8571792
0.9839218 0.7816814 1.0355521 0.7840467 0.798896 0.8512316 0.85294634 0.77478296
0.79550195 0.8483048 0.82595277 0.84723437 0.8197871 0.850782 0.87267417 0.8407961

fc.2.bias f4 [128]
00000000: 140b afbb 3150 11bd f57f a53c a30f 833c
00000010: 139d 643e 87a9 06be 67d3 023e aa04 bfbd
00000020: 2edf 40bd f0aa 3fbe 11c6 3cbd 3045 153d
00000030: 3024 e43c 6602 193e 586c 24ba 6224 33bd
00000040: faf0 013d b54b 12be e08a f63d 7bb8 bbbc
00000050: 8185 513d 0144 123e 5093 073e 8fe5 b8bc
00000060: 8eaf a13b cd70 83bc 714d 843b e2a5 903d
00000070: 0036 f03d d8b5 aebe 2a7a aabc 0994 62bd
00000080: 4655 b43d 4dbe d63d af94 e7bc b1a0 8a3d
00000090: 4f0b a03a 5d3a 613d b4ac a4bc c282 76bd
000000a0: 1b72 b93d 74eb 403d c29f 083e e859 83bd
000000b0: e58a 0c3e 83e4 833d 599e 1ebc d232 c6bd
000000c0: 330d 5d3d 62f4 1e3d 6b18 c1bd 13f8 243e
000000d0: 31bb 0a3e 662f 9a3d 04ed a53b 0b2d d23c
000000e0: 1a82 eabc f898 2bbc f0a0 7fbc 97b6 51bd
000000f0: fae9 14be 5f17 0a3d 621e 203b 1f96 9ebc
00000100: 0f41 563c ff81 6dbb 2d05 c73d 3e10 8abd
00000110: 4bbb 98bd 077e 973d 18cd 02bd 69cc 88bd
00000120: 146a 313d 24b2 283d 6046 09bd 25e5 96bd
00000130: f203 08bd 6cc7 4cbc e045 a3bd 4671 893c
00000140: 7f17 fabd 21fa 7dbd 6465 253e 7606 b13d
00000150: 0279 88bc 3942 c43d 747a a8bd 07fe ccbc
00000160: 8aa6 91bd fc91 aeba e894 cf3d e1e1 aabc
00000170: 975d 6dbd eb76 b93c 1745 46bd 27f8 6abc
00000180: 5c60 f13b 31df b93d 915a 10bd 37dd 0bbd
00000190: 394c adbd 473a 23bd d78d 803d d575 9b3c
000001a0: 1231 103d 6699 0d3d 1453 68b9 ea44 68bd
000001b0: 45e6 873d 169a 92bd 382f 203e ac28 90bd
000001c0: 906c 8fbc cd61 07bd 0d7c f23b 07ed 84bd
000001d0: 37ed 263d 54d3 85bd 61cd be3c 8d8f c33d
000001e0: e57c 053d e91c 673d a8ec 93bd b96c 21bd
000001f0: 52bc 18be 186c 373d ae0e 59bd 900b b8bd
-0.005341897 -0.035476867 0.020202616 0.015998667 0.22325544 -0.13150607 0.12775956 -0.093270615
-0.04708784 -0.18717551 -0.04608733 0.036442935 0.027849287 0.14942321 -0.0006272248 -0.04373587
0.031723954 -0.14286692 0.12038207 -0.022915116 0.05115271 0.14283754 0.13239789 -0.0225704
0.004934258 -0.016044999 0.004037552 0.0706289 0.1172905 -0.3412311 -0.020810205 -0.05531696
0.08805327 0.10485516 -0.02826914 0.06768931 0.0012210401 0.0549873 -0.020101883 -0.060183294
0.09054967 0.047099546 0.13342193 -0.06413633 0.13724859 0.064400695 -0.009681308 -0.09677662
0.053967666 0.03880728 -0.094284855 0.16110258 0.1354797 0.07528572 0.005063655 0.025656244
-0.02862649 -0.010473482 -0.015602335 -0.051199522 -0.1454238 0.033713695 0.0024432172 -0.019358693
0.013077035 -0.0036240814 0.09717784 -0.06741379 -0.07457598 0.07397085 -0.031933874 -0.06679613
0.043314055 0.041185513 -0.03351438 -0.073679246 -0.033206888 -0.012498718 -0.07972312 0.016777646
-0.12211513 -0.06200612 0.16151959 0.086438105 -0.016659264 0.095829435 -0.08226481 -0.025023473
-0.07111843 -0.0013318653 0.101358235 -0.02085966 -0.057950582 0.022639712 -0.048405733 -0.014341391
0.0073662233 0.090757735 -0.03524262 -0.034146514 -0.08461804 -0.0398505 0.06277054 0.018977085
0.035203047 0.03457012 -0.00022156193 -0.056706347 0.06635717 -0.07158296 0.15643013 -0.070390075
-0.017507821 -0.033052254 0.007400042 -0.06490522 0.04075357 -0.06534448 0.023291292 0.095488645
0.03258981 0.056424055 -0.07222873 -0.039410327 -0.14915588 0.04478082 -0.052992515 -0.0898658
