trained_models/regression_linear_protons_m1_m2.pth (torch, 68264 bytes, 2 tensors)

linear.weight f4 [8, 2078]
00000000: baa7 71bb e45c e6bb e12f 883b 45a9 933c
00000010: 7416 a9b9 204c 723c a7f3 d9ba b66e 8cbc
00000020: 406a 433b a4a8 ecbb 09a0 453c c69b 0cbb
00000030: afed 87bb a053 333b a93f a7bc 77af 033c
00000040: 2663 fc3b 432a ecbb 326e 88bc 6f10 9bbb
00000050: 2d72 3abb f86c 883c 7a57 9c3a 7519 833c
00000060: 299b 5fbc 39cc 4dbb 8c0c aa3b af1d 88bb
00000070: 31ef 213b 0957 f53b 26a2 10bc 9077 bf3c
00000080: 7a68 2abc a22f 33bc 98ca d23c 2b0e bc3b
00000090: 13ce ae3c 5e49 76bc 8034 80bc cd50 82bc
000000a0: 70f3 04bc dce4 e73c b7dd 1ebc dbcf 05bc
000000b0: c685 86ba 36f2 3fbc 3cd2 103b d6e8 513c
000000c0: 8643 0fbb 565c 08bc 39fa 413c b9a6 5cbc
000000d0: ba44 94bb 629e 62bc 389d 9abb 20db b93b
000000e0: cc57 1e3c 9462 093b 164f 53bc ca5c 603c
000000f0: 5354 11bb fbdc b239 d34d 8e3c 2d0c 4d3c
00000100: 2bfa 2f3c 7e83 e03c 4173 2fbb 7cd0 05bb
00000110: 5ae3 dbb9 287c 473c af24 013c b147 29bb
00000120: f460 debb 4469 a63b 2e2e f93b dcfa b33b
00000130: 1630 88bc c299 8e3c a965 71bc 6ce2 1a3b
00000140: 70df 47bc 72a1 cd3c a086 c23b db32 cbbb
00000150: 8161 213c 06cc 9e3b 0054 153c 7bac 203c
00000160: a317 133c 2e32 bd3b 07da 6a3a 436f 82bb
00000170: 9d05 73bc c12c 02bb 9c9f 6ebb b9c1 2fbc
00000180: 2955 103b f7e3 b63b 8c88 4dbb 628a 08bc
00000190: d1b0 31bb 2055 b13b af9b c0ba 838b 8d3c
000001a0: c1ff 0f3c d150 b8bb 5dfa 45bb 52da c33b
000001b0: 80fb 0ebb 8a7a 24bc bf94 c9ba f014 b0bc
000001c0: ed69 be3b 7146 3d3c c7ce 33bb 32b9 c33a
000001d0: d42b 5b3b b215 e1bb afbe 00bc fce5 f03b
000001e0: 6d46 9b39 f087 2d3c fc09 1bbc 12fe bcbc
000001f0: b3fc 66bc 735b 35bc 53b2 593c 8611 c33b
00000200: 6b15 043c d699 1a3c d1c1 723b d367 6cbc
00000210: 9f07 39bc e2ac 04bc 1748 84bb fa35 79bc
00000220: 24d0 1abc 1506 4339 2b07 cfba 6b04 aebc
00000230: 2e48 d23b f1ef 6fbc 2283 60bb a625 b73b
00000240: 05c0 813c f573 bdbc 345e 023c 5874 9cbb
00000250: d154 0d3c cfb2 253c e09c 1dbc 237e 283c
00000260: ca07 dab8 77fe 593c e4f3 1ebc 18df 803b
00000270: 408d d6ba 1a0e 8fbb a2be 6cbb 36dc a3bc
00000280: 8be8 32bc 79a5 4d3c b083 9a3c cae4 bd3a
00000290: b0cf 90bb 0018 4ebc f1fa 313c e8ea 1dbc
000002a0: 9928 00bb 43a7 7b3a 8dd6 6d3c 4145 f1bb
000002b0: 9bb9 3e3b d017 22bb 1bae 5b3c b746 923b
000002c0: 4492 4b3c efe8 923b 6b35 d7bb bb0e 6b3c
000002d0: 409c 863b 9e22 72ba d7ce 93bb d81e 313b
000002e0: 4c75 98ba f585 54bb dec0 783c aeb7 97b9
000002f0: 0d62 31bc c0b8 52bc e48e 833b 530d 89bc
00000300: ff4d 1c3c 9083 97bc 4f8f 81ba 72be 1a3c
00000310: aa48 1e3c b5a7 8b3c dd57 363c 2cc2 e8bc
00000320: ab9c 61bc d977 4a3c 75c7 2a3b 254d d83b
00000330: f031 78ba 50d7 4c3c 5c2e c4bc bedc c23a
00000340: 508f 213b 8cd7 1cbc 9874 3d3b a946 313a
00000350: eca6 073b b6fe 04bc 08bf 033d 7530 8ebb
00000360: 1db3 2a3b 5c59 f8ba 7322 26bc b328 babc
00000370: c6b7 8c3b 8ab2 023c 5c88 84bc 59df 743c
00000380: 8266 b6ba 506e 39bb 8115 6e3c bd8c e7bb
00000390: a48d 7cbb efc1 0f3c b332 3e3c 2bb5 2ebc
000003a0: 1d96 753c 2fcb bd3b e157 a0bb 33d2 cd3c
000003b0: 103b 62bc 48a2 06bc 228f 9ebb d029 f139
000003c0: 0e0a 8fbb ac41 223c 7706 033c 0c67 5aba
000003d0: 0d65 cc3c c7f8 913c 3e12 73bc 6356 7c3b
000003e0: 5cab 68bc 943c c9bc 3269 d53b b41c 933b
000003f0: b85f 3abb 2497 ad3b 2ef4 883a e051 4cbc
-0.0036873654 -0.0070301164 0.0041560982 0.01802505 -0.0003225092 0.014788657 -0.00166284 -0.017142635
0.0029817969 -0.007222252 0.012062081 -0.0021455153 -0.004148207 0.0027363077 -0.020416098 0.00803744
0.007702249 -0.0072071864 -0.016654108 -0.0047321836 -0.0028449402 0.016653523 0.0011927926 0.01600335
-0.013647833 -0.0031402244 0.005189484 -0.004153929 0.002470922 0.007487182 -0.008827722 0.023372442
-0.010400886 -0.0109366495 0.02573137 0.0057389936 0.021338498 -0.015032141 -0.015650034 -0.01590767
-0.008114681 0.02830737 -0.009696416 -0.008167232 -0.0010263256 -0.011715462 0.0022097966 0.01281186
-0.0021860315 -0.008322796 0.011839443 -0.013467484 -0.0045247944 -0.013831707 -0.004718449 0.0056718737
0.009664487 0.0020963298 -0.0128972735 0.013693998 -0.0022175505 0.0003411545 0.017371094 0.01251511
0.010740797 0.02740645 -0.0026771578 -0.0020418456 -0.00041940325 0.012175597 0.007882281 -0.0025830085
-0.00678646 0.0050784666 0.007604382 0.0054925513 -0.016624492 0.017407302 -0.01473371 0.0023633493
-0.012199268 0.025101397 0.0059364587 -0.006201131 0.009849907 0.004846099 0.009114265 0.009806748
0.008977803 0.005773804 0.000895888 -0.0039805486 -0.014832881 -0.0019863101 -0.0036411053 -0.010727339
0.0022023416 0.0055813747 -0.0031361906 -0.008333774 -0.0027113447 0.005411759 -0.0014694835 0.017278438
0.008789004 -0.0056248684 -0.0030209043 0.0059769535 -0.0021817386 -0.010038981 -0.0015379413 -0.021494359
0.005810967 0.011552439 -0.0027436481 0.0014932512 0.0033442872 -0.0068690414 -0.0078579625 0.007351635
0.00029616375 0.010591492 -0.00946283 -0.023070369 -0.014098334 -0.0110691665 0.013287145 0.0059530167
0.008061747 0.009436091 0.0037041793 -0.0144290505 -0.011293321 -0.008097859 -0.004036914 -0.015210623
-0.009449039 0.00018598915 -0.0015794983 -0.021242341 0.006417296 -0.014644609 -0.0034257849 0.005589205
0.015838632 -0.023126582 0.00795703 -0.0047746114 0.008626179 0.010113432 -0.009619921 0.01028398
-0.00010396501 0.013305298 -0.009701703 0.003932845 -0.0016369 -0.0043656947 -0.0036124368 -0.020002466
-0.0109197 0.012551659 0.018861622 0.001448774 -0.0044192895 -0.012578964 0.010863052 -0.009638526
-0.0019555448 0.0009599814 0.014516485 -0.007362992 0.0029102329 -0.0024733432 0.013408209 0.0044639963
0.012425009 0.0044833343 -0.006567647 0.014346774 0.004107982 -0.0009236726 -0.004510741 0.002702644
-0.0011631637 -0.0032428477 0.015182702 -0.00028937816 -0.0108266 -0.012861431 0.0040148366 -0.016729986
0.00954008 -0.018495351 -0.0009884628 0.00944482 0.009660879 0.017047742 0.011129347 -0.0284129
-0.013770263 0.0123576755 0.0026058827 0.006600993 -0.00094678905 0.012502506 -0.023947887 0.0014866812
0.0024652071 -0.009572875 0.0028908607 0.00067625433 0.0020698858 -0.008117368 0.032164603 -0.0043392726
0.0026046701 -0.001894753 -0.010140049 -0.022724485 0.0042943684 0.007977137 -0.016178302 0.014945828
-0.0013916048 -0.002829451 0.014531494 -0.007066338 -0.0038536573 0.008774265 0.011608767 -0.010663311
0.014989403 0.0057920436 -0.0048932885 0.025124645 -0.013808027 -0.008217402 -0.00483884 0.00045998255
-0.0043652123 0.009903353 0.007997147 -0.0008331395 0.024950529 0.017818822 -0.014835892 0.003850364
-0.0142010115 -0.024565019 0.0065127844 0.0044895057 -0.00284384 0.0052975584 0.0010448748 -0.012470692

linear.bias f4 [8]
00000000: 4bcf 73ba 4ac3 8a3a b2ba e0ba bb0f 88ba
00000010: 2ffd 4cb9 c49e ceb9 bf1e ccba 68fa ddba
-0.00093006034 0.0010586765 -0.0017145483 -0.0010380665 -0.00019549274 -0.0003940967 -0.0015573128 -0.0016935589
