trained_models/regression_linear_protons_hillas_stereo.pth (torch, 69528 bytes, 2 tensors)

linear.weight f4 [8, 2115]
000000 7b 9d 64 3c d4 85 56 3c 44 8a 9e bc 9a 7f 14 3c
       0.013953562 0.013093431 -0.01935304 0.009063626
000010 8a 7b f9 bb bb 54 be ba 18 bd 15 bb f9 2e c5 bc
       -0.007613604 -0.0014521101 -0.0022848304 -0.02407025
000020 12 8e 5d 3b 42 4b 5c 3c 91 35 88 bb 6d fb 1e bc
       0.0033806604 0.013445677 -0.0041567762 -0.009703499
000030 9e 2d 02 3d 12 3a ba bb 8a 0a 7c bc 46 ac c8 bb
       0.031781785 -0.005683192 -0.015383372 -0.006124052
000040 53 c1 74 bc ef 6d 57 3c 22 f5 31 bc 71 61 9b bb
       -0.01493867 0.013148769 -0.010861667 -0.0047418405
000050 3e 1c f9 bb ea 4e 79 bb 21 5f ed 3b f0 f5 71 bc
       -0.0076022437 -0.0038041421 0.0072440063 -0.014768109
000060 23 e3 64 3c 60 27 68 bb 5a 93 22 3c 57 15 e5 bb
       0.013970169 -0.003542386 0.009922827 -0.0069910693
000070 8a 90 50 3c 69 15 88 3c 9c 9d 2b bc 14 36 96 3c
       0.012729773 0.016611772 -0.010474589 0.018336333
000080 9d 96 5f 3c 74 69 1a 3b 7e 8c 2c 3c d4 26 51 bc
       0.013646749 0.002356139 0.010531543 -0.012765605
000090 3a 32 93 3c 75 8d c0 bb bb 2b 87 3b 14 af ba 3b
       0.017968286 -0.005876238 0.004125086 0.0056971405
0000a0 40 6c 99 3c 4b 60 b5 3b 16 f6 d4 bb 03 27 a6 bc
       0.018728375 0.0055351607 -0.0064990623 -0.020282274
0000b0 77 eb 84 ba b0 ba 18 3c e4 49 13 3c b1 ab 5d bc
       -0.0010140975 0.0093218535 0.008989785 -0.013529704
0000c0 55 5d e4 ba 9c 50 90 3b 6c 34 01 3b 96 09 0a 3c
       -0.0017422835 0.0044041406 0.0019715084 0.008425137
0000d0 27 d2 1b bc ad 66 a0 3c d4 8d 11 bc 1d c4 a5 3c
       -0.009510553 0.01958021 -0.008883912 0.020235116
0000e0 2d ab 59 bb c6 ba a0 bb 24 a1 51 3c 76 9e 55 3c
       -0.00332136 -0.0049050776 0.012794767 0.013038268
0000f0 1c 26 b7 3b e1 a3 10 bc f0 d0 16 3c e0 85 f9 3a
       0.00558926 -0.008828134 0.009205088 0.001903709
000100 e9 ac 8e bb f7 29 e0 3b ba 4d 94 3c c6 1f 3a bc
       -0.0043541086 0.00684094 0.01810347 -0.011360114
000110 1a 24 f9 3b 45 58 d5 3b a2 30 5f bb 34 df c7 bc
       0.0076031806 0.0065107667 -0.0034056087 -0.024398424
000120 8c 02 1c 3b 4d 6c bf 3b bb 10 b8 3b 6c dc 2f bc
       0.002380523 0.005841768 0.005617229 -0.010733705
000130 65 4c 39 3b 56 8c e8 3b 71 38 ca bc 3f 67 01 bc
       0.0028274294 0.0070968075 -0.024685116 -0.007898151
000140 96 83 6b bc 16 89 f5 ba ea 84 2e 3a c9 92 4b bb
       -0.014374634 -0.0018732871 0.0006657379 -0.0031062833
000150 38 4b 8d bb ef 94 3c 3c 5f 5b bd 3a fc b0 fd 3b
       -0.0043119453 0.011510118 0.0014446786 0.0077420454
000160 b6 30 1d 37 b5 7d 7c 3b e2 38 a5 bc 22 c4 bc bb
       9.369271e-06 0.0038527076 -0.020168725 -0.0057606855
000170 8f 92 dc b6 8e ca 1c bc d4 22 eb ba 03 92 9a 3b
       -6.5735726e-06 -0.009569777 -0.0017939457 0.004717113
000180 fa 08 86 bc 1f c1 98 3c fe 06 0f bc 1f 80 dc 3b
       -0.016361702 0.018646775 -0.008729694 0.0067291404
000190 43 91 0c 3b 34 0d 03 b9 55 57 b4 3b 40 54 43 3c
       0.0021448887 -0.00012498052 0.005503575 0.011921942
0001a0 3a 11 93 3c 91 24 83 bb 56 8c af bb 13 bd 9b bb
       0.01795255 -0.004002162 -0.0053573055 -0.004752764
0001b0 d5 26 89 3b 8b f4 38 3c da 81 8d bc c5 1c 4f bc
       0.0041855373 0.011288772 -0.017273832 -0.012641137
0001c0 7e 3b 51 3c 1b cc a3 ba e9 4e 8e bc d2 1d e4 bb
       0.012770532 -0.0012496741 -0.017371612 -0.0069615627
0001d0 2c 8b cf 3b 88 5e 89 bc 64 6d e0 bb 2c a5 3e bc
       0.0063337293 -0.016768709 -0.006848978 -0.01163606
0001e0 97 ec 20 bc 4c 84 19 3c 5e fa 56 3b 27 2f 74 bc
       -0.009822032 0.009369921 0.003280304 -0.01490382
0001f0 97 bd 8a 3b 57 7a 64 3b 59 c8 03 3c ad aa de ba
       0.0042340267 0.003486296 0.008043372 -0.0016988121
000200 79 10 71 3b 55 c8 06 3c a1 28 59 bc b6 d1 b2 bb
       0.00367835 0.008226474 -0.013254316 -0.0054571284
000210 89 88 35 ba ce 67 83 bb 46 9f 50 bc 3c 59 56 3a
       -0.00069249474 -0.004010177 -0.012733286 0.0008176749
000220 0d 64 86 3c 7d 67 86 bc 12 f4 85 bc c9 bf 62 3c
       0.01640513 -0.016406769 -0.016351733 0.01383967
000230 b3 56 26 3c 41 1f 50 3c 04 09 98 bc 36 e0 a7 3a
       0.010152507 0.012702764 -0.018558986 0.0012807909
000240 47 3b 20 bc b1 ae 52 bb f2 f0 c1 3b 01 21 5d bc
       -0.009779758 -0.0032147581 0.0059186155 -0.013496638
000250 2c 71 0d bb 4d d3 06 3c 28 d2 22 bc 7b 1c 71 3c
       -0.0021582348 0.008229089 -0.0099378005 0.014716263
000260 56 91 f5 bb e2 b3 92 3c bd bf 8c 3c 20 cd 93 3b
       -0.007494132 0.01790804 0.017181272 0.004510537
000270 63 34 00 3c c4 7f 75 bb 11 05 bb 3b 08 b2 4f 3c
       0.00782499 -0.0037460187 0.005707391 0.012676723
000280 ef 67 1b bc bd 8e 63 3c 40 79 b0 3b fb 57 9b 3a
       -0.009485229 0.013889012 0.005385548 0.0011851782
000290 eb ac b8 bc 89 24 fe ba 0d c8 0e 3b e7 a3 02 bc
       -0.022543391 -0.001938955 0.002178672 -0.007973648
0002a0 93 47 ea ba 92 a1 cb bb 49 c1 b9 ba 2d 93 86 bb
       -0.0017874114 -0.006214329 -0.0014171983 -0.0041069
0002b0 85 e3 9f 3c fc 37 b0 3a 40 4e 53 bb 46 16 06 3c
       0.01951767 0.0013444419 -0.0032242686 0.008184021
0002c0 66 dc e3 3a f4 31 04 bc 13 70 68 3c c4 4b 70 bc
       0.001738441 -0.00806855 0.014186877 -0.014666501
0002d0 6e 2b ff 3a f5 07 79 bc 92 d3 ae ba 76 bb 97 bb
       0.0019467899 -0.015199651 -0.0013338199 -0.0046305014
0002e0 b9 8a 5d bc e9 75 1e bc e6 ed 5a bc e0 fa 9e 3b
       -0.013521844 -0.009671667 -0.0133623835 0.004851684
0002f0 0d 5b a2 3c 93 53 93 bc af de ac 3b ce fb 32 bb
       0.019818807 -0.017984187 0.0052755694 -0.0027310732
000300 44 18 c6 3a 59 d5 7f 3c ba b7 85 bc 60 1e f2 bb
       0.0015113433 0.015614831 -0.01632296 -0.007388875
000310 cc 9c fe 3b 48 d9 62 3c 9c 9a 2e 3b 3f d8 46 3b
       0.0077701565 0.013845749 0.0026642447 0.0030341295
000320 70 41 9b bb 77 ce 12 bb 48 06 82 bc 7d f3 5f 3c
       -0.0047380254 -0.0022400895 -0.015872136 0.013668892
000330 24 ab b8 38 61 2b 08 bc d5 0d 96 3b d4 6a 26 bc
       8.805681e-05 -0.008311124 0.0045792856 -0.010157306
000340 c8 2d 8b 3c a4 c7 b3 3b 84 85 07 3c 28 bc de 3b
       0.016989604 0.0054864455 0.008271579 0.0067973323
000350 30 18 fc 39 f3 01 97 bc 84 3d 8b 37 d8 9e 84 3c
       0.00048083207 -0.018433547 1.6598737e-05 0.016189024
000360 cb f2 b4 3c cb 8e e4 bc 90 7b 5f 3c 86 36 aa 3b
       0.022088429 -0.02790012 0.013640299 0.005194488
000370 35 fe 97 3b 69 bd 9f bc b2 9e 85 ba ce 65 bb 3b
       0.004638458 -0.019499497 -0.001019439 0.005718923
000380 e4 bf e5 bb d8 9f c3 3b c5 6e 82 bc 04 e9 87 3b
       -0.0070114005 0.0059699826 -0.01592196 0.0041476507
000390 de 7c 69 bc 37 30 00 bc 22 59 6e 3c f3 ab 29 3c
       -0.014250962 -0.007823995 0.014547618 0.010355937
0003a0 2d b8 ed b7 cb 30 b4 bc 4e ca 02 3c 54 53 c5 3c
       -2.8338365e-05 -0.021995923 0.0079828035 0.024087586
0003b0 9f 51 b0 3c 53 2f c0 bb 69 55 e5 3b fe b9 1b 3b
       0.021523295 -0.0058650165 0.006998707 0.0023761983
0003c0 73 ea ec bb 77 7e e6 bb 85 d1 2a 3b 5f 72 a7 3b
       -0.007230097 -0.0070341188 0.0026064825 0.0051100696
0003d0 92 d8 22 bb be 10 84 bb 48 b4 fa ba 3c 99 1b 3b
       -0.0024848324 -0.004030316 -0.0019127214 0.0023742458
0003e0 56 a6 b6 ba 20 6f 73 3c 09 f8 75 bc 67 af 1b bc
       -0.001393507 0.014858037 -0.0150127495 -0.009502268
0003f0 2a 83 4b 3c 64 49 92 3b 0f 0d 36 bb 12 2a 6f bc
       0.012421409 0.0044643153 -0.002777878 -0.014597433

linear.bias f4 [8]
000000 de 7f 86 38 fc 37 8c ba f0 57 b6 b9 c4 12 1f 3a
       6.413435e-05 -0.0010697837 -0.00034779264 0.0006068165
000010 41 14 81 3a c2 ec 96 ba 51 57 29 ba 72 e6 20 3a
       0.0009847955 -0.0011514651 -0.00064598495 0.00061378547
