trained_models/regression_cnn_protons_hillas.pth (torch, 681804 bytes, 36 tensors)

cnn.convolutions.0.weight f4 [16, 2, 3, 3]
0.0372313 0.2635965 0.13472357 0.020105148 0.007960893 -0.2172362 0.17653076 -0.15128534
-0.17325787 0.043038163 0.06203643 0.09250101 0.13219853 -0.23867354 0.18665545 -0.15047534
-0.121096194 0.19843265 0.08703152 0.18968286 0.18524484 0.22559565 0.07628852 0.06833558
0.25982466 0.0653149 -0.116692334 -0.01021111 0.19425021 0.2272768 0.05020451 -0.08933752
0.18680216 -0.13075316 0.12776567 -0.10693387 -0.08814572 -0.032742962 0.17032798 0.16069412
0.13086244 0.12082869 -0.17452618 -0.022819333 -0.10313779 0.082930386 -0.2756766 -0.05045129
0.1208871 0.0008535667 -0.23867315 -0.12679665 -0.05131594 0.11987066 -0.08771852 0.016635021
0.07140823 0.17379694 -0.10474515 -0.123803176 0.15605439 0.02528082 0.10066538 0.1760716
0.16833405 -0.15340875 0.30396473 -0.17943555 0.28405628 0.30664238 0.25487572 0.10664185
-0.06389129 -0.072072536 -0.25582436 0.16185257 0.20589833 -0.25695398 0.25782076 0.16730228
0.040127635 -0.20424388 0.18277077 -0.22657777 0.106179774 0.16482131 -0.05100307 0.110473685
-0.11250293 -0.042219996 -0.070504695 0.025008572 0.0023581753 -0.008733107 0.16560833 -0.15032162
-0.22176027 -0.19478917 -0.19412385 -0.016382944 0.050448265 0.056057844 -0.03070867 -0.16619834
0.17788984 0.030913547 0.20180976 -0.19156015 -0.08054566 0.16471672 0.1138586 0.23073788
0.21295497 0.23796146 -0.08879114 -0.070524834 -0.08160787 0.042645443 0.041391622 0.19624521
0.041160285 -0.105885014 0.2170537 0.015124598 -0.13177736 0.03098623 -0.09208386 -0.041888166
-0.07628457 0.1360953 0.20155655 -0.03327887 -0.07407638 -0.017115947 0.089821704 0.07546384
-0.012810145 0.15665112 -0.163248 -0.15622208 0.13874032 0.0460632 0.18491697 -0.11163973
-0.074106276 -0.13178265 -0.19762418 -0.12987073 -0.23385786 0.10683217 0.08614762 -0.117294066
-0.16811603 -0.13024756 0.068411045 -0.12531424 0.038997084 0.033966437 0.049415313 -0.048060514
0.059986837 0.09003929 0.18143876 -0.2323134 -0.17078215 -0.21650074 0.18298149 -0.03815258
0.021232903 -0.058442745 -0.14209954 -0.1731296 0.045148637 -0.027762849 0.03962717 0.21811444
-0.009478525 -0.039493166 -0.037958577 0.08130695 -0.16338179 -0.0039696884 0.07235534 -0.00699226
0.07170608 -0.022279466 0.15503514 -0.0324449 -0.14286436 -0.17187177 -0.0592845 -0.15830891
0.0503376 0.12313583 0.10196273 -0.012074519 0.13138247 0.10735288 0.09415742 -0.058060747
-0.11012588 0.21035275 0.0032346302 -0.038488027 -0.124755576 0.09968935 -0.09552264 0.21974787
0.11012867 -0.009194364 -0.024758315 -0.06997671 0.10149779 0.0708101 -0.17251466 -0.10238042
-0.17977868 0.09276561 -0.057378296 0.124388486 -0.034964006 -0.20774452 0.11688171 0.07045258
0.0980713 0.1678929 -0.095417514 -0.17204356 0.24362803 -0.18285625 0.09370968 -0.10559667
0.20382716 0.081409596 -0.02254224 0.1205933 -0.21032031 -0.13834874 -0.17330486 -0.11997021
-0.021118548 0.043131135 -0.21712054 0.037657086 -0.021105161 -0.071526155 0.12851843 0.07853343
0.19782498 0.23735034 0.21589595 0.08129878 -0.06351551 0.06260312 0.18027861 0.10340958
00000000: d97f 183d 1ff6 863e faf4 093e 8db3 a43c
00000010: 686e 023c 2b73 5ebe 7bc4 343e 8bea 1abe
00000020: 836a 31be c948 303d e919 7e3d 2b71 bd3d
00000030: 0d5f 073e d666 74be 9b22 3f3e 3516 1abe
00000040: 4801 f8bd ee31 4b3e 953d b23d 393c 423e
00000050: d3b0 3d3e 8c02 673e 283d 9c3d 86f3 8b3d
00000060: bd07 853e d1c3 853d 64fc eebd 804c 27bc
00000070: 87e9 463e 40bb 683e 3fa3 4d3d 97f6 b6bd
00000080: 1149 3f3e 28e4 05be 01d5 023e 2500 dbbd
00000090: be85 b4bd 7c1d 06bd 756a 2e3e 008d 243e
000000a0: ce00 063e 0875 f73d feb6 32be 9cef babc
000000b0: e839 d3bd 68d7 a93d 7c25 8dbe 03a6 4ebd
000000c0: a893 f73d e4c1 5f3a bc66 74be fbd6 01be
000000d0: aa30 52bd c07e f53d c4a5 b3bd 2b46 883c
000000e0: 7a3e 923d d3f7 313e a084 d6bd 858c fdbd
000000f0: b9cc 1f3e b919 cf3c a729 ce3d 1d4c 343e
00000100: c35f 2c3e 2f17 1dbe 44a1 9b3e f4bd 37be
00000110: d36f 913e 3b00 9d3e 127f 823e 0b67 da3d
00000120: 70d9 82bd c49a 93bd 69fb 82be aebc 253e
00000130: 03d7 523e 798f 83be 1501 843e 4a51 2b3e
00000140: e05c 243d 4f25 51be 4328 3b3e 0104 68be
00000150: c874 d93d ebc6 283e 98e8 50bd 0740 e23d
00000160: f067 e6bd e0ee 2cbd c464 90bd c7de cc3c
00000170: 9e8b 1a3b 4e15 0fbc 3b95 293e e9ed 19be
00000180: 2015 63be d076 47be 67c8 46be 8635 86bc
00000190: d7a2 4e3d e99c 653d c090 fbbc e62f 2abe
000001a0: c128 363e 683e fd3c 38a7 4e3e 5828 44be
000001b0: 1ff5 a4bd 80ab 283e b32e e93d 8d46 6c3e
000001c0: de10 5a3e 2bac 733e 21d8 b5bd 536f 90bd
000001d0: 0722 a7bd fdac 2e3d 438a 293d 81f4 483e
000001e0: b097 283d 3eda d8bd 5343 5e3e 29cd 773c
000001f0: a5f0 06be d6d6 fd3c 7696 bcbd ed92 2bbd
00000200: 163b 9cbd 915c 0b3e d764 4e3e 6d4f 08bd
00000210: 5bb5 97bd be36 8cbc 71f4 b73d c98c 9a3d
00000220: a4e1 51bc 2769 203e 7c2a 27be aef8 1fbe
00000230: f111 0e3e c4ac 3c3d e05a 3d3e 5fa3 e4bd
00000240: 08c5 97bd 08f2 06be fe5d 4abe d5fc 04be
00000250: 6f78 6fbe d3ca da3d 2a6e b03d df37 f0bd
00000260: 9c26 2cbe 9e5f 05be 171b 8c3d 6052 00be
00000270: 68bb 1f3d 6420 0b3d b667 4a3d 1adb 44bd
00000280: c2b4 753d 8566 b83d 15cb 393e 90e3 6dbe
00000290: 84e1 2ebe 5fb2 5dbe 805f 3b3e e145 1cbd
000002a0: a0f0 ad3c a961 6fbd 8b82 11be e348 31be
000002b0: c7ed 383d ea6e e3bc 1950 223d 6459 5f3e
000002c0: d14b 1bbc 96c3 21bd 747a 1bbd 4284 a63d
000002d0: 8e4d 27be 2914 82bb 092f 943d 541f e5bb
000002e0: a3da 923d 6d83 b6bc 88c1 1e3e f2e4 04bd
000002f0: 094b 12be 27ff 2fbe 4ed4 72bd bb1b 22be
00000300: cd2e 4e3d a32e fc3d d6d1 d03d 34d4 45bc
00000310: 2089 063e d4db db3d 9bd5 c03d 1bd1 6dbd
00000320: ad89 e1bd b666 573e 17fc 533b 9fa5 1dbd
00000330: da7f ffbd ee29 cc3d 60a1 c3bd 9605 613e
00000340: 248b e13d f5a3 16bc f3d1 cabc f34f 8fbd
00000350: 13de cf3d e304 913d afa7 30be d3ac d1bd
00000360: e717 38be e5fb bd3d 8105 6bbd 64bf fe3d
00000370: 6b36 0fbd fbba 54be ae5f ef3d 7149 903d
00000380: 9bd9 c83d 1eec 2b3e 426a c3bd 302c 30be
00000390: a079 793e ab3e 3bbe dcea bf3d 1143 d8bd
000003a0: 11b8 503e 13ba a63d 81aa b8bc 9ff9 f63d
000003b0: 355e 57be 4bab 0dbe d476 31be f1b2 f5bd
000003c0: ce00 adbc 46aa 303d d954 5ebe 513e 1a3d
000003d0: bbe4 acbc 4e7c 92bd 569a 033e 23d6 a03d
000003e0: a292 4a3e f80b 733e d413 5d3e fa7f a63d
000003f0: 6b14 82bd 1136 803d f59a 383e 67c8 d33d

cnn.convolutions.0.bias f4 [16]
-0.09544211 0.09559099 -0.054744296 0.039668858 -0.07659656 0.17999868 0.12901223 -0.06343733
-0.0637473 -0.21680374 -0.113568954 0.12230232 0.13728642 0.25287428 0.13654126 -0.077842705
00000000: 2777 c3bd 35c5 c33d 8e3b 60bd d07b 223d
00000010: a8de 9cbd 9351 383e c81b 043e 6eeb 81bd
00000020: f28d 82bd cd01 5ebe d796 e8bd a479 fa3d
00000030: d094 0c3e bd78 813e 79d1 0b3e ff6b 9fbd

cnn.convolutions.2.weight f4 [16]
0.9788907 0.9684465 0.97601944 1.0413145 0.97033465 0.993232 0.97343355 0.96209013
0.95803994 0.9777264 1.015897 0.9516519 0.9921343 1.0301434 0.9751356 0.9840597
00000000: 9598 7a3f 1cec 773f 69dc 793f cb49 853f
00000010: da67 783f 7444 7e3f f132 793f 8a4b 763f
00000020: 1b42 753f 474c 7a3f ea08 823f 759f 733f
00000030: 83fc 7d3f bddb 833f 7da2 793f 56eb 7b3f

cnn.convolutions.2.bias f4 [16]
0.037981097 -0.0069290996 -0.006940634 -0.025635399 0.023841487 -0.004713205 -0.009644905 0.025812786
0.024815923 -0.02185569 -0.018607441 -0.014837973 -0.01750612 -0.026401909 0.014543768 -0.038478658
00000000: 1192 1b3d 800d e3bb 426e e3bb 5401 d2bc
00000010: 394f c33c 3b71 9abb aa05 1ebc 5675 d33c
00000020: c34a cb3c b40a b3bc a26e 98bc f81a 73bc
00000030: ff68 8fbc d148 d8bc fc48 6e3c cc9b 1dbd

cnn.convolutions.2.running_mean f4 [16]
0.018189838 0.10934498 0.008134216 0.08506331 0.01433298 0.20806812 0.12289601 0.011800132
0.009403559 0.002879477 0.0084043695 0.12643583 0.13754228 0.27324906 0.13355003 0.015335282
00000000: db02 953c 43f0 df3d 6045 053c ac35 ae3d
00000010: e0d4 6a3c cf0f 553e e7b0 fb3d 5755 413c
00000020: 6311 1a3c 9cb5 3c3b 7bb2 093c 6578 013e
00000030: e2d7 0c3e 4de7 8b3e 57c1 083e d640 7b3c

cnn.convolutions.2.running_var f4 [16]
0.06581734 0.736726 0.01848851 0.7601016 0.050691806 0.0074204337 0.32706857 0.026592324
0.0034669605 0.0059618643 0.025992613 0.031337377 0.039900754 0.2710926 0.2624997 0.058683515
00000000: 3ecb 863d 139a 3c3f 3775 973c 0596 423f
00000010: 36a2 4f3d 1c27 f33b 8875 a73e 25d8 d93c
00000020: f235 633b be5b c33b 76ee d43c 9f5b 003d
00000030: f96e 233d a6cc 8a3e 5c66 863e 205e 703d

cnn.convolutions.4.weight f4 [32, 16, 3, 3]
-0.023725087 0.0017690763 0.025294036 0.03783065 0.010459948 -0.015341707 -0.1211957 -0.044299886
-0.03167276 -0.009504857 0.055463895 -0.08147304 -0.036644213 0.015732458 -0.048640493 -0.10767582
-0.0549919 0.028398288 -0.044019993 -0.0665817 -0.015995987 0.023438498 -0.06945561 0.06316309
0.045332495 0.03596464 -0.021164116 0.013114747 -0.026850885 -0.020020928 -0.005028713 -0.06726793
-0.06035776 0.050015546 -0.048721403 0.04854366 -0.010484501 0.059201926 0.06035584 0.034429837
-0.07470411 0.094609424 -0.03277974 0.09486843 0.072021045 0.027347961 0.019377282 0.005538624
-0.0327527 -0.009057041 -0.052742086 0.041590642 0.041166022 -0.0040457956 0.06418361 -0.037670143
-0.015217761 -0.035357587 0.011302389 -0.0037516812 0.008137132 0.06593549 -0.046635803 0.06729312
0.09162411 -0.018386101 0.029009514 -0.07423294 0.012117573 -0.026364466 -0.081420995 0.031660043
0.071523845 -0.06852051 -0.006494006 0.040482264 0.045200042 0.018165795 -0.02303211 0.011029812
0.043569446 -0.0046112067 -0.047133096 0.068063885 0.06935973 0.027333587 -0.03904853 -0.07196435
-0.00069811824 -0.05109546 -0.042559125 -0.10316351 -0.08544746 0.07615998 -0.10263177 0.04426134
-0.11429422 -0.058403995 -0.052179616 -0.027244225 0.075278595 -0.019427868 -0.007712239 -0.057714436
0.06993152 0.049234964 0.0057817544 0.07005551 0.066932485 -0.047391925 0.055118214 -0.056114644
0.06053836 -0.009576685 -0.006866315 -0.04963858 0.06574503 0.052664693 -0.08065274 0.058179375
-0.042588286 -0.042935427 0.06889455 0.027578708 -0.0031435573 -0.08375268 0.0060940515 -0.0015832519
-0.072463505 0.048191603 -0.02542123 -0.023610596 0.020430945 0.022001095 0.091687575 0.030453667
-0.05672964 -0.101082265 -0.04176759 -0.0023231786 0.01771519 -0.088749476 -0.00633247 -0.030704493
-0.0074213524 -0.0538363 0.02078421 0.05569796 -0.016253226 0.02354329 0.09050996 0.003622931
0.04660109 0.011519739 -0.010662742 0.0072857155 -0.026370369 -0.039176483 0.0076967482 -0.010355644
0.063810855 0.0464204 0.062744096 -0.007599131 0.027559813 0.08790487 0.016824096 0.07611104
-0.025316205 -0.018993704 -0.05855933 0.012634832 -0.021208001 -0.072741464 -0.047678888 0.02444902
-0.005609464 0.04643032 -0.043520477 -0.012973646 -0.007180961 -0.025989808 -0.026393706 -0.021293744
-0.021147877 -0.03456436 -0.03138356 0.0014834788 -0.019538721 0.0070813983 -0.03162413 0.04420478
0.01408612 0.027661037 -0.06563799 -0.07716174 -0.01269648 0.009097411 -0.061061338 0.044480797
0.019388275 0.008771537 0.055489678 -0.026556239 -0.0064477418 -0.06512855 0.008674686 -0.016298799
0.06648249 0.07346495 -0.0020979876 0.03721748 0.019325461 0.057942204 -0.036545984 -0.008604282
-0.08289254 0.09231668 0.047908776 0.017836131 -0.02448552 0.05604694 -0.027543258 0.01884773
0.052802764 -0.017345067 0.05432568 -0.026120625 0.0796277 0.040784784 0.031357814 0.08477729
-0.015107964 -0.0863625 -0.029255807 -0.035778444 -0.011381538 -0.05683895 -0.024079936 -0.023160432
0.008237742 0.03782629 -0.01641667 -0.053135313 0.064381406 0.060062584 -0.036445614 0.06919906
-0.059687153 0.059683826 0.03340315 -0.08647953 0.02656321 0.10303506 -0.0660026 -0.061385192
00000000: 1d5b c2bc 5ae0 e73a 7035 cf3c 50f4 1a3d
00000010: 3460 2b3c c85b 7bbc 7335 f8bd cc73 35bd
00000020: 4cbb 01bd 42ba 1bbc 1c2e 633d 56db a6bd
00000030: 3e18 16bd 5be1 803c 413b 47bd 2485 dcbd
00000040: 303f 61bd 87a3 e83c 4f4e 34bd fd5b 88bd
00000050: 040a 83bc 1802 c03c be3e 8ebd a65b 813d
00000060: 91ae 393d a94f 133d 5e60 adbc 3cdf 563c
00000070: 63f6 dbbc ee02 a4bc e7c7 a4bb c5c3 89bd
00000080: b339 77bd 1add 4c3d 1890 47bd b8d5 463d
00000090: 2fc7 2bbc b87d 723d af37 773d 4d06 0d3d
000000a0: 78fe 98bd 96c2 c13d 0c44 06bd 614a c23d
000000b0: c57f 933d d508 e03c 1bbd 9e3c 587d b53b
000000c0: b227 06bd fc63 14bc 1608 58bd f35a 2a3d
000000d0: b49d 283d 9892 84bb b272 833d 024c 1abd
000000e0: ea53 79bc 1ed3 10bd a82d 393c c4de 75bb
000000f0: 9b51 053c 3009 873d 2f05 3fbd fad0 893d
00000100: 6ca5 bb3d 739e 96bc 5ca5 ed3c 7107 98bd
00000110: c988 463c 4bfa d7bc 0dc0 a6bd f6ad 013d
00000120: 187b 923d 7b54 8cbd accb d4bb bbd0 253d
00000130: ae23 393d 6fd0 943c d6ad bcbc 62b6 343c
00000140: e075 323d 9b19 97bb a20e 41bd 1465 8b3d
00000150: 790c 8e3d b0ea df3c 5af1 1fbd 0c62 93bd
00000160: ec01 37ba 7949 51bd 7a52 2ebd 6447 d3bd
00000170: 14ff aebd c3f9 9b3d 9b30 d2bd 614b 353d
00000180: 1713 eabd 0739 6fbd 4bba 55bd 482f dfbc
00000190: aa2b 9a3d 3127 9fbc f3b6 fcbb f965 6cbd
000001a0: 4238 8f3d 9aaa 493d df74 bd3b 4379 8f3d
000001b0: e613 893d 091e 42bd a3c3 613d 78d8 65bd
000001c0: 12f7 773d 87e7 1cbc d3fe e0bb d351 4bbd
000001d0: 55a5 863d efb6 573d 442d a5bd 7f4d 6e3d
000001e0: 0e71 2ebd 0fdd 2fbd 9618 8d3d beec e13c
000001f0: 2404 4ebb 8686 abbd 9cb0 c73b 1e85 cfba
00000200: bf67 94bd 8f64 453d 2f40 d0bc 026b c1bc
00000210: cc5e a73c a43b b43c b2c6 bb3d f879 f93c
00000220: 575d 68bd 3804 cfbd 7e14 2bbd 7840 18bb
00000230: 721f 913c 49c2 b5bd 9c80 cfbb fd87 fbbc
00000240: d12e f3bb 7483 5cbd a643 aa3c 8b23 643d
00000250: 7c25 85bc dcdd c03c 495d b93d b26e 6d3b
00000260: c9e0 3e3d 4abd 3c3c c8b2 2ebc 03bd ee3b
00000270: ac06 d8bc 8577 20bd 0135 fc3b b8aa 29bc
00000280: 44af 823d 5123 3e3d fa7f 803d 2202 f9bb
00000290: 1ec5 e13c 7807 b43d b0d2 893c 1be0 9b3d
000002a0: ee63 cfbc af98 9bbc e8db 6fbd 5402 4f3c
000002b0: 67bc adbc 7af9 94bd f04a 43bd 5049 c83c
000002c0: 98cf b7bb b82d 3e3d 8742 32bd 6a8f 54bc
000002d0: 444e ebbb 94e8 d4bc 9d37 d8bc 3870 aebc
000002e0: 503e adbc 5c93 0dbd 0c8c 00bd 4a71 c23a
000002f0: ab0f a0bc 130b e83b 4e88 01bd 1210 353d
00000300: 78c9 663c 6699 e23c 366d 86bd f906 9ebd
00000310: e604 50bc 4f0d 153c 741b 7abd 7f31 363d
00000320: 29d4 9e3c 7eb6 0f3c 2549 633d 788c d9bc
00000330: 9447 d3bb 1e62 85bd 4520 0e3c 0f85 85bc
00000340: f927 883d cb74 963d 647e 09bb 5b71 183d
00000350: 6e50 9e3c ce54 6d3d 3eb1 15bd f9f8 0cbc
00000360: 90c3 a9bd 8710 bd3d fe3b 443d 141d 923c
00000370: db95 c8bc 7a91 653d 66a2 e1bc 8e66 9a3c
00000380: b647 583d 3e17 8ebc 9b84 5e3d ecfa d5bc
00000390: d913 a33d f20d 273d 0d71 003d b79f ad3d
000003a0: 6587 77bc d3de b0bd e0a9 efbc 6b8c 12bd
000003b0: a179 3abc f5cf 68bd 4943 c5bc f2ba bdbc
000003c0: 98f7 063c bdef 1a3d 417c 86bc 6aa4 59bd
000003d0: 66da 833d 2f04 763d ff47 15bd 3db8 8d3d
000003e0: 847a 74bd 0777 743d bed1 083d 2e1c b1bd
000003f0: 179b d93c 0c04 d33d 5f2c 87bd 0a6f 7bbd

cnn.convolutions.4.bias f4 [32]
0.072776794 0.053024054 -0.07111983 -0.039419398 0.06135423 0.07739618 -0.027521178 0.10206519
0.048329905 0.009256358 -0.018875394 0.042577554 0.11402091 0.0040237964 -0.02117075 -0.038802657
-0.03263875 -0.038843714 0.00350988 0.12856096 -0.0190902 0.022760248 -0.051217455 0.04558183
-0.048144333 -0.06643826 0.04494114 -0.029571768 -0.034856558 0.10712558 -0.027778298 -0.01009214
00000000: 000c 953d c02f 593d 46a7 91bd 3c76 21bd
00000010: 934e 7b3d e381 9e3d 1874 e1bc 8e07 d13d
00000020: 94f5 453d fba7 173c 92a0 9abc cd65 2e3d
00000030: cb83 e93d 0dda 833b 486e adbc 89ef 1ebd
00000040: 36b0 05bd 961a 1fbd 0406 663b 7ca5 033e
00000050: 0d63 9cbc b373 ba3c 65c9 51bd 03b4 3a3d
00000060: fe32 45bd c810 88bd 3314 383d 7e40 f2bc
00000070: c0c5 0ebd a864 db3d 508f e3bc 8159 25bc

cnn.convolutions.6.weight f4 [32]
0.97933334 0.95343286 0.9755407 0.96509075 0.9964259 0.9830544 0.983991 1.0068172
0.99694663 0.9733191 0.9690409 0.95230496 0.9789063 0.93863684 0.998421 0.979786
0.99095285 0.9808284 0.972978 0.95186067 0.9526618 0.9569942 0.9546751 0.9803552
0.9730818 0.96608615 0.97839993 0.9735201 0.9529048 0.9806246 0.9949096 0.9661588
00000000: 97b5 7a3f 2d14 743f 09bd 793f 3010 773f
00000010: c515 7f3f 74a9 7b3f d6e6 7b3f 63df 803f
00000020: e537 7f3f 712b 793f 1013 783f 42ca 733f
00000030: 9a99 7a3f 814a 703f 8598 7f3f 41d3 7a3f
00000040: 16af 7d3f 9217 7b3f 1615 793f 24ad 733f
00000050: a5e1 733f 92fd 743f 9665 743f 8ff8 7a3f
00000060: e41b 793f 6c51 773f 6b78 7a3f 9d38 793f
00000070: 92f1 733f 370a 7b3f 65b2 7e3f 2f56 773f

cnn.convolutions.6.bias f4 [32]
-0.010486985 0.0023555316 -0.043952875 0.010698031 -0.027593482 -0.00090292573 -0.02633656 -0.04011123
0.010900101 0.008298159 -0.024035232 -0.026072945 -0.0026677158 0.022291526 -0.026390038 -0.050385337
-0.0008409898 -0.022993928 -0.015258753 -0.016741918 0.021263063 -0.001809151 -0.028777292 -0.012355555
-0.011814698 -0.010924144 0.008230879 0.006082705 0.014884655 -0.041042037 -0.046133067 0.0019682832
00000000: 9ad1 2bbc 435f 1a3b ee07 34bd cb46 2f3c
00000010: ba0b e2bc 52b2 6cba c5bf d7bc ac4b 24bd
00000020: 5696 323c 00f5 073c 89e5 c4bc ee96 d5bc
00000030: d8d4 2ebb b89c b63c ec2f d8bc db60 4ebd
00000040: df75 5cba c35d bcbc d9ff 79bc 5926 89bc
00000050: e02f ae3c 0921 edba 5bbe ebbc f46e 4abc
00000060: 6f92 41bc 2efb 32bc cfda 063c 6e51 c73b
00000070: c5de 733c b21b 28bd 07f6 3cbd 50fe 003b

cnn.convolutions.6.running_mean f4 [32]
0.17907411 0.12072031 0.056528114 0.06227601 0.15152808 0.12809494 0.10551385 0.18556309
0.10307676 0.08915281 0.146306 0.118587926 0.14706711 0.08548671 0.038867928 0.09802013
0.06291173 0.10493962 0.05923355 0.21777025 0.10690813 0.094577044 0.057918463 0.12454564
0.03774051 0.053288296 0.099546365 0.1111219 0.06073453 0.24304287 0.090915844 0.086355805
00000000: 345f 373e 363c f73d 068a 673d 2115 7f3d
00000010: 2d2a 1b3e 522b 033e a517 d83d 4004 3e3e
00000020: e919 d33d c095 b63d 3dd1 153e 3ade f23d
00000030: c398 163e a813 af3d fa33 1f3d c7be c83d
00000040: ddd7 803d 95ea d63d e19e 723d 2aff 5e3e
00000050: a6f2 da3d 9cb1 c13d e93b 6d3d c911 ff3d
00000060: cb95 1a3d d444 5a3d f7de cb3d e193 e33d
00000070: c5c4 783d 3be0 783e 1632 ba3d 50db b03d

cnn.convolutions.6.running_var f4 [32]
0.060147494 0.31906626 0.3157948 0.2050256 0.05258489 0.13923772 0.055809114 0.083349496
0.33293936 0.109638005 1.2457151 0.25662374 0.046874862 0.22691776 0.14991985 0.07241747
0.17565554 0.026363438 0.18824643 0.10217838 0.18223827 0.06445631 0.19813935 0.1696944
0.0629545 0.3096177 0.3587046 0.59228086 0.13315363 0.027451407 0.13651223 0.18109968
00000000: 385d 763d a75c a33e dbaf a13e 3bf2 513e
00000010: 4163 573d 5594 0e3e 1998 643d 24b3 aa3d
00000020: 0777 aa3e e489 e03d 9873 9f3f 3064 833e
00000030: dbff 3f3d 215d 683e 9784 193e 9c4f 943d
00000040: 0cdf 333e 23f8 d73c acc3 403e e642 d13d
00000050: ab9c 3a3e ab01 843d 0be5 4a3e 5ec4 2d3e
00000060: 4aee 803d 3686 9e3e 21a8 b73e b89f 173f
00000070: 6d59 083e c6e1 e03c ddc9 0b3e 3272 393e

cnn.convolutions.8.weight f4 [64, 32, 3, 3]
0.008083755 -0.045844637 0.012464027 0.003350892 0.0067079184 0.0038861178 -0.03975639 0.004728588
-0.029383043 -0.042727735 -0.044504173 -0.004204961 -0.009172982 -0.050732046 0.03205877 -0.0091475705
-0.07129856 0.020092167 -0.006166678 0.018701436 -0.058236443 0.045208782 0.03576482 0.03729518
0.037494007 0.036527265 -0.0055116382 0.030863037 -0.05194961 -0.057851955 -0.07141636 -0.049184512
-0.0078045796 0.026723454 0.021423778 0.027627617 0.024432844 -0.005377765 -0.050584454 -0.023793798
0.049076147 0.023721991 0.0102691585 -0.0046546035 -0.019597452 -0.0031028492 0.0135141155 0.05844885
0.007852648 0.05980322 0.0151042845 -0.014570532 -0.02938038 -0.057535626 0.03634283 -0.027184615
-0.018262694 0.040351465 -0.04123336 -0.005295268 0.008469473 0.0063504945 -0.007990432 -0.04688985
-0.024249258 -0.051258788 0.015911939 -0.07669256 -0.0015604502 0.011163925 -0.0134825315 0.012543683
0.0429836 -0.04308379 -0.037398864 0.022476291 0.06486814 0.046023604 -0.031493943 0.030619355
0.05004559 0.053847723 0.03148774 0.0049136705 -0.015683003 0.027258748 0.020227004 -0.05439141
-0.044814087 0.044021837 -0.03668061 0.058323912 -0.03088453 -0.047007214 0.022701826 0.015824877
-0.016942391 -0.024110647 -0.024022406 -0.004182241 -0.012038656 -0.05438315 0.014593448 -0.0093348585
0.005199131 0.033177417 0.036980953 -0.086519726 0.010172407 -0.01858199 -0.057829536 0.05782151
0.0011194281 -0.032854367 0.022381077 -0.05233434 -0.018431231 -0.022484543 -0.00880526 -0.03599975
0.030278288 0.052748907 -0.028662344 0.014723095 0.02440639 0.005957719 -0.007496404 -0.04314531
-0.07890226 0.0057537397 -0.059174333 -0.0014868733 -0.027971784 -0.055628136 -0.046074204 0.027999649
-0.02949921 -0.034394395 0.0032947294 -0.031964794 0.033532213 -0.012144243 -0.07698014 -0.057217166
0.00027534258 -0.04951649 -0.040622886 0.017133998 0.057303444 0.039760377 0.070140585 0.03244469
0.016782938 0.017216312 -0.04575087 0.02929423 -0.016731521 -0.04162167 -0.06961247 -0.029882042
-0.02175719 -0.01779135 0.04794817 -0.0034310464 -0.049813204 0.032049745 0.028305901 0.0031621607
0.04056017 -0.010351704 -0.04939948 0.0072737923 0.053811554 -0.010844361 -0.071079284 -0.030463476
-0.018522518 -0.036772545 -0.06961217 0.029185543 -0.01948395 -0.0051796637 0.023319408 -0.026253207
-0.034149874 0.046820533 -0.036536485 0.021515887 -0.046421364 -0.023743922 -0.049208924 -0.03313074
-0.00982382 0.03754317 0.05728119 -0.039602313 0.05914473 -0.01266535 -0.034420248 0.027219392
-0.021886151 0.0023501886 -0.015209771 0.018565627 0.0070483405 -0.022195764 -0.050035004 -0.010340281
0.0135565465 0.015783451 -0.050116044 0.05316529 -0.013004163 0.044634376 0.021548476 -0.024202563
0.03787989 0.02958195 0.0019764283 -0.03454303 -0.013917316 0.046076175 -0.01207142 0.016984103
-0.03259945 0.00465357 -0.01831537 -0.026043281 -0.05607653 -0.063009664 -0.032246955 -0.01101256
-0.024541575 0.01920804 -0.031068679 -0.028316498 0.033466272 0.030337682 0.017086163 0.0068295044
-0.053609625 0.020552726 -0.003995288 -0.039991163 0.020819457 -0.039322253 0.013953501 0.058443617
0.06267069 -0.023595072 -0.02474468 0.0361649 0.0057095736 0.027470572 0.0077044345 0.023334065
00000000: ba71 043c 96c7 3bbd eb35 4c3c a49a 5b3b
00000010: 19ce db3b 3dae 7e3b 99d7 22bd 45f2 9a3b
00000020: b5b4 f0bc 4703 2fbd 024a 36bd c5c9 89bb
00000030: 464a 16bc 68cc 4fbd 0f50 033d b1df 15bc
00000040: fb04 92bd 5498 a43c d811 cabb c133 993c
00000050: 5689 6ebd d82c 393d 227e 123d d5c2 183d
00000060: 5193 193d 9d9d 153d f99a b4bb 7bd4 fc3c
00000070: 1dc9 54bd 2cf6 6cbd be42 92bd b375 49bd
00000080: 8fbd ffbb 25eb da3c eb80 af3c 5053 e23c
00000090: 6327 c83c f637 b0bb a531 4fbd 36eb c2bc
000000a0: 1204 493d 9f54 c23c f93f 283c a585 98bb
000000b0: d68a a0bc 2c59 4bbb 4f6a 5d3c 1068 6f3d
000000c0: 65a8 003c 39f4 743d f677 773c 3eb9 6ebc
000000d0: 1faf f0bc 7aaa 6bbd 38dc 143d 45b2 debc
000000e0: a59b 95bc 9447 253d 50e4 28bd ed83 adbb
000000f0: 8bc3 0a3c cf17 d03b 4dea 02bc 920f 40bd
00000100: 61a6 c6bc bcf4 51bd c159 823c fd10 9dbd
00000110: 0588 ccba e5e8 363c d6e5 5cbc 0584 4d3c
00000120: 920f 303d a178 30bd 8d2f 19bd 3320 b83c
00000130: 96d9 843d 3f83 3c3d cbff 00bd 71d5 fa3c
00000140: 9bfc 4c3d 6e8f 5c3d 4af9 003d db02 a13b
00000150: a479 80bc bd4d df3c 1ab3 a53c 87c9 5ebd
00000160: fa8e 37bd 3e50 343d 683e 16bd 0ee5 6e3d
00000170: 8e01 fdbc a38a 40bd 2ef9 b93c 2ca3 813c
00000180: c5ca 8abc b183 c5bc a3ca c4bc 2e0b 89bb
00000190: c83d 45bc dec0 5ebd 5b19 6f3c 3cf1 18bc
000001a0: 795d aa3b 0be5 073d 5779 173d 4131 b1bd
000001b0: 2baa 263c 4239 98bc aade 6cbd 3fd6 6c3d
000001c0: c6b9 923a 4d92 06bd 8558 b73c 885c 56bd
000001d0: 18fd 96bc 8131 b8bc f043 10bc 7974 13bd
000001e0: 2c0a f83c 3d0f 583d 4bcd eabc 2339 713c
000001f0: e9ef c73c f838 c33b 65a4 f5bb 23b9 30bd
00000200: 8297 a1bd de89 bc3b c960 72bd 30e3 c2ba
00000210: 1525 e5bc 54da 63bd 4eb8 3cbd 855f e53c
00000220: 54a8 f1bc 23e1 0cbd 63ec 573b 84ed 02bd
00000230: 1359 093d a6f8 46bc c3a7 9dbd 8c5c 6abd
00000240: db5b 9039 ced1 4abd 2f64 26bd 995c 8c3c
00000250: 04b7 6a3d c7db 223d dea5 8f3d b9e4 043d
00000260: 5f7c 893c 3909 8d3c 4465 3bbd 74fa ef3c
00000270: 8b10 89bc 7c7b 2abd fc90 8ebd 2fcb f4bc
00000280: 223c b2bc 2abf 91bc 4d65 443d 68db 60bb
00000290: ee08 4cbd 9846 033d c7e1 e73c 413c 4f3b
000002a0: 6c22 263d 329a 29bc 1c57 4abd fe58 ee3b
000002b0: 8169 5c3d 8cac 31bc 0492 91bd 8a8e f9bc
000002c0: 89bc 97bc cf9e 16bd d390 8ebd 8516 ef3c
000002d0: ce9c 9fbc 2bba a9bb 5808 bf3c f710 d7bc
000002e0: bde0 0bbd e3c6 3f3d 48a7 15bd 1642 b03c
000002f0: 5424 3ebd 9d82 c2bc 4c8f 49bd 19b4 07bd
00000300: 16f4 20bc dec6 193d ae9f 6a3d 0936 22bd
00000310: bf41 723d 5482 4fbc 3ffc 0cbd 34fb de3c
00000320: 964a b3bc 9f05 1a3b 6732 79bc f116 983c
00000330: c4f5 e63b e4d3 b5bc 81f1 4cbd 486a 29bc
00000340: 471c 5e3c 4c4c 813c 7b46 4dbd d9c3 593d
00000350: 6a0f 55bc 89d2 363d 6e86 b03c 7444 c6bc
00000360: f227 1b3d d855 f23c f786 013b fe7c 0dbd
00000370: 7405 64bc 5fba 3c3d 35c7 45bc 3f22 8b3c
00000380: 0087 05bd f97c 983b 1d0a 96bc b858 d5bc
00000390: 81b0 65bd 360b 81bd 6215 04bd 066e 34bc
000003a0: 6a0b c9bc 2e5a 9d3c be83 febc 00f8 e7bc
000003b0: ee13 093d bb86 f83c 48f8 8b3c 09ca df3b
000003c0: c495 5bbd 315e a83c e8ea 82bb c6cd 23bd
000003d0: 918d aa3c 5f10 21bd 3a9d 643c 9362 6f3d
000003e0: 7e59 803d 744a c1bc 5bb5 cabc a521 143d
000003f0: 6017 bb3b f709 e13c 7b75 fc3b 1527 bf3c

cnn.convolutions.8.bias f4 [64]
0.014055023 -0.0747696 0.012945501 -0.03761282 -0.005828875 0.025633533 0.022709979 0.009529591
-0.040332526 -0.06339938 0.008741271 -0.027959751 0.04361379 -0.03708308 -0.008608529 0.044910677
-0.054771896 -0.04876726 0.06771477 0.0795634 0.025468603 -0.031568088 -0.052578975 0.03197976
-0.015590578 0.06110514 0.01641196 0.06705248 0.06715379 -0.011782767 0.011637868 -0.005538024
0.00019523683 -0.0406623 -0.029391175 -0.044837777 0.06271458 0.03586954 -0.019271279 0.07113917
0.060646992 0.027439695 0.00357216 -0.0414168 -0.05948242 0.016428437 0.013344447 0.032464862
-0.0063138413 -0.059730798 -0.0443954 -0.031266853 0.011110289 -0.0019499846 0.0098330695 0.080767125
-0.035331033 -0.07558293 -0.037975885 0.014719171 -0.035885304 -0.014759068 -0.04024495 0.048280194
00000000: 0a47 663c ce20 99bd 5e19 543c e60f 1abd
00000010: 2600 bfbb 6afd d13c 470a ba3c 0022 1c3c
00000020: b833 25bd 89d7 81bd 8c37 0f3c d90b e5bc
00000030: 60a4 323d 6de4 17bd ca0a 0dbc 42f4 373d
00000040: 7f58 60bd 2ec0 47bd 0bae 8a3d 23f2 a23d
00000050: 88a3 d03c 8a4d 01bd 0d5d 57bd 35fd 023d
00000060: a06f 7fbc 6249 7a3d 6072 863c d052 893d
00000070: ed87 893d 820c 41bc c2ac 3e3c 5078 b5bb
00000080: 7db8 4c39 838d 26bd c3c5 f0bc d1a7 37bd
00000090: 8070 803d f0eb 123d cdde 9dbc 6ab1 913d
000000a0: fb68 783d 36c9 e03c e61a 6a3b aaa4 29bd
000000b0: d7a3 73bd ee94 863c aba2 5a3c e0f9 043d
000000c0: 57e4 cebb 48a8 74bd f3d7 35bd ac11 00bd
000000d0: ee07 363c a096 ffba e21a 213c 3c69 a53d
000000e0: 46b7 10bd 39cb 9abd 9a8c 1bbd ae28 713c
000000f0: 78fc 12bd 05d0 71bc e4d7 24bd 74c1 453d

cnn.convolutions.10.weight f4 [64]
0.91064215 0.8839992 0.89311296 0.8764228 0.9224465 0.93230283 0.9419644 0.96242934
0.92536235 0.93830377 0.9150991 0.9561313 0.9011072 0.9289505 0.93818027 0.9132796
0.9210653 0.9014642 0.89643145 0.95869964 0.9113057 0.88966817 0.90728176 0.92640275
0.8566012 0.9246895 0.95861137 0.9822299 0.9111782 0.9150257 0.9351347 0.9403314
0.9344022 0.88843906 0.8891836 0.91704863 0.8842316 0.8997038 0.90730923 0.8954839
0.9395299 0.9282724 0.9131668 0.89106363 0.9033158 0.9179802 0.94932026 0.8697443
0.88081515 0.8887408 0.91685265 0.9240353 0.8917178 0.95166576 0.9615204 0.9481245
0.9479149 0.8480958 0.8663953 0.94417524 0.88848746 0.8908374 0.93106943 0.94185674
00000000: d81f 693f c64d 623f 0da3 643f 3f5d 603f
00000010: 7425 6c3f 66ab 6e3f 9424 713f c561 763f
00000020: 8ce4 6c3f ad34 703f ef43 6a3f 05c5 743f
00000030: f6ae 663f b3cf 6d3f 952c 703f b1cc 693f
00000040: efca 6b3f 5cc6 663f 887c 653f 576d 753f
00000050: 554b 693f 4bc1 633f 9e43 683f bb28 6d3f
00000060: 374a 5b3f 73b8 6c3f 8e67 753f 6b73 7b3f
00000070: f942 693f 203f 6a3f fd64 6f3f 8fb9 703f
00000080: fc34 6f3f be70 633f 89a1 633f b3c3 6a3f
00000090: 015d 623f fd52 663f 6b45 683f 6f3e 653f
000000a0: 0885 703f 43a3 6d3f 4dc5 693f bf1c 643f
000000b0: b43f 673f c000 6b3f a706 733f 90a7 5e3f
000000c0: 1a7d 613f 8484 633f dbb6 6a3f 948d 6c3f
000000d0: 9e47 643f 5ea0 733f 3326 763f 4ab8 723f
000000e0: 8daa 723f ce1c 593f 15cc 5d3f 78b5 713f
000000f0: ea73 633f eb0d 643f 915a 6e3f 861d 713f

cnn.convolutions.10.bias f4 [64]
-0.019287603 -0.006103756 0.009383549 0.00092104945 -0.0121982545 -0.024112308 -0.00217373 -0.006981287
-0.007966664 0.0013023741 -0.009467109 -0.0024728766 -0.012328395 -0.02809065 -0.016577853 -0.008352269
-0.026447428 0.0007688945 -0.025012702 -0.006638957 -0.028892417 0.00073678774 -0.022254443 -0.046777114
0.0138487285 -0.029947842 -0.022808973 -0.0075599262 -0.012465139 0.0058072507 -0.02195977 0.0076665273
-0.030064002 -0.00031936378 -0.011527813 -0.022639154 -0.008844357 -0.012423157 0.0019984343 0.0039246595
-0.0082861865 0.004352425 -0.024099091 0.024442794 0.0061289608 -0.007954307 -0.006079037 -0.018240158
-0.029728519 -0.00028800967 -0.0042227036 -0.012665892 -0.0074280933 4.9061815e-05 -0.01968728 -0.014158599
0.010782676 -0.006931491 -0.01074574 -0.015300078 0.00047206826 -0.023584485 -0.013999047 -0.008389253
00000000: 0901 9ebc 0402 c8bb 75bd 193c 9572 713a
00000010: 30db 47bc 2d87 c5bc 2375 0ebb 48c3 e4bb
00000020: 9c86 02bc 6cb4 aa3a ef1b 1bbc fc0f 22bb
00000030: 09fd 49bc 5d1e e6bc 47ce 87bc f5d7 08bc
00000040: 47a8 d8bc a38f 493a 70e7 ccbc 9c8b d9bb
00000050: caaf ecbc fd24 413a f34e b6bc 5c99 3fbd
00000060: c7e5 623c 2d55 f5bc e2d9 babc 42b9 f7bb
00000070: 953a 4cbc c04a be3b fae4 b3bc 7e37 fb3b
00000080: c848 f6bc 4870 a7b9 27df 3cbc bf75 b9bc
00000090: ece7 10bc 7f8a 4bbc 2af8 023b 6e9a 803b
000000a0: c9c2 07bc ca9e 8e3b 756b c5bc 413c c83c
000000b0: 73d5 c83b c852 02bc a932 c7bb 626c 95bc
000000c0: 3989 f3bc 0100 97b9 9b5e 8abb 9a84 4fbc
000000d0: 5d67 f3bb b9c7 4d38 3847 a1bc 78f9 67bc
000000e0: d2a9 303c 9021 e3bb e60e 30bc 2ead 7abc
000000f0: ee7f f739 4034 c1bc 425c 65bc 1473 09bc

cnn.convolutions.10.running_mean f4 [64]
0.07157276 0.07441023 0.12250474 0.15199848 0.14046621 0.105793916 0.1341736 0.10023278
0.07996549 0.08757903 0.112196125 0.15416512 0.16070366 0.14549214 0.22412013 0.21225037
0.045915175 0.1163644 0.20929153 0.115207024 0.18327464 0.0735765 0.17036504 0.19588283
0.13053732 0.15827787 0.14081368 0.109604366 0.13828568 0.12515865 0.08175898 0.12275212
0.12928106 0.084437214 0.07743504 0.06913315 0.139757 0.12071766 0.09575919 0.1741115
0.15243931 0.094439104 0.120814 0.07419614 0.062319312 0.097717434 0.077150956 0.21274386
0.3141128 0.053579565 0.074953705 0.09062211 0.09987087 0.19061333 0.15106438 0.13850872
0.09374713 0.11404881 0.21755512 0.09552071 0.08239651 0.1185324 0.14763084 0.18584715
00000000: bd94 923d 6464 983d c4e3 fa3d 7da5 1b3e
00000010: 60d6 0f3e 7baa d83d ce64 093e d846 cd3d
00000020: f2c4 a33d a25c b33d 15c7 e53d 76dd 1d3e
00000030: 808f 243e e4fb 143e bf7f 653e 2958 593e
00000040: 8d11 3c3d 7550 ee3d 8550 563e a9f1 eb3d
00000050: 59ac 3b3e 47af 963d 2c74 2e3e 8295 483e
00000060: 93ab 053e 9813 223e 7631 103e 4178 e03d
00000070: c39a 0d3e 9729 003e 4171 a73d 7765 fb3d
00000080: 4162 043e 6bed ac3d 4396 9e3d ae95 8d3d
00000090: 761c 0f3e d23a f73d 651d c43d 494a 323e
000000a0: 0d19 1c3e 4a69 c13d 556d f73d 25f4 973d
000000b0: 8942 7f3d 1420 c83d 5201 9e3d 87d9 593e
000000c0: 65d3 a03e 3f76 5b3d 5481 993d 1698 b93d
000000d0: 1989 cc3d 2430 433e 9fb0 1a3e 3bd5 0d3e
000000e0: 7ffe bf3d 6c92 e93d c5c6 5e3e 5da0 c33d
000000f0: 80bf a83d 1dc1 f23d 8a2c 173e b74e 3e3e

cnn.convolutions.10.running_var f4 [64]
0.06451509 0.23156552 0.21205263 0.3081118 0.35676447 0.1514462 0.068958454 0.10009497
0.132228 0.19745953 0.078516394 0.053108655 0.3799948 0.06373911 0.122883104 0.12807219
0.10023178 0.25308883 0.16422145 0.1042629 0.34656143 0.19859916 0.29887676 0.17016304
0.48701805 0.055223983 0.026957205 0.04893662 0.19763559 0.26875383 0.13906549 0.058106072
0.053923953 0.20665088 0.037931766 0.052814253 0.25059924 0.29937673 0.05396759 0.09774779
0.053949665 0.07538748 0.10429146 0.13379367 0.14848447 0.080729485 0.11970282 0.8710593
0.45589024 0.14647672 0.09952744 0.06183752 0.2880462 0.08415326 0.1465383 0.04159844
0.08028055 0.5005781 1.0527974 0.07314504 0.09223574 0.30563775 0.07131498 0.10280421
00000000: 7d20 843d 831f 6d3e 5324 593e d4c0 9d3e
00000010: d5a9 b63e b614 1b3e 173a 8d3d 97fe cc3d
00000020: c766 073e d532 4a3e 34cd a03d 7688 593d
00000030: ae8e c23e a789 823d 23aa fb3d 5b25 033e
00000040: 5246 cd3d dc94 813e ab29 283e ca87 d53d
00000050: 8070 b13e 945d 4b3e 6006 993e 383f 2e3e
00000060: 6e5a f93e 8b32 623d 5bd5 dc3c c471 483d
00000070: fc60 4a3e 1a9a 893e 2f67 0e3e a200 6e3d
00000080: 5ddf 5c3d 4a9c 533e 575e 1b3d c253 583d
00000090: 8b4e 803e e847 993e 1f0d 5d3d fe2f c83d
000000a0: 53fa 5c3d c064 9a3d c396 d53d 3501 093e
000000b0: 500c 183e 8055 a53d c126 f53d befd 5e3f
000000c0: 726a e93e fefd 153e 0bd5 cb3d 5749 7d3d
000000d0: cb7a 933e 8b58 ac3d 230e 163e 2063 2a3d
000000e0: 216a a43d e325 003f 11c2 863f 11cd 953d
000000f0: 17e6 bc3d 8d7c 9c3e 970d 923d 038b d23d

fc.0.weight f4 [128, 1040]
-0.02273736 -0.02598355 0.008901999 0.0135473525 -0.015918558 -0.00168048 0.013784268 -0.03574207
0.0020072863 -0.0019561327 -0.011934466 -0.039424937 -0.010452415 0.018476216 0.03220666 0.027991178
0.008442082 0.027017023 0.029592218 0.024527097 -0.00077478663 -0.0024309638 0.0012850498 -0.0012447191
0.025158465 0.024103021 0.008771528 0.024157856 -0.0005853745 0.027011128 -0.0003632847 -0.019192155
-0.0056748297 0.0054127392 -0.009040707 -0.022872461 -0.009244179 -0.002117835 -0.03527731 0.016125085
0.0120066935 0.016139656 0.027445748 -0.020172736 -0.032341704 -0.033759117 -0.033253975 0.017445592
0.013894229 -0.024416847 -0.023928279 0.023748288 -0.014526248 -0.010853899 0.03533618 -0.009598964
0.006408737 0.019647101 -0.012746366 -0.019141652 -0.017762246 -0.008851182 0.0020615447 -0.005800566
0.017017486 -0.0058214464 0.018439002 0.030371359 0.018978277 0.0028128983 -0.0061717303 -0.024639506
0.0008389018 -0.005887556 -0.0035466808 0.017479785 0.016079271 0.015467516 -0.012814141 -0.020002902
-0.0050897733 -0.008959375 -0.0040603057 0.021299476 0.012173118 0.03360264 0.026831334 0.011427152
-4.0204228e-05 0.018818121 -0.011520958 0.011625303 0.0019906498 0.015331039 -0.028409092 0.021777831
0.036864117 0.016603475 0.026160274 0.014826085 -0.0021876933 0.056885682 0.050816473 0.03630916
0.020275863 0.044550493 -0.0027468055 -0.004477228 -0.008520156 0.028805207 0.05893081 0.030567748
-0.005904613 0.022718407 -0.02385531 -0.010299677 0.00867782 0.008934174 -0.013361608 -0.0071238833
-0.016080607 0.02134963 -0.019883113 0.017860908 0.015226835 -0.0025896698 0.008550597 -0.00046111472
-0.0075491155 0.01940419 -0.038502045 0.024023071 0.0007701647 -0.010201228 -0.021728054 -0.025791433
0.018153531 0.037725985 -0.014113083 -0.01579926 0.030550662 0.027335444 -0.011607943 0.019092284
0.004015746 -0.028112374 -0.016126757 -0.012352767 -0.0073203193 0.034144145 7.1316004e-05 0.03298014
-0.015646532 0.021944534 -0.005896219 -0.004807629 -0.003318744 -0.014384889 0.009813142 0.00364979
0.017392062 0.016143579 -0.008191751 0.026112689 0.0027193537 -0.010927931 0.019410662 -0.031882834
-0.0036729514 0.039121095 -0.010901463 0.0020663668 0.011946528 -0.0017415871 -0.010112933 -0.032380108
-0.002748971 -4.4738026e-05 -0.0024607826 0.04991404 -0.0027491588 -0.0037457643 -0.019080786 0.034903046
0.006771128 0.00501349 0.050437205 0.020726185 -0.009623725 -0.015310592 0.03435533 -0.012451685
-0.008751349 -0.00830804 -0.016401688 0.023386445 0.011021386 -0.002598684 0.02462756 -0.026082408
-0.008994461 0.010444743 0.008242413 -0.023443155 -0.02492028 -0.008644519 -0.015682826 -0.0101670455
0.039708108 0.00012671985 -0.014992155 -0.018676274 0.014461581 -0.016254736 -0.006420287 0.0076892157
0.0068868967 0.0006732179 -0.030278077 -0.0009241827 -0.048114102 -0.05245159 0.0049807397 0.021285903
0.014578122 0.0034970164 0.015836293 0.006711607 0.014511597 0.0072424486 0.05183126 0.044504996
0.00869205 0.018187352 0.005310686 0.015454744 0.021239098 0.033913434 -0.007543651 -0.018190153
0.00071460876 -0.0036022563 -0.008572904 -0.015265825 6.4042186e-05 0.021944936 0.0027589565 -0.018878078
-0.016654026 0.032220855 0.03347681 0.027764522 -0.031008007 0.006955422 0.011096863 0.019709444
00000000: b343 babc 74db d4bc b1d9 113c b7f5 5d3c
00000010: a367 82bc 8d43 dcba 69d7 613c 4766 12bd
00000020: ad8c 033b 7632 00bb c788 43bc 0b7c 21bd
00000030: 9b40 2bbc 6f5b 973c 21eb 033d c14d e53c
00000040: a950 0a3c ce52 dd3c 616b f23c 0ded c83c
00000050: 0d1b 4bba ce50 1fbb 1e6f a83a d825 a3ba
00000060: 2019 ce3c b373 c53c 74b6 0f3c b2e6 c53c
00000070: d173 19ba 7146 dd3c 3f77 beb9 de38 9dbc
00000080: ecf3 b9bb 595d b13b 791f 14bc 075f bbbc
00000090: e674 17bc 60cb 0abb f17e 10bd c118 843c
000000a0: b9b7 443c 5037 843c e8d5 e03c 4b41 a5bc
000000b0: bc78 04bd 0047 0abd 5235 08bd 0fea 8e3c
000000c0: 9fa4 633c d705 c8bc 3d05 c4bc c58b c23c
000000d0: 80ff 6dbc 8dd4 31bc acbc 103d f944 1dbc
000000e0: 6200 d23b f5f2 a03c 22d6 50bc f4ce 9cbc
000000f0: 2182 91bc 8c04 11bc fb1a 073b ad12 bebb
00000100: 4168 8b3c d5c1 bebb 640d 973c 5bcd f83c
00000110: 5578 9b3c 9a58 383b 3a3c cabb cad8 c9bc
00000120: bfe9 5b3a 66ec c0bb 6e6f 68bb c431 8f3c
00000130: adb8 833c 776b 7d3c 67f2 51bc 20dd a3bc
00000140: 1dc8 a6bb 58ca 12bc 500c 85bb 3d7c ae3c
00000150: c271 473c eca2 093d 63cd db3c f338 3b3c
00000160: f6a0 28b8 7628 9a3c 66c2 3cbc 0e78 3e3c
00000170: 9075 023b 0a2f 7b3c 2fba e8bc 6c67 b23c
00000180: d4fe 163d 0304 883c 124e d63c 1ce9 723c
00000190: 675f 0fbb f600 693d ef24 503d eab8 143d
000001a0: 9119 a63c 947a 363d c003 34bb b6b5 92bb
000001b0: 2098 0bbc e6f8 eb3c 6f61 713d 3769 fa3c
000001c0: 7c7b c1bb f41b ba3c 366c c3bc fabf 28bc
000001d0: 6a2d 0e3c a460 123c a5ea 5abc 776f e9bb
000001e0: 7abb 83bc 6be5 ae3c e9e1 a2bc 0a51 923c
000001f0: fa79 793c 73b7 29bb ce17 0c3c c5c1 f1b9
00000200: 925e f7bb 89f5 9e3c 52b4 1dbd 08cc c43c
00000210: e1e4 493a 0d23 27bc 08ff b1bc 8e48 d3bc
00000220: b7b6 943c 9086 1a3d 8f3a 67bc 736d 81bc
00000230: 6245 fa3c 95ee df3c 3e2f 3ebc 6c67 9c3c
00000240: 8596 833b ec4b e6bc 431c 84bc 4363 4abc
00000250: 4adf efbb bbda 0b3d 7d8f 9538 2f16 073d
00000260: 282d 80bc 06c5 b33c 1235 c1bb 5189 9dbb
00000270: 497f 59bb 99ae 6bbc 4dc7 203c 5131 6f3b
00000280: cc79 8e3c 8a3f 843c b236 06bc 47ea d53c
00000290: 2f37 323b 110b 33bc 1c03 9f3c 9397 02bd
000002a0: e6b5 70bb 713d 203d 0d9c 32bc e26b 073b
000002b0: 5fbb 433c f745 e4ba b7b0 25bc 01a1 04bd
000002c0: 1528 34bb 17a5 3bb8 1545 21bb aa72 4c3d
000002d0: 3b2b 34bb 7f7b 75bb 4f4f 9cbc 7ff6 0e3d
000002e0: 57e0 dd3b 3448 a43b 3e97 4e3d f6c9 a93c
000002f0: d4ac 1dbc 47d9 7abc 2db8 0c3d 2702 4cbc
00000300: d161 0fbc 721e 08bc d55c 86bc ee94 bf3c
00000310: 0b93 343c af4e 2abb bdbf c93c c6aa d5bc
00000320: 815d 13bc 6d20 2b3c 300b 073c dc0b c0bc
00000330: 9d25 ccbc bea1 0dbc 4579 80bc ae93 26bc
00000340: f8a4 223d 1ae0 0439 a8a1 75bc fcfe 98bc
00000350: 44f0 6c3c a728 85bc 4561 d2bb d1f5 fb3b
00000360: 7aab e13b e37a 303a bb09 f8bc da44 72ba
00000370: 4b13 45bd 7ad7 56bd 7935 a33b c65f ae3c
00000380: 13d9 6e3c 332e 653b 1dbb 813c 0aed db3b
00000390: 0dc2 6d3c 1052 ed3b 044d 543d df4a 363d
000003a0: 1a69 0e3c a4fd 943c 4305 ae3b e535 7d3c
000003b0: 9efd ad3c d0e8 0a3d bb30 f7bb 8403 95bc
000003c0: 9554 3b3a d513 6cbb 5e75 0cbc 831d 7abc
000003d0: 634e 8638 dec5 b33c 9ccf 343b 33a6 9abc
000003e0: 066e 88bc 04fa 033d fb1e 093d 6c72 e33c
000003f0: 8104 febc 4fea e33b 9ecf 353c b375 a13c

fc.0.bias f4 [128]
-0.0015396251 0.00092764315 0.0040543354 0.02972299 0.028262472 0.02239558 0.012065556 0.007332926
-0.007931156 -0.005663636 0.028371235 0.03257077 -0.012397515 -0.0052501555 0.023048852 0.0025084266
-0.026611505 -0.012047626 0.04341579 0.009958374 0.009630755 -0.0032843773 0.024996355 -0.0029467181
-0.010332193 0.0015647361 0.01165808 0.023126664 0.01910104 -0.0003441063 0.009892068 0.0009170308
-0.008126701 -0.017351372 0.01365031 0.0123333605 0.010559689 -0.041837428 -0.03246307 0.035875272
0.011859457 0.028867776 -0.016597254 0.0066920975 -0.017856404 -0.008867379 0.013267479 0.0028188163
-0.0028339045 0.027650107 0.04028449 -0.017696526 0.045485396 -0.023276072 0.0342926 -0.020838344
0.016691232 -0.0074477517 0.003615352 0.015264705 0.02401727 0.022990072 0.022466147 0.010572951
-0.00643527 -0.0046500517 -0.021847092 -0.012494175 -0.016363626 -0.016029181 -0.019376237 0.022402883
0.014184944 0.035709538 -0.049473256 0.022127477 -0.0030415668 0.03749323 0.030604819 0.011904781
-0.005612879 -0.023550512 0.013227421 0.027063552 0.014029161 0.00837905 0.022172969 -0.023629274
0.0030955935 -0.029116616 0.0063503017 0.0075734765 -0.025699433 -0.0031528024 -0.016692767 0.0053717084
-0.004887609 -0.009586488 -0.018344443 0.033225045 0.008225312 0.013004128 0.0071605607 0.0036750464
0.022911953 -0.028566696 -0.005957513 0.021256177 -0.010408979 -0.012222349 0.0064139683 0.007700514
0.042232987 -0.026010081 -0.011663536 -0.00043364428 0.034165658 -0.0021372412 0.0408685 0.028945338
-0.014106121 0.0066134054 0.022933152 -0.00555436 0.0017530066 0.021512788 0.0032503037 0.01118649
00000000: 3fcd c9ba 142d 733a 3bda 843b a17d f33c
00000010: b386 e73c ef76 b73c 9cae 453c 0b49 f03b
00000020: aef1 01bc 0696 b9bb cb6a e83c ed68 053d
00000030: f21e 4bbc 7f09 acbb f2d0 bc3c 6a64 243b
00000040: 5f00 dabc 6863 45bc c1d4 313d 7328 233c
00000050: 50ca 1d3c b53e 57bb 28c5 cc3c ba1d 41bb
00000060: 5c48 29bc d517 cd3a 8801 3f3c 2174 bd3c
00000070: c979 9c3c 2a69 b4b9 5712 223c e564 703a
00000080: db25 05bc 7724 8ebc 8da5 5f3c dd11 4a3c
00000090: 8c02 2d3c b95d 2bbd fff7 04bd f3f1 123d
000000a0: 2b4e 423c 1d7c ec3c f7f6 87bc 6249 db3b
000000b0: 9847 92bc 7c48 11bc d75f 593c e4bb 383b
000000c0: 07b9 39bb 7a82 e23c 5901 253d 4ef8 90bc
000000d0: e54e 3a3d 76ad bebc 6676 0c3d 2db5 aabc
000000e0: 0dbc 883c 450c f4bb 8bef 6c3b d018 7a3c
000000f0: debf c43c ad55 bc3c ed0a b83c 2c3a 2d3c
00000100: f5de d2bb 765f 98bb acf8 b2bc 5eb4 4cbc
00000110: 030d 86bc a14f 83bc eaba 9ebc 4086 b73c
00000120: f867 683c 2a44 123d 78a4 4abd af44 b53c
00000130: 0655 47bb 8092 193d f5b6 fa3c 450c 433c
00000140: 3eec b7bb 01ed c0bc d3b7 583c 62b4 dd3c
00000150: 91da 653c 4848 093c 16a4 b53c 2e92 c1bc
00000160: 71df 4a3b f885 eebc 3116 d03b ed2a f83b
00000170: 9e87 d2bc 3f9f 4ebb 45bf 88bc 2805 b03b
00000180: 3c28 a0bb a510 1dbc 1647 96bc fc16 083d
00000190: 76c3 063c 440f 553c 23a3 ea3b 0cd9 703b
000001a0: d9b1 bb3c b404 eabc 3e37 c3bb 6f21 ae3c
000001b0: 6c8a 2abc 3f40 48bc 442c d23b 9854 fc3b
000001c0: 7ffc 2c3d 1813 d5bc 6a18 3fbc c05a e3b9
000001d0: 4af1 0b3d f510 0cbb ba65 273d c61e ed3c
000001e0: 5c1d 67bc 44b5 d83b 4ede bb3c 5901 b6bb
000001f0: 24c5 e53a 963b b03c 0c03 553b 8a47 373c

fc.2.weight f4 [128]
0.89766955 0.9541999 0.8908582 0.9624705 0.9376652 1.0104913 0.98418766 0.92354757
0.99530345 0.9141043 0.9334567 0.94591033 0.92290944 0.93430024 0.9194306 0.8900058
0.88997316 0.8853154 0.97462153 0.95563203 0.88998514 0.90023655 0.9760584 0.89106065
0.9036607 0.92088753 0.9082484 0.9453277 0.8959416 0.8975917 0.95879525 0.8665662
0.9317455 0.9155887 0.8790111 0.93202764 0.9415543 0.93664473 0.96624047 0.9401523
0.94016814 0.9126361 0.97040504 1.0316406 0.88938147 0.9329708 0.9651334 0.9238971
1.0209409 0.97478783 0.9570286 0.9159991 1.0031065 0.95466137 0.9304531 0.8929166
0.91788024 0.90770257 0.94613874 1.0141433 0.9773513 0.9086951 0.9085232 0.8908894
0.9212429 0.95774424 0.895448 0.9214757 0.8893539 0.9400316 0.9363036 0.88665605
0.917283 0.9059509 1.0013679 0.8886337 0.9157983 0.9764578 0.98792434 0.9135379
0.8739623 0.9309303 0.89430976 0.95304286 0.89626974 0.9329408 0.94148177 0.9458028
0.90445757 0.901098 0.94739956 0.91568834 0.9069363 0.96800995 0.99405766 0.9099024
0.88415915 0.9290885 0.90820235 0.9348911 0.8965591 0.93722963 0.9155444 0.91967213
0.8803123 0.89272714 0.8684674 0.9133493 0.87691385 0.9004131 0.91218925 0.8895197
0.91649115 0.9468109 0.92332333 0.8996886 0.984975 0.8960918 0.9281114 0.93419844
0.9028601 0.9546084 1.0029702 0.87663025 0.9392306 0.95957524 0.9433627 0.88333434
00000000: accd 653f 7246 743f 480f 643f 7764 763f
00000010: d40a 703f c757 813f b9f3 7b3f 9d6d 6c3f
00000020: 35cc 7e3f bd02 6a3f 05f7 6e3f 2e27 723f
00000030: cb43 6c3f 4d2e 6f3f ce5f 6b3f 6cd7 633f
00000040: 48d5 633f 08a4 623f cc80 793f 4da4 743f
00000050: 11d6 633f e775 663f f7de 793f 8d1c 643f
00000060: 4f56 673f 49bf 6b3f f882 683f ff00 723f
00000070: 6e5c 653f 92c8 653f 9b73 753f 48d7 5d3f
00000080: e086 6e3f 0564 6a3f df06 613f 5d99 6e3f
00000090: b409 713f f3c7 6f3f 895b 773f d2ad 703f
000000a0: dcae 703f 85a2 693f 776c 783f cd0c 843f
000000b0: 81ae 633f 2dd7 6e3f fc12 773f 8584 6c3f
000000c0: 31ae 823f b28b 793f d4ff 743f eb7e 6a3f
000000d0: cb65 803f b064 743f 2d32 6e3f 2f96 643f
000000e0: 33fa 6a3f 325f 683f 2636 723f 73cf 813f
000000f0: b233 7a3f 3ea0 683f fa94 683f 5411 643f
00000100: 93d6 6b3f ba2e 753f 153c 653f d5e5 6b3f
00000110: b2ac 633f e9a5 703f 98b1 6f3f e4fb 623f
00000120: 0fd3 6a3f 66ec 673f d32c 803f 807d 633f
00000130: c271 6a3f 23f9 793f 9ce8 7c3f 9fdd 693f
00000140: febb 5f3f 7351 6e3f 7cf1 643f 9efa 733f
00000150: ef71 653f 35d5 6e3f f304 713f 2220 723f
00000160: 888a 673f 5cae 663f c788 723f 8d6a 6a3f
00000170: fa2c 683f 80cf 773f 907a 7e3f 5def 683f
00000180: 4158 623f bed8 6d3f f37f 683f 0655 6f3f
00000190: e684 653f 48ee 6f3f 1e61 6a3f a26f 6b3f
000001a0: 265c 613f c489 643f e153 5e3f 42d1 693f
000001b0: 6d7d 603f 7981 663f 3c85 693f 90b7 633f
000001c0: 2a9f 6a3f 3362 723f eb5e 6c3f fe51 663f
000001d0: 5227 7c3f 4666 653f b598 6d3f a127 6f3f
000001e0: d721 673f 3761 743f 5461 803f d76a 603f
000001f0: 6b71 703f b9a6 753f 3880 713f 3322 623f

fc.2.bias f4 [128]
-0.023366744 -0.070406094 0.026091326 0.017084083 -0.028060673 -0.057913028 -0.046082526 -0.029253
-0.050808668 0.05526666 -0.03953719 -0.052694287 -0.096345834 -0.043087464 -0.0048187156 -0.01690688
-0.03073844 -0.054930948 -0.0016460664 -0.009435658 -0.0071501248 -0.0022602696 -0.05928159 -0.018610684
0.015511085 0.00717454 0.05075699 0.07553981 0.030764757 0.0080837 -0.030618267 0.061904293
0.024861084 0.018808968 -0.020626089 -0.00881846 0.03901882 -5.999291e-05 0.051323257 -0.023444638
-0.044958346 0.0101512475 -0.039264914 0.009749703 -0.024873424 -0.028028967 0.08858297 0.032827076
0.04020197 0.016517034 -0.06803943 -0.032384068 0.05266167 0.022866696 -0.036640383 -0.0055591725
0.047827125 -0.060373683 -0.056699533 0.014708104 0.007150192 -0.0069460403 -0.009229781 -0.024110995
0.024329599 0.043283015 -0.0019553872 -0.02136996 0.025147868 0.052513123 -0.040591095 -0.006174368
-0.049976543 -0.002535367 0.03298259 -0.037533924 -0.044465467 0.06872699 -0.0007803425 -0.01894457
0.05771297 0.054049797 -0.042962614 -0.018814625 0.07622369 0.02229368 0.03234194 0.0036567815
0.030645696 -0.0012378913 0.03423594 -0.055206377 -0.059619408 -0.0020047626 0.034085285 -0.04490623
0.040313438 0.017215911 -0.056578014 -0.002912502 -0.017822364 0.07656125 -0.00522644 0.0051308568
0.029613499 0.0024138126 -0.021094007 0.03528244 0.004197864 -0.052757487 -0.015094853 -0.022107663
0.0403663 0.022128064 -0.047437705 -0.0017527922 0.07170544 -0.038913056 -0.03813642 -0.051675804
0.038819764 0.06694404 0.04018018 0.028851941 -0.041322976 0.01067392 -0.022713993 0.055658527
00000000: 9d6b bfbc 1231 90bd 7abd d53c ebf3 8b3c
00000010: 7fdf e5bc 3636 6dbd 08c1 3cbd fda3 efbc
00000020: c01c 50bd 4b5f 623d c0f1 21bd f7d5 57bd
00000030: f750 c5bd 7b7c 30bd 51e6 9dbb 4c80 8abc
00000040: 2ecf fbbc 46ff 60bd d3c0 d7ba 0598 1abc
00000050: 984b eabb 0821 14bb 41d1 72bd 6f75 98bc
00000060: 3522 7e3c 6718 eb3b 90e6 4f3d 9eb4 9a3d
00000070: 5f06 fc3c 7f71 043c 29d3 fabc 5b8f 7d3d
00000080: 79a9 cb3c 4415 9a3c 0bf8 a8bc 4d7b 10bc
00000090: 33d2 1f3d e6a0 7bb8 5638 523d f80e c0bc
000000a0: 3e26 38bd 6b51 263c 3fd4 20bd 38bd 1f3c
000000b0: 5ac3 cbbc 019d e5bc fd6a b53d af75 063d
000000c0: d2aa 243d bb4e 873c 4258 8bbd 28a5 04bd
000000d0: c3b3 573d f052 bb3c 3a14 16bd b829 b6bb
000000e0: 60e6 433d 654a 77bd c53d 68bd 42fa 703c
000000f0: 284c ea3b 9c9b e3bb 8238 17bc 6c84 c5bc
00000100: de4e c73c 8849 313d f425 00bb 0e10 afbc
00000110: e702 ce3c 0018 573d d942 26bd 5a52 cabb
00000120: 34b4 4cbd 6628 26bb c118 073d 2cbd 19bd
00000130: 6c21 36bd bcc0 8c3d e68f 4cba a531 9bbc
00000140: 6f64 6c3d 5263 5d3d 91f9 2fbd 2121 9abc
00000150: 2a1b 9c3d 3ca1 b63c fb78 043d 9da6 6f3b
00000160: af0c fb3c bd40 a2ba fc3a 0c3d 1520 62bd
00000170: 7b33 74bd 5662 03bb 039d 0b3d 98ef 37bd
00000180: b41f 253d 6208 8d3c 59be 67bd addf 3ebb
00000190: 3500 92bc 25cc 9c3d 8e42 abbb bf20 a83b
000001a0: 0298 f23c 0e31 1e3b 57cd acbc 5284 103d
000001b0: 3c8e 893b 3c18 58bd 6750 77bc 211b b5bc
000001c0: 2257 253d ea45 b53c 0a4e 42bd f2bd e5ba
000001d0: 4dda 923d 4c63 1fbd ef34 1cbd 02aa 53bd
000001e0: 7901 1f3d f519 893d f993 243d e85a ec3c
000001f0: 4842 29bd aae1 2e3c b212 babc 32fa 633d
