trained_models/regression_cnn_gammas_m1.pth (torch, 672806 bytes, 36 tensors)

cnn.convolutions.0.weight f4 [16, 1, 3, 3]
0	0xbddd9c6a	-0.10820849
1	0xbdc8d360	-0.098059416
2	0xbe2111ab	-0.15729396
3	0xbd2ac416	-0.04169091
4	0xbe76db3b	-0.24107067
5	0x3dad74b2	0.084695235
6	0xbe7ac23a	-0.24488154
7	0xbe831321	-0.25600532
8	0xbe796116	-0.24353442
9	0x3e50809c	0.2036156
10	0xbd840c3f	-0.06447648
11	0x3e050eea	0.1299397
12	0xbe7b14ec	-0.245197
13	0xbe719921	-0.2359357
14	0xbd6c9929	-0.057763252
15	0xbe3bb0f7	-0.18329225
16	0xbe60f9cf	-0.21970294
17	0x3e74a021	0.2388921
18	0xbe1154d9	-0.14192523
19	0x3c298ac7	0.0103480285
20	0x3e768cdc	0.24077171
21	0xbd0d8af1	-0.034556333
22	0x3e0c50e3	0.13702731
23	0x3eab0077	0.33398792
24	0xbe53515f	-0.2063651
25	0x3d545791	0.051841322
26	0xbe1958ce	-0.14975283
27	0x3e13f666	0.14449462
28	0x3e9da5b0	0.30790472
29	0xbe915c27	-0.2839062
30	0x3ebf79f4	0.3739773
31	0x3e1d59e1	0.15366317
32	0x3d6b2366	0.057406805
33	0x3e20702a	0.15667787
34	0x3e071c4e	0.13194391
35	0xbdb043af	-0.086066596
36	0xbe9c8b3a	-0.3057497
37	0xbdeeac53	-0.11653962
38	0xbe5470f5	-0.20746215
39	0xbc092439	-0.008370453
40	0xbd5bfa8b	-0.053705733
41	0xbe1b367a	-0.151575
42	0xbc5d573b	-0.013509567
43	0x3eb66746	0.35625666
44	0xbcce2a34	-0.025166608
45	0x3d429f3f	0.04751515
46	0xbd20fd72	-0.039304204
47	0x3d82552c	0.063639015
48	0x3e7f5418	0.24934423
49	0x3e2829b1	0.16422154
50	0x3d87c32d	0.06629024
51	0x3d413717	0.04717168
52	0x3ddfc84c	0.109268755
53	0x3e03ecc7	0.12883292
54	0xbd3416dc	-0.043967113
55	0xbe934fc1	-0.28771785
56	0xbe8c060e	-0.2734837
57	0x3e818430	0.25296164
58	0x3d80838e	0.06275092
59	0xbe9952e5	-0.29946056
60	0x3e4cc5b4	0.19997293
61	0x3e4f10a8	0.20221198
62	0xbea9489b	-0.33063206
63	0xbe48645f	-0.19569539
64	0xbdb4d96a	-0.08830531
65	0xbbc55964	-0.006022619
66	0xbd844a59	-0.06459493
67	0x3cc7f7a3	0.024410075
68	0xbe8e7804	-0.2782594
69	0x3e80e1bc	0.25172222
70	0x3eb322a4	0.34987366
71	0x3de87309	0.11350066
72	0xbe6a013d	-0.22852035
73	0xbe913336	-0.28359383
74	0x3e1d0d30	0.15337062
75	0x3bafd7ec	0.005366316
76	0x3e21d375	0.1580332
77	0xbe8c5e47	-0.27415678
78	0xbd999981	-0.07499982
79	0x3e7e97c7	0.24862586
80	0x3e1e4c76	0.15458855
81	0xbb9a631e	-0.0047115227
82	0x3de8c891	0.1136638
83	0xbc7cd033	-0.015430498
84	0xbe3b3770	-0.18282866
85	0xbde9b5a7	-0.114116006
86	0xbe51ed5b	-0.205007
87	0x3e8cb7ce	0.27483982
88	0x3e3a99c8	0.18222725
89	0x3d8e01e3	0.069339536
90	0xbe8518a2	-0.25995356
91	0x3e55e44b	0.20887868
92	0x3d25266e	0.040319853
93	0x3e60d623	0.21956687
94	0xbe1e8a31	-0.15482403
95	0x3e18107f	0.14850043
96	0x3e786b32	0.24259642
97	0x3e8e44a9	0.2778676
98	0x3e577c8a	0.21043602
99	0xbd5dbcc4	-0.0541351
100	0x3e81443b	0.25247368
101	0xbe82096d	-0.25397816
102	0x3c04aa64	0.008097265
103	0xbe43988d	-0.19101162
104	0xbd242878	-0.040077657
105	0xbd8732d3	-0.06601491
106	0x3cf02ba7	0.02931769
107	0x3ea4978c	0.3214687
108	0x3dbc2b51	0.091879494
109	0x3db582fa	0.088628724
110	0x3e8b1305	0.27162948
111	0xbe1d3c19	-0.15354957
112	0x3e3e2047	0.18567
113	0xbd810cf0	-0.06301296
114	0xbdc3597f	-0.095385544
115	0xbc643065	-0.013927554
116	0xbe9feab7	-0.3123376
117	0x3c589600	0.013219357
118	0x3ce78eeb	0.02826639
119	0x3e200a2e	0.15628883
120	0xbdd28ff9	-0.10281367
121	0x3e16da5f	0.1473174
122	0x3e9a1934	0.30097353
123	0xbdba1600	-0.090862274
124	0x3ea5c21b	0.32374653
125	0xbe8afe91	-0.27147344
126	0x3df459f6	0.11931221
127	0x3e2ee431	0.17079236
128	0x3d9216f0	0.07133281
129	0x3ea364a9	0.31912735
130	0xbe06ad59	-0.13152064
131	0x3cf7640c	0.030199073
132	0x3b875ea9	0.0041311574
133	0xbe9d145a	-0.3067959
134	0xbe12b299	-0.14325942
135	0xbe7bca19	-0.24588813
136	0x3c53653e	0.012902556
137	0xbc4239fe	-0.011854647
138	0xbda85c12	-0.08220686
139	0xbe0142e3	-0.12623172
140	0x3d66d463	0.05635489
141	0xbdecf6be	-0.115705
142	0x3d9a94f5	0.075479425
143	0x3e96a5e7	0.29423448

cnn.convolutions.0.bias f4 [16]
0	0x3e441d7f	0.19151877
1	0xbdd0105b	-0.101593696
2	0xbde1cc42	-0.11025287
3	0x3c714a9a	0.014727259
4	0xbe31bc8f	-0.17357086
5	0xbe883079	-0.26599482
6	0xbe290d7d	-0.16509052
7	0xbdd8a6c4	-0.10578683
8	0xbc6bb2e1	-0.01438591
9	0x3e2b773a	0.167447
10	0x3e1985ba	0.14992419
11	0x3e7480cd	0.23877259
12	0xbdb965cc	-0.09052619
13	0x3d43bcdf	0.047787543
14	0xbe0cac88	-0.1373769
15	0x3e86d143	0.2633153

cnn.convolutions.2.weight f4 [16]
0	0x3f68e270	0.90970516
1	0x3f6f8647	0.93564266
2	0x3f84fd10	1.0389729
3	0x3f6d9751	0.92809016
4	0x3f652bbb	0.8951985
5	0x3f74df8c	0.95653605
6	0x3f7283c3	0.947323
7	0x3f817b22	1.0115702
8	0x3f6bb276	0.92069185
9	0x3f74e9a4	0.9566901
10	0x3f7a03e0	0.9766216
11	0x3f714e8b	0.9426047
12	0x3f7f7ef1	0.9980307
13	0x3f81285e	1.0090444
14	0x3f701601	0.93783575
15	0x3f8077b6	1.0036533

cnn.convolutions.2.bias f4 [16]
0	0x3d00da13	0.03145797
1	0xba5e46b7	-0.0008479165
2	0xbd163aa3	-0.036677014
3	0xbd9e1a3d	-0.07719848
4	0x3caf3bba	0.021390785
5	0xbcbdff54	-0.023193039
6	0xbd45b5ec	-0.048269197
7	0xbc4a71ba	-0.012356216
8	0xbc9c5c39	-0.019086944
9	0x3d2b11b8	0.041764945
10	0x3d0606e6	0.032721423
11	0xba8e1548	-0.0010840083
12	0xbd07d52a	-0.033162273
13	0xbc74bcc7	-0.014937586
14	0x3c76db7a	0.015066976
15	0x3d323a16	0.043512426

cnn.convolutions.2.running_mean f4 [16]
0	0x3e87291d	0.26398554
1	0x3b291114	0.0025797533
2	0x3c9977fb	0.018733969
3	0x3d7d394e	0.061822228
4	0x3ae11f9b	0.0017175557
5	0x3d2007b9	0.039069865
6	0x3ba4b783	0.005026759
7	0x3c6935b0	0.0142339915
8	0x3c25a5d6	0.010110339
9	0x3e2d10b2	0.169009
10	0x3e1667a6	0.14687976
11	0x3e7992b6	0.24372372
12	0x3c2533ff	0.010083198
13	0x3d4f3029	0.05058304
14	0x3c858c22	0.016302172
15	0x3e8e2c44	0.27768147

cnn.convolutions.2.running_var f4 [16]
0	0x3bd527c3	0.006504984
1	0x3b787668	0.0037912372
2	0x3dc78bd2	0.097434655
3	0x3f076f8a	0.5290457
4	0x3b8a46ec	0.0042198803
5	0x3e94ca89	0.29060772
6	0x3c9a7637	0.018855197
7	0x3d6cccbb	0.057812434
8	0x3c8a5e37	0.016890628
9	0x3cb99f87	0.022659076
10	0x3ee43598	0.4457214
11	0x3c8f2ae8	0.017476514
12	0x3d026baa	0.031840958
13	0x3e386bc3	0.18009858
14	0x3d9ca199	0.0764801
15	0x3d068d4b	0.03284959

cnn.convolutions.4.weight f4 [32, 16, 3, 3]
0	0xbcd8b0df	-0.026451526
1	0x3cfcad9b	0.0308445
2	0xbc5c5185	-0.01344717
3	0x3d27d6d2	0.040976353
4	0x3d3da9c3	0.046304476
5	0x3b0327b1	0.0020012672
6	0x3cbe8705	0.023257742
7	0x3c134bc6	0.008990234
8	0xbc1477bd	-0.009061751
9	0x3b242ff1	0.002505299
10	0xbd688ded	-0.056775976
11	0xbd3d8891	-0.046272818
12	0xbd37a311	-0.044833247
13	0xbcd6fbc9	-0.026243107
14	0xbdb72bc0	-0.089438915
15	0xbcb696cc	-0.022288702
16	0xbd69cc02	-0.057079323
17	0xbcc80d0b	-0.024420282
18	0x3dc796c4	0.09745553
19	0x3d617eb3	0.05505247
20	0xbdaa475b	-0.08314391
21	0xbce7341a	-0.028223086
22	0xbd279801	-0.040916447
23	0xbe317403	-0.17329411
24	0xbe0d5d2e	-0.13805076
25	0xbc8fcf4d	-0.017554903
26	0xbdb70824	-0.089370996
27	0x3d3e633c	0.046481356
28	0x3d9c037b	0.07617851
29	0xbdacbc47	-0.084343486
30	0xbdc7c5e9	-0.09754545
31	0xbdbfbb94	-0.093619496
32	0xbc3237c6	-0.010877555
33	0xbcca6405	-0.024705896
34	0xbd928620	-0.071544886
35	0xbcb3c4cf	-0.021944432
36	0x3d3ec813	0.046577524
37	0xbd418744	-0.04724814
38	0x3d098096	0.033569895
39	0x3d2af356	0.04173597
40	0xbd0c2804	-0.03421785
41	0x3ababa6f	0.0014246235
42	0xbd111f96	-0.035430513
43	0xbc9b5322	-0.01896054
44	0xbd4f8460	-0.050663352
45	0x3c71732f	0.014736935
46	0xb9c0de5f	-0.00036786773
47	0xbd1411c3	-0.03614975
48	0xbd877886	-0.06614785
49	0xbd3402b0	-0.043947875
50	0xbd83530e	-0.06412326
51	0xbd637a7a	-0.055536725
52	0x3d245b47	0.04012611
53	0xbd331f66	-0.043731116
54	0x3d2faa19	0.042886827
55	0x3c143964	0.009046886
56	0xbc4f1374	-0.012638915
57	0xbd6eeab7	-0.05832931
58	0xbe07f987	-0.13278781
59	0xbdda8bfd	-0.10671232
60	0xbd5558a0	-0.052086473
61	0xbda45ec7	-0.0802589
62	0x3d2c9d87	0.042142417
63	0x3b3b6d1f	0.0028598977
64	0x3cc3fd71	0.023924561
65	0xbe003027	-0.12518369
66	0xbd03586d	-0.03206675
67	0xbdb5df7f	-0.08880519
68	0x3d720518	0.05908689
69	0xbdb69702	-0.08915521
70	0xbcb4e681	-0.02208257
71	0x3bebc802	0.0071954736
72	0xbd33ef9e	-0.04392969
73	0x3cb894c6	0.022531878
74	0xbc4a0958	-0.012331329
75	0xbdb7a03f	-0.089661114
76	0x3c2c7ff1	0.0105285505
77	0xbbb61908	-0.005557183
78	0xbdc9f722	-0.0986159
79	0x3d475c00	0.048671722
80	0x3d0a8bde	0.033824794
81	0xbc7ded57	-0.015498481
82	0xbd817d57	-0.06322735
83	0xbc71789f	-0.014738231
84	0x3db17870	0.0866555
85	0x3dc69915	0.09697167
86	0xbd4a7456	-0.049427353
87	0xbd821790	-0.063521504
88	0x3d79c1af	0.060975727
89	0x3d520400	0.051273346
90	0x3d95e2aa	0.07318623
91	0x3afe6c9c	0.001941103
92	0x3cbcdc66	0.023054313
93	0xbd8f0444	-0.069832355
94	0xbcbc90aa	-0.0230182
95	0xbcb00699	-0.021487521
96	0xbd5a46cd	-0.053290177
97	0xbd672cfa	-0.056439377
98	0x3db28421	0.08716608
99	0x3cf12929	0.029438572
100	0xbcfe39ed	-0.03103348
101	0x3d2427c7	0.040076997
102	0xbc9347e4	-0.017978616
103	0x3d7e96ef	0.06215566
104	0x3d42c702	0.04755307
105	0x3d502bbb	0.050822955
106	0x3c8c920c	0.017159484
107	0xbc94d7e0	-0.018169343
108	0x3d656f45	0.056014318
109	0x3b19691c	0.0023408597
110	0xbdb7e608	-0.08979422
111	0x3d42d692	0.04756791
112	0x3c11e306	0.008904224
113	0xbd8c7733	-0.06858673
114	0xbd32c7d6	-0.04364761
115	0xbd09c93c	-0.033639178
116	0xbd3c7adb	-0.0460156
117	0xba28cea1	-0.00064394815
118	0xbce10924	-0.027470179
119	0xbdbba3f9	-0.09162135
120	0x3d31724e	0.0433219
121	0xbe0a4441	-0.135026
122	0x3d115920	0.035485387
123	0xbd9b3eac	-0.07580313
124	0x3d75efd7	0.060043182
125	0x3da1374e	0.07871877
126	0x3cff5666	0.031169128
127	0xbb66a8fe	-0.0035195942
128	0xbd2e4de2	-0.042554744
129	0xbd896a13	-0.06709685
130	0x3d90d1ae	0.07071243
131	0xbd792948	-0.060830384
132	0xbc88559d	-0.016642386
133	0xbca954be	-0.020670291
134	0x3a243c27	0.0006265067
135	0x3d103b6f	0.03521293
136	0xbd97bb34	-0.07408753
137	0x3c4b9bff	0.012427329
138	0x3c2cf881	0.010557295
139	0xbc40eb2d	-0.01177482
140	0x38f52ec3	0.000116912204
141	0x3c2ed509	0.010670909
142	0x3d8d4018	0.068969905
143	0x3c10fb4c	0.008848976
144	0xbcaec406	-0.021333706
145	0x3dabfe13	0.0839807
146	0x3d052af0	0.03251165
147	0xbd7659f3	-0.060144376
148	0x3d41c7c7	0.047309663
149	0x3d10d16b	0.035355967
150	0xbc8a7cb4	-0.016905166
151	0x3c368eab	0.011142413
152	0xbd827a8b	-0.063710295
153	0x3d92a26b	0.07159885
154	0xbcca1472	-0.024667952
155	0x3a17b3e7	0.00057870004
156	0xbc583f12	-0.013198631
157	0x3ab0c69d	0.0013486926
158	0x3c7db30f	0.015484585
159	0xbd0bd29f	-0.03413641
160	0xbd309355	-0.043109257
161	0xbc4ceb99	-0.012507343
162	0x3d99ef49	0.07516343
163	0x3d193ac1	0.037409548
164	0x3db9a31d	0.090643145
165	0xbc8ef33a	-0.017449964
166	0xbcfaa22b	-0.030594906
167	0x3d00aec7	0.03141668
168	0x3cbf2bd0	0.023336321
169	0x3c3c7cea	0.011504391
170	0x3cb00c60	0.021490276
171	0xbcf5b6e6	-0.02999444
172	0xbd75955e	-0.0599569
173	0x3d0ec5d0	0.034856617
174	0x3ca303c6	0.01989926
175	0xbd69af1c	-0.057051763
176	0xbdf9f530	-0.12204969
177	0xbd1e1673	-0.038595628
178	0x3d9d49d0	0.07680094
179	0x3cd1fef7	0.025634272
180	0x3b06e98c	0.0020585982
181	0x3cbfad28	0.023397997
182	0xbc4b0561	-0.012391419
183	0xbd6a21b3	-0.057161044
184	0xbd1b37f9	-0.037895177
185	0x3d0c8405	0.03430559
186	0xbd265282	-0.04060603
187	0x3d3283fc	0.0435829
188	0x3d85f168	0.06540185
189	0x3b46fd0c	0.003036323
190	0x3cb615a4	0.022227116
191	0x3a40993f	0.0007347054
192	0x3d663ca4	0.056210175
193	0xbdc5d770	-0.09660232
194	0xbd52625c	-0.051363334
195	0x3d29fa4b	0.041498464
196	0xbce73690	-0.02822426
197	0x3d886298	0.0665943
198	0x3c3a180f	0.011358275
199	0xba07aa39	-0.00051752065
200	0x3c1bb67e	0.009503959
201	0x3d65e874	0.056129888
202	0xbc1cb4c8	-0.009564586
203	0xbcac7277	-0.021050675
204	0xbaf410ee	-0.0018620768
205	0x3d027be9	0.03185645
206	0x3c811bc9	0.01576032
207	0x3d74e73a	0.059790827
208	0x3ca37a56	0.019955795
209	0xbdf06911	-0.1173879
210	0x3d3f284b	0.046669286
211	0xba9fce6d	-0.0012192257
212	0x3d5b929a	0.053606607
213	0x3d835c3a	0.06414075
214	0xbd01b30d	-0.031664897
215	0xbc6305f9	-0.013856404
216	0x3d139212	0.036027975
217	0xbdf91985	-0.121630706
218	0xbe0d1d68	-0.13780749
219	0x3cca6c20	0.024709761
220	0x3c9ebcb7	0.019377096
221	0x3c463cdb	0.01209947
222	0x3d02a0ea	0.03189174
223	0xbb558a39	-0.0032583608
224	0xbd56c77c	-0.052436337
225	0x3d049237	0.032366004
226	0xbdfae4f3	-0.122507
227	0xbe4b7c2d	-0.19871588
228	0xbc37a735	-0.011209299
229	0xbc58df87	-0.013236887
230	0x3ca3d99d	0.020001227
231	0x3b1c52e4	0.0023853118
232	0xbd49b96c	-0.049249098
233	0xbd05b27f	-0.03264093
234	0x3c3f7227	0.011684931
235	0xbdfd9412	-0.12381758
236	0xbda620d6	-0.08111732
237	0x3ccd08c1	0.025028588
238	0xbdbbd2da	-0.09171076
239	0xbd21f38b	-0.0395389
240	0x3d87824f	0.06616651
241	0xbd149e97	-0.036284056
242	0xbd4c3590	-0.04985577
243	0x3da22ced	0.07918725
244	0xbe380534	-0.17970735
245	0xbc8debf4	-0.017324425
246	0x3cd991fd	0.02655887
247	0xbd05f24c	-0.032701775
248	0x3d713462	0.058887847
249	0x3d9b8477	0.07593625
250	0x3cb5d98e	0.022198465
251	0x3c8a1dfc	0.01686
252	0xbc687314	-0.014187593
253	0x3c9c24a3	0.019060438
254	0xbcdfee87	-0.027335418
255	0xbd3c8758	-0.04602751

cnn.convolutions.4.bias f4 [32]
0	0x3db6bf74	0.089232355
1	0x3982af32	0.00024926063
2	0x3d8e6393	0.06952586
3	0x3ddaeb6b	0.10689434
4	0xbdc972a4	-0.09836319
5	0x3ded3475	0.11582271
6	0x3c61a9ba	0.013773376
7	0xbc75807d	-0.014984247
8	0xbcdc95c4	-0.026926883
9	0xbd3cd480	-0.046101093
10	0xbdce4853	-0.100723885
11	0xba3b865b	-0.00071535044
12	0x3e154511	0.14577128
13	0xbb3e3bfa	-0.0029027448
14	0x3d1b328b	0.03789
15	0xbd3a2e5e	-0.045454375
16	0x3cb75633	0.02237997
17	0x3dabc274	0.08386698
18	0xbba9fab0	-0.005187355
19	0xbd198357	-0.03747877
20	0xbd8eaddd	-0.069667555
21	0x3dff8f2c	0.1247848
22	0xbdab2f1f	-0.08358597
23	0x3d120a93	0.035654616
24	0xbdce305f	-0.1006782
25	0xbdb2cad9	-0.08730096
26	0x3d23ec9d	0.040020574
27	0x3bc4afa7	0.0060023847
28	0x3d33b7d8	0.0438765
29	0xbc1dc122	-0.009628566
30	0xbd64086f	-0.055672105
31	0x3cc63472	0.02419493

cnn.convolutions.6.weight f4 [32]
0	0x3f71e46f	0.94489187
1	0x3f73d65a	0.9524895
2	0x3f6d4000	0.9267578
3	0x3f7dca08	0.991364
4	0x3f7301fd	0.9492491
5	0x3f6e0b48	0.92985964
6	0x3f6d946e	0.9280461
7	0x3f6fd2b3	0.93680876
8	0x3f5eda6f	0.87052053
9	0x3f744425	0.9541648
10	0x3f704689	0.9385763
11	0x3f6588c8	0.89661837
12	0x3f691f4a	0.9106337
13	0x3f7b3641	0.9812966
14	0x3f6c9533	0.9241516
15	0x3f6fb9f3	0.9364311
16	0x3f70cbda	0.9406105
17	0x3f70a0be	0.93995273
18	0x3f787129	0.9704767
19	0x3f76b196	0.96364725
20	0x3f6a84f1	0.916091
21	0x3f778ed3	0.9670231
22	0x3f6e6919	0.93129116
23	0x3f6bae0e	0.9206246
24	0x3f7ac53d	0.9795721
25	0x3f6d171a	0.92613375
26	0x3f6c1c39	0.92230564
27	0x3f73c668	0.9522462
28	0x3f6eedae	0.9333142
29	0x3f6df331	0.92949206
30	0x3f6d505b	0.9270074
31	0x3f6f4052	0.9345752

cnn.convolutions.6.bias f4 [32]
0	0xbd0c7fb1	-0.034301464
1	0xbccbb613	-0.024867093
2	0x3bd2925f	0.00642614
3	0xbcc6a363	-0.02424783
4	0x3c5f745d	0.013638583
5	0x3ccd806b	0.025085649
6	0x3c82956f	0.015940396
7	0xbc7e220c	-0.015511047
8	0x3c9ba312	0.018998656
9	0x3952806f	0.00020075006
10	0x3cbacd22	0.022802893
11	0x3a4c7b28	0.0007800334
12	0x3b13868e	0.002251062
13	0xbd0cc61c	-0.03436862
14	0x3d3d00ec	0.046143457
15	0xbc1988d8	-0.009371005
16	0xbd08ab0f	-0.03336626
17	0x3bc65f50	0.0060538426
18	0x3c77569a	0.015096331
19	0x381ecdcb	3.7861795e-05
20	0xbcafde60	-0.021468341
21	0xbd0179e6	-0.031610392
22	0xbc1a181c	-0.009405162
23	0xbb056c33	-0.0020358681
24	0xbce35449	-0.027750151
25	0x3d2cf33a	0.042224146
26	0xbbee4654	-0.0072715674
27	0xbd3f8fd8	-0.04676804
28	0xbd4b7375	-0.049670655
29	0x3d06ec17	0.032939997
30	0x3cd7a659	0.026324438
31	0xbcb4e7c6	-0.022083174

cnn.convolutions.6.running_mean f4 [32]
0	0x3e9e3bbc	0.3090495
1	0x3dae53e6	0.08512096
2	0x3e2c1d2e	0.16808006
3	0x3e6c39cb	0.23068921
4	0x3d8a5d65	0.06756095
5	0x3e4583e1	0.19288589
6	0x3dc50298	0.09619635
7	0x3da8cce1	0.082422026
8	0x3dc2d9ab	0.09514173
9	0x3da2fc43	0.07958271
10	0x3d2f51e2	0.0428027
11	0x3d883977	0.066515855
12	0x3e200cdb	0.15629904
13	0x3d947e7a	0.07250686
14	0x3ded358d	0.115824796
15	0x3d371bd2	0.044704266
16	0x3d8f5b22	0.06999804
17	0x3debb7d7	0.11509674
18	0x3d6a4670	0.05719608
19	0x3d82a0f8	0.063783586
20	0x3d402e5b	0.046919208
21	0x3e6861cb	0.22693555
22	0x3d54da6f	0.051966127
23	0x3e0ede4b	0.13951986
24	0x3d91b6a7	0.07114916
25	0x3d80e6a7	0.062939934
26	0x3e43d10c	0.19122714
27	0x3dcaad30	0.09896314
28	0x3e27fbc2	0.16404632
29	0x3dda0e87	0.10647302
30	0x3d4c36a5	0.0498568
31	0x3def8976	0.116961405

cnn.convolutions.6.running_var f4 [32]
0	0x3d1fb7c0	0.038993597
1	0x3d9b82b3	0.07593288
2	0x3ca0f2df	0.01964706
3	0x3dd953e5	0.10611705
4	0x3d9fcb5c	0.078024596
5	0x3de49013	0.111602925
6	0x3defe3df	0.11713385
7	0x3d93b635	0.072124876
8	0x3e93c6f2	0.2886272
9	0x3d800bbe	0.0625224
10	0x3e841954	0.25800574
11	0x3e6ebc0b	0.2331392
12	0x3e017ebb	0.12646
13	0x3dc59849	0.09648187
14	0x3e8acd1f	0.2710962
15	0x3e4c0688	0.19924366
16	0x3e10c961	0.1413932
17	0x3de35f72	0.11102189
18	0x3e2e73fb	0.1703643
19	0x3ebc7113	0.3680502
20	0x3dd08095	0.10180775
21	0x3db1e0d3	0.0868546
22	0x3d904165	0.07043723
23	0x3f0f58ba	0.5599476
24	0x3e7b53ed	0.24543734
25	0x3e453516	0.19258532
26	0x3df8cae3	0.121480726
27	0x3da9da97	0.08293646
28	0x3d9793f9	0.074012704
29	0x3f0b6479	0.54450184
30	0x3da73f3b	0.08166357
31	0x3eb22865	0.34796444

cnn.convolutions.8.weight f4 [64, 32, 3, 3]
0	0x3ccd02d8	0.02502577
1	0x3da2515e	0.07925676
2	0x3cb083bd	0.021547193
3	0x3d280a4b	0.04102544
4	0x3c4c28af	0.012460872
5	0x3d811b94	0.06304088
6	0x3d6e053c	0.05811046
7	0x3c7c40d4	0.015396316
8	0xba51f44d	-0.0008009121
9	0xbd3699da	-0.044580318
10	0xbc66b37e	-0.01408088
11	0xbc08b315	-0.008343478
12	0x3d16f2cb	0.03685264
13	0x3d5fe7b8	0.054664344
14	0x3c826300	0.015916348
15	0x3c8278a5	0.015926668
16	0x3cff37c3	0.031154519
17	0xbd0bafa5	-0.034103055
18	0x3be97853	0.0071249395
19	0xbd2c4dd4	-0.04206641
20	0xbc9f4402	-0.019441608
21	0xbd46cd45	-0.048535604
22	0xbd8298fb	-0.06376835
23	0x3c3edb53	0.011648971
24	0x3cca93a9	0.024728613
25	0xbcb5a4ef	-0.022173373
26	0xbd5460e4	-0.051850215
27	0xbc92f436	-0.017938714
28	0x3c03b620	0.008039027
29	0x3ca80f1c	0.020515017
30	0xbd1a35c3	-0.037648927
31	0xbae58565	-0.0017511068
32	0x3c4217b0	0.011846468
33	0xbccd4ce9	-0.025061088
34	0xbd4bc191	-0.049745146
35	0x3c466baf	0.012110635
36	0x3c17f7bb	0.009275372
37	0xbd34e035	-0.044159133
38	0xbcb7deda	-0.022445131
39	0xbd308446	-0.043094896
40	0x3d43b9d0	0.047784626
41	0xbca89fe4	-0.020584054
42	0xbc1afffe	-0.009460447
43	0x3c95ef73	0.018302655
44	0xbd9d6eb6	-0.07687132
45	0xbd9f6a17	-0.07783907
46	0x3cf96543	0.030443793
47	0x3d378107	0.044800784
48	0x3d39662a	0.045263447
49	0x3d45583e	0.048179857
50	0xbb60da83	-0.003430993
51	0x3c8e28a5	0.017353365
52	0xbd95aa0f	-0.07307827
53	0x3cbe254c	0.023211144
54	0x3c726bbe	0.014796196
55	0xbd08b2c1	-0.033373598
56	0x3c7fca5c	0.015612211
57	0x3cd81598	0.026377484
58	0xbd91f780	-0.07127285
59	0x3c858a2f	0.016301243
60	0x3d8d6a7f	0.06905078
61	0xbcf7ed8a	-0.030264635
62	0x3d532486	0.051548503
63	0x3c953542	0.018213872
64	0xbd8adc73	-0.067803286
65	0xbca339f2	-0.019925091
66	0xbd3c361d	-0.045950044
67	0xbdb32129	-0.08746559
68	0xbcbec181	-0.02328563
69	0x3c5232e8	0.01282952
70	0xbd5cd6e8	-0.053915888
71	0xbd7dbd37	-0.061948027
72	0xbca993c3	-0.020700341
73	0xbc1b86bb	-0.0094925715
74	0x3ca64876	0.020298224
75	0x3c447b31	0.011992262
76	0x3a7b0a48	0.0009576422
77	0xbd45c086	-0.048279308
78	0x3cf42069	0.02980061
79	0xbd0f2645	-0.034948606
80	0x3c87dfeb	0.016586265
81	0x3cb75854	0.022380985
82	0x3c243f97	0.010024927
83	0x3bca50b0	0.0061741695
84	0xbcd99ae1	-0.02656311
85	0xbc4c5fa4	-0.012473974
86	0xbd37d9c2	-0.044885404
87	0xbcce6dd0	-0.025198847
88	0x3d2aed16	0.04173001
89	0x3ce1bca0	0.027555764
90	0xbc164a98	-0.009173058
91	0x3c89652b	0.016771873
92	0xbd167f15	-0.03674229
93	0x3b721ee1	0.0036944675
94	0xbd58aecb	-0.05290107
95	0xbd0bcb6a	-0.034129538
96	0x3d57d04d	0.052688885
97	0xbcb1b277	-0.021691544
98	0xbd9434f4	-0.072366625
99	0x3c977340	0.018487573
100	0xbd7cd6c4	-0.061728254
101	0xbd03e951	-0.03220493
102	0xbb0f7e74	-0.002189544
103	0x3caa12db	0.020760944
104	0xbc891dfa	-0.016737927
105	0x3c9acff5	0.01889799
106	0xbc656705	-0.014001613
107	0x3cfc8d5f	0.03082913
108	0x3ba0ff8a	0.004913275
109	0x3d0d339d	0.03447305
110	0xbd11529b	-0.03547917
111	0xbd85ef8b	-0.0653983
112	0x3befa84c	0.0073137637
113	0x3cb6cdbd	0.0223149
114	0xbbab7890	-0.005232878
115	0x3cd56487	0.026048912
116	0xbd87b047	-0.06625419
117	0x3ca2f712	0.019893203
118	0x3d4ee81a	0.050514318
119	0x3cec896b	0.02887412
120	0x3c238a8b	0.009981762
121	0x3c960f52	0.018317852
122	0x3c736c82	0.014857413
123	0x3d9b18c3	0.07573082
124	0x3baf5758	0.0053509884
125	0xbd3e2c92	-0.046429224
126	0xbd96058b	-0.07325276
127	0xbd740c1e	-0.05958187
128	0x3d559638	0.052145213
129	0x3d20d611	0.03926665
130	0xbcb9a35d	-0.022660905
131	0x3cb75900	0.022381306
132	0xbb6b3092	-0.0035887104
133	0x3b9c1a59	0.004763883
134	0x3d2a9ebf	0.0416553
135	0xbcea6416	-0.028612178
136	0xbc9d56c7	-0.019206418
137	0x3c85632f	0.016282646
138	0x3c46c90f	0.012132897
139	0x3bef05e2	0.0072944025
140	0xbda823b8	-0.08209938
141	0xbc194eee	-0.009357197
142	0xbd5c28e2	-0.053749926
143	0xbd873b59	-0.066031165
144	0xbd7645ed	-0.06012528
145	0xbd2a45da	-0.041570522
146	0x3d22f044	0.039779916
147	0x398da2ae	0.00027014822
148	0x3c462465	0.012093638
149	0x3d0bddc2	0.03414703
150	0x3d2fcc44	0.042919412
151	0xbd46f678	-0.048574895
152	0x3c755e2a	0.014976064
153	0xbe0212cf	-0.12702487
154	0x3d0126c6	0.031531118
155	0xbcaf301c	-0.021385245
156	0xbcc9f384	-0.02465225
157	0x3d41f596	0.04735335
158	0x3cad19b0	0.021130413
159	0xbb3f18cf	-0.0029159074
160	0x3bdc749a	0.006727767
161	0xbc8cf998	-0.01720886
162	0x3cfbd1a4	0.030739613
163	0xb9c3a23e	-0.00037314178
164	0x3cf587cb	0.029971978
165	0x3c9f863c	0.019473188
166	0xbc978487	-0.018495811
167	0xbd0f1d96	-0.034940325
168	0xbcb24ba1	-0.021764578
169	0x3cf14306	0.029450905
170	0xbc12fa23	-0.00897077
171	0x3c371e5b	0.011176671
172	0xbbaec974	-0.0053340737
173	0xbdce08d6	-0.10060279
174	0x3c2cec41	0.010554374
175	0x3c43fcfc	0.011962172
176	0x3d23eb9e	0.040019624
177	0xba48ac4c	-0.0007655069
178	0x3d271e3d	0.04080032
179	0x3bc2cab4	0.0059445743
180	0x3cde2891	0.027118953
181	0xbd83e64e	-0.064404115
182	0xbbd8f0a7	-0.006620485
183	0xbcd72045	-0.026260504
184	0xbd0ccbfc	-0.034374222
185	0x3d4476df	0.047964927
186	0x3c61986c	0.01376925
187	0x3b880151	0.0041505476
188	0x3d0c88bb	0.034310084
189	0x3cffc814	0.031223334
190	0xbd2263b1	-0.039645854
191	0x3d1df684	0.038565174
192	0xbdb59cf4	-0.08867827
193	0xbd3ff5e2	-0.04686535
194	0xbd28c4d5	-0.04120334
195	0x3da1a9ad	0.07893691
196	0xbc52f227	-0.012875116
197	0xbca9190e	-0.02064183
198	0xbd475350	-0.048663437
199	0x3ce678f4	0.028133847
200	0x3cf0e5b1	0.0294064
201	0x3d875f97	0.06610029
202	0x3cb9d106	0.022682678
203	0x3c96dccb	0.01841583
204	0xbd4e739f	-0.050403234
205	0x3d7305e6	0.059331797
206	0x3d381564	0.044942275
207	0x3b8e162a	0.0043361383
208	0xbcfe906b	-0.031074723
209	0x3d31a52b	0.043370407
210	0xbca7cd98	-0.020483777
211	0x3ced073c	0.028934114
212	0x3d3b6e83	0.04575969
213	0x3d52cd21	0.051465157
214	0xbc437ecd	-0.011932087
215	0x3c9984de	0.018740114
216	0xbc468a60	-0.012117952
217	0xbc5da6c4	-0.01352853
218	0xbcde3115	-0.027123014
219	0xbd2116f1	-0.03932852
220	0xbd74d680	-0.059774876
221	0xbd98e016	-0.07464616
222	0xbd9dab99	-0.07698745
223	0xbd0f133e	-0.03493046
224	0x3cad440f	0.021150617
225	0xbc8b690c	-0.017017864
226	0xbc096664	-0.008386228
227	0xbd3b2c03	-0.04569627
228	0x3d3229e1	0.04349697
229	0x3c05b41d	0.008160618
230	0xbd036f3c	-0.032088503
231	0xbd0d9840	-0.034569025
232	0xbcf578b8	-0.02996479
233	0xbd7d4538	-0.06183359
234	0x3c2aeb1e	0.010432033
235	0x3c6ecea6	0.014575636
236	0x3bbde936	0.005795623
237	0xbc68eec1	-0.01421708
238	0x3c564f82	0.01308048
239	0xbc2153e8	-0.009846665
240	0x3c90cf68	0.017677024
241	0x3ca91ec0	0.020644546
242	0xbc6c4da8	-0.014422812
243	0xbd062289	-0.03274778
244	0x3b92dce2	0.0044818977
245	0xbd5d0130	-0.05395621
246	0xbd6d3a68	-0.05791703
247	0x3bb5cf90	0.005548425
248	0xbd31b6c2	-0.043387182
249	0xbdae9785	-0.08524994
250	0xbdb16df5	-0.08663551
251	0xbb7c15f8	-0.0038465243
252	0xbd1dc62a	-0.038519062
253	0xbc92f56d	-0.017939294
254	0xbd66ee77	-0.05637976
255	0x3d0ec66d	0.034857202

cnn.convolutions.8.bias f4 [64]
0	0x3da655a9	0.08121807
1	0x3d3c2648	0.045934945
2	0xbd408403	-0.047000896
3	0x3c9c7bf5	0.019102076
4	0xbbaf3bb6	-0.0053476943
5	0xbcf16cf4	-0.029470898
6	0xbd4e5b62	-0.05038012
7	0x3dabf681	0.08396626
8	0xbd6beb72	-0.057597585
9	0x3d8e9583	0.06962111
10	0xbc9f7f0c	-0.01946976
11	0xbc689620	-0.014195949
12	0x3d8688de	0.06569074
13	0xbcb8742c	-0.022516333
14	0x3d70d7f7	0.05879971
15	0x3cfe0b4f	0.031011252
16	0xbc894335	-0.01675568
17	0x3c0bdf7d	0.0085371705
18	0xbd8aacac	-0.06771216
19	0x3c939917	0.018017335
20	0x3d5c52ea	0.05379001
21	0x3cdf5d5d	0.027266199
22	0x3bdcda25	0.006739872
23	0x3a9cf85f	0.0011975876
24	0xbd252761	-0.040320758
25	0xbc43e7c5	-0.011957114
26	0x3d023e6e	0.03179782
27	0x3bacf891	0.005278655
28	0x3c865587	0.016398204
29	0x3c1554ff	0.009114503
30	0x3ceff336	0.029290777
31	0xbd189323	-0.037249696
32	0x3c1036b0	0.008802101
33	0x3bb4b609	0.0055148643
34	0x3d0ca34e	0.034335427
35	0xbcf38273	-0.029725289
36	0x3d39d9c7	0.045373704
37	0x3d82b090	0.06381333
38	0xbd81504d	-0.06314144
39	0x3b09f92a	0.0021053054
40	0xbd574654	-0.052557305
41	0xbbea2af0	-0.007146232
42	0xba549527	-0.00081093836
43	0x3d795de2	0.06088055
44	0xbc834764	-0.016025253
45	0xbcf90b71	-0.030400964
46	0x3cac6faf	0.021049349
47	0x3d70d509	0.058796916
48	0x3d4aec1b	0.049541574
49	0x3d5491f1	0.051896993
50	0xbc122ab8	-0.008921318
51	0xbb82f5bf	-0.0039965804
52	0x3d571c60	0.052517295
53	0x3c989d85	0.018629799
54	0x3dc2acc8	0.09505612
55	0xbc8dd8cf	-0.017315296
56	0x3d2fd437	0.042926993
57	0xbc895c38	-0.016767606
58	0xbbd8ccc2	-0.006616206
59	0x3d3abe48	0.045591623
60	0xbc627ef8	-0.013824217
61	0x3c674177	0.014114729
62	0x3d4a85ba	0.049443938
63	0xbc1c3691	-0.009534494

cnn.convolutions.10.weight f4 [64]
0	0x3f61f0bf	0.88257974
1	0x3f6511ab	0.89480084
2	0x3f68ec82	0.9098588
3	0x3f572d45	0.8405345
4	0x3f62e28b	0.8862693
5	0x3f6e60e4	0.93116593
6	0x3f5d1571	0.8636084
7	0x3f631c69	0.88715225
8	0x3f660838	0.8985629
9	0x3f5e585b	0.8685357
10	0x3f504888	0.81360674
11	0x3f44d3ca	0.76885664
12	0x3f57f6f2	0.84361184
13	0x3f5c347d	0.8601759
14	0x3f6a228b	0.9145896
15	0x3f6707dc	0.9024637
16	0x3f646286	0.89212835
17	0x3f615419	0.8801895
18	0x3f583896	0.84461343
19	0x3f5b8196	0.8574461
20	0x3f5cd65c	0.86264586
21	0x3f5c4e4e	0.86056983
22	0x3f6621c4	0.8989527
23	0x3f5ee75a	0.87071764
24	0x3f53a631	0.8267546
25	0x3f5cb712	0.86216843
26	0x3f5a72af	0.85331243
27	0x3f54ef09	0.8317724
28	0x3f6c099c	0.9220216
29	0x3f67adf1	0.9049979
30	0x3f643899	0.8914886
31	0x3f5bc74c	0.8585098
32	0x3f7108e0	0.9415417
33	0x3f85a08c	1.043962
34	0x3f5aa024	0.85400605
35	0x3f49cf13	0.78831595
36	0x3f5843f6	0.844787
37	0x3f59a5a5	0.8501838
38	0x3f6902a0	0.9101963
39	0x3f515171	0.81764895
40	0x3f8631f6	1.0483997
41	0x3f538bbb	0.82635087
42	0x3f7be3f2	0.9839469
43	0x3f4bde27	0.7963585
44	0x3f5af2c8	0.85526705
45	0x3f5eecc9	0.87080055
46	0x3f5ea638	0.8697238
47	0x3f5a7790	0.8533869
48	0x3f5f6e6b	0.8727786
49	0x3f502121	0.8130055
50	0x3f540d4e	0.828328
51	0x3f6c6396	0.92339456
52	0x3f70b5d7	0.94027466
53	0x3f6156fc	0.8802335
54	0x3f6fac27	0.9362206
55	0x3f60ef01	0.8786469
56	0x3f54ef9b	0.8317811
57	0x3f5e4c29	0.8683496
58	0x3f5622fc	0.8364713
59	0x3f5a201b	0.8520524
60	0x3f67e1b2	0.9057876
61	0x3f81a264	1.0127683
62	0x3f5f5879	0.87244374
63	0x3f686195	0.907739

cnn.convolutions.10.bias f4 [64]
0	0xbc63f2d2	-0.013912873
1	0xbce71f54	-0.02821318
2	0xbc38cd3b	-0.0112793995
3	0xbcd0ff13	-0.025512254
4	0x3c918a8a	0.017766256
5	0xbccafbd7	-0.02477829
6	0xbcdf5db9	-0.02726637
7	0xbcbe4dfc	-0.023230545
8	0xbcba997a	-0.022778261
9	0xbd2f8142	-0.04284788
10	0x3bcd510d	0.0062657655
11	0xba9889d2	-0.0011637753
12	0xbbd4a205	-0.006489041
13	0x3bbfecfc	0.005857108
14	0xbd468aed	-0.048472334
15	0xbce9ca46	-0.028538834
16	0xbc92ffea	-0.017944295
17	0xbcab3baf	-0.020902483
18	0x3c330003	0.010925296
19	0xbbaca707	-0.0052689346
20	0xbc08fd1a	-0.008361125
21	0xbbfb22ce	-0.007664061
22	0xbd0ea87e	-0.034828655
23	0xbbf1536e	-0.007364682
24	0x3c539a13	0.012915152
25	0xbcaaa5d2	-0.020831022
26	0xbb3d03e5	-0.0028841433
27	0xbac224b9	-0.001481197
28	0xbce54ab6	-0.027989727
29	0x3b7358cd	0.0037131787
30	0xbc847530	-0.01616916
31	0xba8f0aa6	-0.0010913208
32	0xbcba1000	-0.022712708
33	0x3bce68c2	0.006299109
34	0x3b882352	0.004154601
35	0xbc0c1620	-0.008550197
36	0xbba92c6c	-0.005162766
37	0xbcde0ed9	-0.02710669
38	0xbcbc549d	-0.022989566
39	0xbc30f072	-0.010799514
40	0xbcb9a9f8	-0.022664055
41	0xbc4189b5	-0.011812617
42	0xbbb097e7	-0.005389202
43	0xbafa73b2	-0.0019107966
44	0x3c340a54	0.010988791
45	0xbc3576dd	-0.0110757025
46	0x3b827c5c	0.00398211
47	0x3b969505	0.004595401
48	0x3a9934af	0.0011688675
49	0xbc980d81	-0.018561127
50	0x3be216d6	0.006899695
51	0xbc4b56a0	-0.01241079
52	0xbc2bf890	-0.010496274
53	0x375dbd38	1.3216682e-05
54	0xbd048d36	-0.03236123
55	0xbc969c8c	-0.018385194
56	0xbb34af20	-0.0027570203
57	0xbcfd1093	-0.030891692
58	0xbc95022b	-0.01818951
59	0xbc705cf5	-0.0146706
60	0xbc5300ed	-0.012878639
61	0xbcc9ab22	-0.024617735
62	0xbcdfe56a	-0.027331073
63	0x3c88f59a	0.016718674

cnn.convolutions.10.running_mean f4 [64]
0	0x3e3eccc7	0.18632804
1	0x3e011af2	0.12607935
2	0x3db67b84	0.089102775
3	0x3e19dd25	0.15025766
4	0x3d7ed3f3	0.06221385
5	0x3d9fd530	0.07804334
6	0x3e06a12b	0.13147418
7	0x3df58c6e	0.119896755
8	0x3d2f93fb	0.042865735
9	0x3e2a4c3e	0.16630647
10	0x3dd6f38a	0.1049567
11	0x3e3e1d90	0.18565965
12	0x3dd9dde9	0.10638029
13	0x3deb21ec	0.114810795
14	0x3e0ea87b	0.13931458
15	0x3dde7d2e	0.1086372
16	0x3dae69b7	0.08516257
17	0x3de2525c	0.11050865
18	0x3db51bbe	0.08843182
19	0x3db9c496	0.09070699
20	0x3e08f42e	0.13374397
21	0x3e652cb9	0.22380342
22	0x3df765fb	0.12079998
23	0x3d986b55	0.07442347
24	0x3d9e4fbf	0.07730054
25	0x3de4fc63	0.111809514
26	0x3df12508	0.11774641
27	0x3df865dc	0.12128803
28	0x3e042f18	0.1290859
29	0x3dbdb1bd	0.092624165
30	0x3df8646e	0.121285304
31	0x3d4fbaaa	0.050715126
32	0x3e026af2	0.12736109
33	0x3e54e77b	0.20791428
34	0x3dd20ef3	0.102567576
35	0x3df7fb21	0.12108446
36	0x3e322378	0.17396343
37	0x3e26cd5d	0.16289277
38	0x3d5c01be	0.0537126
39	0x3e16f66d	0.14742441
40	0x3df68484	0.12036994
41	0x3e09a7e3	0.1344295
42	0x3e1cd4f9	0.15315618
43	0x3e078e06	0.13237771
44	0x3df20c9b	0.118188106
45	0x3da1ec90	0.07906449
46	0x3dfd7411	0.123756535
47	0x3e07a03d	0.1324472
48	0x3df6db0b	0.12053498
49	0x3dcc8c5e	0.099877104
50	0x3d5d4f89	0.05403093
51	0x3d8e159c	0.069377154
52	0x3e0bd5d1	0.13655783
53	0x3d9332ff	0.07187461
54	0x3e3b7b44	0.18308741
55	0x3e005ec0	0.12536144
56	0x3def4ee8	0.11684972
57	0x3dd90fc2	0.10598709
58	0x3d9bd334	0.07608643
59	0x3e1dcb82	0.15409663
60	0x3e034e63	0.12822871
61	0x3e3e32fa	0.18574134
62	0x3e19fb41	0.15037252
63	0x3e11493e	0.14188096

cnn.convolutions.10.running_var f4 [64]
0	0x3d8cc884	0.06874183
1	0x3de38554	0.11109415
2	0x3d894705	0.06702999
3	0x3df40679	0.11915297
4	0x3d053141	0.032517675
5	0x3dc3db24	0.09563282
6	0x3df736da	0.12071009
7	0x3d95977b	0.07304283
8	0x3dbaad78	0.09115118
9	0x3d49fac6	0.04931142
10	0x3e25ec04	0.16203314
11	0x3f06336a	0.524222
12	0x3e2b2738	0.1671418
13	0x3e902a8b	0.28157458
14	0x3d8e4118	0.069460094
15	0x3d8485da	0.06470843
16	0x3e1b5c24	0.15171868
17	0x3d48b90d	0.049004603
18	0x3e1cbf8c	0.15307444
19	0x3d9aa3e7	0.07550793
20	0x3d719ee4	0.05898942
21	0x3f09d41f	0.53839296
22	0x3e2fab96	0.17155299
23	0x3e12e587	0.1434537
24	0x3d8c196c	0.06840786
25	0x3dd763bd	0.105170704
26	0x3e3388e8	0.17532694
27	0x3e52209f	0.20520256
28	0x3d2a7099	0.041611288
29	0x3dc56d25	0.09639958
30	0x3cebd168	0.028786376
31	0x3d8f5bbd	0.069999196
32	0x3d82c096	0.06384389
33	0x3d4c6f6b	0.049910944
34	0x3df035d4	0.11729017
35	0x3e27fc00	0.16404724
36	0x3eacb792	0.33733803
37	0x3dd0bfc5	0.10192827
38	0x3db63375	0.088965334
39	0x3e8def49	0.27721623
40	0x3d8a33ca	0.06748159
41	0x3e80b5f6	0.25138825
42	0x3e0655d6	0.13118681
43	0x3d959e52	0.07305588
44	0x3e13b843	0.14425759
45	0x3e6eef34	0.23333436
46	0x3e0cdc22	0.13755849
47	0x3d28bd64	0.041196242
48	0x3ed2c60a	0.41166717
49	0x3d8de3a2	0.06928183
50	0x3deeb79e	0.11656116
51	0x3dafcaca	0.08583601
52	0x3d32626e	0.0435509
53	0x3da5633c	0.08075568
54	0x3dea75fa	0.114482835
55	0x3db8fc16	0.090324566
56	0x3dd12f09	0.10214049
57	0x3d86acbb	0.065759145
58	0x3dc1eb47	0.09468704
59	0x3db267e3	0.08711221
60	0x3dc2b300	0.09506798
61	0x3d9e1ce0	0.07720351
62	0x3d70bca2	0.058773644
63	0x3e9eb50e	0.3099751

fc.0.weight f4 [128, 1024]
0	0xbba286a3	-0.0049598976
1	0x3cb2579b	0.02177029
2	0x3c128211	0.008942143
3	0xbd274f64	-0.040847197
4	0x3c666286	0.014061576
5	0x3c289ae3	0.010290834
6	0xbd2645bb	-0.040593844
7	0xbb3492e0	-0.0027553365
8	0xbd38bada	-0.04510007
9	0xbcc16d36	-0.023611646
10	0xb9d0f10e	-0.0003985245
11	0xba17c0fe	-0.0005788951
12	0x3ce23c7d	0.027616734
13	0xbcc486cc	-0.023990057
14	0xba4cf734	-0.00078188186
15	0x3cb75fe0	0.022384584
16	0xbcdf8e00	-0.02728939
17	0xbc329a60	-0.010901064
18	0x3ba27a02	0.004958392
19	0x3cc61f78	0.024184927
20	0xbd16cfff	-0.036819454
21	0xbbbea555	-0.005818049
22	0xbbc11aae	-0.005893073
23	0x3cbdb55a	0.023157764
24	0x3d0a0d9c	0.033704385
25	0xbc149526	-0.009068763
26	0x3bf27027	0.0073986235
27	0xbc61e811	-0.013788239
28	0x3c87e4e8	0.016588643
29	0x3c5a7f49	0.013336011
30	0x3cbb4abd	0.022862786
31	0x3c3be7cf	0.011468842
32	0x3c4ee384	0.012627486
33	0xbd51bebc	-0.05120729
34	0xbd2c89a1	-0.04212344
35	0xbbeb46a9	-0.007180054
36	0xbb9d592d	-0.0048018903
37	0xbd18d7ce	-0.037315182
38	0xbd1510fb	-0.036393147
39	0xbcf6fb4d	-0.030149126
40	0xbd0466e9	-0.032324705
41	0xbd415ecd	-0.04720955
42	0xbc87db59	-0.016584085
43	0x3bc5552c	0.006022116
44	0xbcf7d195	-0.030251304
45	0xbcc1df2e	-0.02366599
46	0xbc6cba52	-0.014448719
47	0x3b7920b9	0.003801389
48	0x3b249de6	0.002511853
49	0xbaa96fbe	-0.0012926979
50	0xbbfae6e6	-0.00765692
51	0x3d49093e	0.04908108
52	0x3d0380ab	0.03210513
53	0x3cd385be	0.02582061
54	0x3d03b448	0.03215435
55	0x3a69d091	0.00089193234
56	0x3b14ed97	0.0022724622
57	0x3cda79b7	0.026669366
58	0xbc25d68b	-0.010121952
59	0x3c5270dd	0.0128442915
60	0x3bb58a36	0.0055401577
61	0x3cb52a4e	0.022114899
62	0x3cef1b69	0.029187875
63	0x3cc02604	0.023455627
64	0xbc0d4aa3	-0.008623752
65	0xbcc01542	-0.023447637
66	0xbd269317	-0.04066762
67	0x3c970e28	0.018439367
68	0xbc1138c7	-0.008863634
69	0xbd018fec	-0.031631395
70	0xbce4cfb5	-0.027931074
71	0xbbb493a1	-0.005510763
72	0xbd3ce59f	-0.04611742
73	0xbaca9be5	-0.0015457837
74	0x3a8baf2a	0.0010657061
75	0x3aa29fcc	0.0012407242
76	0xbd787de2	-0.060666926
77	0xbd07a14d	-0.033112813
78	0xbc9edd42	-0.019392613
79	0x3bce22c4	0.0062907655
80	0xbd52014a	-0.05127076
81	0x3b6d39e4	0.0036197836
82	0x3b994791	0.004677721
83	0xbd072624	-0.032995358
84	0x3bc280cf	0.0059357653
85	0xbc1d27ec	-0.009592038
86	0x3c839d76	0.016066294
87	0xbb4615a6	-0.0030225306
88	0x3ceaee96	0.02867822
89	0xbcf8ed4e	-0.030386593
90	0x3d13f518	0.03612241
91	0xba9423e6	-0.0011302202
92	0xbbd40452	-0.0064702416
93	0xbae8c60f	-0.0017759221
94	0x3c5b6d7d	0.013392803
95	0x3c8af3c4	0.01696194
96	0xba0885c9	-0.0005207924
97	0x3c046602	0.008080961
98	0x3ccb9b6a	0.02485438
99	0x3d3c3b0f	0.04595476
100	0xbc556890	-0.013025418
101	0x3c92a52c	0.017901026
102	0xbbc0c7f5	-0.0058832117
103	0xbc2ee8c1	-0.01067561
104	0x3d260bb1	0.040538494
105	0xbc81d22b	-0.015847286
106	0xbcd217a4	-0.025646038
107	0x3bfb74d4	0.007673839
108	0xbcb6e6fd	-0.02232694
109	0xbbf9a252	-0.007618227
110	0x3ce7bf11	0.02828935
111	0x3bb91b67	0.0056490186
112	0x3c8d7ef8	0.017272457
113	0xbc4d610f	-0.012535348
114	0x3c15f0ab	0.009151618
115	0x3c44a2f2	0.01200174
116	0xbbc1412d	-0.005897662
117	0x3d07777d	0.033072937
118	0xbd0d8946	-0.034554742
119	0x3ce14100	0.027496815
120	0xbd06ae4f	-0.032881077
121	0x3bce9e91	0.0063055237
122	0x3d5cd8fc	0.05391787
123	0x3cb5b173	0.022179341
124	0x3c1ea5ae	0.009683056
125	0x3cde81b7	0.027161462
126	0x3cd212fc	0.025643818
127	0xbc6981f7	-0.014252177
128	0xbca0774c	-0.019588135
129	0xbc2900b4	-0.010315109
130	0x3b961158	0.0045797043
131	0x3c13a7b6	0.009012153
132	0x3c3de15d	0.011589375
133	0x3ce36b4f	0.02776113
134	0x3c748a66	0.014925575
135	0x3c3eef8d	0.011653793
136	0x3d26a550	0.040684998
137	0xbc8c5f00	-0.017135143
138	0x3c1fdeca	0.009757707
139	0x3c49f326	0.0123260375
140	0xbc2bdeda	-0.010490144
141	0xbc15e5f5	-0.009149064
142	0x3b04694e	0.0020204368
143	0x3ca32d9f	0.019919215
144	0xbd3e1075	-0.046402413
145	0x3d5e77f5	0.05431362
146	0x3c1343ed	0.008988363
147	0x3cdbb857	0.026821299
148	0x3cc6a222	0.024247233
149	0x3caa58af	0.02079424
150	0x3c65fb9c	0.014037039
151	0x3d20ac5e	0.039226882
152	0x3cb8eda1	0.022574248
153	0x3d1e6405	0.038669605
154	0x3d39e817	0.045387354
155	0x3cb067e4	0.021533914
156	0x3d2ee612	0.04269988
157	0x3c7d9a9f	0.015478759
158	0x3d14f358	0.036364883
159	0x3d659f28	0.056059986
160	0xbca0bf7c	-0.019622557
161	0xbc8bf74a	-0.01708569
162	0xbd56d9ec	-0.05245392
163	0x3c6c8ac3	0.01443738
164	0xbc390905	-0.011293654
165	0xbc3fb6eb	-0.011701326
166	0x3c5875b0	0.013211653
167	0xbb089869	-0.0020842797
168	0x3d0c1c1a	0.034206487
169	0xbc5a2234	-0.013313819
170	0xbd2f89df	-0.042856093
171	0xbd119492	-0.03554208
172	0xbcfc9b44	-0.030835755
173	0xbcd671f1	-0.026177378
174	0xbd051059	-0.032486293
175	0xbcaa1473	-0.020761704
176	0x3c3a08be	0.011354623
177	0xbc6256c9	-0.0138146365
178	0xbd2b3897	-0.041802015
179	0xb7a22bf7	-1.9332378e-05
180	0xbc7fd727	-0.015615261
181	0x3c27c70c	0.010240328
182	0x3d258b28	0.040415913
183	0xbcc8846a	-0.024477202
184	0xbc8fdb1c	-0.017560534
185	0x3c66d855	0.0140896635
186	0xbd3bee06	-0.045881294
187	0xbce2d2a3	-0.02768833
188	0xbbc14f64	-0.0058993567
189	0xbba950c6	-0.0051670996
190	0xbb6a72af	-0.0035773923
191	0xbd1bc363	-0.038028132
192	0xbce37354	-0.027764954
193	0xbcb0893b	-0.021549812
194	0xbcc9791e	-0.024593886
195	0x3ce0d39c	0.027444653
196	0xbc7271ea	-0.014797667
197	0xbc9e634b	-0.019334456
198	0x3cb663a7	0.022264315
199	0xbd372230	-0.044710338
200	0x3b8cc589	0.004296009
201	0xbc8b9285	-0.01703764
202	0x3c1b660b	0.009484778
203	0xbd2327a1	-0.039832715
204	0x3cccb754	0.024989761
205	0xbc911578	-0.017710432
206	0xbd5a8167	-0.053346064
207	0xbd3d47f1	-0.046211187
208	0xbc138fe4	-0.009006474
209	0xbc5094f8	-0.012730829
210	0x3c1bb1c2	0.00950283
211	0x3c1e9af9	0.009680503
212	0xbbff6aab	-0.0077946982
213	0xbc9d8070	-0.019226283
214	0x3c700d22	0.014651569
215	0xbce55fdc	-0.02799981
216	0xbd273cae	-0.040829353
217	0xbbb0f81b	-0.00540067
218	0xbd3bb5e4	-0.04582776
219	0xbd2d7dcc	-0.042356297
220	0x3cb38ad5	0.021916786
221	0xbc59ebaf	-0.01330082
222	0xbcd551a3	-0.026039904
223	0xbccb4e47	-0.024817599
224	0x3d7ba321	0.06143487
225	0x3c518a24	0.012789283
226	0x3cc7d39e	0.0243929
227	0x3b9baac6	0.0047505824
228	0x3cb4fadd	0.022092277
229	0x3bb450f5	0.005502815
230	0x3c878e0e	0.01654723
231	0x3d1da62a	0.038488545
232	0x3a43b564	0.0007465689
233	0x3c8bcd83	0.017065769
234	0x3c93b5a8	0.018030956
235	0x3ca18ac2	0.019719485
236	0x3c4e67b5	0.012597968
237	0x3cbed667	0.023295594
238	0x3afea1c5	0.0019426873
239	0xba3c064a	-0.0007172568
240	0x3d123410	0.035694182
241	0x3d73878c	0.05945544
242	0x3a8e21e4	0.001084384
243	0x3c9b5b3b	0.0189644
244	0x3cd54d0e	0.02603772
245	0x3cc48cb9	0.023992883
246	0xbcb41fd8	-0.02198784
247	0x3cf5a5f2	0.029986355
248	0xbcc4fd21	-0.024046483
249	0x3c45c5da	0.012071097
250	0x3a86cf1d	0.0010285113
251	0x3bd10e30	0.006379865
252	0xbc2c244c	-0.010506701
253	0x3c37ff6c	0.011230331
254	0x3ce46e0a	0.027884502
255	0xbce19be8	-0.027540162

fc.0.bias f4 [128]
0	0x3b66843d	0.0035174035
1	0xbc1006b5	-0.008790662
2	0x3cb0241a	0.02150159
3	0x3c41ea1f	0.011835604
4	0xbd03f28c	-0.032213733
5	0x3c125426	0.008931195
6	0xbbbaa8bb	-0.005696384
7	0x3d21331a	0.039355375
8	0x3d71569a	0.05892048
9	0x3d116789	0.03549913
10	0x3c927813	0.017879521
11	0xbc982eec	-0.018577062
12	0xbbddddde	-0.0067708334
13	0xbbfdb31a	-0.007742298
14	0x3d705f42	0.058684595
15	0x3cb349d5	0.021885792
16	0x3bea6cfd	0.0071541057
17	0x3bff9dbf	0.007800787
18	0x3c2b8597	0.010468862
19	0x3b8d8f45	0.0043200576
20	0x3ca4a27a	0.020097006
21	0x3cfba41c	0.030717902
22	0xbc25ebc7	-0.0101270145
23	0x3ccde689	0.025134342
24	0x3c647f3b	0.01394635
25	0x3c075308	0.008259542
26	0x3d856137	0.06512683
27	0x3c5340ca	0.012893865
28	0xbc0140c5	-0.007888977
29	0x3a7cb95d	0.00096406584
30	0x3b7959a0	0.0038047805
31	0x3cd0df8d	0.025497222
32	0x3cb8bb26	0.022550177
33	0x3caed56d	0.021342004
34	0x3b9dbd19	0.004813802
35	0x3bebfd4c	0.007201826
36	0x3d9af5a0	0.075663805
37	0xbc879680	-0.016551256
38	0xbc771f22	-0.015083106
39	0xbc478ba0	-0.012179285
40	0xbc292097	-0.010322711
41	0x3c853479	0.016260372
42	0x3c561cb4	0.013068367
43	0xbc7cb6b4	-0.015424419
44	0xbcf752b7	-0.030190809
45	0xbbf605e4	-0.0075080264
46	0xbc5a9c76	-0.013342967
47	0x3a58de44	0.0008272866
48	0xbbeed570	-0.0072886273
49	0x3d14dd7f	0.036344048
50	0x3c407080	0.011745572
51	0xbca1ac8d	-0.019735599
52	0xbcdae5b5	-0.026720861
53	0xbc2d187f	-0.010564922
54	0xbc358c6d	-0.011080843
55	0x3d50e6b6	0.051001273
56	0xbbd09dd4	-0.006366471
57	0x3b8391c4	0.0040151794
58	0xbb4c239c	-0.0031149155
59	0x3acc0e41	0.0015568213
60	0xbc758f6c	-0.014987808
61	0x3bcfebc1	0.0063452427
62	0xbbe85421	-0.007090107
63	0x3cec0d66	0.028814983
64	0x3d2a4e12	0.04157836
65	0xbba9bbcb	-0.0051798574
66	0x3d0f2a92	0.034952708
67	0xbcf02cd5	-0.029318253
68	0xbc3fc3e6	-0.011704421
69	0x3c8166fa	0.015796173
70	0xbcad6dd8	-0.021170542
71	0xbb5775dc	-0.0032876646
72	0x3a6bbc93	0.00089926383
73	0x3c06a73b	0.008218582
74	0x3c99778b	0.01873376
75	0x3ca72968	0.020405486
76	0xbc02e6cd	-0.0079895975
77	0x3cb68985	0.022282371
78	0xbb047916	-0.0020213774
79	0x3cbe793c	0.023251168
80	0x3a8c5da5	0.0010709061
81	0x3c28defb	0.010307069
82	0xbb04c17e	-0.0020256932
83	0x3cc25a5f	0.023724733
84	0xbc863b15	-0.016385594
85	0x3c87260d	0.016497636
86	0xbb9931d7	-0.004675131
87	0x3aa8bd81	0.0012873859
88	0x3caea197	0.021317286
89	0x3d087409	0.033313785
90	0xbbd25f0d	-0.0064200223
91	0xbcb5f25f	-0.022210298
92	0x3cb8dc15	0.02256588
93	0xbc54e051	-0.012992934
94	0xba037515	-0.00050147
95	0xbc377849	-0.011198112
96	0xbc6de521	-0.014519961
97	0xbb0c9535	-0.002145124
98	0x3ce022b6	0.027360301
99	0x3bd0d9e3	0.0063736304
100	0x3cbc8377	0.023011906
101	0x3bcc1a63	0.0062287315
102	0x3c0edef4	0.008720148
103	0xbc1eed4a	-0.009700129
104	0xbc1e72f9	-0.009670966
105	0x3c17b7d9	0.009260141
106	0x3cc13ce7	0.02358861
107	0xbca97168	-0.02068396
108	0xbabecd51	-0.0014557039
109	0x3abae9f6	0.00142604
110	0x3c470f0a	0.012149582
111	0x3c129429	0.008946457
112	0x3c83d083	0.016090637
113	0x3b9e9de5	0.0048406
114	0xbc210c24	-0.009829555
115	0xbc0f172c	-0.008733552
116	0xbb02c0f0	-0.0019951425
117	0x3c4a4d8d	0.012347591
118	0xbb951969	-0.0045501483
119	0x3ccec75a	0.025241543
120	0xbcaf98c1	-0.021435143
121	0xbc669269	-0.014072993
122	0x3a2fe524	0.0006709865
123	0x3b41a81f	0.002954967
124	0x3c0ac11b	0.0084688915
125	0x3b6c45b8	0.0036052298
126	0xbaa6abfb	-0.0012716049
127	0xbc4935c4	-0.012280885

fc.2.weight f4 [128]
0	0x3f7195df	0.9436931
1	0x3f3afccc	0.7304199
2	0x3f3ac9cd	0.72964174
3	0x3f44bf22	0.76854146
4	0x3f5081a1	0.814478
5	0x3f3b6585	0.7320178
6	0x3f41ae84	0.75656915
7	0x3f53107b	0.8244702
8	0x3f5af6b3	0.85532683
9	0x3f5140fc	0.81739783
10	0x3f5b08a7	0.8556008
11	0x3f4ee08a	0.8081137
12	0x3f44ff32	0.769519
13	0x3f3adfae	0.7299756
14	0x3f695a8d	0.91153795
15	0x3f53601d	0.8256853
16	0x3f526dca	0.82198775
17	0x3f37343b	0.7156407
18	0x3f40643a	0.75152934
19	0x3f462e2e	0.77414215
20	0x3f4877f1	0.78308016
21	0x3f4cf28f	0.80057615
22	0x3f3df97c	0.7420881
23	0x3f616dbf	0.88058084
24	0x3f4d77c9	0.802609
25	0x3f6f1837	0.93396324
26	0x3f5d8a23	0.86538905
27	0x3f4e80ab	0.8066508
28	0x3f616a42	0.8805276
29	0x3f448c06	0.7677616
30	0x3f434cb1	0.76288897
31	0x3f68e4fc	0.909744
32	0x3f531ce6	0.8246597
33	0x3f4d1ffe	0.8012694
34	0x3f4978c8	0.7869992
35	0x3f50712d	0.8142269
36	0x3f5e5164	0.8684294
37	0x3f3a2de9	0.72726303
38	0x3f470365	0.77739555
39	0x3f7cc2e3	0.98734874
40	0x3f4ba50a	0.79548705
41	0x3f3ed3a6	0.745417
42	0x3f628f0a	0.8849951
43	0x3f5c3919	0.86024624
44	0x3f5b8097	0.8574309
45	0x3f4ac090	0.7920008
46	0x3f439f3e	0.7641486
47	0x3f33f1ca	0.70290816
48	0x3f3f68ce	0.74769294
49	0x3f6aaa03	0.9166567
50	0x3f30f0ef	0.69117635
51	0x3f43813b	0.76369065
52	0x3f417155	0.75563556
53	0x3f58396b	0.8446261
54	0x3f5515fd	0.83236676
55	0x3f5fbe89	0.8740011
56	0x3f515a82	0.8177873
57	0x3f530a26	0.8243736
58	0x3f33e30d	0.70268327
59	0x3f37f6c2	0.718609
60	0x3f400985	0.75014526
61	0x3f41e4ea	0.7573992
62	0x3f477093	0.7790615
63	0x3f53af63	0.82689494
64	0x3f4ad9d0	0.79238605
65	0x3f3e0dc3	0.7423975
66	0x3f6a5678	0.9153819
67	0x3f4c0895	0.79700595
68	0x3f3ce0ff	0.73780817
69	0x3f54b7a5	0.8309272
70	0x3f4fc039	0.81152683
71	0x3f438d9c	0.76387954
72	0x3f4f4eb0	0.8097944
73	0x3f3b56c3	0.7317926
74	0x3f61785d	0.88074285
75	0x3f461ad8	0.7738471
76	0x3f62e788	0.8863454
77	0x3f6b7106	0.91969335
78	0x3f302989	0.6881338
79	0x3f66284a	0.89905226
80	0x3f42fb7e	0.76164997
81	0x3f39a2be	0.7251395
82	0x3e0645ee	0.13112614
83	0x3f3f361b	0.74691933
84	0x3f40d26f	0.75321096
85	0x3f39456c	0.72371554
86	0x3f62fdaf	0.8866834
87	0x3f2fb129	0.686297
88	0x3f7648c4	0.9620478
89	0x3f4dcb32	0.80388176
90	0x3f452632	0.77011406
91	0x3f479ce4	0.7797377
92	0x3f3e37c3	0.74303836
93	0x3f34f717	0.7068953
94	0x3f3ecfd4	0.7453587
95	0x3f460f4c	0.7736709
96	0x3f454bc0	0.7706871
97	0x3f4a52c7	0.7903256
98	0x3f4fe508	0.8120885
99	0x3f77376f	0.9656896
100	0x3f649d7e	0.89302814
101	0x3f438548	0.76375246
102	0x3f424544	0.7588694
103	0x3f234d5e	0.6378993
104	0x3f429c4c	0.7601974
105	0x3f462c14	0.7741101
106	0x3f4ab12c	0.7917659
107	0x3f12f3ee	0.5740346
108	0x3f4bb74f	0.7957658
109	0x3f4051c9	0.75124794
110	0x3f71ae69	0.94406754
111	0x3f40a6f4	0.7525475
112	0x3f57fa63	0.84366435
113	0x3f437bdb	0.76360863
114	0x3f561236	0.8362154
115	0x3f405c21	0.7514058
116	0x3f735175	0.9504617
117	0x3f3bb480	0.73322296
118	0x3f3a004c	0.72656703
119	0x3f62dda0	0.8861942
120	0x3f4ef9ac	0.8084972
121	0x3f4a39ee	0.78994644
122	0x3f537e46	0.8261455
123	0x3f49671f	0.78672975
124	0x3f42090b	0.7579505
125	0x3f4429e9	0.7662645
126	0x3f41c1ba	0.7568623
127	0x3f4a06f1	0.7891684

fc.2.bias f4 [128]
0	0xbd0892a3	-0.03334297
1	0xbcc5e5ac	-0.024157368
2	0x3d0a9a13	0.033838343
3	0x3d498a96	0.04920443
4	0x3cf1de75	0.029525021
5	0x3d9deecc	0.077115625
6	0xbb6fa71a	-0.0036568106
7	0x3d495faa	0.049163498
8	0x3d407577	0.046987023
9	0x3cbd20a5	0.023086855
10	0x3de139a5	0.10997323
11	0xbda9cc46	-0.08290915
12	0x3d02ce6c	0.03193514
13	0xbd6d001e	-0.05786144
14	0x3d4cde47	0.050016668
15	0xbcd23e11	-0.025664361
16	0xbce71192	-0.02820662
17	0x3db66ff6	0.089080736
18	0x3d109c67	0.035305407
19	0x3d11ce2e	0.03559702
20	0xbd218369	-0.039431963
21	0x3b5a278d	0.0033287734
22	0xbc582850	-0.013193205
23	0xbab3b0f7	-0.0013709356
24	0x3bc88bb3	0.006120169
25	0xbd8cd1ac	-0.06875929
26	0x3dd7b9a1	0.10533453
27	0xbdb25ef0	-0.08709514
28	0xbdc04ed0	-0.09390032
29	0xbc8085d4	-0.015688814
30	0xbdd8114a	-0.105501726
31	0x3ca944ed	0.02066275
32	0x3ca1207e	0.019668814
33	0x3da91288	0.08255488
34	0x3d9b1d95	0.07574002
35	0x3dcbd71a	0.09953137
36	0x3dec138f	0.11527168
37	0x3d6b0a0b	0.057382625
38	0x3c27ce0a	0.010241995
39	0xbd6c4c04	-0.05768968
40	0x3c98862a	0.018618662
41	0x3c643d66	0.013930654
42	0xbdcfddd0	-0.10149729
43	0xbc395a8c	-0.011313092
44	0xbda35b0a	-0.07976349
45	0xbd0e337b	-0.034717064
46	0xbc23c883	-0.009996536
47	0x3da3d593	0.079997204
48	0x3d555afd	0.052088726
49	0x3d52ac6a	0.051433958
50	0xbc85aa33	-0.016316509
51	0xbc0663fe	-0.008202551
52	0x3ae7404d	0.0017643064
53	0xbc3a19b5	-0.011358668
54	0xbc93daf4	-0.01804874
55	0x3d52e77f	0.051490303
56	0xbcf7e887	-0.030262245
57	0xbd1386ea	-0.036017336
58	0xbc835702	-0.0160327
59	0xbccd5d10	-0.02506879
60	0x3da3b9ae	0.079944
61	0xbd15d59b	-0.036580663
62	0xbacc5bd2	-0.001559133
63	0xbdb83617	-0.08994692
64	0x3d5f1d68	0.054471403
65	0xbd810ab5	-0.0630087
66	0xbcf52d46	-0.029928815
67	0x3b9bde5f	0.0047567333
68	0xbba1c828	-0.0049371906
69	0x3d29e724	0.0414802
70	0x3d2cfbd0	0.042232335
71	0xbc4b5fb4	-0.012412954
72	0xbc448e3d	-0.011996803
73	0xbd24e366	-0.040255927
74	0xbdbb4681	-0.09144307
75	0xbbcda705	-0.006276014
76	0xbd1c2feb	-0.038131636
77	0xbdbb658b	-0.09150227
78	0x3b90e71c	0.0044220816
79	0xbcbe561a	-0.023234416
80	0x3cda56db	0.026652744
81	0x3c18ec46	0.009333676
82	0x3c4959cc	0.012289476
83	0xbc9a676d	-0.018848145
84	0xbcca0ee1	-0.024665298
85	0x3de0a9e5	0.10969905
86	0xbbcac5f5	-0.006188149
87	0xbd853886	-0.065049216
88	0xbd483b88	-0.0488849
89	0xbda2fcac	-0.079583496
90	0x3c21ab2d	0.009867472
91	0x3db5bc41	0.08873797
92	0x3d0cd7ac	0.03438537
93	0x3c264612	0.010148542
94	0xbd2b28dd	-0.041787017
95	0xbca19302	-0.01972342
96	0x3d1aefc1	0.037826303
97	0xbd49ebba	-0.049297072
98	0xbdc85fb3	-0.09783878
99	0xbceab032	-0.02864847
100	0xbbdaee3a	-0.006681231
101	0xbdf09c61	-0.11748577
102	0x3b947516	0.0045305593
103	0xbd8ddb29	-0.06926567
104	0x39d43191	0.0004047272
105	0x3d5a3803	0.053276073
106	0xbc419255	-0.011814673
107	0xbcc045c0	-0.02347076
108	0x3cdd55c0	0.027018428
109	0xbd320544	-0.043462053
110	0xbcbb776e	-0.022884097
111	0xbc0d4940	-0.008623421
112	0x3d2acb2e	0.041697673
113	0xbb07fe1f	-0.0020750833
114	0x3d740dde	0.059583537
115	0x3cae38d9	0.021267341
116	0xbd7dc218	-0.06195268
117	0xbdbc2455	-0.09186617
118	0x3dbf2592	0.09333338
119	0xbccc1b6b	-0.024915418
120	0xbc5b4cd7	-0.013385019
121	0xbddfc254	-0.10925737
122	0x3d9838da	0.074327186
123	0xbd1dc2cd	-0.038515855
124	0x3dcc43d6	0.09973876
125	0xbd20d79f	-0.039268132
126	0xbcb6ba45	-0.022305617
127	0xbc1b6d96	-0.009486577
