trained_models/regression_linear_protons_stereo.pth (torch, 68910 bytes, 2 tensors)

linear.weight f4 [8, 2099]
000000 c2 57 c4 bb 4f 88 01 3c 57 da 95 bc c9 c1 bd 3c
       -0.005991907 0.007906034 -0.01829259 0.023163693
000010 28 0e 61 3c 1a c0 ee bb 2f d8 f6 b9 8f 0a 98 bb
       0.013736285 -0.007286084 -0.00047081846 -0.0046399306
000020 1e 31 e0 bb f1 88 2c 3c d1 10 25 bc 0c 9c c1 3c
       -0.0068417927 0.010530696 -0.01007481 0.02363398
000030 ba 03 c4 bb 2c 1b 21 bc 83 2d 22 bb 34 5a a8 bc
       -0.0059818896 -0.009833138 -0.0024746365 -0.020550825
000040 92 f2 a1 bb f6 a9 80 3c 2f 49 4f bc 78 dd 7a 3c
       -0.0049422467 0.015706044 -0.012651726 0.015311591
000050 9d 9b b0 bc 7d bc 42 3c f8 f2 03 3b f9 6e c3 3b
       -0.021558577 0.011885759 0.0020133834 0.0059641567
000060 ce 55 cb ba de e4 81 ba 1f 32 6b bc 6b 92 d6 3c
       -0.0015513243 -0.0009910127 -0.0143552115 0.026192864
000070 35 4b 51 bc 2c 56 2f 3c 45 b4 16 bc 78 62 e0 3b
       -0.012774278 0.010701697 -0.009198253 0.006847676
000080 3e b2 3c 3b fb 02 ac 3c cc 68 3e 3b 2f 56 44 3b
       0.0028792764 0.020997515 0.0029054163 0.0029958596
000090 2a 8c 99 3c b4 c4 9a bc f0 87 c0 bb e2 60 d2 39
       0.018743593 -0.018892623 -0.00587558 0.00040126505
0000a0 42 30 97 3c 2a bb 4c 3b d5 3a a5 3b a1 d7 ba bc
       0.018455628 0.0031239488 0.0050424137 -0.022807898
0000b0 b7 4e 0b 3c 17 c2 c2 ba 50 50 c8 b9 30 69 9a 3b
       0.008502654 -0.0014858869 -0.0003820681 0.0047122464
0000c0 13 c4 81 3c f1 61 59 3c 48 a8 20 bc ba c1 7c bb
       0.015840566 0.01326798 -0.009805746 -0.0038567618
0000d0 a2 3f 59 3b 04 f7 10 bc 43 1d 47 3c dd ad 85 3b
       0.00331495 -0.008847956 0.012152973 0.004079564
0000e0 52 a0 a0 39 8b 38 e5 3b e4 a1 9b 3c 0a d0 a4 bc
       0.00030637026 0.006995266 0.018998094 -0.020118732
0000f0 8f ce 1d 3c 0c 8f 8c bc 55 c6 11 3c 9f 1d b3 ba
       0.009631767 -0.017158054 0.008897384 -0.0013665444
000100 ab 2d 16 bc 42 6c 11 bc ee 94 ab 3c e9 77 ea 3a
       -0.0091661615 -0.008875908 0.020945039 0.0017888519
000110 05 ab 2b 3c b1 17 29 bc 88 a8 30 bb 82 bf 76 bc
       0.010477786 -0.01032059 -0.0026955921 -0.015060307
000120 18 18 27 3c 7c 23 3e bc 93 aa 8f 3c 50 5a ac bc
       0.0101986155 -0.01160514 0.01753739 -0.021039158
000130 b1 4d 05 bb 53 cb b5 bc c7 92 f1 3a b9 dc 18 3c
       -0.0020340497 -0.02219168 0.0018430584 0.009329968
000140 c0 7c 61 3c d2 21 24 3c 72 94 84 3b f5 1e 7d ba
       0.013762653 0.010017829 0.0040460164 -0.0009655797
000150 49 7a 6d bc 0e 67 20 bc b4 66 8a 3c d8 3a 5e 3c
       -0.014494487 -0.009790195 0.016894676 0.013563834
000160 66 7d 7d bc a9 22 bb bb 1e 03 4a 3c 56 d8 b5 3b
       -0.015471792 -0.005710919 0.012329845 0.005549471
000170 c5 a8 8e 3c aa fe b6 3b 20 cc 08 bc 41 05 f7 bb
       0.01741446 0.0055845575 -0.008349448 -0.007538468
000180 0f a3 73 bb af 5f a2 bb 72 f9 34 3c 44 14 39 bc
       -0.0037176048 -0.004955254 0.0110458005 -0.011296336
000190 7f 3c 28 ba 09 0b 94 bc 94 7d 20 3c 33 20 a9 3c
       -0.0006417706 -0.018071668 0.009795565 0.020645237
0001a0 b0 cc ff bb f7 40 c3 3b cd fd 5f 3b 15 0d f7 bc
       -0.007806383 0.005958672 0.0034178377 -0.030157605
0001b0 11 d0 e1 ba 00 e2 bf 3b ae 5e 09 3a a6 61 c7 3b
       -0.0017228146 0.0058557987 0.00052402436 0.0060846386
0001c0 fc 81 9d bb 01 a2 35 bc 47 e7 a3 bc af 66 04 bb
       -0.004806755 -0.011085988 -0.020007743 -0.0020202806
0001d0 0b 5d a1 b9 d0 02 67 bc 12 24 9b 3c 3c 53 84 bc
       -0.00030777635 -0.014099792 0.018938098 -0.01615297
0001e0 9a 94 2a bc bd 29 3d 3c e0 1d 0f bc 05 fb 37 bc
       -0.010411406 0.011545596 -0.00873515 -0.011229281
0001f0 d4 73 64 bc 3e a9 e4 3b 7a d3 0f 3b 51 ca 77 3a
       -0.013943631 0.006978183 0.0021946118 0.000945245
000200 07 72 cb 3c eb a9 8a bb 90 48 bc bc 92 cb 15 3c
       0.024834646 -0.0042316816 -0.02298382 0.009142773
000210 8f 35 41 3c db 9f ed bb 7f ec 58 3c e1 71 30 bc
       0.0117925545 -0.0072517223 0.013239979 -0.010769338
000220 e0 3a 0b 3c eb 58 94 bc 8e 4c 69 3c e2 be b4 3b
       0.008497924 -0.018108806 0.0142394435 0.005515919
000230 05 1d a4 bb 5e 8b a9 bb 0b 92 e7 ba d6 e3 16 bc
       -0.005008342 -0.0051740846 -0.0017667426 -0.009209594
000240 9c ae 47 3c 56 ec 9f 3b 99 af 0e 3c 70 32 58 3c
       0.012187626 0.0048804684 0.008708858 0.013195619
000250 15 df 65 bc 2b 32 60 3c 0a aa 85 bb d4 ed ef b9
       -0.014030238 0.013683836 -0.004079108 -0.00045762828
000260 f4 0f 89 3c 17 19 e2 3a 35 58 8f bc 43 9c 5e 3c
       0.01673124 0.0017249909 -0.017498115 0.01358706
000270 58 96 33 bc cc b4 a5 3c bd fe 25 bc 38 ad 0a bc
       -0.010961138 0.020227812 -0.010131535 -0.00846415
000280 b7 04 05 3c e7 02 e7 3a ff 7b 80 3c 83 a0 01 bb
       0.0081188 0.0017624766 0.015684126 -0.001977951
000290 5e b5 f6 3b cb 08 b9 3b 6c 2e 6e bb 8d bd da 3b
       0.007528945 0.0056468 -0.0036343588 0.0066754282
0002a0 df 50 00 bc 96 cd 31 bc 1c 67 25 bc 74 41 19 bc
       -0.007831781 -0.010852238 -0.010095384 -0.009353984
0002b0 af d7 34 3c b2 83 8b 3c 5e 96 93 bc 27 44 8e bb
       0.011037751 0.01703057 -0.018016037 -0.0043416205
0002c0 39 63 25 bb cd c7 09 bc bc f1 86 3b 58 6c 13 3c
       -0.0025236143 -0.008409453 0.0041181725 0.008997999
0002d0 52 f6 bd bb 0c 96 9a b9 31 6e 96 3b b5 ec 95 bc
       -0.005797186 -0.00029484963 0.0045907726 -0.018301347
0002e0 5c 62 8e 3b 8a 9f eb bb e7 cc ad 3c c1 43 f8 ba
       0.0043452214 -0.0071906494 0.02121587 -0.0018941091
0002f0 95 98 9b 3b 2b e9 69 3b ae aa 7c bc 24 10 b6 3c
       0.004748414 0.0035691957 -0.015421553 0.022224493
000300 50 9a 0e bc 5d ff 8a 3a 41 32 3e bc b9 96 8c bc
       -0.008703783 0.0010604669 -0.011608661 -0.017161714
000310 0f 79 3c 3b 9c c4 eb 3c c3 92 9c bb 4c 26 13 3c
       0.002875868 0.028780274 -0.0047782375 0.008981299
000320 82 41 bf 3b 10 60 c1 3b 71 99 bc 3b 1c c2 3e 3c
       0.0058366666 0.005901344 0.0057555963 0.011642959
000330 67 c8 f3 bb ca 32 bf bb 9a a3 a7 ba d9 8b 1b bc
       -0.0074396613 -0.005834912 -0.0012789846 -0.0094937915
000340 f4 4e 8b 3c f2 69 bd bc 65 ea de ba 87 f0 e8 3a
       0.017005421 -0.023121808 -0.0017007111 0.0017771878
000350 59 ce bd bc 02 17 49 3c 04 f5 06 3a 20 f5 0c b9
       -0.023169683 0.012273552 0.00051482045 -0.00013442757
000360 9b b6 12 bc 54 db b2 3b c1 d8 a4 3c 24 18 2e 3a
       -0.008954669 0.005458275 0.020122888 0.00066411705
000370 78 70 a8 bc c4 e5 98 bb a9 d2 2d 3c 06 7f 93 3c
       -0.020561442 -0.004666062 0.010609307 0.018004905
000380 42 08 77 39 f9 66 99 3c f1 2b 22 3b 38 b6 0a bc
       0.00023558832 0.018725859 0.002474543 -0.008466296
000390 fc d5 e3 bc ad ec 55 3c 2f c4 ea bb 1c d0 20 bb
       -0.027811997 0.013056916 -0.0071645 -0.0024538105
0003a0 45 fa 0b 3c e2 af 9e 3c 4b 90 d9 bb 7f e0 26 3c
       0.008543556 0.019370977 -0.0066395155 0.01018536
0003b0 3d 1c 13 bc 42 3b 64 bc bf 83 a1 3c a0 9c 2e bc
       -0.0089789005 -0.013930144 0.019716142 -0.0106574595
0003c0 0a 73 52 bc fb 20 3f bc db bd 58 bb 7a 39 22 bc
       -0.01284481 -0.011665578 -0.0033072147 -0.009901399
0003d0 56 30 b6 3b 03 f5 b8 bb 21 c3 9b 3c f5 14 27 3c
       0.0055599613 -0.005644442 0.019013943 0.010197868
0003e0 27 dd b5 bb 7d 08 45 bc 02 d8 96 bc 39 bb a1 ba
       -0.005550045 -0.01202595 -0.018413547 -0.0012339122
0003f0 6d 4f 5f 3b 6a 30 20 3b 3b 2e 5c bc d1 23 4e bc
       0.003407444 0.002444292 -0.013438757 -0.0125817815

linear.bias f4 [8]
000000 2a 1d ac b9 01 96 22 3a cc cc 84 3a 5f c7 a0 38
       -0.00032828125 0.0006202162 0.0010131835 7.66653e-05
000010 d5 c2 67 3a 2b 3c 3c 37 3f be 33 ba 06 d6 53 ba
       0.0008840983 1.1219682e-05 -0.0006856657 -0.0008080903
