trained_models/regression_cnn_gammas_hillas.pth (torch, 681758 bytes, 36 tensors)

cnn.convolutions.0.weight f4 [16, 2, 3, 3]
00000000: d059 633b 1827 62be 5328 9ebc 892c 553e
00000010: 5dce f6bd 2d3d b8bd 484c ee3c 2eb2 3abe
00000020: 7b9f 86be cc2a 783e 4e1b dcbc 5ede 32bd
00000030: d94e 4f3e 61f1 30be 477e 3ebe 7cd1 b8bd
00000040: 2ae2 7dbd c288 f5bc 9515 163d ff4a d3bb
00000050: 31a1 df3d a998 04be 74a0 ebbd 78d6 bbbd
00000060: 35f8 333d 4347 ae3d 45e1 373d 7e7e 213e
00000070: d8cd 4dbd 08d9 20be 9539 6a3e 832c 1d3e
00000080: ded7 c5bd 0624 183e faaa d93d bd16 853e
00000090: ab0b 14be fd5c ea3d ffd2 80bd d1a7 e13c
000000a0: 2393 7f3e 162a b43e 5547 8d3d e193 203e
000000b0: 7b30 513e 6a9c 9bbd 5813 bb3d 9ee8 ee3d
000000c0: 9f5f 18ba aaf0 1bbe c446 b6bd 70b3 da3d
000000d0: 14de 08be 76fb 52be 2a47 163d f3c6 02be
000000e0: 7166 fd3d da13 fa3b bf5d 1bbe 2573 663c
000000f0: 354c f5bb 326f c8bb 9e4f 733e 892a 7bbd
00000100: 57d6 023e a0b3 033e bab9 613e 1477 0a3e
00000110: 54f7 803d 54c3 0ebd 546c 75be c7d0 29be
00000120: 4057 63be e561 363d fae7 fdbd 1636 2fbe
00000130: 3cc7 a13c 4d39 893e c66f 01be 106e 0c3b
00000140: 5a41 073d fb39 013d 0e16 933d 9abd 14be
00000150: 887d 8c3d 2a1d 363a f10c 6a3c 6438 f3bd
00000160: b782 38be 5c7e 453e c93c 4f3e 2227 923d
00000170: d50b 203e 6825 433e 8bdf a2bd 4d0a 013e
00000180: 256c 593d b15a 283e b577 a5bd c0a5 cd3d
00000190: f997 c9bd 38bf 3a3d 342d c93d 5fab 4bbd
000001a0: a663 cf3d 4612 983d 138d 3dbd 5386 7cbd
000001b0: 353a 5d3e 9003 8c3e c73b 1a3e e63c 06be
000001c0: 8d65 543e b3f8 2fbe 42a2 6f3d 665a 70be
000001d0: 0692 5bbe e574 15be bc2e 6c3d 3248 3b3d
000001e0: fcf2 953c ef62 5fbd ed39 8cbd 7e40 d0bc
000001f0: 088b f8bd 5ee8 0d3c 8b2a 793e df9e d1bd
00000200: cb1a 503d 8a15 d13c 418e 743d ef72 eebd
00000210: 3260 d3bc 16da 14be d095 243e 5740 4dbe
00000220: f1fd dd3d 15d0 8b3d efc7 463d 8f25 4abe
00000230: f2cf 243e 5a78 0fbd 4f2e 47be db26 1abe
00000240: 5378 bb3d 7a31 34bd f1e6 d6bd 8054 4e3e
00000250: 1196 0d3e 0202 413e 19f6 233e c44c c43d
00000260: ee36 5bbe 410e 2dbe fbb9 f63d 51dd 093e
00000270: e78b 2d3e 518d 8e3e 7a05 6c3e 60da 043e
00000280: 70c9 623e 632b 0c3e 2e59 3ebd 9f1f 0bbe
00000290: 43dd 17be c336 18be f7a7 42bd 4c1c 50be
000002a0: 4fb6 d6bd a06d 28be 217d 7abe 78f8 afbd
000002b0: 38a8 fbbd d44f 973d 3815 85bd e6ff 343e
000002c0: ee73 f23b 400b 123d 768e 403e 7c25 4dbd
000002d0: 8bbe b33c ee9a 95bc 2445 0f3e a257 84bd
000002e0: 7aaf 28bd 5192 323d 643c 103d e8ad b7bd
000002f0: 7888 dcbc 859e a53c 8076 6abe e513 823d
00000300: a283 8dbe 86d7 efbb baaf bd3d 5c37 88bd
00000310: 8b1c 75bb a6cb a53e 12ef b9bd 804b 803b
00000320: 5b1b 2dbe c768 0abe 869e 053d fc42 fb3d
00000330: ddd7 13bc 3707 98bd 441a 8b3d 7abd 8b3d
00000340: 0ef1 053b bb3f a2bc fe1d b03b a6f2 9b3e
00000350: 0811 413e 3157 503e f225 923d bbfe 513d
00000360: 3be1 adbd 245a 9a3d dbad f53a 8120 e53c
00000370: 2f71 153c df56 cebd fe36 45be 0482 7bbd
00000380: 1560 963d bec0 243e 4e41 7a3e 06f7 073e
00000390: 7d98 6abe a2dd 23be ff19 573e 7141 3a3e
000003a0: 59a8 ffbd 90b2 06bd bb1a 3ebd 3efc 7a3b
000003b0: ad6a 1f3e e3c7 8bba 2ffc 0f3e 267c 8d3e
000003c0: 413d 203c d9c2 993d b1ff 9cbc 8047 6dbd
000003d0: ad90 d8bd 8633 84be c2a8 46be bde5 8bbd
000003e0: 3ab6 41be da3b 4b3d f099 7abd 5512 d23d
000003f0: b5ac d9bd e7b3 5e3e 0032 3c3e ba46 1abc
0.0034690984 -0.22085226 -0.019306337 0.2081777 -0.120510794 -0.08996043 0.029089108 -0.18232033
-0.2629355 0.24235076 -0.026868489 -0.043669097 0.20244922 -0.17279579 -0.18602858 -0.09024331
-0.061983265 -0.029972438 0.036641676 -0.006448149 0.10919417 -0.1294886 -0.115052134 -0.09171766
0.04393788 0.08509686 0.04489257 0.15770909 -0.050245136 -0.15707791 0.22873528 0.15349011
-0.09660314 0.14857492 0.10628314 0.2599391 -0.14457576 0.11443517 -0.06290244 0.027545841
0.24958472 0.3518836 0.06898371 0.15681411 0.2042865 -0.07598193 0.09134549 0.11665462
-0.00058125885 -0.15228525 -0.08900216 0.10678756 -0.13365966 -0.20603737 0.03668896 -0.12771206
0.12373055 0.007631761 -0.1517248 0.0140655385 -0.007485891 -0.006116771 0.2376084 -0.06131986
0.12777077 0.1286149 0.22043505 0.13521987 0.06297174 -0.03485425 -0.23967105 -0.16583548
-0.22201252 0.044526953 -0.12397762 -0.17110476 0.019748323 0.2680153 -0.12640294 0.0021427907
0.03302131 0.031549435 0.07181941 -0.14525452 0.06859881 0.0006947095 0.014285312 -0.1187599
-0.18018614 0.19286484 0.20238031 0.0713637 0.15629514 0.19057238 -0.07952794 0.12601586
0.05308165 0.16440846 -0.08079473 0.1004138 -0.098434396 0.045592517 0.09823075 -0.04972398
0.10126428 0.074253604 -0.046277117 -0.06165154 0.21604235 0.27346468 0.15061866 -0.13109168
0.20741864 -0.17184715 0.05850435 -0.23471984 -0.21442422 -0.14595373 0.057661757 0.045723148
0.01830434 -0.05453771 -0.06846986 -0.025421377 -0.12135893 0.008661358 0.24332635 -0.102353804
0.0508068 0.025522966 0.059705976 -0.116430156 -0.025802705 -0.14536318 0.16072774 -0.20044075
0.10839451 0.06826798 0.048530515 -0.1974089 0.1609495 -0.035026886 -0.19451259 -0.15053885
0.091538094 -0.043992497 -0.10493267 0.20149422 0.13826777 0.18848422 0.16011848 0.095849544
-0.21407673 -0.16899969 0.12047192 0.13463332 0.169479 0.2784219 0.23048964 0.12973928
0.22147155 0.13688426 -0.046471767 -0.13586281 -0.14830498 -0.1486464 -0.047523465 -0.20323294
-0.10483991 -0.16448069 -0.24461795 -0.085923135 -0.122879446 0.07388273 -0.06498188 0.17675743
0.007399074 0.03565526 0.18804345 -0.050084576 0.021941444 -0.018262353 0.13991219 -0.06462027
-0.041182972 0.04359657 0.035213843 -0.08968717 -0.026920542 0.02021719 -0.22896767 0.06351451
-0.2763949 -0.0073193936 0.09262033 -0.06651184 -0.0037401046 0.32381934 -0.09078802 0.0039152503
-0.16904967 -0.13516532 0.032621883 0.12268636 -0.009023634 -0.07423251 0.06792119 0.06823249
0.002043787 -0.01980578 0.005374669 0.30458564 0.18854153 0.20345761 0.07136144 0.05126832
-0.08490225 0.07536724 0.001874383 0.0279696 0.009121223 -0.10075163 -0.19259259 -0.06140329
0.07342545 0.1608915 0.24438974 0.13277826 -0.22909732 -0.16002515 0.2100601 0.18189026
-0.12483282 -0.032885134 -0.04641221 0.003829732 0.15568037 -0.0010664429 0.14061044 0.2763378
0.009780229 0.07507867 -0.019164892 -0.057929516 -0.1057447 -0.2582056 -0.19400313 -0.068309285
-0.1891717 0.049617626 -0.061181962 0.10257403 -0.106286444 0.21748315 0.18378448 -0.009416277

cnn.convolutions.0.bias f4 [16]
00000000: 8cb8 27bd 530b 263c 546b ae3d aa86 023d
00000010: 8854 573d 6711 6fbe eb1f 9c3d 366e 30be
00000020: b90b 253e 3d2e 8d3e 4ff5 82bc 933c d33d
00000030: 4e8f a63e 181b 453e 4191 54bd 769b 47be
-0.040947482 0.010134536 0.08516565 0.031866707 0.05257085 -0.23346482 0.07623275 -0.17229542
0.16117753 0.2757434 -0.015986113 0.10314288 0.32531208 0.19248617 -0.051896337 -0.19492897

cnn.convolutions.2.weight f4 [16]
00000000: 3c67 613f bb1e 823f faf8 833f 202a 7c3f
00000010: ae3b 4b3f 14f7 7e3f 2d2a 813f 928b 5e3f
00000020: 37f3 833f cb54 7c3f c197 803f aefb 803f
00000030: d48b 703f 4f15 863f 063e 7d3f 404d 5e3f
0.8804815 1.0165628 1.0310357 0.9850178 0.7938794 0.9959576 1.0090996 0.8693172
1.0308598 0.98566884 1.0046312 1.0076807 0.9396336 1.0475253 0.98922765 0.86836624

cnn.convolutions.2.bias f4 [16]
00000000: d584 623c 4668 103c b92b 0d3c 89af 7e3c
00000010: b2ec 5d3d dd87 2d3d dba2 693c efa3 c33c
00000020: ddf2 513d 6987 933c 60b0 ddb9 49dd 613d
00000030: 498e a83c bece 27bd f698 9a3c 9d78 24bb
0.013825615 0.008813923 0.008616381 0.0155447805 0.05418081 0.042365897 0.014260019 0.02388188
0.051257003 0.018008905 -0.00042283814 0.055142675 0.02057566 -0.04096865 0.018871766 -0.0025096305

cnn.convolutions.2.running_mean f4 [16]
00000000: bc42 053d f143 553d 9581 d93d 9a88 2d3d
00000010: 8b52 a03d f958 483d 0623 d43d 1930 ee3b
00000020: 9b31 343e 9ee4 ae3e 232a 8c3c 7d1a ed3d
00000030: b210 ab3e 1078 6f3e 6620 6b3d f7d2 353c
0.032534346 0.052066747 0.10620419 0.0423666 0.07828244 0.048912976 0.10358243 0.0072689173
0.17597048 0.34158796 0.017109936 0.11577318 0.33411175 0.23385644 0.057403944 0.011097661

cnn.convolutions.2.running_var f4 [16]
00000000: 4b28 943c 26e3 9e3e 21ee 0e3f 31d8 bd3d
00000010: 3811 483c f451 ae3e e9bf da3d ee8d 8e3c
00000020: 32db 963f 5f78 1a3d 297c 343d 98f2 d53e
00000030: 5cbc b23d 56dd 4e3e a718 ae3e 5c58 e23c
0.01808562 0.31032676 0.55832106 0.09269751 0.0122111365 0.340469 0.10681135 0.017401662
1.1785643 0.03771245 0.04406372 0.41786647 0.08727333 0.2020162 0.34003183 0.027630024

cnn.convolutions.4.weight f4 [32, 16, 3, 3]
00000000: fbca bc3d 07a7 ae3d 87ae 76bd f6e8 3f3d
00000010: 9430 1b3d 94f4 bbbc d50b 85bd 9487 18bc
00000020: 9c00 92bc 959e 2cbd 7da0 66bd 8a0a 19bc
00000030: 35c0 06bd 997f 173d f10c a73c 646a ddbd
00000040: 8f43 713d 7dc3 09bd 53fd 52bc 8d88 5bbc
00000050: 2e2c 883c d84c 84bd c71a 563d c28a 233c
00000060: 2a9e 80bc 0642 0cbd 9356 19bd 7870 223d
00000070: 5682 86bc dc8a 73bd 33a7 cfbd 3a05 033d
00000080: f49e 85bd ad3e c9bd 93b1 21bd b4b4 493d
00000090: f591 6b3c b9cf 3c3d 52bb 853b 0ec4 55bd
000000a0: d7c0 0e3d 866a 863b 6acf ffbc 739e d83c
000000b0: 351c 743c 1e32 813d bbac 28bd 881f 42bd
000000c0: 17a2 303d 3594 8bbc 825f a83d 99b8 9d3b
000000d0: c665 62bc 4996 403d 61eb bebc a87d a83a
000000e0: 3871 e93c 664c febc 5a47 c63c ea94 b43d
000000f0: e10b 17bd 6f5d 9a3d 2405 573d e724 26bc
00000100: 0c86 123d be57 b2bc bf0b c2bb 5825 66bc
00000110: 104b b43c c9aa 7d3d c709 7e3d 989c 463d
00000120: e58d 8d3d 66b1 5c3d d063 2b3d f39b 67bd
00000130: df69 d33c 1bf8 563d 1a74 1c3d 0947 f1ba
00000140: 13d6 99bd 314c 1c3d 87ac 5bbd d25a b8bd
00000150: f989 09bb 1172 e33c 00f4 cfbd bee5 913c
00000160: 7b6e b6bc 08e2 783d 99e3 2c3d fa07 eb3b
00000170: 481b 8a3c 05fc 4e3d f105 b23d e837 a5bc
00000180: 2bdf 153d 161f 48bb 6cd0 283d ed56 03bd
00000190: 9d49 54bd c5ca 813d 967f d4bd 742c 2cbd
000001a0: 0bb3 b5bd b2e1 ffbc f98d 193d 63da 6fbd
000001b0: d775 533c 46f0 8a3d 9956 c6bb 57d3 293d
000001c0: 807e bbbc 3e6d 253d b89a 37bd 3169 813d
000001d0: 61bf 5bbd 6782 cbbd 956f 96bd 2896 953d
000001e0: d695 e6bd 60e3 883b 0fe0 883d 5a07 6fbd
000001f0: ea96 1dbd a2e4 3e3d 4dba e43c c34c 7d3d
00000200: 2519 8dbd 7108 71bd 9319 8d3c 6239 5e3c
00000210: c734 36bd 1d80 983c 9f92 39bd dad4 923c
00000220: c97c ce3b 58f3 1abd eed6 c43b 55b6 cd3c
00000230: 1e3e 4d3d 26e1 30bc 9cbb 883c 01e9 913d
00000240: 5e4c f9bc 8152 f4bc 36ef 7ebc c59f a1bc
00000250: b2d2 bbbd 080b 92bd c90f b8bd ad95 323b
00000260: 6da3 5d3d c5ac 94bc 2646 74bd 8f46 07bd
00000270: 9f89 803c 3148 2bbc d635 f6bc d85e 693d
00000280: c768 63bb d904 df3b 54c0 dd3c 013b e93b
00000290: 7ce7 f43c f142 623d 4848 25bc dcc9 983a
000002a0: adac 7fbd 14c9 083d 058a 983d d47d c9bc
000002b0: 12cb f7bc 0326 823b 3c69 a4bd ef4a e63c
000002c0: 656b 2d3c 1394 fbbc 0c3d 343d 5c1d d3bc
000002d0: 0666 ba3c cdcd dd3c b466 0ebd 7771 09bc
000002e0: 98c9 0dbd 0c0a 243d 1988 353d 759f 6e3b
000002f0: 495f 663c 9bd1 b4bd 6b84 32bd 576e 46bd
00000300: 16a2 db3c 3c96 9cbd 6afd 8d3d 8899 05bc
00000310: a509 00bd d822 de3c 82eb 143d 0c93 303c
00000320: 4a2b 16be b0c3 f23c 7844 73bd 3214 63bd
00000330: 279e 29bd fa5a a83d e2a3 c93d b679 aebc
00000340: 2520 91bd 0f10 bf3d 721c 57bd 711f 91ba
00000350: 2446 093d 9af3 723d 90fb 1d3d e440 223c
00000360: a18a 22bc 0295 f33c eec7 0a3d 73a4 81bd
00000370: 5acf a6bd 21d8 f9bc 0292 0f3d 78f4 573d
00000380: 3c83 c53c 427b febc c649 bd3b 448a d33d
00000390: 1be5 ce3c 5959 b73c b0dd f0bd 028d aa3a
000003a0: 54f4 53bd fc1b b33c b472 5dbc 8708 2b3d
000003b0: da0c d53c 0f3a 0b3d 034d 67bd ad20 843c
000003c0: c171 aa3d c848 f3bb 4769 703c 41d4 2ebd
000003d0: 3725 943d cf28 c63c 56c2 05bc 401f 033d
000003e0: bfbc 853d 141a 883d 4ce3 8dbd 4ea7 30bd
000003f0: c928 433d 3e84 583d 2558 723d eaf8 93bd
0.09218403 0.08527952 -0.060225036 0.04685303 0.037888125 -0.022943772 -0.064963974 -0.009309668
-0.017822556 -0.042143423 -0.056305397 -0.009340892 -0.032898147 0.03698692 0.020391913 -0.10811308
0.05890232 -0.033633698 -0.01287778 -0.013399255 0.016622629 -0.06459969 0.05227163 0.009981813
-0.015700419 -0.034242652 -0.03743608 0.03965804 -0.01641957 -0.0594586 -0.101393126 0.031987406
-0.065244585 -0.098264076 -0.03947599 0.049244598 0.014378061 0.046096537 0.004081168 -0.052188925
0.034851875 0.004102054 -0.031226832 0.026442742 0.014899303 0.06308387 -0.041180354 -0.04739335
0.04312333 -0.017038444 0.08221342 0.0048132655 -0.01381821 0.047018323 -0.023305597 0.0012854831
0.02849637 -0.031042289 0.024203945 0.088174656 -0.036876563 0.07537352 0.052495137 -0.010140634
0.03577237 -0.021770354 -0.0059218104 -0.014046989 0.022008449 0.06193045 0.062021043 0.048489183
0.0691183 0.053880118 0.041843235 -0.05654521 0.02580732 0.052482706 0.03819666 -0.0018408011
-0.075115345 0.0381586 -0.05363133 -0.090016976 -0.002098678 0.027764352 -0.10153961 0.017809745
-0.022269478 0.060762435 0.04220924 0.0071725817 0.016858712 0.050533313 0.086925395 -0.02016826
0.036589783 -0.0030536107 0.04121439 -0.03206532 -0.051828016 0.06337503 -0.103758976 -0.04203458
-0.0887204 -0.03123555 0.03748891 -0.05855788 0.012906513 0.0678411 -0.0060528037 0.041461315
-0.022887468 0.040387385 -0.044825286 0.06318892 -0.05364931 -0.09936982 -0.07345501 0.07304031
-0.11259048 0.004177496 0.06683361 -0.05835662 -0.038474 0.04660476 0.027920866 0.061840784
-0.068895616 -0.05884594 0.017224109 0.013563486 -0.044483926 0.018615777 -0.045305844 0.017923761
0.0063014966 -0.037829727 0.006007067 0.025111357 0.050108068 -0.010795867 0.016691022 0.0712452
-0.030431923 -0.029824497 -0.015559962 -0.019729504 -0.09171046 -0.0713101 -0.08987386 0.0027249858
0.054110933 -0.01814879 -0.05963721 -0.033026274 0.015690623 -0.0104542235 -0.030054968 0.056975216
-0.0034699903 0.006805998 0.027069248 0.0071176295 0.029895537 0.05523962 -0.010088034 0.0011656838
-0.062420536 0.033394888 0.074482 -0.024596132 -0.030248199 0.0039718165 -0.08027884 0.028111903
0.010584687 -0.030710256 0.04400353 -0.025770836 0.022753727 0.027075673 -0.034765914 -0.0083888685
-0.034616083 0.040048644 0.044319246 0.0036410962 0.014060804 -0.088290416 -0.043583315 -0.048445072
0.026810687 -0.076458424 0.069331005 -0.0081542805 -0.031259198 0.027116224 0.03635741 0.010777246
-0.14664951 0.029634327 -0.05939147 -0.05543918 -0.04141059 0.082204774 0.09845711 -0.02129827
-0.07086209 0.09329235 -0.052517362 -0.0011071992 0.033514157 0.059314348 0.038569987 0.009903166
-0.009920747 0.029734138 0.033882074 -0.06330194 -0.08145018 -0.030498566 0.035051353 0.052723378
0.024110429 -0.031064633 0.0057766167 0.103291065 0.02525573 0.022381471 -0.117610335 0.0013011994
-0.05174668 0.02186393 -0.013516117 0.04175618 0.026007105 0.033990916 -0.05646993 0.016128862
0.08322478 -0.0074244477 0.014673538 -0.04268289 0.07233661 0.02418938 -0.008164009 0.032012224
0.06530141 0.06645599 -0.06928119 -0.043128304 0.047646318 0.05286049 0.059166092 -0.07225211

cnn.convolutions.4.bias f4 [32]
00000000: 85c5 243d cb9d d3bd acad 293c ed7b 35bd
00000010: 630f 9f3d 36e9 1abd be2d ce3d 4d04 a23d
00000020: 4d8f 1ebd 3e9e a5bc 039e cdbb 6002 4a3d
00000030: 6abd 88bd 721e 89bd 98ae fd3c d854 ac3d
00000040: d65c 70bd e6e9 603d 5978 693d d321 e93d
00000050: 20ca e0bb 8474 4d3d 8904 c0bd d7f6 45bd
00000060: 2290 d0bc abaa 0dbc 8d1f 493d e36f 44bc
00000070: 6986 cebb 0fb4 433d 91c6 a23c 798a 35bd
0.04022743 -0.10332831 0.010356348 -0.044307638 0.07766607 -0.037820064 0.100673184 0.079109766
-0.03871088 -0.020217057 -0.00627494 0.04931867 -0.06676753 -0.0669526 0.030967042 0.0841462
-0.058682285 0.054910563 0.056999538 0.113834046 -0.0068600327 0.050159946 -0.09375865 -0.048331108
-0.025459353 -0.008646647 0.049102355 -0.0119895665 -0.006302644 0.04777914 0.019870074 -0.04432151

cnn.convolutions.6.weight f4 [32]
00000000: b106 703f 2cf1 763f a9b2 723f 102d 753f
00000010: 558a 753f c08c 6e3f 9657 7d3f e7e6 703f
00000020: 9733 723f 5c8d 6f3f 1c11 743f 50bf 753f
00000030: 2a27 793f d14d 813f 6a07 763f 65f5 803f
00000040: 9dec 723f 2a44 6a3f ac60 743f e504 703f
00000050: a035 733f 06ac 733f 904f 733f 9091 773f
00000060: 4006 6b3f 7d9f 7a3f ab70 693f da11 6f3f
00000070: 6343 6e3f 0400 7d3f 1ead 723f e3a8 6e3f
0.9376021 0.9646175 0.94803864 0.95771885 0.959142 0.9318352 0.9896177 0.9410233
0.9460997 0.9357507 0.95338607 0.95995045 0.97325385 1.0101873 0.9610506 1.0074888
0.94892293 0.9151026 0.9546001 0.9375747 0.950037 0.9518436 0.9504328 0.96706486
0.9180641 0.9789961 0.9118754 0.93386614 0.93071574 0.9882815 0.94795406 0.9322645

cnn.convolutions.6.bias f4 [32]
00000000: 6150 abbb 38f8 1b3d 7469 e53c 8512 5a3d
00000010: 47a2 963c 8a3d 56bc df2b be3c 631a e1bc
00000020: 37a8 683d 30b3 4a3d e35d 283d 8e2f 21bb
00000030: e206 d8bb 0fc4 633c d719 743d d1ae dd3c
00000040: eeec 24bc f84a 9d3d f2bd 4b3d 3c0f 033d
00000050: 8685 93bc ed2f a93d 99d3 e63c 64ef b33d
00000060: 984b 0a3d 380c ac3a 9342 353d 2636 0abd
00000070: ef92 31bd 4dee 183d d185 053d 1e1c 8d3c
-0.005228088 0.038078517 0.028004386 0.053240318 0.018387927 -0.0130761955 0.023214279 -0.027478402
0.056801047 0.049487293 0.041105162 -0.0024594995 -0.0065926174 0.0139017245 0.059594955 0.027060898
-0.010066254 0.07680315 0.049741693 0.03199695 -0.018008005 0.08261094 0.02817707 0.087858945
0.033763498 0.00131262 0.044252943 -0.033743046 -0.043353017 0.037336636 0.03259832 0.017225321

cnn.convolutions.6.running_mean f4 [32]
00000000: 2f07 e33d 6677 b93d 6c0a 8f3d 6904 ce3d
00000010: 10f2 f93d afe3 ce3d cdaf 5d3e 57b0 463e
00000020: e1e0 463d cde2 5d3d 577d 473e 91ca dd3d
00000030: 7700 513d fdda 103e f359 b33d c1b9 413e
00000040: c59c a23d 8800 b73d 387b 0d3e 5986 4f3e
00000050: 6692 d53d 9e3b f23d b7b2 863d 43c3 f03d
00000060: 343a b53d 6914 943d 5c8e 043e 91d9 c53d
00000070: 1cf0 aa3d dd3e ea3d 4429 d53d 2491 d53d
0.110853545 0.090559766 0.0698441 0.10059435 0.12204373 0.10102021 0.21649094 0.19403206
0.048554305 0.054171372 0.19481407 0.10829652 0.051025834 0.14146037 0.08757391 0.18918516
0.07940058 0.08935648 0.13816535 0.20266093 0.10428314 0.11827777 0.06577056 0.11755993
0.08848992 0.072304554 0.12944931 0.09660638 0.083465785 0.114377715 0.104082614 0.10428074

cnn.convolutions.6.running_var f4 [32]
00000000: 8a3d 933e e363 1d3f a832 db3d 8e5d c03e
00000010: 14c0 e53d 0833 6f3e 6424 3a3e b174 a33d
00000020: ed54 fd3d 9737 0e3e 6710 0740 5d33 633e
00000030: 9256 7b3d c0fc c13d a482 993e 509b 293f
00000040: 8960 6b3e e1e9 8f3d db59 4c3e 2106 9a3e
00000050: 7cae 6e3e 04ca 523d 9789 8e3e cfba 113f
00000060: ee60 e53e 6076 d23d 853e 183e b6fb 143d
00000070: 51a9 093e c157 5d3e 542a ee3e 7848 ac3e
0.28757888 0.6148054 0.10703021 0.37571377 0.112182766 0.2335931 0.18177944 0.079812415
0.12369714 0.13888393 2.1103761 0.22187562 0.061361857 0.09472036 0.29982483 0.66252613
0.22986044 0.07027031 0.19956152 0.300828 0.23308748 0.05146219 0.27839348 0.5692567
0.44800514 0.102764845 0.148676 0.036372863 0.13443495 0.21615507 0.4651667 0.3364904

cnn.convolutions.8.weight f4 [64, 32, 3, 3]
00000000: 259a 8abd c109 4abd 6af6 16bd 5688 a5bb
00000010: 5e7c 01bd b758 14bc a8f8 66bd 8844 8abc
00000020: fed6 16bd a814 82bc 6a10 2bbc d174 0a3d
00000030: f65e 2abd bf8d 2d3d f8bc f3bc 0f0a 803d
00000040: 5a9e 38bd 858d cabc fbb4 fbbc e834 8f3d
00000050: 9d9a 0abc f08e 75bd 9b9b c3bd 6057 b3bd
00000060: b1ef 593d a437 fbbb 46b7 163d 344d 9bbd
00000070: 4c0b 053d d976 e63c 702c 88b9 8dba 1f3d
00000080: 245b 74bd 1489 9ebb a2a0 163d 5a0f 08bc
00000090: 6dc2 953c 16dd ee3c 35a9 243d da06 06bd
000000a0: 7b94 6a3c 89b4 a03b 3daf 7d3c 3f63 6a3c
000000b0: baf8 183d 081f 593c 4417 783b 866a dd3c
000000c0: 01fd 0abd 7035 58bc a364 fabc 8793 b0bc
000000d0: 98d0 0ebc 2fb2 5fbd 5c12 113b ceed e33a
000000e0: c069 e33d 0329 d4bb 099b 13bd 12fa ca3b
000000f0: 279f 84bc fc7e 45bc cf53 943c 91ea 2c3d
00000100: 3166 52bb 0316 163d f45b a4bc e9a4 983a
00000110: 34fd 4dbd 608e 64bc 778d 223d 8b5f 2cbc
00000120: 45b7 b1bc 5df1 99bd 2e95 823d 8e1a dd3c
00000130: bbd4 d0bc bf0c 973c bb2e 4d3d 7599 4f3d
00000140: 7388 07bd aa7e babb aa5f 523d e071 223d
00000150: d9df 87bd 3da5 43bd e852 08bd 7174 adbb
00000160: fa53 c83c 71f1 893d 68b2 1d3d a7c8 bcbc
00000170: 77da 2fbd d0cf ec3c ab7a d23b 72e7 52bd
00000180: 37e7 08bd c34f 30bc 417d 2ebc 2ad8 c73c
00000190: bd6c 863d 10d0 22bd 90a0 dcbb 4865 853c
000001a0: 3d59 a6bc f9c9 ea3b 834f 9b3d 506e 55bc
000001b0: 0a25 babd f387 84bd 31c5 1fbd 8192 f33c
000001c0: 9bb7 07bc f41a afbc b41c 1ebd ae66 0f3d
000001d0: 0589 d2bc 27bd 4d3c 06a7 803c b1d8 813c
000001e0: e6b2 73bd 33dd cdbc c373 65bd 5eec 91bc
000001f0: 776c c83a 56aa 86bd c416 313d c451 7bbc
00000200: 9fce 333c c749 853d e279 5ebc 52ba 8c3d
00000210: 2d2b 4dbd 46d5 7f3d a9ba a8bc d3d0 313d
00000220: b637 c13c 6ef6 2e3d 66c6 73bd 4a20 83bd
00000230: df90 1ebd 1583 173d ba51 8d3c b168 86bd
00000240: fcd5 913d f423 8cbc 8b1d 8abd 2075 353d
00000250: f83b 3d3d 87ad d1bc 4b72 023d 5b77 a5bc
00000260: 1bca 563d 4ca3 0b3d 5808 79bd 5c25 c8bc
00000270: 7d68 62bd 2a87 81bc 4d2c f4bc 22f6 123d
00000280: 3655 a93c ca49 b13c 44d1 11bc 25ac fcbb
00000290: 1c6c 2bbd e7fc 0a3d ae97 163d 0eb2 373d
000002a0: 5356 bcbb 5659 6bb7 4ce9 32bd c3a4 04bc
000002b0: babe 823c 09f8 45bc ece0 3f3c 0191 5fbc
000002c0: 39cd f03c bc8d 02bd d4bb cb3c 90b8 dfbc
000002d0: 9959 68bd 6b20 2e3b 76f3 41bd df3b 72bc
000002e0: 3b70 05bd 1352 b1bb 1a05 073d 06d3 a03d
000002f0: bdb9 a3bc 55f5 373c 0046 49bd 61e4 7f3d
00000300: 55ab 0bbd 8b38 3d3d efcd cc3c e891 9ebd
00000310: 9feb 12bd aacc 0dbd 7b9b 8cbd 4f0c 10bd
00000320: 5ff0 503d d186 1e3c d073 7bbc 9fb1 2cbd
00000330: 8cc9 b33c 4c66 6cbd 3e6a 28bd fff5 153d
00000340: e46d 8b3d f900 783c 2d48 0fbd ef11 80bc
00000350: 3e14 6bbd 2359 833c 362b 1c3b c018 223c
00000360: 75d5 b83c 9e1c 4e3d b4d3 e53b 7f4d 04bd
00000370: 7494 463d b4e6 9dbd acb8 51bd 3779 6e3d
00000380: ed82 30bc 4d39 69bd 9e03 bfbc 91f6 41bc
00000390: 50bb 073d a52e 33bd b006 2cbd c035 893b
000003a0: b6d4 303c 290c 3b3c b13c 3cbd 0b23 653d
000003b0: b37d 393c 5406 e4bc bbac 5c3c 1c3d 953d
000003c0: 6b4b 943c 200f c03c 32cd 88bd cf92 68bc
000003d0: bd52 91bc 94bb ea3c 67b2 56bc 5af6 fc3c
000003e0: 9905 a33d ae45 14bd 8189 d13c a159 563d
000003f0: ce5e cf3c 3c41 1d3d 0ae5 6fbd 5616 a03c
-0.06767682 -0.04932571 -0.036856093 -0.005051653 -0.031612746 -0.009054354 -0.05638948 -0.016878381
-0.036826126 -0.01587899 -0.010440925 0.03380281 -0.041594468 0.042371508 -0.029753193 0.062519185
-0.04507289 -0.024725685 -0.030725947 0.06992513 -0.008459714 -0.05995077 -0.09551164 -0.087569
0.053207103 -0.007666545 0.036795877 -0.07583085 0.032481477 0.028132843 -0.0002597305 0.038996268
-0.05965723 -0.0048381183 0.036774285 -0.008304441 0.018281186 0.029158156 0.04020043 -0.032721378
0.014317627 0.004904334 0.015483675 0.014305889 0.03734658 0.013252027 0.0037855664 0.027028333
-0.03393269 -0.013196334 -0.030565565 -0.021554722 -0.008716725 -0.05461329 0.0022136187 0.0017389597
0.111041546 -0.0064746155 -0.036036525 0.0061943615 -0.016189171 -0.012054201 0.01810637 0.042215887
-0.0032104368 0.036642086 -0.020063378 0.0011645827 -0.0502903 -0.0139499605 0.039685693 -0.010520826
-0.021693835 -0.075167395 0.0637611 0.026990201 -0.025492063 0.018438695 0.050093394 0.050683457
-0.033089112 -0.005691369 0.051360764 0.03965938 -0.066344924 -0.047765005 -0.03328219 -0.005293422
0.024454106 0.067355044 0.03850022 -0.023044897 -0.042932954 0.028907686 0.0064233146 -0.051490255
-0.03342363 -0.010761204 -0.01064998 0.024395067 0.06563709 -0.039749205 -0.0067330077 0.016283646
-0.020306224 0.0071651903 0.07583525 -0.013026789 -0.09089096 -0.06471243 -0.039006416 0.029732944
-0.008283521 -0.021375157 -0.038601592 0.035010032 -0.025700102 0.012557304 0.015704643 0.015850397
-0.059496783 -0.02512989 -0.056018602 -0.017812904 0.0015291114 -0.06575458 0.0432346 -0.015339319
0.010974555 0.065082125 -0.013578864 0.06871475 -0.050090004 0.062459253 -0.020596819 0.04341204
0.023586135 0.042715482 -0.05951538 -0.06402643 -0.03871238 0.036990244 0.017250884 -0.06562937
0.071208924 -0.017106988 -0.06743916 0.044301152 0.04619977 -0.02559544 0.03184728 -0.020198515
0.052438837 0.03409128 -0.060798973 -0.024431877 -0.05527543 -0.015811522 -0.02980628 0.03587926
0.020670515 0.02164163 -0.0088999905 -0.007710951 -0.041851148 0.033932593 0.036765747 0.04484754
-0.0057475953 -1.4027892e-05 -0.04367952 -0.008095923 0.015960086 -0.012083062 0.01171134 -0.0136454115
0.029394733 -0.03187345 0.024869837 -0.027309686 -0.056726072 0.0026569616 -0.047351323 -0.014784782
-0.032577734 -0.0054113953 0.03296385 0.078527495 -0.019986028 0.011227925 -0.049139023 0.06247366
-0.03409894 0.0461965 0.02500054 -0.07742673 -0.035869237 -0.03461901 -0.06865593 -0.03516799
0.051010486 0.009675697 -0.015347436 -0.04216158 0.021946691 -0.057714745 -0.041116945 0.036611553
0.06808069 0.015136951 -0.03498094 -0.015633551 -0.05739235 0.016033715 0.0023829467 0.009893596
0.022562722 0.05032026 0.0070137624 -0.03230047 0.04848142 -0.07710019 -0.051201507 0.05822107
-0.010773403 -0.056939412 -0.023317154 -0.011838571 0.03313762 -0.043745656 -0.041998565 0.0041873157
0.010792902 0.011416473 -0.045956317 0.055941623 0.011321473 -0.027835049 0.0134689165 0.07287046
0.018102368 0.023444712 -0.06679763 -0.014195158 -0.017739648 0.028653897 -0.013104058 0.030879188
0.07960052 -0.036199264 0.025578262 0.05233157 0.025313761 0.03839229 -0.058568038 0.0195419

cnn.convolutions.8.bias f4 [64]
00000000: ca45 413c cb44 393c a9b5 9b3c 543f 6c3d
00000010: edbe 6bbd 2376 783d a6c3 6fbd 6b18 9abd
00000020: 92a2 04bd d40b 8c3d f511 123d f56c 373d
00000030: 53be 66bd 74e8 7bbc 1c47 853d 2939 2b3b
00000040: 230f b7bd b952 213d 5d10 9abd 40f5 c3bc
00000050: b30e f33d b262 8bbc 255c d53d 7896 a83b
00000060: 3971 333c 9fd0 97bc 3b86 9fbb e4fb 173d
00000070: 56c9 6fbd e553 cbbc 84de 07bd ea7b 973a
00000080: 7088 4f3d 5940 703c 9976 aa3b 4a77 6bbd
00000090: a50c e3ba 063c bc3d d4e4 683d 73f4 e7bb
000000a0: dbfc 9abd 4014 15bd 1826 efbd f97b 253d
000000b0: f7e8 7ebd e63d 743b 78be 2e3d a3b3 9cbc
000000c0: 1a84 5dbc 5f40 a03b d37f 1c3c 65d9 05bd
000000d0: 756c 7d3c 0946 84bd bf91 893c b52c b13b
000000e0: b52f cb3d 2acb 8a3d a731 70bd 6547 49bc
000000f0: 97e8 9ebb 4903 84bc accb 15bd 655a a73c
0.011796424 0.011307905 0.01900752 0.057677582 -0.057555128 0.06065954 -0.058536194 -0.075241886
-0.0323816 0.068381935 0.035661656 0.044781644 -0.05633385 -0.015375245 0.06507704 0.00261266
-0.08938434 0.03938553 -0.07522652 -0.023920655 0.11868038 -0.017014835 0.10417966 0.0051448904
0.010952287 -0.018532095 -0.0048682964 0.037105456 -0.05854162 -0.024820277 -0.03317119 0.0011557315
0.050667226 0.014663779 0.005202126 -0.05748681 -0.0017322494 0.09191136 0.056858853 -0.007078701
-0.075677596 -0.036396265 -0.11677188 0.040401433 -0.06223389 0.003726834 0.042662114 -0.019128626
-0.013520265 0.004890486 0.00955196 -0.032678027 0.015467753 -0.06458671 0.01679313 0.005406941
0.09921209 0.06777032 -0.058641102 -0.012285088 -0.004849504 -0.016114848 -0.03657119 0.020428846

cnn.convolutions.10.weight f4 [64]
00000000: 0448 4e3f 7990 513f 756c 593f a2f5 513f
00000010: deb3 653f 43a3 5a3f 6fab 483f dc2f 533f
00000020: c247 663f d638 593f 9777 553f ca87 513f
00000030: d46e 473f 2321 323f 8871 4e3f 9749 473f
00000040: 84c7 4f3f 4b18 5c3f 11ac 593f fcd9 4e3f
00000050: f7fe 5c3f 9f7e 5e3f 129e 4a3f 710c 6a3f
00000060: c457 4b3f fb16 433f e182 4b3f b5e9 4c3f
00000070: 5a0e 483f 397a 423f 0d76 483f df9e 433f
00000080: e288 4a3f f18e 463f cb15 673f 6eae 4e3f
00000090: 0444 643f 8b46 513f 4186 5d3f 05f6 433f
000000a0: 1f96 553f c7b6 593f 19c2 503f 0f38 563f
000000b0: e7c3 603f 8a94 423f 8ff3 433f eb6d 5c3f
000000c0: 6118 633f b160 4e3f ae74 653f b3f8 5c3f
000000d0: dbca 583f 0d8a 5b3f 1d34 583f d10b 503f
000000e0: 8cda 503f 980e 573f 6ed7 423f b150 593f
000000f0: 699b 5a3f 8518 583f a014 5b3f e688 493f
0.8057864 0.8186107 0.8493112 0.8201543 0.8972758 0.8540537 0.78386587 0.824949
0.89953244 0.8485235 0.83385605 0.8184782 0.77903485 0.6958181 0.80641985 0.77846664
0.8116381 0.8597457 0.8502818 0.8080137 0.86326545 0.8691196 0.79147446 0.91425234
0.79430795 0.7620694 0.7949658 0.8004411 0.781469 0.75967747 0.7830513 0.76414293
0.79115117 0.7756186 0.9026763 0.8073491 0.89166284 0.81748265 0.8653298 0.7654727
0.8343219 0.8504452 0.8154617 0.8367929 0.87798923 0.760079 0.76543516 0.8610522
0.88709074 0.8061629 0.89631164 0.86316985 0.8468453 0.85757524 0.8445452 0.8126803
0.81583476 0.84006643 0.7610997 0.8488875 0.8539339 0.84412414 0.85578346 0.78724515

cnn.convolutions.10.bias f4 [64]
00000000: 24d2 033b f2d1 243d dc8f 283b ef03 6abc
00000010: affb 4b3c ef8b 073c 63e9 a53c 0aa8 8e39
00000020: d0e8 2fbd e6a1 ea3c 0a4c 453d 178b debb
00000030: 749f 1d3d 777e 1a3d 902b 8d3c 0e07 1d3d
00000040: 44b5 d03c bbbf 76bc db8e 2ebc 80bf a13b
00000050: 708e 4b3d 8882 05bd 8a9d ffbb a974 d4bc
00000060: f4c8 b53b 986f 563d 4170 713c 1130 063c
00000070: 93f3 0a3d 9667 983c 72ad 193d 4746 bd3b
00000080: 156f 333c 3dbd bf3c bc12 1abc 4216 c33c
00000090: 9667 653c 0e61 15bc b4af 393b a623 4e3d
000000a0: 7e75 99bb 22f0 ec3b cedd 873c 43b7 5e3c
000000b0: 2cd1 3c3b 5e0b 873c 290c 4c3d d543 833c
000000c0: 08fd 3c3b 1d9f 383c eb9c 723b ca1c 98bc
000000d0: 2ba7 c23b e001 2abb 8ab5 d83c 9a8a 143d
000000e0: c0dd ca3c 1a51 9239 9fc0 993c 7822 ce3c
000000f0: 0156 4b3c b2c8 1fbc 82e6 bbbc f827 373c
0.0020114267 0.040239282 0.0025720512 -0.014283164 0.012450143 0.008273109 0.020252889 0.0002720955
-0.042946637 0.028641652 0.04816822 -0.006791483 0.038482144 0.037718263 0.017232686 0.038336806
0.02547706 -0.015060361 -0.010654177 0.0049361587 0.049696386 -0.032595187 -0.0078007625 -0.025934534
0.005547637 0.052352518 0.014736236 0.008190171 0.033923697 0.018604081 0.037518926 0.0057762
0.010951777 0.023405666 -0.009403881 0.023814324 0.014001748 -0.009117378 0.0028333487 0.050326966
-0.0046831956 0.0072307745 0.016585257 0.013593498 0.00288112 0.016484912 0.049816284 0.016023556
0.0028837342 0.011268404 0.00370198 -0.018568415 0.005940338 -0.002594106 0.026453752 0.036264993
0.024763942 0.00027907715 0.018768607 0.02516292 0.012410642 -0.009752439 -0.022937063 0.011178963

cnn.convolutions.10.running_mean f4 [64]
00000000: 78c0 b43d 5709 dd3d fb73 fa3d 9bbc 093e
00000010: 901d 8b3d d0b7 203e 944c 2d3d 43d7 fa3d
00000020: e481 133e 563d 353e cf99 583e b294 273e
00000030: 266e 7a3d c65e 373e e54b fc3d cd58 3e3e
00000040: 0999 a13d bac7 343e 1e3f 973d 78f6 a83d
00000050: b9f1 353e 34d3 163e d526 853e 63f8 123e
00000060: 9fb1 413e 50bc 0d3e d49f a13d 3b3b 1e3e
00000070: 9bdb 353e 45f7 5e3e 2115 e23d d45e 063e
00000080: 74db 173e bef4 413e 13d3 ba3d a403 fb3d
00000090: 2550 ce3d 1c66 ef3d da40 3a3e 9ec9 fc3d
000000a0: 6931 4c3d d078 cf3d 2c21 683d 65a7 133e
000000b0: fc98 0f3d 3499 3f3e 59df 1f3e ef50 ad3d
000000c0: 8679 843d c407 1f3e 2b98 a63d 1c07 2a3e
000000d0: 083b 823d 342f 153d 6cb5 b13d 0455 673e
000000e0: 19e2 053e 95fe f33d 0789 ef3d 2b86 f23d
000000f0: 7dd3 de3d cd91 393d 02e3 d83d 81d4 0f3e
0.08825773 0.10792797 0.12229153 0.13450854 0.06792748 0.15695119 0.04230936 0.12248089
0.14405018 0.17699179 0.21152423 0.16365317 0.061140202 0.17907247 0.12319163 0.18588562
0.07890517 0.17654315 0.073850855 0.08250135 0.17767991 0.14729005 0.2600619 0.14352565
0.18915413 0.13841367 0.07891813 0.15452282 0.17759554 0.21774013 0.11039186 0.13122112
0.14829808 0.18941018 0.091222905 0.12256554 0.1007388 0.11689398 0.18188801 0.12343143
0.04985181 0.10130465 0.05667226 0.14419325 0.035058007 0.18710786 0.15612544 0.084627025
0.06468491 0.15530306 0.081344925 0.16604275 0.063589156 0.03642197 0.086771816 0.22591025
0.1307453 0.11913792 0.11696058 0.11841997 0.10880182 0.045305062 0.10590173 0.14045908

cnn.convolutions.10.running_var f4 [64]
00000000: adda ca3d 5342 883e 26ca ea3d ef6a 0b3e
00000010: 3b2c 2e3d a523 103e c64b d73d 4e91 bb3e
00000020: af9f e43c 75af 153e daa9 6b3f 585b 9c3d
00000030: b64d a93d 5bdc 123f 1cf0 153d a662 533f
00000040: 8e8a 813e c18a 8b3e f743 3b3e 9559 f83d
00000050: c54a 853d 6b45 603d 319e 363e d5ef 543e
00000060: 6973 d53e 9cb1 863e 38a8 5a3e 3ab4 9a3e
00000070: 0788 f43e d1ed 313f 8e59 9d3e af4e 443e
00000080: f10f 6a3e 9d3c 303f 4aca e73d 469b b23e
00000090: 9d71 b73c 2e06 523d 0302 ad3d c199 a43e
000000a0: 1f76 233d a32c 823e 2291 3b3e e429 463d
000000b0: 241a 5f3d e31c 893e aaa6 c33e a0eb 053e
000000c0: c9f1 e13d 6753 cb3e 7779 db3d 2a6d 573e
000000d0: 5588 023e 81eb b83d b84d da3d d318 5f3f
000000e0: 9863 cc3d 1efe dd3d 736e b93e d5d4 7d3e
000000f0: c63e f23d 92a9 8c3d e1b7 5b3d adae ce3e
0.0990499 0.266131 0.11464338 0.1361501 0.04252265 0.14076097 0.105124995 0.36634296
0.027908174 0.14617713 0.9205605 0.0763461 0.08266775 0.57367486 0.03660594 0.825724
0.2530102 0.27254298 0.18287645 0.121264614 0.06508402 0.054753702 0.17833783 0.20794614
0.41689613 0.2630738 0.21353233 0.30215627 0.4776003 0.69503504 0.30732387 0.1917064
0.22857644 0.6884249 0.113178805 0.3488409 0.022393042 0.051275425 0.08447649 0.32148555
0.03990757 0.2542468 0.18317083 0.048379794 0.05446829 0.2677985 0.38213092 0.13078165
0.11032445 0.39712068 0.10716527 0.21037737 0.12747319 0.09029294 0.10659355 0.87147254
0.099799335 0.10839485 0.3621708 0.2478822 0.11828379 0.068682805 0.053642157 0.40367642

fc.0.weight f4 [128, 1040]
00000000: 61d1 0dbd 3ee3 03bd d22a 103b d734 163d
00000010: 6fdd cc3c badc 37bb cd25 733c 0ac5 8cbc
00000020: 6fc3 683c 7954 1d3d 9cf3 833c c33a e13c
00000030: 74dd b2bc a8bb 06bc 0dd3 683c 1caa 7bbc
00000040: 38aa c53c b7ac bdbc 0407 a6bb 11fc 56bb
00000050: 1b7b 0dbc 75d2 e437 f01d 99bb 54d2 293c
00000060: 4a58 733c f5d0 01bc ad2f 683b a4ad 1b3c
00000070: 74b0 013c 2576 b83b d77d 593b af4a 403c
00000080: 077d 0dbd b9d7 20bd 0a2f 2d3c 976b 6dbc
00000090: 1db8 3f3c 63b7 a63b 0b5e 343c cfe0 da3c
000000a0: 617e bf39 06b0 7d3c eb57 543c 8f8a 803c
000000b0: e287 96ba 86b7 073c 872c a63c 20af 09bc
000000c0: a781 51bc d75a 693a f642 a2bb 0412 88b9
000000d0: 7bdb 033b 7287 2cbc 81eb 953c e14e 473c
000000e0: 2cd7 8abc 3f1e c13c 6cf5 883b b2a5 043d
000000f0: d439 993c 0c90 903c aa32 e63b 2bae 6b3c
00000100: 93ff b83c 4c6b 07bd ac39 8fbd 3ffa 4bbd
00000110: cdd6 06bd 83cc 5fbd 0380 5bbd 4f55 81bd
00000120: a56f 82bd 697a 1dbd 421b e4bc ba57 84bd
00000130: 35e0 aabd de17 14bd 3932 82bc 6ad8 353c
00000140: 4c7a 84bb 84fe 083c 0fb2 0d3d 7ad1 623c
00000150: 97fc 44b9 aaee 613b 1777 273c 00d6 263c
00000160: cba7 723c 5b79 0f3c 12b7 e13c 4872 c3bc
00000170: 1388 fe3b af65 92ba 317d b33c 2e39 0cbc
00000180: ba77 30bc 56b3 853c ba44 e93a 3cda b9bb
00000190: 6ff1 25bc e55f a93b 7e0d a5bb bf96 dabc
000001a0: 2292 c5bc d022 78ba e613 a8bc f2be 443a
000001b0: e151 78bc 6f94 35bd d1ca 0aba 16d1 80bc
000001c0: 5437 783c a5e1 32bc 82e0 24bb 6929 14bc
000001d0: 8e7a 103d bfa2 da3c 0b67 87bb d396 22bd
000001e0: 346e 1c3b ddcd 9cbb 6aca 753c 0097 60bc
000001f0: 6deb a33c 5357 0fbc 4a60 553a ae0d 00bc
00000200: 6ee1 58bc f174 03bc 4cd2 7c3c e402 7f3b
00000210: 278d dfbc cb7e 7c3c a17b 1b3d 9fd5 2e3c
00000220: 5ed3 e83c aea1 a43c 2758 fe3c 5156 523c
00000230: 9dcf be3c 631a c83c 33a8 b23c 3cba b73c
00000240: cc66 89bc 7ede 8bbb 3775 c83c 6ba3 833c
00000250: 29b7 bdbb cc63 87bc 1281 8dbc 351a a5bc
00000260: 67a7 31bc 837a 96bc 9df6 91bc f2a1 b03c
00000270: 73b2 633c b835 b4bc 37fb 3bbc f94f 2b3b
00000280: ab96 23bd 4664 9f3c 751e 5bbc 9400 fd3c
00000290: 0a6d 20bc 8a75 93bc be87 1f3c e982 453c
000002a0: 57aa 8b3c 256b 893c 2a43 e43a e8b0 083d
000002b0: 2a44 5ebc 5fd0 0b3d e71c 723c a9be c53c
000002c0: 6e82 a5ba cbef 4bbc 0620 12bd c643 493c
000002d0: c762 0bbc b58d 273c 7cad e5bc 4dd4 04bb
000002e0: 1e4e eabc 2f5f 2c3c 6d91 16bc bf4d a03c
000002f0: 80bd 12ba f426 03bc 1839 e83b 320d a9bc
00000300: 888b ff3c 5553 1a3c e02f 1dbc e254 a73c
00000310: 2f50 2bbc 2ddb 8eba 67eb 61bc 6dac a93c
00000320: 997a 83bc 9edb 4c3c 5125 ea3b 2d7f 26bb
00000330: 05b8 edbc 5307 db3c 1771 1d3b d19f d83b
00000340: 0eae 163b d52f a33b ec0b 26bb 3780 4f3c
00000350: efe0 da3c 91b5 24bc c6db 1d3b 69d4 60bc
00000360: ac71 393c 02f5 36bc e01c cbbb dbbd 26bd
00000370: 4157 903c e6c2 d4b9 4d37 b6bc bb02 9b3c
00000380: c862 5d3c 1420 863c 715e b7bb 6970 89ba
00000390: 1804 b73c 8ca3 bcbb 26d9 acbc b5c4 aebc
000003a0: 7b54 a13c abbf bbbc f00e 783a 2ed0 9bbc
000003b0: 1ac2 4d3c 19df d0bb d18a 5cbb afb7 f3bc
000003c0: e03d fbbc eb20 56bc b677 81bc 366f 293d
000003d0: f0db b13c d0e8 1a3b 7699 06bc 4a52 1f3c
000003e0: 31ec a43c d681 5abb 4061 6e3c 25f5 563c
000003f0: 0ada bc3c c391 983c ae07 6d3c ec2f fdbc
-0.034623507 -0.032199137 0.002199818 0.036671486 0.025007932 -0.0028055147 0.014840555 -0.0171838
0.014206751 0.038410638 0.016107373 0.02749384 -0.021834113 -0.008223452 0.014210475 -0.015360381
0.024129018 -0.023153646 -0.0050667543 -0.0032804052 -0.008635308 2.727772e-05 -0.0046727583 0.010365088
0.014852593 -0.007923354 0.0035428808 0.009501848 0.007915605 0.0056293183 0.0033186579 0.011736556
-0.034543063 -0.03926823 0.010570297 -0.014490983 0.011701611 0.0050877794 0.01100875 0.026718525
0.00036524519 0.015483862 0.012960414 0.01569107 -0.0011484588 0.0082835015 0.020284904 -0.008403569
-0.012787259 0.0008901781 -0.00495183 -0.00025953364 0.0020119834 -0.01053034 0.018300774 0.012164802
-0.016948305 0.023573993 0.004179647 0.032384582 0.018704332 0.017646812 0.0070250826 0.014384787
0.022582805 -0.03306131 -0.06993422 -0.0497992 -0.032919694 -0.054638397 -0.05358888 -0.063150994
-0.06368951 -0.038446818 -0.027845029 -0.06462045 -0.08343545 -0.036155574 -0.015893089 0.01109896
-0.0040428992 0.0083614625 0.034593638 0.013843888 -0.00018786114 0.003447453 0.010221264 0.0101828575
0.014810513 0.008756961 0.027553115 -0.023858204 0.007767686 -0.001116922 0.021910282 -0.008558555
-0.010770733 0.016320866 0.0017796971 -0.0056717675 -0.010128363 0.005168902 -0.005037009 -0.02668321
-0.024117533 -0.00094656367 -0.0205173 0.000750526 -0.01515624 -0.04433101 -0.0005294504 -0.0157247
0.01514991 -0.010918056 -0.002515823 -0.009043076 0.035273127 0.026688932 -0.0041321567 -0.03969462
0.0023869397 -0.004785283 0.015001873 -0.013707876 0.02000972 -0.008748847 0.00081396534 -0.0078157615
-0.01323734 -0.0080234865 0.015430998 0.0038911635 -0.027288986 0.015411089 0.0379597 0.010671048
0.0284211 0.020096626 0.031047894 0.012837962 0.023292357 0.024426645 0.02180872 0.02242767
-0.01677265 -0.0042684665 0.024469955 0.016069135 -0.0057896567 -0.016527079 -0.01727346 -0.020154098
-0.0108431345 -0.018368965 -0.01781779 0.021561597 0.013897526 -0.021998271 -0.0114734685 0.0026140197
-0.03993861 0.019456994 -0.013373961 0.030884065 -0.009791622 -0.018000383 0.009736953 0.012055137
0.017048998 0.016774723 0.0017415036 0.033371836 -0.013566056 0.034134265 0.014777399 0.024138765
-0.0012627372 -0.012447308 -0.03567507 0.012284225 -0.008507437 0.010226657 -0.028036825 -0.0020268143
-0.028601702 0.01052074 -0.009189946 0.019568322 -0.00055976957 -0.008004893 0.007086884 -0.020636175
0.031194463 0.009419282 -0.009593934 0.020426217 -0.010456129 -0.001089906 -0.013789034 0.020712102
-0.01604967 0.012503533 0.0071455617 -0.0025405393 -0.029018411 0.02673689 0.0024023706 0.0066108485
0.0022991928 0.0049800673 -0.0025336696 0.012664846 0.026718585 -0.010053054 0.0024087294 -0.0137225175
0.011318605 -0.011166813 -0.0061985105 -0.040708404 0.01761973 -0.00040581002 -0.022243166 0.0189222
0.013512321 0.016372718 -0.005595975 -0.0010485771 0.02234082 -0.005756801 -0.021099638 -0.021334032
0.019693604 -0.022918543 0.0009462675 -0.019020166 0.012558484 -0.0063742516 -0.0033652077 -0.029750673
-0.030669153 -0.013069372 -0.015804153 0.041365825 0.02171132 0.0023637302 -0.008215299 0.009724209
0.020132156 -0.0033341548 0.014549553 0.01311997 0.023053188 0.018624192 0.014467163 -0.03090664

fc.0.bias f4 [128]
00000000: 9c40 14bd 2e74 033e fa09 823d 1f08 bfbb
00000010: 7637 b93c 1700 bcbb 917c 0c3c 98f2 98bc
00000020: 8d34 16bd 654f 163d 5397 213d 4584 383d
00000030: f2d9 ac3b da9b 613c 5d74 c43a dce8 80bc
00000040: dda2 d93c 1b95 513d ff08 17bc 57e2 d73b
00000050: b270 243d 6177 dabb 0c29 003d c8c2 4f3d
00000060: dced 6b3c e47c 41bb 1b8b 63bc da20 8a3c
00000070: 56da 99bc 82d1 883c 62ea b53d 7df9 3b3b
00000080: 8286 95bc 7b35 523b 672c a43c ade1 6f3c
00000090: 48e5 98bc 6473 a639 6cd5 7a3c 6a4f 603c
000000a0: 8195 82bc 493f c0bc 6a5b a9bc 8e6a 5a3c
000000b0: 7b21 c3bc 499a 973b f96a 06bd 87e1 83bb
000000c0: 756d 08bc 9aa6 83bc ca20 3abc e444 6d3c
000000d0: 9880 103b 8431 833c 0567 193d ed8e 013b
000000e0: 9b9e f93c cee5 9e3c 53c5 843b 699a 81bc
000000f0: 2685 28bc 5b5c 883c ffd2 99bc 99d3 c73c
00000100: 03ff a63c 0dd3 1c3d b5ff 16bc a82d 373d
00000110: 222a 163d 16f4 e7ba c71a 433d f677 b63c
00000120: aa39 c2bc 98b8 db3b ef97 acbc bb70 4c3c
00000130: e105 1c3d d0e5 90bc e678 3f3d 76ba 96bb
00000140: d536 f53b aff2 d23c 1290 833c e712 ec3c
00000150: 691f debb be7e 973c 2904 583c a1eb 82bd
00000160: 290e 283c 1f45 a13d 350b 1d3c e67b c1ba
00000170: 43b8 35bc a7cf 09bc 21c3 b63c 49cf fc3b
00000180: 0533 7cbc d096 903c 1602 183d 500c 683d
00000190: 374b 83bc 357a c83b 8897 153d c1ca 98bb
000001a0: 9a36 c8bb 6456 63bb 8f19 3f3c 4f7e cf3c
000001b0: e3a2 533d 7d32 d23b d1f4 a4bc 9c2d 743c
000001c0: 004f 093d 0b6a b4bc d9da b13d cfe2 9f3b
000001d0: 26a3 443d 05d4 0d3d a628 b8bc c3c8 2bbd
000001e0: 181d 0f3c 4d67 263c 76cd a13c 0a6b 873d
000001f0: f179 013d aec2 a43c 48b8 f3bc a94a a93c
-0.03619443 0.12837288 0.06349559 -0.0058298255 0.022609454 -0.0057373154 0.008574621 -0.018670365
-0.03667121 0.03669681 0.039450955 0.045048017 0.0052750045 0.013770068 0.0014988292 -0.015736036
0.026566917 0.05116759 -0.009218453 0.006588261 0.040146537 -0.006667063 0.031289145 0.050722867
0.014399972 -0.0029523904 -0.013888146 0.016861368 -0.018780869 0.016701464 0.088825956 0.0028682642
-0.018252615 0.0032075334 0.020040704 0.014641208 -0.018664017 0.0003174796 0.015309673 0.013690809
-0.01594043 -0.023467677 -0.020673472 0.013331069 -0.023819676 0.0046265465 -0.03281686 -0.0040246877
-0.008326878 -0.016070653 -0.011360357 0.014481757 0.0022049304 0.016014822 0.037451763 0.0019769028
0.030471137 0.019396689 0.004051843 -0.015820699 -0.010285651 0.016645601 -0.018777369 0.02439289
0.020385271 0.03828721 -0.009216239 0.044721276 0.036661275 -0.0017696645 0.04763296 0.022273999
-0.023709137 0.006705355 -0.021068541 0.012478049 0.038091544 -0.017687708 0.046746157 -0.0045998646
0.007483343 0.025750486 0.016059909 0.028817607 -0.0067786467 0.018493053 0.013184586 -0.06392599
0.010257282 0.07874512 0.0095851915 -0.0014761656 -0.011091295 -0.008411325 0.022309842 0.00771514
-0.015393023 0.017650038 0.037111364 0.056652367 -0.016027076 0.006118084 0.036521465 -0.004662842
-0.0061100246 -0.0034688944 0.0116638085 0.025328783 0.051669013 0.00641471 -0.020136269 0.014903452
0.033522606 -0.022023221 0.0868432 0.0048793326 0.048007153 0.034626026 -0.02248032 -0.04193951
0.008734964 0.010156465 0.019751292 0.06612213 0.031610433 0.020112362 -0.029750958 0.020665484

fc.2.weight f4 [128]
00000000: 4a21 853f e13f 723f 4829 733f f0f8 563f
00000010: 3858 4a3f 727c 473f cbcd 443f 02c5 6b3f
00000020: 795a 6a3f 27c6 5f3f 5a74 703f 136d 533f
00000030: d4fc 493f 144e 6c3f 4600 543f 4b92 7a3f
00000040: 77cd 5b3f fcad 693f f93b 4e3f 373b 883f
00000050: 1586 4d3f 2191 473f c5fe 493f 0dec 5e3f
00000060: e096 593f 3330 663f fc97 4b3f a3b0 693f
00000070: f0b3 743f 3769 453f 5a29 623f e687 523f
00000080: 6673 4d3f 7372 483f cec4 723f 8a44 583f
00000090: fc39 6a3f 2c3c 533f 5572 563f 5c69 463f
000000a0: 648d 813f 7ce7 723f 07ec 733f d6ef 583f
000000b0: 03d9 573f 215d 513f d08d 693f f4aa 703f
000000c0: 836e 473f 3d94 4e3f d9fb 573f d886 593f
000000d0: 58bb 633f 35ea 453f edb4 693f dcdb 553f
000000e0: 4ab0 533f 735d 773f 1e5e 5b3f 1c50 443f
000000f0: 8fbd 563f a97d 573f dee5 5f3f 037e 703f
00000100: 2a32 543f 657e 5c3f f317 773f c214 6a3f
00000110: dd11 423f c783 5e3f ffc7 673f ad5d 663f
00000120: 3692 6a3f e7e2 6c3f 6067 5e3f 6d98 4b3f
00000130: 7eea 5a3f ca24 543f 4479 583f aa17 553f
00000140: 1972 453f bce3 553f de09 423f 937e 583f
00000150: 77ca 4c3f b04f 553f 90f8 673f 3046 693f
00000160: 4f8d 493f 7eb6 763f e700 5a3f b733 813f
00000170: 1cf2 693f 8b6b 533f f607 523f f630 6d3f
00000180: 1cd0 4d3f 1f32 473f aae7 633f d2d8 513f
00000190: a84f 4c3f 044c 6c3f 2d3c 4f3f 5521 663f
000001a0: 169d 5d3f e984 753f 0b2d 583f ec15 3f3f
000001b0: 402f 633f 80ce 4f3f 9735 5c3f 7eae 693f
000001c0: a83b 523f e32b 4e3f 0f3e 5f3f 483d 4b3f
000001d0: 13b3 4c3f fb14 493f 4f7f 543f 66cb 783f
000001e0: 5248 483f 4be5 6d3f 9787 4d3f 6ec1 633f
000001f0: a9c3 633f 7750 553f 4ab0 553f 79d8 523f
1.0400784 0.9462872 0.94984865 0.839736 0.7904086 0.77924263 0.76876515 0.92097485
0.915443 0.8741173 0.9392754 0.8258831 0.7890141 0.9230664 0.8281292 0.97879475
0.8586039 0.91281104 0.8056026 1.0643071 0.8028272 0.77955824 0.7890437 0.87078935
0.8499584 0.89917296 0.79528785 0.9128515 0.9558706 0.7711367 0.8834435 0.82238615
0.8025421 0.78299636 0.9483155 0.8447958 0.9149473 0.8251369 0.83768207 0.77504516
1.0121274 0.9488447 0.95282024 0.8474096 0.8431551 0.8178273 0.91232014 0.94010854
0.77903 0.80694944 0.84368664 0.8497138 0.8895774 0.77310497 0.91291696 0.83538604
0.8269087 0.9662697 0.85690486 0.7668474 0.83882993 0.8417612 0.87460124 0.9394228
0.82889044 0.8613036 0.9652092 0.91437924 0.7580851 0.86919826 0.90539545 0.8998669
0.9162935 0.92533726 0.8687649 0.7952946 0.85514057 0.82868636 0.84560037 0.83239233
0.77127224 0.8355062 0.75796306 0.84568137 0.79996437 0.8332472 0.9061365 0.9112272
0.78731245 0.9637221 0.85157627 1.0093907 0.91385055 0.8258597 0.820434 0.92652833
0.80395675 0.77810854 0.89025366 0.81971467 0.79809046 0.9230349 0.80951196 0.8989461
0.8656782 0.9590593 0.8444373 0.74642825 0.8874397 0.8117447 0.8601927 0.9128188
0.8212228 0.80535716 0.8720407 0.7939038 0.79960746 0.7854764 0.8300676 0.9718536
0.7823535 0.92928 0.8028502 0.88967025 0.8897043 0.83325905 0.8347212 0.8236156

fc.2.bias f4 [128]
00000000: 0659 c33b 522b 553d 1789 223d d824 a9bc
00000010: 774b 123e 99e4 183d 40a5 7dbd e4c8 d3bd
00000020: 492f 98bd 899d de3d 514d 873d 6462 bd3d
00000030: e7b9 74bd 3c77 023d 0351 22bd 27d8 cebc
00000040: bd23 1cbe 36f6 00bc 8cd2 efbc ff4e 05be
00000050: a98c bebc 2767 d63d eb74 7abd a07e 9d3d
00000060: f774 e03d 8598 32bc 9fdb 723b 98fe 08bd
00000070: bf13 113d 6e3b 343e 7221 cb3c f79d b4bd
00000080: e1ec 993c 1252 15bd 73bc 96bc 6afc a5bd
00000090: b78a f6bc 5e6f 133d c0e2 613a ef50 6fbd
000000a0: 4424 85bc e4bb 26be e6dd 813d d512 1d3d
000000b0: 5d10 92bd 7a27 11be 1174 6fbd 5b1d a43c
000000c0: 0a66 053e ea0c 94bd 9b68 a0bd aa2e c9bd
000000d0: db8f a73d 9743 813d 4edf 0b3d 82b5 c6bd
000000e0: 5071 8ebb f73c 1cbd c1a3 dfbd 2e6d c1bd
000000f0: 142e a9bc 9e12 b2bd 6336 22bd 93e1 3e3d
00000100: 8638 7b3e 1d58 86bd 253e 0ebb 7649 393d
00000110: 489a aebc e8bc 923c 457f 3a3d 36b2 9a3d
00000120: 3bfd 31bc 7c92 7e3c 4aad 053d 527a 2fbe
00000130: 85f0 96bd 0542 1b3d 9a9c 5cbd c55e 9d3c
00000140: 279c 9c3d 9614 633d 017b f03d 81f7 903c
00000150: 805c 35be eb67 11be 1c54 a23d c926 b9bc
00000160: 9c1c 43bd 0159 2fbe 6196 ea3c e4d5 7ebd
00000170: ae5b 92bd e9be f5bb a8cf 16bc 0567 f1bd
00000180: 996b cc3b 0d34 2d3e 51f3 00be f55a 39bd
00000190: c9a6 87bd 76ed cebb 7b7d 1f3e b980 d53a
000001a0: b03b a23d 447b 03bd 9fc0 03be 3f6d 533d
000001b0: d4f2 35bc 6a57 733e 705b 2a3c 937a 223d
000001c0: 447c aa3d 676c b8bd 5755 b5bc 2cd1 953d
000001d0: dde1 173e a86c 0a3e c58d 8fbc 24f9 d23d
000001e0: d16c 793d 200a 933c 1fb6 693e 3ff4 49bd
000001f0: 8e4a 22bd c1cb 5bbc a2fa 733c af4b c83d
0.00596154 0.052043267 0.03968152 -0.020647451 0.142866 0.037327383 -0.061925173 -0.10341051
-0.07430894 0.10869891 0.06606544 0.09247282 -0.059747603 0.031851992 -0.03962804 -0.025249554
-0.15248008 -0.007871201 -0.029275201 -0.13018416 -0.023260431 0.104688935 -0.061146658 0.076901674
0.10959809 -0.010900621 0.0037057174 -0.033445925 0.035419222 0.17600796 0.024796221 -0.08819192
0.01878971 -0.03645522 -0.018400406 -0.08104785 -0.030095441 0.03599488 0.0008616857 -0.058426794
-0.016252644 -0.16282612 0.06341152 0.038348038 -0.07132027 -0.14175215 -0.0584603 0.020033529
0.13027206 -0.07229026 -0.07832452 -0.098233536 0.08181735 0.0631172 0.034148507 -0.097025886
-0.004347004 -0.038144078 -0.109199055 -0.094446525 -0.020651855 -0.08694957 -0.03960265 0.046601843
0.2453328 -0.06559775 -0.0021704521 0.045236073 -0.021313801 0.017912343 0.04553153 0.07553522
-0.0108635975 0.015537854 0.032635964 -0.17136505 -0.07370094 0.037904758 -0.053860284 0.019210229
0.07646971 0.055439554 0.11742211 0.017696144 -0.17711067 -0.14199798 0.07926199 -0.022601502
-0.047634706 -0.17123796 0.02863616 -0.0622157 -0.07146393 -0.007499565 -0.009204783 -0.117872275
0.0062384126 0.16914387 -0.12592818 -0.04525276 -0.066236086 -0.0063149286 0.15575211 0.0016288973
0.07921541 -0.032099977 -0.12866448 0.051617857 -0.011105258 0.23763815 0.010397777 0.039667677
0.08324483 -0.09005051 -0.02213542 0.07315287 0.14832254 0.13518012 -0.017523656 0.10301426
0.06089479 0.017949164 0.2282338 -0.049305197 -0.039621882 -0.013415278 0.0148912985 0.097800605
