trained_models/regression_cnn_gammas_m2.pth (torch, 672806 bytes, 36 tensors)

cnn.convolutions.0.weight f4 [16, 1, 3, 3]
000000 42 aa 2b be 25 03 91 3e c0 ee 98 3d 1a 82 fe 3d
       -0.16764167 0.28322712 0.07467413 0.12427159
000010 bc 2f 6e bd 61 e3 d8 3c 65 89 81 bd 9a 3c 9c be
       -0.05815099 0.02647561 -0.06325034 -0.30514985
000020 9d af b5 3d 73 8a a7 bd 98 cf 81 be 38 db 98 be
       0.08871386 -0.08180704 -0.25353694 -0.2985475
000030 ab e0 5c 3e b7 ef 7b 3e 14 05 06 be 95 b5 90 3e
       0.21570079 0.24603163 -0.13087875 0.28263536
000040 81 c2 88 3e 4d ff 92 3c 94 f8 42 be 69 bc 29 be
       0.26710895 0.017944003 -0.19040138 -0.16575779
000050 a0 49 cf bd 73 5d ab be fe cd cd 3d 80 90 be 3d
       -0.10121465 -0.33469734 0.100490555 0.09304905
000060 e4 1f 97 bd 7d aa 8b 3e 67 af 2f bc 69 7a 1e be
       -0.073791295 0.2727851 -0.0107229715 -0.15476383
000070 7b 4a 9c 3e 8a 5a aa 3e 26 be b2 be 89 a6 c1 3d
       0.30525574 0.332722 -0.34910697 0.09455592
000080 78 38 8c be 6f 06 9f ba b7 a9 44 3e 7a 3d c6 bb
       -0.27386832 -0.0012132655 0.19205366 -0.006049809
000090 11 0f 01 be 22 ff 81 3e 74 9d 5c be 6a ae ea bd
       -0.12603404 0.25389963 -0.21544439 -0.11459048
0000a0 84 aa c0 bd 04 1b 33 3e ba 2f 93 3e 75 4c 83 3d
       -0.09407523 0.17490774 0.2874735 0.064110674
0000b0 3b 9c 2e be 55 fb 0c 3e 8f 2d 8c 3e ee 28 4d bb
       -0.17051785 0.1376775 0.27378508 -0.0031304914
0000c0 86 ea 45 3e d5 f8 c9 3d 8d 4d 93 be 87 c5 84 be
       0.19327745 0.09861914 -0.28770104 -0.2593195
0000d0 e2 4b 88 be 6b 72 8c be 8a 18 a6 3e 35 54 36 be
       -0.26620394 -0.27431044 0.32440597 -0.1780556
0000e0 0e 6b 9a 3d ff 99 5d 3e ad 94 17 3e 24 22 4e bd
       0.0753995 0.21640776 0.14802809 -0.050325528
0000f0 a6 34 63 be 84 b4 61 be f0 7d 86 be 75 e0 1c bd
       -0.22188053 -0.22041517 -0.26267958 -0.038299996
000100 af 7b 9e bc 95 c4 03 be 8c f6 b6 3d 8d 79 53 be
       -0.019346086 -0.12867959 0.08933744 -0.20651837
000110 4b be b2 3c 29 fb 8e bd 1e 4a 70 be 15 9e 1a 3d
       0.021819254 -0.06981499 -0.23465773 0.037748415
000120 5f 7c 36 be cc f0 21 3e f7 62 1f 3e 09 24 50 be
       -0.17820881 0.15814513 0.15565096 -0.20326246
000130 5c e9 18 3e 50 f9 17 3e 8e 28 37 3e 34 76 4c 3e
       0.1493277 0.14841199 0.17886564 0.19966966
000140 0e 5d 4c 3e ff a5 c2 3d b7 f6 71 3e 25 c3 44 bd
       0.19957373 0.095043175 0.2362927 -0.048037667
000150 96 86 98 3e f2 00 c3 bc b8 19 97 be 84 da b4 3c
       0.2979018 -0.023804162 -0.2951181 0.022076853
000160 40 94 bd bc 57 c1 81 be d5 f5 05 be aa e0 66 3e
       -0.02314198 -0.2534282 -0.13082059 0.2254664
000170 e0 c7 1d be c7 71 71 3d 97 55 32 be 1b 60 ad 3c
       -0.15408278 0.058946397 -0.17415462 0.02116399
000180 83 1c 14 be 42 55 ae be 94 f9 a0 be 2c 85 bd bc
       -0.14464001 -0.34049422 -0.31440413 -0.02313479
000190 60 3b ed bd 29 a9 f1 3d 6d eb dc 3d 5e 78 fc bd
       -0.115835905 0.11799843 0.107870914 -0.12327646
0001a0 a1 9a 8e bc aa 53 9a 3e e6 03 5f 3e 57 f7 ce 3c
       -0.017407717 0.30141956 0.21778831 0.025264425
0001b0 55 ba 94 3e c7 2b 29 be ca d1 01 be 2e 71 d9 3d
       0.2904841 -0.16520606 -0.12677684 0.106172904
0001c0 d0 fc 7c 3e bf c5 28 be f1 8d 3a bd 52 fe 29 3d
       0.24705815 -0.16481684 -0.045545522 0.041502304
0001d0 2f 0b 52 bd bf 9c 85 be 12 77 9a 3e 42 0e 84 3e
       -0.051280197 -0.2609615 0.30168968 0.25792128
0001e0 53 a7 a4 3e 8d cd 89 3e 2b 8d 88 be 1b 9f dc 3d
       0.32158908 0.26914635 -0.26670203 0.107725345
0001f0 45 11 3f be f9 be 17 be 9a e7 53 3e 37 85 ee 3d
       -0.18658932 -0.14818944 0.20693818 0.116465025
000200 c1 d0 45 bc f0 cc 43 3e a7 82 62 3e dc dc 7e 3e
       -0.012073697 0.19121146 0.22120152 0.24888939
000210 5d 6a c9 3d 5c b3 46 be 5e 6c 3d 3e 39 ba e3 3c
       0.0983474 -0.19404358 0.1849837 0.027798759
000220 2e 03 1d 3c 55 f7 7d 3e f5 72 ce 3d 12 a0 1e be
       0.009583278 0.24801381 0.1008052 -0.1549075
000230 b1 26 00 3e 7a 94 8e bb 06 2b 53 3e 7d f4 93 be
       0.1251476 -0.004351196 0.20621881 -0.28897467

cnn.convolutions.0.bias f4 [16]
000000 bd 66 34 3b 1c f8 94 3e 36 ce 9a 3e cd d4 1b 3e
       0.0027527057 0.29095542 0.3023545 0.15217896
000010 c6 2f 3c 3e dd ba ac bd a3 d0 f3 bd 5f 26 f6 bd
       0.18377599 -0.08434079 -0.11905029 -0.120190375
000020 05 51 2a 3b 6c 5a cd 3e b8 28 e5 3e cf 96 22 be
       0.0025988233 0.4010805 0.44757628 -0.15877841
000030 26 5c bd bd 48 c0 17 be 4b 07 5a be 7c c2 24 3e
       -0.092460915 -0.14819443 -0.21291845 0.16089815

cnn.convolutions.2.weight f4 [16]
000000 7a f8 72 3f 64 c0 85 3f 92 f7 71 3f e6 36 6f 3f
       0.94910395 1.0449338 0.9451839 0.93443143
000010 80 38 75 3f 14 6b 7f 3f b9 3b 76 3f 46 20 4c 3f
       0.9578934 0.99772763 0.9618488 0.79736745
000020 79 3b 7b 3f 22 97 7b 3f 61 8e 72 3f 5a 4b 77 3f
       0.98137623 0.98277485 0.947485 0.9659935
000030 b0 b9 73 3f e9 85 7b 3f cc 47 6d 3f 9c e2 76 3f
       0.9520521 0.98251206 0.9268768 0.9643953

cnn.convolutions.2.bias f4 [16]
000000 d7 8d f2 bc ca 1f 7e 3b 8c 41 81 3b 34 9b a5 bc
       -0.02960865 0.0038776272 0.0039445814 -0.020215608
000010 65 46 dd bc b0 83 27 bc b7 32 89 bd 32 a9 9c 3c
       -0.027011106 -0.010224268 -0.06699126 0.019123647
000020 d0 cc 12 3d cc 1b a6 3c 47 ac 0d 3c 6e 4e ff 3b
       0.035839856 0.020276926 0.008647031 0.007791332
000030 1a ad d7 bc d0 c7 ba bb c2 31 16 3c 53 8c 85 3c
       -0.026327658 -0.005700089 0.009167137 0.016302263

cnn.convolutions.2.running_mean f4 [16]
000000 74 7b 56 3c ae 69 99 3e 9e 81 a7 3e 0b 82 22 3e
       0.013090957 0.2996344 0.32716078 0.1586992
000010 dd f4 3f 3e 73 a3 5a 3c ee 7d 48 3c 0c 98 b8 38
       0.18745752 0.013344633 0.012237055 8.802125e-05
000020 3e ad 7a 3d 66 13 d5 3e 80 a1 fc 3e 4b fd f0 3c
       0.061200373 0.41616362 0.49341965 0.029417654
000030 30 4e 71 3c c2 a6 06 3d a1 19 86 3d 43 01 29 3e
       0.014728114 0.032873876 0.06547857 0.16504388

cnn.convolutions.2.running_var f4 [16]
000000 44 6d 9e 3c 96 56 30 3e b0 29 a5 3c 56 b6 92 3d
       0.019339211 0.1722053 0.02016148 0.07163684
000010 cf 08 cc 3c e4 74 52 3d 33 88 37 3d 91 db bf 38
       0.024906544 0.051381007 0.044807624 9.148487e-05
000020 c1 92 07 3f 9f fe df 3d 1e 1e 21 3c 13 ce 2a 3e
       0.52958304 0.10937237 0.009833841 0.16680174
000030 60 de 5a 3d 00 32 80 3e da 19 28 3f 90 71 9a 3d
       0.05343473 0.25038147 0.65664446 0.075411916

cnn.convolutions.4.weight f4 [32, 16, 3, 3]
000000 65 a0 eb bd 1e 61 f9 3c 88 d7 7e 3d 47 0a 12 bc
       -0.11505202 0.030441817 0.062217265 -0.008913583
000010 b1 27 41 bd 51 10 36 bd 3a 0e f1 bd fe 46 99 bd
       -0.047156993 -0.044449154 -0.117702916 -0.07484244
000020 58 e9 04 3d d5 d7 3d 3d 4a 02 53 bc fa 5a f2 3c
       0.032449096 0.04634841 -0.012878964 0.029584397
000030 c6 18 96 3c 0d 78 ae bd 0f 22 b2 bc 35 94 32 3d
       0.01832236 -0.085189916 -0.021744756 0.043598372
000040 58 74 15 3c 83 30 83 bd a9 7c e4 3c 64 61 64 3d
       0.009121977 -0.06405737 0.027891474 0.05575694
000050 4c 48 0a bd 20 10 a1 bd 38 7e 7d 3d 81 65 53 3b
       -0.033760354 -0.07864404 0.06188795 0.0032256546
000060 3d cd 57 bd 99 a9 9b 3d b0 66 11 3c 4a 3a 8d bd
       -0.052685965 0.076007076 0.00887458 -0.068958834
000070 e5 12 06 3d 5c 06 d2 bc 39 ad 6d bd 5e 18 3c bc
       0.032732863 -0.025637798 -0.058026526 -0.011480419
000080 5c 45 aa 3d e5 96 ad 3c 09 27 41 bc f3 05 a6 3b
       0.083140105 0.021190116 -0.011789092 0.005066627
000090 11 bc 29 3b db 30 5b bd bd 06 18 bd b3 8a 3e bc
       0.002589945 -0.05351339 -0.0371158 -0.011629748
0000a0 82 62 93 bd 8c 61 32 3d b4 f0 5f 3a 3d a8 d7 3c
       -0.07196523 0.04355006 0.00085426425 0.02632534
0000b0 0b 04 51 3d ab f8 02 3d 53 33 8d bc bc b2 d8 bc
       0.051029246 0.03197543 -0.017236387 -0.026452415
0000c0 f5 68 a2 3c 80 6e 58 3d f0 f9 ee 3c 58 d2 13 3d
       0.019825438 0.052839756 0.029171914 0.03608927
0000d0 1e c7 e3 3c a1 44 68 3c ef e2 9f 3c 3b 52 f8 bc
       0.027804907 0.014176519 0.01951739 -0.030312648
0000e0 69 84 bc 3c 24 e5 37 bd a7 e1 3d 3c 60 0f 83 3d
       0.023012357 -0.04489626 0.011589444 0.06399417
0000f0 84 90 14 bd b1 e0 89 bd 7a 4c 5d bd a5 87 25 bd
       -0.036270633 -0.067323096 -0.05402801 -0.040412564
000100 85 fe 5c bc 53 dd 8a bd 6a 28 16 3c 9f dd 7a bc
       -0.013488417 -0.067804955 0.009164909 -0.015311628
000110 2c cd 89 bd 7b 94 56 3a 36 a6 28 3d b2 72 49 bd
       -0.067285866 0.00081855775 0.041174136 -0.049181648
000120 17 59 b9 bb 65 ef b3 bd 99 41 6e bd 4d 5b f3 bc
       -0.0056563723 -0.08785895 -0.058168028 -0.029706622
000130 ad ef b1 3c 4b ae 47 bc d5 ec c4 3d 24 ee 59 ba
       0.021720732 -0.012187551 0.096154846 -0.0008313379
000140 b2 73 75 bd 54 79 4c bb b8 0b 38 bd 31 6b f1 bc
       -0.05992479 -0.0031200247 -0.04493305 -0.029470058
000150 24 c0 c6 3d 99 b1 80 3c 58 b7 72 3d b4 b6 63 3c
       0.09704617 0.015709685 0.05925688 0.01389854
000160 e4 ae 04 3d cc 9f 52 bd 22 81 5b 3d 98 6a 5d 3d
       0.03239335 -0.051421925 0.053589948 0.054056734
000170 36 a1 b7 3c 2e 2c f9 3c 93 09 0e 3d f3 bc 75 bc
       0.022415739 0.030416574 0.0346771 -0.014998662
000180 ef 4e 05 3b 2c f8 15 bc b0 c0 b7 3c c5 74 d9 bc
       0.0020341238 -0.009153407 0.022430748 -0.026544938
000190 86 cf 78 bd eb ec 4a bd 66 a4 e8 bb ba 24 e2 bd
       -0.060744785 -0.04954235 -0.007099676 -0.11042161
0001a0 da 14 4c bd 40 1c a1 3d 07 2d a6 3d 6a 78 5d bd
       -0.049824573 0.078667164 0.08114057 -0.054069914
0001b0 b1 64 e7 bb 96 52 54 bc 68 0e c3 3d 10 22 88 3d
       -0.007061564 -0.012959143 0.09524232 0.06647122
0001c0 f9 22 2a bb 17 81 3c bb 71 a0 90 3d 1c 23 40 bd
       -0.0025960787 -0.0028763467 0.07061852 -0.046908483
0001d0 93 1d 40 3d 56 59 88 3d 16 f9 04 3d 2e ea 9d 3d
       0.046903204 0.066576645 0.03246411 0.07710682
0001e0 84 29 e1 3d 5c 0b 64 3d cd 25 b5 3d 0b 75 3c bd
       0.109942466 0.055674896 0.088451006 -0.04601006
0001f0 50 be 81 3d b5 2d 6c 3d 14 fb 06 bc 12 86 74 bd
       0.06335127 0.057660777 -0.008238573 -0.059698172
000200 af 78 0f bd 4e 05 88 bd 63 eb e7 bd 97 4f 1c 3d
       -0.035027202 -0.06641637 -0.11324193 0.03816184
000210 5a 26 07 3c 9c d2 44 3b 34 25 13 b9 c6 72 bb bc
       0.00824889 0.003003276 -0.00014032872 -0.022881877
000220 d2 5d 61 bd 1c 4c a2 3d 04 75 19 3d a3 de c4 bd
       -0.055021115 0.07924673 0.03746511 -0.09612777
000230 d1 63 e7 3c c9 72 04 bc 93 ee 12 bd 2c e3 4b 3d
       0.028245838 -0.008084008 -0.035872053 0.049777195
000240 d5 04 f1 bc 39 1c 21 bc 00 be 0e bd 8c b9 99 3d
       -0.02942125 -0.009833389 -0.034849167 0.075060934
000250 e9 ec 1e 3c d9 6a 83 3d ba 07 bf 3c a5 52 c0 3d
       0.0097000385 0.06416864 0.023319114 0.09390763
000260 50 c9 39 3d a6 57 28 b7 97 f4 e1 3d 89 c4 52 3c
       0.045358002 -1.0033988e-05 0.1103298 0.01286424
000270 cf 0f ed bc 62 81 95 3d e0 9f 20 3d 27 d6 ea bb
       -0.028938202 0.073000684 0.03921497 -0.007166642
000280 4e 99 8d 3d 69 b0 59 3d a1 1e 91 bd 65 b0 e4 3c
       0.06914006 0.053146753 -0.0708592 0.027916143
000290 43 a6 b3 3c b0 6a 0b 3d 0c e1 00 bd 40 0a c4 3c
       0.021929866 0.034037292 -0.03146462 0.023930669
0002a0 1b 97 e5 3c 76 df 5c bd f2 4f 92 3d e8 b8 ca 3c
       0.028026154 -0.053924046 0.071441546 0.024746373
0002b0 2b 37 cf 3a 56 45 a8 bd b1 01 c2 3c 57 94 e1 3c
       0.0015809288 -0.0821635 0.023682447 0.027536554
0002c0 a2 d9 8c bd 60 57 84 bd 19 99 80 3d 1a a5 96 bd
       -0.06877448 -0.06461978 0.06279201 -0.073557094
0002d0 77 f3 3b bd 54 a8 1a bc f4 39 10 3d 43 47 39 3d
       -0.045886483 -0.009439547 0.03521152 0.045233976
0002e0 c6 57 2e 3d a4 17 38 3b 18 a2 da bd 5f d5 79 3d
       0.042564176 0.0028090263 -0.10675448 0.060994502
0002f0 30 78 b1 bc 48 f2 a6 bd 3d c6 2f bc 2a 28 23 bd
       -0.021663755 -0.0815168 -0.010728416 -0.039833225
000300 c1 28 58 3c 9a 5b 24 bd d8 f1 bc bc eb 07 b1 3c
       0.01319331 -0.04012642 -0.023064539 0.02161022
000310 24 9a 8c 3d bd 53 b6 ba bb 87 a5 3b 87 77 3d bd
       0.068653375 -0.0013910454 0.0050515807 -0.04625657
000320 65 3c 47 3d 9b c2 83 3d c6 3f 7c bc e5 7e 13 bc
       0.04864158 0.064336024 -0.015396064 -0.009002422
000330 b8 65 2e 3c 47 a0 5d bc 12 78 b1 bc f7 94 a2 bd
       0.010644369 -0.013526983 -0.0216637 -0.07938569
000340 8c f4 5b bd 8f 21 95 bc 88 3b ee 3b 88 a8 a2 3b
       -0.053700015 -0.018204479 0.0072702803 0.004963938
000350 c1 ef ac bd 2d 7e bc bc f1 8f 3f 3b 76 a9 60 bd
       -0.08444167 -0.023009384 0.0029230083 -0.05484911
000360 ca 03 56 bd 81 75 3e 3d 74 18 55 bd 11 5a ac bd
       -0.052249707 0.04649878 -0.052025273 -0.08415616
000370 c0 e7 5f bd 2d b5 33 bc f1 c1 08 3b aa d3 23 3d
       -0.054664373 -0.010968489 0.0020867551 0.03999678
000380 a3 0a 6e 3d 14 76 ea 3c c0 c1 85 bc 3d c4 6b 3d
       0.058115613 0.028620757 -0.016327739 0.057560194
000390 77 4c 0b 3a 06 3c 33 3d 2c 56 95 3d 08 b3 91 bd
       0.00053138233 0.043758415 0.072918266 -0.071142256
0003a0 5b 99 55 3d f1 1b 19 3c 53 6d f1 3c aa 14 b9 bd
       0.052148204 0.009345041 0.029471075 -0.090371445
0003b0 ac 92 38 bd 54 d0 6d 3d f2 80 a3 bd e9 a8 2e 3d
       -0.045061752 0.058060005 -0.07983579 0.042641554
0003c0 9f c3 02 3e d1 25 d7 3b 80 a6 6e 3d b5 16 2f bb
       0.12769936 0.0065657874 0.058264256 -0.0026716415
0003d0 13 2c 42 3d 0c bb bd bd 72 34 9b 3c 93 a8 ab bd
       0.047405314 -0.09264192 0.018945906 -0.08381762
0003e0 e4 72 87 3d aa bc b1 3c 7f 2b a0 bd c4 10 59 3c
       0.066137105 0.021696407 -0.07820796 0.013248626
0003f0 2f 4e 48 bd 36 67 20 bd 39 e2 da bd 83 51 19 3d
       -0.048902687 -0.03916093 -0.1068768 0.03743125

cnn.convolutions.4.bias f4 [32]
000000 2f 2a 6b bb 9a 2d 92 bc 52 87 06 bc 71 74 5c bd
       -0.0035883298 -0.01784401 -0.008210974 -0.053821985
000010 8f b7 f5 bc 22 ec a1 bd 33 a0 e2 3c bc c7 a0 3d
       -0.029994754 -0.07906367 0.02766428 0.07850596
000020 bc 94 46 bd 0e 00 3a bd 1c 69 f0 3c b4 f8 e7 bc
       -0.048481688 -0.04541021 0.029346995 -0.028316833
000030 51 35 28 bd 3e 3d 94 bd 9f 1a d2 3c b5 47 c7 3d
       -0.04106647 -0.072382435 0.02564746 0.09730474
000040 b2 0d 2e bd 74 8f 3e 3d 8a 92 73 bd a2 c4 13 3e
       -0.04249353 0.046523526 -0.059465922 0.14430478
000050 3a 83 a3 bc 26 1e 8d 3d e1 8e ab 3c 32 7c 2d bd
       -0.019960035 0.06890516 0.020942153 -0.04235477
000060 7f 54 c5 3d f8 28 3b bd 65 f5 2c 3d 7a 88 d0 3d
       0.09635257 -0.045693368 0.042226214 0.10182281
000070 f3 e8 b6 3d 8a f0 bc 3d 79 b7 36 bc 15 89 c1 bd
       0.0893115 0.09225567 -0.011152142 -0.094499744

cnn.convolutions.6.weight f4 [32]
000000 e3 52 72 3f 5d 7e 6c 3f bc e8 65 3f d2 0c 6d 3f
       0.94657725 0.92380315 0.8980825 0.9259769
000010 f0 20 63 3f 71 9a 6c 3f 9a 4d 7f 3f b8 12 7b 3f
       0.88722134 0.9242316 0.99727786 0.9807544
000020 a7 59 6f 3f 3c 4c 70 3f 0e 94 6d 3f 5d 5a 62 3f
       0.93496174 0.93866324 0.9280404 0.88419133
000030 d6 12 6b 3f c9 f4 71 3f 31 4b 6d 3f 17 b4 75 3f
       0.91825616 0.9451414 0.9269286 0.9597792
000040 96 a0 77 3f 50 02 75 3f 76 f9 81 3f 3f 9b 70 3f
       0.9672941 0.95706654 1.0154254 0.93986887
000050 81 2d 68 3f f6 0e 69 3f 54 94 61 3f 4f 33 6e 3f
       0.90694433 0.91038454 0.88116956 0.9304704
000060 8f b5 6e 3f 19 fb 6d 3f 72 23 6e 3f 5e a4 71 3f
       0.93245786 0.9296127 0.93022835 0.9439143
000070 96 e9 6a 3f 06 94 6b 3f f1 f8 6f 3f 06 41 78 3f
       0.91762674 0.9202274 0.9373923 0.9697422

cnn.convolutions.6.bias f4 [32]
000000 63 bb 4f bd d5 e0 80 bb 78 38 06 3d 75 e6 0f bb
       -0.050715815 -0.003933052 0.032768697 -0.0021957431
000010 47 8a 9e 3c 47 d0 36 bc 05 c3 16 bc fa ca 55 bd
       0.019353045 -0.011158056 -0.00920177 -0.052195527
000020 df 13 2f 3d 0e 3b e2 bb d8 2f e5 37 04 ac fc bc
       0.04274356 -0.0069040125 2.7321206e-05 -0.030843742
000030 96 82 01 3c b1 77 f2 3a 99 c9 32 3c 53 3e 07 bd
       0.007904669 0.0018498806 0.010912322 -0.03301842
000040 55 bc f2 3a fd 4e 33 3d 39 ef 67 bd 74 4b 99 bc
       0.0018519262 0.0437765 -0.056624625 -0.018712737
000050 3e 6a 64 3d 49 33 cc bb 9f cc ae bc 19 91 86 3c
       0.055765383 -0.0062316996 -0.021337805 0.01642661
000060 97 a9 22 3d e2 da 94 bb 3c fb 44 3d e9 c5 57 bc
       0.039712515 -0.0045426944 0.04809116 -0.013169744
000070 2c e5 21 3c 71 65 3f 3c 0e 01 bb 3c ca 12 36 bd
       0.009881299 0.0116819 0.022827651 -0.044451512

cnn.convolutions.6.running_mean f4 [32]
000000 3e 41 da 3d f7 b4 a1 3d 02 a2 de 3d d9 e2 33 3d
       0.10656975 0.078958444 0.10870744 0.04391751
000010 38 51 b4 3d d5 97 5c 3d 9a f5 f3 3d 18 dc 4a 3e
       0.08804554 0.053855736 0.11912079 0.19810522
000020 56 d8 81 3d d8 96 c4 3c 8f 1c 01 3e b8 dc 65 3d
       0.06340091 0.02399771 0.1260855 0.056118697
000030 60 cd 89 3d 88 66 0c 3d 2a 69 ed 3d a8 5e 3d 3e
       0.06728625 0.03427747 0.11592324 0.1849314
000040 33 d1 25 3d 8f 74 e7 3d b0 34 35 3d 2f 93 47 3e
       0.04048271 0.11301529 0.0442397 0.1948974
000050 9e a0 f2 3d 76 6b 4d 3e 72 94 95 3d c7 41 6c 3d
       0.118470415 0.20060524 0.07303704 0.057679918
000060 74 05 1c 3e 4d eb a3 3d fa 6a fe 3d 38 42 60 3e
       0.15236455 0.080038644 0.12422748 0.2190026
000070 5f 97 b4 3d 4e 36 0b 3e 74 c9 4e 3d 8e 0d 86 3d
       0.08817934 0.13594934 0.05048509 0.06545554

cnn.convolutions.6.running_var f4 [32]
000000 de e9 9e 3d f6 c5 34 3e b5 24 0d 3f df 01 fd 3d
       0.077594504 0.17653641 0.55134135 0.123538725
000010 a3 62 04 3f 7f 7c 7b 3e 2a 8d 1f 3e fd fe aa 3d
       0.5171301 0.2455921 0.15581194 0.083494164
000020 57 4f 00 3e 72 c4 be 3d bc e4 03 3e ed 11 1c 3e
       0.12530266 0.09314813 0.12880224 0.15241213
000030 ab af dc 3d 5b 3f 71 3d 1c 82 7f 3e 64 6a 65 3d
       0.107756935 0.05889831 0.24951977 0.056009665
000040 73 ab f5 3d 1a e6 f7 3d 22 f9 31 3d 99 dc 64 3d
       0.11995592 0.12104435 0.043450482 0.05587444
000050 10 e5 d1 3e 5b c2 0c 3e b2 e4 0e 3f 33 d2 9f 3d
       0.40995073 0.13746016 0.5581771 0.07803764
000060 38 4e eb 3d 99 f0 85 3e 97 18 24 3e 81 13 3a 3d
       0.114895284 0.26160124 0.16025005 0.045428757
000070 36 92 30 3e 5f 93 19 3e ee 40 91 3d 8a db b7 3e
       0.17243275 0.14997624 0.070924625 0.35909683

cnn.convolutions.8.weight f4 [64, 32, 3, 3]
000000 56 47 32 bd 7c 0b 94 3d e1 6c 11 3d 67 9e 02 3d
       -0.043525063 0.07228753 0.035504226 0.031889345
000010 0d 73 13 bb a3 51 7b bd 82 05 66 3d 9b cd 92 b8
       -0.0022498996 -0.06135715 0.056157596 -7.0001195e-05
000020 6d 17 45 3d 80 62 c3 bc 23 3d 0a 3d d0 c3 24 bd
       0.048118044 -0.02385068 0.03374971 -0.040225804
000030 fe 94 67 3d 7f a9 88 3b 8f e3 82 bd 66 86 a1 3d
       0.056538574 0.004170596 -0.063910596 0.078869626
000040 7f c0 c3 bc 0e 01 25 3d 12 09 31 3d 64 a5 08 3d
       -0.0238955 0.04028421 0.04322154 0.033360854
000050 bd 9a 78 3d ef 04 db bc bd 73 47 3d 51 2b 2e bd
       0.060694445 -0.026735751 0.04869436 -0.04252178
000060 ba 87 29 bc e7 5a 4f 3d 95 7d 55 3c 00 1f 82 bc
       -0.010347301 0.0506238 0.013030429 -0.015883923
000070 bb 3b 12 bd a6 65 41 3b a3 08 51 bd 6c 35 98 bc
       -0.035701495 0.002951005 -0.051033627 -0.018580161
000080 07 95 45 3c 91 a7 fc 3c ec 8c cc bc c8 f1 55 3d
       0.012059457 0.03084162 -0.02496954 0.052232534
000090 37 30 0c bd 95 68 27 bd 83 49 71 3c c8 de 48 bd
       -0.03422567 -0.04087122 0.014726999 -0.049040586
0000a0 fa 7b 66 3c b9 a5 c7 3c f3 48 42 3d 6f db 6b 3d
       0.014067644 0.024371015 0.04743285 0.057582315
0000b0 63 0f 9e 3d b4 1c 60 3d d2 21 3e 3d 79 47 5b bd
       0.077177785 0.054714873 0.046418972 -0.05353496
0000c0 bf 98 8c 3c c4 4e 22 3d 0f 66 08 bd 8f 5f 16 3d
       0.017162679 0.039625898 -0.033300456 0.036712226
0000d0 a0 6c 67 3c 17 c6 c8 3a 86 bc 17 bc b9 48 0d 3a
       0.014125019 0.0015317824 -0.009261256 0.00053895597
0000e0 1b 42 2d 3c 0e 44 67 3c 94 ee ab bb 8d 61 0c 3d
       0.010574843 0.014115347 -0.0052469466 0.03427272
0000f0 7c a6 7f bd 00 66 10 3a b4 5c 9c bd 0b 20 67 bd
       -0.06241463 0.0005508363 -0.07634869 -0.056427043
000100 e6 a0 19 3d 78 ef ed bc 49 ee 32 b7 8e 33 7e bc
       0.03750696 -0.029044852 -1.0665107e-05 -0.015515221
000110 4b 54 17 bd 67 a0 c0 3c b7 e6 60 3d 73 c8 d4 bb
       -0.036945622 0.023513986 0.054907527 -0.006493622
000120 0c 04 db 3c 43 9f 13 bd fa b3 7b bd ad 9e 03 3d
       0.026735328 -0.036040556 -0.061450936 0.032133747
000130 fd ee 7e 3c 0f 0b 33 bd 73 24 81 bc 58 64 be 3c
       0.015559909 -0.04371172 -0.01576445 0.023241207
000140 f7 5a 9e 3c 9c f0 18 3d 42 48 29 3b df 0e ac 3c
       0.019330485 0.037338838 0.0025830423 0.021003185
000150 64 ff 76 3d 00 89 33 3b d6 ef c1 bb 36 76 03 bd
       0.060302153 0.002739489 -0.0059184832 -0.032095157
000160 55 7f 3c bd 5f 80 56 3d 58 37 54 3d 72 cc 05 3d
       -0.04601987 0.052368518 0.051810592 0.032665677
000170 6c 14 d9 3c bb b0 76 3c 9c 3b 7f bc 02 07 b7 bc
       0.026498996 0.015056784 -0.015578177 -0.022342209
000180 43 69 61 3d fd f1 13 bd 71 ad a1 bb b1 64 18 3d
       0.055032026 -0.03611945 -0.004934006 0.0372054
000190 3b 7a 33 bc 03 3c 5e 3c 7c b3 8f bd 35 ca 43 3d
       -0.010954435 0.013564113 -0.07016656 0.04780026
0001a0 11 d6 f5 3c f6 ec 4a bd 06 89 33 3c ad 79 06 bd
       0.030009301 -0.04954239 0.010957962 -0.032830883
0001b0 f8 73 be 3c cd 3b 15 bd b5 ea d6 3c a2 9f 24 bd
       0.023248658 -0.036433984 0.026234964 -0.0401913
0001c0 4c 4b 00 3c 19 61 8e bc 83 a2 69 bd 87 4c 9f 3d
       0.007830452 -0.017380284 -0.05703975 0.07778268
0001d0 03 4a b3 bc 34 97 bd 3c 9a 1d 5e 3d fd e1 d4 3c
       -0.021885877 0.023143388 0.05422745 0.025986666
0001e0 64 be 0d bb b4 25 19 3c dd c4 a4 3c ad a8 6b bd
       -0.0021628374 0.009347368 0.020113403 -0.05753391
0001f0 a0 c8 53 bd f4 ea 8a bc 37 2a b1 3c 88 4a 93 bd
       -0.051705003 -0.016957738 0.021626575 -0.0719195
000200 ff fe 27 bd 3c a9 13 bd 57 11 30 3c 05 98 fc bc
       -0.041014668 -0.036050066 0.010746322 -0.030834207
000210 cd 3c ee 3b 24 18 72 bc a4 82 06 3d c8 67 d6 3c
       0.0072704316 -0.014776263 0.032839432 0.026172534
000220 e8 a4 4b bd 94 39 7f bb 04 91 2d 3d da 45 2f bd
       -0.049717814 -0.0038944231 0.042374626 -0.042791225
000230 b8 9b 15 bd 86 c7 0c bc 1f e6 93 bc 31 2a ac bc
       -0.036525458 -0.008592492 -0.018054066 -0.021016212
000240 d0 78 02 3d 84 92 09 3d cd 3c d8 bc e0 95 b3 3c
       0.031853497 0.033586994 -0.02639618 0.021922052
000250 be c4 42 bd 8f 19 9c bb a4 84 b9 bc 63 f8 f5 3c
       -0.04755091 -0.004763789 -0.022646256 0.030025667
000260 94 88 1f 3d 53 d8 98 bc a9 76 96 3c 51 59 83 bd
       0.03894861 -0.018657839 0.018367128 -0.0641352
000270 05 04 18 3d 70 4b 1c bd ad 99 48 bd 9d 5e 87 bc
       0.03711321 -0.03815788 -0.04897468 -0.016524607
000280 30 f3 ca bc f9 68 51 bc 47 d1 26 3c 4f 19 09 bd
       -0.024774164 -0.012781375 0.010181732 -0.0334714
000290 f0 33 88 bc 97 4e 58 bc 2d dd 70 3c a7 8f 29 3d
       -0.016626328 -0.013202331 0.01470117 0.041396763
0002a0 5d 47 c4 bb 4e 9d 5b bd 74 57 8b 3c 09 eb 7c 3c
       -0.0059899525 -0.053616814 0.017009474 0.015436896
0002b0 40 92 0e bd 22 34 37 bd dd 11 87 bd 42 ad f1 bc
       -0.034807444 -0.044727452 -0.06595204 -0.029501561
0002c0 b6 12 83 bc ea 5e 1a bd a4 2b 06 39 11 48 55 bd
       -0.016000133 -0.037688173 0.00012795493 -0.05207068
0002d0 a1 c2 18 3d 14 38 7c 3c 20 97 44 3d 36 1b 48 3c
       0.037294988 0.015394229 0.047995687 0.012213519
0002e0 81 8c aa bb 8a 0b e9 3c 1d 0b a7 3b 61 41 ab 3c
       -0.0052047377 0.028447885 0.0050977604 0.020905199
0002f0 1c 95 b5 3b 3b d0 23 bd 66 a8 85 bd f3 cc 21 bc
       0.005541457 -0.039993506 -0.0652626 -0.009875524
000300 b3 8d 92 bc 77 8d 7b 3d 05 4c 3a bd 64 21 f7 bc
       -0.017889833 0.06141421 -0.045482654 -0.03016729
000310 46 ea 9a 3d b2 0b 15 bc 34 a8 aa bb 21 15 75 bc
       0.07564215 -0.009097027 -0.0052080397 -0.014958651
000320 e4 f5 29 bd 00 55 8c bb ec 24 4e 3d 84 80 cf 3c
       -0.041494265 -0.0042825937 0.05032818 0.025329836
000330 1c 92 06 bd b8 42 de 3c 95 d7 12 bd 35 9f f9 bc
       -0.032854185 0.027131423 -0.035850126 -0.030471424
000340 97 72 fd 3c 59 b8 ec b7 73 13 4f bd f8 59 f3 bc
       0.03093843 -2.8219236e-05 -0.050555658 -0.029705986
000350 ec d9 54 bc ec dc 8a bc 49 11 dc 3c 5f 0e dc bc
       -0.01299141 -0.016951047 0.026863711 -0.026862321
000360 45 8e 6d bd 24 27 dd 3c 1e 08 5e 3c 4d c4 de bb
       -0.057997007 0.026996203 0.01355174 -0.006798303
000370 12 23 80 bc 1a f1 4c bd 79 d9 2c 3d 3d 16 21 bc
       -0.015641723 -0.05003462 0.042199586 -0.009831962
000380 1e 46 1f bc 50 d3 80 3c 21 bf 94 bc 84 d5 5d bd
       -0.009721307 0.015725762 -0.018157544 -0.054158702
000390 48 2c 5b bd 95 aa c8 3c c5 79 65 3d a5 90 2c 3d
       -0.053509027 0.024495402 0.05602433 0.04213013
0003a0 a4 17 93 3d 41 08 f6 bb 78 f1 ee bc b2 bc e8 bb
       0.071822435 -0.007508308 -0.029167876 -0.0071025724
0003b0 63 f7 f1 3c ee 5d 41 bd 4d 15 45 3b 47 3b 0f 3d
       0.029536908 -0.04720872 0.003007251 0.03496864
0003c0 55 2f 3c 3c f2 a9 09 3c f2 ac ac 3c 5a f8 b1 3c
       0.011485894 0.0084023345 0.02107856 0.021724869
0003d0 34 e9 1a 3d 36 c9 b9 3b d7 d7 25 3d ca 09 a6 bd
       0.037820056 0.005669738 0.040489044 -0.08107336
0003e0 38 4b 2d 3c 98 92 01 bd f9 05 02 bc 60 a6 c5 3c
       0.010577016 -0.031633943 -0.007935994 0.024127185
0003f0 80 55 b6 bb 34 59 f1 39 1a e0 54 3c 04 15 bf 3c
       -0.0055643916 0.00046033564 0.012992883 0.02332545

cnn.convolutions.8.bias f4 [64]
000000 fc 10 00 3c 47 80 b0 bc 8d 28 ce 3d e7 f2 9e b9
       0.007816549 -0.021545542 0.10066328 -0.00030317085
000010 57 90 c7 3b a4 6b 29 bd 3d e8 ba bc 48 1c 1d bd
       0.0060902047 -0.04136242 -0.022815818 -0.03835705
000020 61 67 fc bc 4b e3 1a 3e ee 61 b6 bc e4 fe 2e 3d
       -0.030811014 0.15125768 -0.022263493 0.04272355
000030 bc 70 a3 bc 1e 57 38 bc e1 d7 d8 bc 18 a2 51 3d
       -0.019951217 -0.011251239 -0.026470127 0.051179975
000040 6d 41 84 bd a3 61 1c bd 82 b6 9e 3c 48 1c 01 3d
       -0.064577915 -0.03817905 0.019374136 0.03152111
000050 70 5c 1a bd 14 74 f7 3c 89 83 3b 3d 30 1b d9 bc
       -0.03768581 0.030206718 0.04577974 -0.026502222
000060 58 92 0f bd 5c b3 0d 3d 16 76 dd bc 27 be b1 bc
       -0.035051674 0.03459488 -0.027033847 -0.021697117
000070 97 68 0d bc 4f e0 d9 3d 87 bb 03 bc 81 c4 cb bb
       -0.008630893 0.106384866 -0.0080403155 -0.0062184935
000080 d0 96 9f 3d 9b c9 77 bd fd cc 9b 3d c9 92 84 bb
       0.07792437 -0.060495 0.07607458 -0.0040458185
000090 34 20 6a 3d 27 43 ba 3c 58 d9 79 3d b6 87 aa 3c
       0.057159618 0.022737099 0.06099829 0.020816665
0000a0 cb 4d 26 3d c5 eb 77 3d 3f b6 39 bb d7 f6 1c 3b
       0.040601533 0.06052758 -0.0028337387 0.002395084
0000b0 e1 4e 16 3c eb e6 c6 3b 61 02 0f 3d 48 18 a2 bd
       0.00917408 0.006070008 0.034914378 -0.079147875
0000c0 b0 4b f5 bc 89 b6 25 bd 84 a1 9f 3b fa 60 e3 bc
       -0.029943317 -0.040457282 0.004871549 -0.027756203
0000d0 08 4b 16 3d ed 13 2f bd ea 31 b8 3c 92 7e c6 3c
       0.03669265 -0.042743612 0.022484738 0.024230275
0000e0 ef ae 8a bc e8 c2 1f bd d8 f1 37 bd 8d 6e 96 ba
       -0.016929118 -0.039004236 -0.044908375 -0.0011477038
0000f0 c1 16 a4 bd ea 0a 4c bc e8 54 d9 3c df 9c 32 3b
       -0.080121525 -0.012453774 0.026529744 0.0027254147

cnn.convolutions.10.weight f4 [64]
000000 ee a0 57 3f 94 7f 67 3f 02 75 64 3f d7 37 76 3f
       0.84229934 0.90429044 0.8924104 0.96178955
000010 e5 2e 55 3f 7a c4 6b 3f 3f 2c 55 3f 60 dd 54 3f
       0.8327468 0.92096674 0.8327064 0.8315029
000020 70 a0 61 3f b3 23 69 3f 47 37 53 3f ec cd 57 3f
       0.88135433 0.910701 0.8250622 0.84298587
000030 79 37 4a 3f 5b a0 5f 3f 66 75 52 3f df 63 75 3f
       0.78990895 0.8735406 0.82210386 0.95855516
000040 7f 7a 51 3f d8 fa 6d 3f 9c 22 5b 3f 70 53 70 3f
       0.8182754 0.9296088 0.85599685 0.93877316
000050 57 d6 50 3f 23 81 59 3f ca 73 54 3f dd a7 59 3f
       0.81577057 0.8496267 0.8298918 0.85021764
000060 9d 3f 79 3f 0c 05 56 3f 75 6d 50 3f 23 7e 49 3f
       0.9736269 0.8360145 0.8141702 0.78708094
000070 9c 55 70 3f b5 6f 71 3f 14 62 65 3f 10 7c 51 3f
       0.9388063 0.94311076 0.8960278 0.8182993
000080 a0 ca 56 3f 8d 69 65 3f 8f 3b 76 3f 25 2a 5f 3f
       0.8390293 0.8961418 0.9618463 0.8717368
000090 22 9d 64 3f 46 61 62 3f b9 c1 60 3f 31 5c 71 3f
       0.89302266 0.8842968 0.877956 0.942813
0000a0 8c d9 6e 3f 14 2e 51 3f f9 f5 65 3f 63 a3 55 3f
       0.933007 0.81710935 0.8982845 0.83452433
0000b0 2c 58 63 3f d9 74 63 3f 1a 38 76 3f 55 8d 53 3f
       0.88806415 0.8885017 0.96179354 0.8263753
0000c0 89 52 6c 3f 78 2a 6a 3f d6 0a 75 3f e5 ed 6d 3f
       0.9231344 0.9147105 0.9571966 0.92941123
0000d0 c1 5d 68 3f 36 38 5f 3f 49 da 6c 3f de b0 62 3f
       0.9076806 0.87195146 0.92520577 0.8855113
0000e0 f8 67 57 3f 4f 6b 55 3f d8 a3 65 3f 07 a1 55 3f
       0.8414302 0.83366865 0.8970313 0.83448833
0000f0 f1 7f 50 3f b3 85 55 3f e0 b7 54 3f 0d 58 4d 3f
       0.81445223 0.83407134 0.8309307 0.8021248

cnn.convolutions.10.bias f4 [64]
000000 a7 90 61 3c 46 24 ed bc bb a7 f8 3b 8e 86 eb ba
       0.013767398 -0.02894796 0.0075883544 -0.0017969178
000010 d9 11 06 bc 6b ff 2c bd 24 7b 02 3c 37 19 eb bc
       -0.008182966 -0.042235773 0.007963929 -0.028698547
000020 c8 9b 8e bc ed d1 1a 3d 2a b9 42 bd f5 15 05 bc
       -0.017408267 0.037797857 -0.047539867 -0.008122911
000030 af 55 4f 3c 61 fc b5 3b 96 f0 5b bc b5 2e 5b bd
       0.012654706 0.0055537676 -0.013424059 -0.05351134
000040 e9 b9 88 bc 10 09 b0 bc a3 b1 e6 3b 2f a7 e6 bc
       -0.016690211 -0.021488696 0.007040219 -0.028155891
000050 3d 18 eb bc c7 ef ce bc 98 b3 24 bc ba ee 32 39
       -0.028698081 -0.02526082 -0.010052584 0.00017064335
000060 eb a5 0b bd 3e cb c1 bb 41 16 1b bc e2 c0 11 3a
       -0.03409378 -0.005914121 -0.009465755 0.0005560053
000070 38 b4 5c bd 63 09 fc 3c 44 4a e8 bb d9 81 5b bc
       -0.053882807 0.030766195 -0.0070889313 -0.013397657
000080 e1 9a 07 bc 44 d0 24 bd 6f d7 e9 bc 6d 19 cc ba
       -0.008276672 -0.04023768 -0.02854511 -0.0015571542
000090 57 eb 25 bd 9f e1 84 bc a3 06 15 bc c0 57 8b bd
       -0.04050764 -0.016220866 -0.009095821 -0.06803846
0000a0 44 36 e3 bc fa 73 16 3c cd ba a7 bc 49 ca 15 bd
       -0.027735837 0.009182924 -0.020474816 -0.036569867
0000b0 b5 40 42 bd 65 f7 97 bd f5 48 ea bc fe 35 e0 3b
       -0.04742499 -0.07420234 -0.028599242 0.006842374
0000c0 e2 75 49 bc 80 83 59 bd 0c b5 b0 bc 23 52 9d 3b
       -0.012296172 -0.053103924 -0.021570705 0.004801051
0000d0 23 9b e9 bc 85 cd 43 bd 4d 26 4f 3b e6 fb 37 bc
       -0.028516358 -0.04780342 0.0031608522 -0.011229491
0000e0 ff c0 a1 bb 3b 33 93 3b 8b 3c 42 bd e1 0d a9 bc
       -0.004936337 0.004492191 -0.04742102 -0.0206365
0000f0 e8 c2 98 bc 15 68 87 bc cf d2 74 bc 36 93 ac bc
       -0.018647626 -0.016529122 -0.014942839 -0.02106629

cnn.convolutions.10.running_mean f4 [64]
000000 9a ae bd 3d 9f db a7 3d 66 b3 57 3e 84 d7 b0 3d
       0.09261818 0.08196186 0.21064529 0.08634856
000010 06 a9 a5 3d e5 4a c6 3d 98 81 79 3d 46 aa 8d 3d
       0.08088879 0.09682254 0.060914606 0.06917243
000020 5e 76 26 3d 9b 3e 7b 3e 18 85 94 3d 34 36 3c 3e
       0.040640227 0.24535601 0.07251948 0.18380052
000030 d4 61 92 3d 5b 7a a6 3d 2b 2d 70 3d 18 59 07 3e
       0.071475655 0.08128806 0.058636826 0.1321758
000040 d5 af 9e 3d 6b b2 4b 3d 6e 5e c6 3d 1d a4 c1 3d
       0.07748381 0.0497307 0.0968598 0.0945513
000050 82 73 00 3e 58 02 d8 3d d8 45 e2 3d a1 61 bd 3d
       0.12544063 0.10547322 0.11048478 0.09247137
000060 a4 1b f5 3d f4 15 b2 3d 95 51 9a 3d 93 7a b7 3d
       0.11968163 0.086955935 0.07535092 0.08958926
000070 76 e6 f3 3d 10 0b 4f 3e 10 34 ab 3d 9a 8c 6c 3d
       0.11909191 0.20219064 0.083595395 0.057751276
000080 35 d1 04 3e 1d 2d 50 3d 06 5f 07 3e 84 d0 ef 3d
       0.12970431 0.050824273 0.13219842 0.11709693
000090 92 a2 00 3e 47 58 2f 3e b7 e1 15 3e 56 56 20 3e
       0.12562016 0.17123519 0.14636885 0.15657935
0000a0 d6 73 c1 3d 08 62 09 3e 73 7d a0 3d 3b 87 ae 3d
       0.09445922 0.13416302 0.078364275 0.08521887
0000b0 97 53 d0 3d 3f ee e3 3d c2 35 cb 3d 78 35 e5 3d
       0.101721935 0.11129426 0.09922363 0.11191839
0000c0 54 55 b5 3d ed 38 ec 3d 1c 35 8f 3d 8c 45 a3 3d
       0.08854166 0.11534295 0.06992552 0.079722494
0000d0 0e bc 09 3e 3b e1 86 3d 58 d0 1a 3e 49 14 df 3d
       0.13450643 0.06585928 0.1511854 0.10892541
0000e0 c5 50 7f 3d 6e 04 c4 3d ee ea ab 3d 54 d4 03 3e
       0.062332887 0.095711574 0.08394419 0.12873966
0000f0 b8 c6 b7 3d 96 8d 8f 3d d1 ef b4 3d 00 e5 30 3d
       0.089734495 0.07009427 0.08834804 0.04318714

cnn.convolutions.10.running_var f4 [64]
000000 ac 72 9a 3e 66 52 50 3e 26 24 19 3d 39 45 24 3d
       0.30165613 0.20343933 0.03738799 0.04010508
000010 ff aa 2e 3e df d2 6c 3d 3e 0a 7e 3d 8e a6 3d 3d
       0.17057417 0.05781829 0.062021486 0.046301417
000020 d2 ed 1e 3d a3 d8 a5 3d bc e6 82 3d 24 ed 07 3e
       0.038801022 0.08097961 0.06391665 0.13274056
000030 dd ed 00 3e 96 22 52 3d 25 90 49 3d 38 57 3d 3d
       0.12590738 0.051302515 0.049209733 0.046225756
000040 71 92 14 3e 0d f8 2b 3d 24 48 29 3e 67 77 2c 3d
       0.14508988 0.041984607 0.16531426 0.04210606
000050 c3 35 6b 3e 49 b4 33 3e ad 15 ba 3d 1b 8d be 3d
       0.22969727 0.17549242 0.090861656 0.093042575
000060 35 8f a3 3e 92 c7 42 3e dc 4f 9a 3d 97 38 a0 3e
       0.31945196 0.19021443 0.07534763 0.31293175
000070 e5 ab 89 3d 29 34 85 3d 2c 25 67 3d c6 c7 82 3d
       0.067222394 0.065040894 0.056431934 0.0638576
000080 fe 3e 7a 3d 4a d7 c4 3d d0 dc 35 3d cb 5f 06 3e
       0.06109523 0.09611376 0.044400036 0.1312248
000090 08 6d 30 3d 3c 40 84 3d 15 74 03 3e 46 c5 0f 3d
       0.04307273 0.06457564 0.1283725 0.035100244
0000a0 fa c1 9b 3d 5a 1c 01 3e f4 6c d8 3d f6 1c 93 3d
       0.076053575 0.12608472 0.10567656 0.07183258
0000b0 ef ca 95 3d 67 48 07 3d 67 c2 8c 3d 20 ef bb 3e
       0.07314097 0.033028033 0.06873017 0.36705875
0000c0 82 41 86 3d 0b 59 57 3d 4b 71 7b 3d 3b 2e 8a 3d
       0.065554634 0.052575152 0.06138734 0.06747099
0000d0 a0 ea 8d 3d 72 7a 48 3d ed b3 2d 3d d9 82 6a 3d
       0.06929517 0.048944898 0.04240792 0.057253692
0000e0 0a ef 7d 3d f9 25 83 3e f7 b3 63 3d 94 73 9d 3e
       0.061995544 0.25614908 0.05559155 0.30752242
0000f0 48 8c 94 3e b3 b6 36 3e 2e 86 82 3d e7 06 2c 3d
       0.29013276 0.17843132 0.06373249 0.04199877

fc.0.weight f4 [128, 1024]
000000 29 62 08 3c ed 8f 07 bc 4d f9 0f bd 41 cf 6f 3c
       0.008324184 -0.008274061 -0.03514986 0.0146368155
000010 b7 fd 9e 3a 20 78 20 bd 76 89 0b 3c 06 34 60 bc
       0.0012130056 -0.03917706 0.00851666 -0.013684278
000020 8a 11 c9 bc e9 f4 e2 3b 42 07 5c 3b b1 13 66 bd
       -0.024544496 0.006926168 0.0033573662 -0.056171123
000030 4c b1 6c bb e3 f3 c2 3b 2e d6 0d bd 95 d5 ce bc
       -0.003611642 0.0059494837 -0.034628086 -0.025248328
000040 dd 89 d2 3c f9 f8 b9 bb fc d5 b6 bb 61 8a 20 3d
       0.025700504 -0.005675432 -0.005579708 0.03919447
000050 41 5a 4d bd ec a4 67 bc 6c e9 cc bc 6f 7d 12 bd
       -0.0501349 -0.0141384415 -0.025013648 -0.035764154
000060 ad 9e a4 bc d5 1b 8b 3c 88 37 bc 3b 47 f1 f4 bc
       -0.020095194 0.016981045 0.0057439245 -0.029900206
000070 db 5b 3c bc a4 b5 f9 bb 13 2f 76 3d 81 2a d4 3c
       -0.011496509 -0.00762053 0.060103487 0.025899174
000080 38 65 ef bc 1c b5 de 3c 1b 44 16 bd 89 c2 0e bd
       -0.02922307 0.027185969 -0.036686044 -0.034853492
000090 5b a6 dc ba 4f 22 49 3c 51 9a 00 bd 1a 5a 63 bc
       -0.0016834246 0.012276246 -0.031397168 -0.013876462
0000a0 1b a5 7e 3b 3e 32 e7 bc b7 d8 47 bc da 47 0e bd
       0.0038855735 -0.0282222 -0.012197665 -0.03473649
0000b0 a5 72 8a bc 73 55 a4 bc 0a 15 25 bc c0 14 83 bb
       -0.01690037 -0.020060277 -0.010075817 -0.0040002763
0000c0 bc 62 aa 3c 4b 63 00 3d d8 eb 83 bc d3 f5 16 3c
       0.020799033 0.031344693 -0.01610367 0.0092138825
0000d0 66 5e c8 3b 3e 16 a9 bc 62 f4 fa bc 18 83 aa bc
       0.006114769 -0.020640489 -0.030634109 -0.020814463
0000e0 36 92 87 3b 92 49 33 bd 98 53 47 bd 3b 6f ec bc
       0.0041373027 -0.043771334 -0.048663706 -0.028861633
0000f0 18 90 5b ba 96 e4 85 bc 6a e7 97 bc 4e 17 47 bc
       -0.00083756587 -0.01634435 -0.018542964 -0.012151552
000100 b8 95 f8 3c fa 4c 06 bc d2 09 9a ba fd 88 0e bd
       0.030344829 -0.008197064 -0.0011752194 -0.03479861
000110 9b 10 6c bd 8b 05 c2 3a 29 67 17 bd ed f5 1d 3c
       -0.057633024 0.0014802677 -0.036963616 0.009641153
000120 5b 94 b9 3a 14 f4 b5 bc d9 56 57 bc 81 ac 8c bc
       0.0014158593 -0.022211112 -0.013143265 -0.0171721
000130 b6 31 0e 3c b1 4e c9 bb 52 f4 80 bc 2a 8a 5b bb
       0.008678844 -0.006143414 -0.015741501 -0.00334991
000140 f0 1e d1 bc a0 ee 8c bc 33 57 99 bc 17 43 28 3b
       -0.025527447 -0.017203629 -0.018718338 0.0025674754
000150 ac ec 67 bc 10 7e 37 3b f7 3d 87 bb 4d 37 e3 3c
       -0.014155548 0.0027998723 -0.00412726 0.02773633
000160 56 25 1f bd ba f8 58 3a 5e cb b7 3c 5f 7b ef 3c
       -0.038853966 0.0008276809 0.02243584 0.029233633
000170 54 9b 13 bd ba f7 87 3b 3c d0 b1 3c 78 7f 84 3b
       -0.036036804 0.0041494044 0.02170574 0.004043516
000180 7f a2 90 bc b5 2a a5 3c d8 39 13 3c 3c c8 18 3d
       -0.01765561 0.020161966 0.008985959 0.037300333
000190 56 5c 90 3c 28 68 9b 3b 89 b5 43 bc 48 db 4a bc
       0.017622154 0.004742641 -0.011945137 -0.012381382
0001a0 a3 e5 cd bb 06 f5 54 3c 7d 27 cd 3c 21 38 30 3c
       -0.0062834783 0.012997871 0.025043244 0.01075557
0001b0 7b f1 85 3c 27 0d df bc 68 fe 2f 3c df 80 3d 3c
       0.016350498 -0.027227951 0.0107418075 0.01156637
0001c0 22 e0 57 bc 44 f7 00 bd f7 c2 5c 3c 6f 4a ea 3c
       -0.013175996 -0.03148581 0.013474218 0.028599946
0001d0 6e 3f 0a bc 79 3c a2 3b 0e 2e 93 3c 98 68 3d bd
       -0.008437974 0.0049510566 0.017966297 -0.046242326
0001e0 df 8b 6c bc bc d4 45 bc c9 37 9f bb 32 57 7b bb
       -0.014437645 -0.012074646 -0.004858945 -0.0038351533
0001f0 06 0f 37 ba 18 b4 ac bb e1 d2 b9 3a 04 3a f3 bc
       -0.00069831347 -0.0052704923 0.0014177227 -0.02969075
000200 c5 79 9c 3c e6 0c 1f 3d 78 f4 9f bc e2 c1 bc 3c
       0.019101033 0.03883066 -0.019525751 0.02304167
000210 7c ea 06 3d 85 f5 f6 3c b2 fe b8 3b 63 cf 9c bc
       0.032938465 0.03014637 0.0056455964 -0.019141858
000220 e7 29 de 3c 7a 07 1e 3d 4d 45 e1 3b 8b e0 8a 3d
       0.02711959 0.03858135 0.0068747164 0.067811094
000230 4d b7 68 3c 02 a2 ad 3c 97 9d 59 3d 1c 5b b4 3c
       0.014203859 0.021195415 0.053128805 0.0220161
000240 b7 83 e9 39 cc 2c 85 bc 61 2e b2 3c dc 87 cd bb
       0.00044539358 -0.016256712 0.02175063 -0.006272299
000250 9f 87 63 bc e6 2d c8 bc 8c f4 36 3c c2 65 8d bc
       -0.013887315 -0.024435949 0.011166703 -0.017260436
000260 38 34 64 b9 ce 12 a2 3b 95 32 26 bd 62 f7 f9 bc
       -0.00021763227 0.0049460893 -0.040575583 -0.03051347
000270 1a 7e 5e 3b 2f 30 02 3d 13 a4 50 bd 65 c8 0b 3d
       0.0033949674 0.031784233 -0.050937723 0.034126658
000280 ad 16 96 bc 5a 2d b9 bc 1e d3 3d bc 11 dd f1 ba
       -0.01832136 -0.022604633 -0.011585979 -0.0018452724
000290 85 9b aa bc 62 7e 61 3a cf bb 34 bc f7 ca 1b bd
       -0.02082611 0.00086019014 -0.011031105 -0.03803536
0002a0 37 04 93 bc e9 92 32 3d 59 eb 68 3c 30 1f f9 3b
       -0.017946346 0.043597136 0.0142162675 0.007602595
0002b0 3a 00 2e bd 3c 38 e0 3c d4 55 a1 3c 56 be ae 3c
       -0.042480685 0.027370565 0.019694246 0.021330994
0002c0 c1 0b fd bc 63 10 d5 39 5c 2b 7e bb e0 82 38 bd
       -0.030889394 0.00040638735 -0.0038783168 -0.045046687
0002d0 26 ec c5 bc 3b 1c eb 3b 37 71 c6 bc 22 ed 23 3c
       -0.024160456 0.007174996 -0.024223907 0.010005267
0002e0 9e 65 66 bb 0a fe ff 3b 49 1e b1 bc 2b 36 1d bd
       -0.0035155783 0.0078122662 -0.021620886 -0.038381737
0002f0 24 a9 42 3c a3 ec 13 3d ef 40 d3 bb 2a 50 e5 bc
       0.011881147 0.036114346 -0.0064469497 -0.027992327
000300 e3 03 09 3d 6b bc 78 3c 28 b6 fc bc 83 97 9f 3c
       0.033450972 0.015181641 -0.030848578 0.019481426
000310 82 43 bc 3c 85 09 79 b8 f5 61 19 bc aa 6f ee 3c
       0.022981409 -5.9375092e-05 -0.009361734 0.02910598
000320 92 ee fc 3b a7 07 e8 3c 82 c3 28 bd f6 2c 31 bc
       0.0077188695 0.028323961 -0.041202076 -0.010813942
000330 31 cd 64 3b c0 b7 0d 3d b0 31 23 bc 09 89 73 3c
       0.0034912343 0.034599066 -0.009960577 0.014864215
000340 33 e3 03 3c 3c 36 6f 3c 71 52 87 3c 9f b4 00 3d
       0.008049774 0.014600333 0.016518803 0.031422254
000350 a3 17 f5 3c e4 f3 11 bd d8 6f dd bc bc 55 59 bd
       0.029918497 -0.035632983 -0.02703087 -0.05306028
000360 86 c0 ea 3c a5 9b bf 3c 66 a5 e9 3c ba 7b 1b bd
       0.028656255 0.023389647 0.028521251 -0.03795979
000370 b8 ba 58 3c 6b 80 fb 3b 82 ff f5 bc 87 26 e3 3c
       0.013228111 0.0076752207 -0.030029062 0.027728332
000380 f4 40 d1 bc 0f d2 ca 3a 5d a3 74 3b 63 5c aa bc
       -0.025543667 0.0015473979 0.0037328817 -0.020796007
000390 84 bb 56 bc d0 d9 53 bc a0 50 73 bd 2b bc 38 3c
       -0.013106231 -0.0129303485 -0.059403062 0.0112753315
0003a0 c0 f2 74 bb 7d ee e2 3c cb e5 25 3c 8d 7d 00 bd
       -0.0037376136 0.02770161 0.010125588 -0.031369735
0003b0 56 02 79 ba cf db 5d 3d 52 3e 9d 3c a0 18 09 3c
       -0.0009498944 0.054164704 0.019194756 0.008367687
0003c0 9f d1 eb 3c 7c 51 3a 3c 7e c5 84 3c fe 56 4b 3c
       0.028786479 0.011371966 0.016207453 0.012410877
0003d0 f1 69 97 bb 2b b9 07 3d d3 a1 89 3c c1 a3 be 3c
       -0.0046207835 0.033135574 0.016800797 0.023271443
0003e0 1e 08 28 bc da 75 d0 bc af c7 cd bc 16 3d ae bc
       -0.010255842 -0.025446821 -0.02511963 -0.021269362
0003f0 7e 7a fb 3b 13 a5 69 bc 07 be e5 bc 8d f1 91 bc
       0.0076745143 -0.014260548 -0.028044714 -0.017815376

fc.0.bias f4 [128]
000000 02 b5 e7 3c b0 da 77 3c 8a 7e 25 bd 88 39 38 bd
       0.028284553 0.015127823 -0.04040388 -0.04497674
000010 0e 9e e7 bc 7f 3d 70 3d ee aa 34 3b 3c 3f 8d 3c
       -0.028273609 0.058652397 0.0027567702 0.017242067
000020 74 60 dc 3a 9a 17 58 bc b2 2e 95 bb d4 97 b7 3a
       0.0016813413 -0.013189221 -0.0045526857 0.001400704
000030 0f 38 51 3b 4a 57 59 bc ed 0c 8e 3c 88 4d 77 bc
       0.0031924283 -0.01326544 0.017340148 -0.0150941685
000040 36 4b 34 bd d5 68 d9 ba a8 f7 32 3c 2b 54 5c 3b
       -0.04401704 -0.0016587029 0.010923304 0.0033619504
000050 13 85 9e bc 86 76 5d 3c b1 05 b2 ba 89 8e 21 bc
       -0.019350564 0.013517028 -0.0013582018 -0.009860643
000060 30 a5 6b bb 89 0d 9a 3c d4 e9 c0 3a 6f 70 ed 3c
       -0.0035956614 0.018805282 0.0014718124 0.028984277
000070 90 99 8f 3c a6 36 0b 3c 93 b2 e7 bb f2 d6 8f 3c
       0.017529279 0.008496916 -0.0070708483 0.017558549
000080 ef ec 01 3d af ec 73 bc 11 b1 34 3b c3 e9 37 3b
       0.031720098 -0.014887973 0.002757136 0.0028062917
000090 0a 44 11 ba 4a e8 8f 3c c9 9c 0d 3b 76 8c 20 bb
       -0.00055414496 0.017566819 0.0021608344 -0.0024497784
0000a0 04 9f a6 3b 28 57 50 bc 31 31 46 3c 2d 8a 9b bc
       0.005084874 -0.012716092 0.012096689 -0.018986786
0000b0 0c 41 32 3c 2a 2d ee 3b 6e 6a 1c 3d c5 be 0e 3b
       0.010879766 0.0072685676 0.038187437 0.0021781188
0000c0 27 c5 00 3d 6a 3f 3f bc 9c 9b 4d 3b 72 55 11 bd
       0.03143802 -0.011672834 0.0031373268 -0.035481878
0000d0 c5 e8 1f 38 a0 6a 30 3b eb d9 08 bc 6d b5 04 3d
       3.8125338e-05 0.0026919022 -0.008352737 0.032399584
0000e0 d1 2b 0a 3d 82 e0 6d 3b 75 b6 52 3c 94 e9 3c bc
       0.033733193 0.0036297147 0.012860884 -0.011530299
0000f0 6e 98 17 3c c5 7c 9b bc 16 e7 ab 3c 7d 25 19 3c
       0.009252651 -0.018980393 0.020984214 0.009347317
000100 94 d3 4e 3c fe 45 e4 3b b8 8d 56 3b 86 e8 9f bb
       0.012623686 0.0069663515 0.003273828 -0.004880014
000110 78 86 4c 3c 34 82 90 3b 0c c1 01 3d 90 3b 94 3b
       0.012483232 0.0044100527 0.031678244 0.004523702
000120 8d ed 38 3c e4 ef b9 3c 2d ac 1d 3d d6 da 00 3d
       0.011287105 0.022697397 0.038494278 0.0314587
000130 52 37 51 3c aa 93 45 3d 95 65 04 3c 59 83 36 38
       0.012769537 0.048236527 0.00808086 4.351451e-05
000140 28 ed f0 bc bf 47 75 3c c6 7e b8 bb 64 76 b6 bc
       -0.02940996 0.014970719 -0.005630347 -0.02227325
000150 92 33 0d bc 2b 45 b5 3c 9e 95 a1 bc 84 9e 6d 3c
       -0.008618252 0.022127708 -0.019724663 0.014503125
000160 b1 50 91 3d cf fa 88 bc e3 41 85 3b 22 82 00 3d
       0.07095469 -0.016721157 0.004066692 0.031374104
000170 e4 ac 81 3b fd 76 1b 3c bf 77 f9 bb a7 db be bb
       0.0039573777 0.009488818 -0.007613152 -0.0058245244
000180 e5 2b 31 3c b3 1a 7f bc 21 ea ac 3a 37 1c d6 3b
       0.010813688 -0.01557033 0.0013192334 0.006534125
000190 f4 13 fa 3c 60 63 fd bc 0b bd 43 3c 97 83 22 3d
       0.030527093 -0.030931175 0.011946927 0.039676275
0001a0 06 4f 0f bc 48 5b 10 3c 63 55 23 3c 87 9d 1f bb
       -0.008746868 0.008810826 0.009969088 -0.0024355368
0001b0 a0 49 ac bc d1 3f fd 3b 92 73 2f 3c bb d2 4b ba
       -0.0210312 0.007728555 0.010708706 -0.0007775237
0001c0 a2 32 0b bc d0 55 93 bc 82 76 4f bc c2 03 65 bb
       -0.0084959585 -0.017985255 -0.012662532 -0.0034944867
0001d0 1c ce cb 39 be c6 c2 3a b8 d2 8e 3c c5 5e 29 3d
       0.0003887274 0.0014860255 0.017434463 0.041350145
0001e0 34 94 1e 3d d0 3b ab bc c0 65 13 3b ee 1a 39 bc
       0.038715556 -0.020902544 0.0022491068 -0.011297924
0001f0 1c 3e ac 3c a0 d2 86 bb 18 ff b3 3c 57 c2 38 3a
       0.02102571 -0.004114464 0.021972224 0.0007048002

fc.2.weight f4 [128]
000000 ec 0f 5b 3f 45 4f 36 3f a9 b3 57 3f 08 1d 6d 3f
       0.8557117 0.71214706 0.84258515 0.92622423
000010 05 fb 50 3f b5 35 6a 3f e9 02 4e 3f a2 e4 44 3f
       0.81633025 0.914882 0.8047319 0.76911366
000020 8a fb 3a 3f 9e ea 49 3f 5d 4e 44 3f 9f f0 45 3f
       0.7304007 0.7887362 0.7668207 0.77320284
000030 aa a6 35 3f 64 e1 45 3f 11 c6 5b 3f ed 2a 3b 3f
       0.70957434 0.77297044 0.858491 0.73112375
000040 b7 cd 6c 3f b9 05 48 3f 9e 09 46 3f 44 87 5a 3f
       0.92501396 0.7813373 0.77358425 0.8536265
000050 75 96 5e 3f 2e 79 4e 3f 3d 24 44 3f 14 30 3a 3f
       0.8694833 0.80653656 0.76617795 0.7272961
000060 be 8f 5b 3f 50 6f 4f 3f 95 94 38 3f d5 fb 6d 3f
       0.8576621 0.81029224 0.7210172 0.9296239
000070 03 49 35 3f 14 1b 59 3f 1b 42 5d 3f c6 af 48 3f
       0.7081453 0.8480694 0.86428994 0.7839321
000080 ad 57 61 3f 1c d8 45 3f 56 fa 49 3f 0f 2c 63 3f
       0.8802441 0.7728288 0.7889761 0.88739103
000090 62 da 3d 3f a9 ce 47 3f 69 a1 5c 3f 47 fc 36 3f
       0.7416135 0.78049713 0.8618379 0.71478695
0000a0 a1 52 41 3f 8a 6e 78 3f 0d bb 3e 3f 70 d4 51 3f
       0.75516707 0.9704367 0.74504167 0.8196478
0000b0 82 5c 4a 3f 75 f8 47 3f 50 af 46 3f 7f 75 4e 3f
       0.79047406 0.7811349 0.77611256 0.80648035
0000c0 28 07 54 3f fc d7 3e 3f 35 c5 45 3f df 0b 55 3f
       0.8282342 0.74548316 0.7725404 0.8322124
0000d0 58 07 3a 3f f4 d4 4e 3f 99 35 3d 3f 25 0f 53 3f
       0.72667456 0.8079369 0.7390991 0.82444984
0000e0 4c 41 4e 3f 07 61 55 3f b6 e1 54 3f 13 55 37 3f
       0.80568385 0.83351177 0.8315691 0.7161419
0000f0 62 1e 57 3f bf 2b 48 3f d0 2d 58 3f ce ad 4c 3f
       0.84030735 0.7819175 0.84444904 0.79952705
000100 37 a9 43 3f a7 bf 44 3f 96 31 6d 3f 8a 2b 49 3f
       0.76430076 0.7685494 0.9265379 0.7858206
000110 3c a1 4c 3f cd ed 56 3f db c0 4a 3f aa 6a 44 3f
       0.79933524 0.83956605 0.79200524 0.76725256
000120 b5 29 5d 3f da 53 3d 3f 61 8e 6a 3f a5 cb 46 3f
       0.86391765 0.7395607 0.916235 0.77654487
000130 f6 95 4f 3f 00 c1 60 3f 04 cf 48 3f e6 ef 41 3f
       0.810882 0.87794495 0.7844088 0.7575668
000140 89 63 36 3f e8 bc 46 3f a4 2f 49 3f 94 6d 38 3f
       0.7124563 0.77632 0.7858832 0.720422
000150 ff 4c 43 3f b6 a8 58 3f a2 84 64 3f 6a 35 4a 3f
       0.7628936 0.8463243 0.8926488 0.78987753
000160 6a ac 66 3f 72 a9 38 3f 8d 46 48 3f 32 50 5a 3f
       0.90106833 0.72133553 0.7823265 0.8527862
000170 16 1c 4b 3f 42 17 3a 3f 5a 68 36 3f d4 da 36 3f
       0.7933973 0.7269174 0.7125298 0.71427655
000180 a2 c3 34 3f e7 16 64 3f 00 7e 42 3f df f7 44 3f
       0.7061101 0.89097446 0.7597351 0.7694072
000190 08 6d 73 3f 28 c9 4e 3f da 2a 3f 3f 7e c8 4b 3f
       0.95088243 0.8077569 0.7467476 0.796028
0001a0 79 e6 46 3f 24 2c 49 3f 01 6a 49 3f 28 c9 46 3f
       0.77695423 0.7858298 0.78677374 0.7765069
0001b0 7a d4 44 3f 9e c9 43 3f bf af 49 3f 1e f3 55 3f
       0.76886714 0.7647952 0.7878379 0.8357409
0001c0 f1 d2 48 3f 58 7c 47 3f a7 2a 36 3f 45 b3 2c 3f
       0.7844687 0.7792411 0.7115883 0.67461044
0001d0 cc 6f 46 3f 05 45 4d 3f d6 8c 56 3f fa 49 3e 3f
       0.7751434 0.8018344 0.8380865 0.7433163
0001e0 39 9b 69 3f 87 ae 40 3f 53 96 66 3f cf e9 4e 3f
       0.91252476 0.7526631 0.90073127 0.80825514
0001f0 21 0a 43 3f a7 c1 47 3f 7d e8 4e 3f c0 71 6d 3f
       0.7618733 0.78029865 0.808235 0.92751694
