trained_models/regression_linear_protons_m1.pth (torch, 34966 bytes, 2 tensors)

linear.weight f4 [8, 1039]
000000 44 2b 94 ba 92 19 e4 b9 48 d4 fd 3b 9d 53 cc ba
       -0.0011304398 -0.000435066 0.007746253 -0.0015588884
000010 01 d8 fa b9 b1 58 98 3c 7b 7e c9 bc ec b8 c6 bb
       -0.0004784465 0.018596979 -0.024596443 -0.006064525
000020 59 93 d7 bc c0 b8 e1 39 75 bf d7 3c 98 8b 8a bc
       -0.026315378 0.00043052994 0.026336411 -0.016912267
000030 e3 e3 07 3c 1d 66 fc 3b 33 e4 bb ba 9a a2 b7 3b
       0.0082940785 0.0077026025 -0.0014334976 0.0056041004
000040 b8 58 c2 3a 08 8c 25 3c 58 23 38 3b ea c3 71 bc
       0.0014827466 0.010104187 0.0028097238 -0.014756182
000050 1a 6b dd 3b f3 2c 91 3c b6 a2 35 bc 96 48 e7 ba
       0.0067571523 0.017721629 -0.011086157 -0.0017645534
000060 45 dd d2 3b 19 33 dd 3b 45 8b ea ba 92 bd ac 3c
       0.006435069 0.006750476 -0.0017894289 0.021086488
000070 76 46 77 3c 83 9a 85 bb 84 84 74 bc 8e 4b cc bb
       0.015092483 -0.004077257 -0.014924172 -0.0062345928
000080 c6 d3 8e bc d2 eb 56 bc 1b 91 3a 3c 06 db 39 bc
       -0.017434966 -0.013117747 0.011387135 -0.011343723
000090 d1 8b 99 3c 49 a3 ca 3b e3 7e 14 3c 30 a6 4b bc
       0.018743427 0.006184016 0.009063455 -0.012429759
0000a0 6c 6e 30 3c cf 6c 4b 3c 45 ce 30 3a 9c 0e 56 3c
       0.010768514 0.012416079 0.0006744604 0.013065007
0000b0 25 42 2a bc 3e f6 36 bc 91 eb ab bb a9 5b 0b bb
       -0.010391747 -0.011167107 -0.0052465876 -0.002126435
0000c0 09 fc 96 3c 34 d3 92 bc 5d c3 9c bb 22 c3 5e bc
       0.018430727 -0.017922975 -0.0047840313 -0.013596328
0000d0 85 14 4b ba 29 78 35 3b 6b b0 01 3d c6 ee ed 3c
       -0.0007746893 0.002769003 0.031662386 0.02904452
0000e0 94 06 f8 b9 58 b9 d5 3c 0a 98 95 3c 2d ad 0a bc
       -0.00047307147 0.026089355 0.018260974 -0.00846414
0000f0 5a b6 97 3c 36 6c e4 bc f2 13 c2 3b 0c c2 de bc
       0.01851957 -0.02788363 0.005922788 -0.027192138
000100 c3 9a be 3b 6e 82 bd bb f9 c9 28 bc c0 83 67 3c
       0.005816789 -0.0057833707 -0.01030206 0.014130533
000110 4b 95 19 bc 60 f4 b1 bc 02 6a 0d 3c ca 08 12 bc
       -0.009373973 -0.021722972 0.008631231 -0.008913228
000120 ec a3 5e bc ee 35 a0 3c fe 1b 95 bb 5e 96 6f bc
       -0.013588887 0.019556966 -0.004550456 -0.014623253
000130 2e 52 dc bc 38 73 7f ba ae 92 63 3a 12 d5 bc 3c
       -0.026894655 -0.0009744647 0.000868122 0.023050819
000140 a2 c3 a3 3b 91 e2 d7 bb c8 84 55 3c 99 19 db bc
       0.0049976865 -0.006588288 0.013032146 -0.026745604
000150 ca 76 2b 3b f5 7a aa 3b cd 94 2a ba 5f cf 08 3d
       0.0026163333 0.005202646 -0.00065071584 0.03340089
000160 6a 31 d1 bc 97 3d e2 bc eb d4 65 3b e3 36 ba 3c
       -0.025536258 -0.027617259 0.0035069536 0.02273125
000170 31 35 62 3b 23 cc 6c 3c 53 58 6c 3b 83 40 00 3c
       0.0034516568 0.014452967 0.0036063388 0.007827881
000180 5b 98 45 3c cc e8 b7 bb 0d 4d 95 bb 46 51 f0 bb
       0.01206025 -0.0056124683 -0.0045563043 -0.0073339073
000190 b2 54 75 3c dc 58 c1 bc 60 da 49 3b 12 14 b0 3c
       0.014973806 -0.023601942 0.0030800328 0.021493945
0001a0 f2 48 24 3c 7a dd 94 3c e3 53 43 bc ee a0 c7 bc
       0.010027157 0.018172015 -0.011921856 -0.02436873
0001b0 37 47 d3 3c 58 df a0 3c d2 2a d5 3b b5 f0 2a 3c
       0.025790794 0.019637749 0.0065053487 0.010433366
0001c0 cd 82 50 bb 62 91 d6 bb 23 2c 5f bc 62 38 3a bc
       -0.0031816245 -0.0065480927 -0.013621363 -0.011365982
0001d0 4d e7 83 bc fe 1e 9c 3c 82 c3 5a bc 58 8e c3 bc
       -0.016101504 0.019057747 -0.013352277 -0.023871586
0001e0 eb 8d 9a 3c 1a e2 31 3b 6b a2 28 bc f3 0e 9f 3b
       0.0188665 0.0027142824 -0.01029263 0.004854077
0001f0 13 09 46 bc 5a 0f 6c 3c 7f 5c 2a 3b 4d a0 b5 3c
       -0.012087124 0.014407957 0.0025995073 0.022171164
000200 73 de 07 bc 6e fe 98 bc f5 5d 08 3c 35 8c f1 3b
       -0.008292782 -0.018676009 0.008323182 0.0073714503
000210 74 08 1a 3c da 36 32 bc 1e 78 a4 3c 63 d0 68 3c
       0.009401429 -0.010877335 0.020076808 0.0142098395
000220 a8 ef b1 bc 7d 04 98 3c 49 4c d6 3a 37 d1 9d 3c
       -0.021720722 0.018556828 0.0016349639 0.0192648
000230 a3 20 03 bc 7a 06 71 bb 4a 0f 85 bc 2e f8 c6 3c
       -0.008003387 -0.0036777542 -0.016242642 0.024288263
000240 12 4c 5f bc 9a 93 f5 3c 64 ba bc bc d5 a7 e7 bb
       -0.013628976 0.029977608 -0.023038097 -0.0070695677
000250 2c 3c 82 bc 59 30 06 bc 9b 28 bc 3b 9b 40 5a bc
       -0.015897833 -0.008190238 0.0057421452 -0.013321067
000260 be 60 bc ba a9 34 3e bb e2 df 88 bc 2a 4b f5 3b
       -0.0014372093 -0.0029023087 -0.016708318 0.007485767
000270 03 44 f3 bb e2 2e 15 3d f6 25 29 bc 39 c5 43 3a
       -0.007423879 0.036421664 -0.010323992 0.0007468048
000280 e6 48 3f bc a7 fa b1 3c a8 29 94 bc 99 3e ae bc
       -0.011675095 0.021725966 -0.01808627 -0.021270083
000290 34 3f 45 3b 54 04 92 3c f3 1c d3 bc f4 38 c6 bc
       0.0030097486 0.01782433 -0.02577064 -0.02419708
0002a0 7c a2 7a bb b0 b5 00 bd b6 f8 0d bb 7a c0 f1 39
       -0.003824382 -0.03142327 -0.0021663136 0.00046110508
0002b0 2a 2e 37 3b 68 23 af 3c d9 f3 e3 bc fd bf 7c 3a
       0.00279511 0.021379188 -0.027826237 0.00096416456
0002c0 21 25 3b bc 04 a2 c7 bb c1 2c 03 bc 42 5e 23 3c
       -0.011422426 -0.006092312 -0.008006276 0.009971203
0002d0 bc 90 97 3c c4 39 94 3c 3c ab c6 bc 27 7f d6 bb
       0.018501632 0.018093951 -0.024251573 -0.0065459195
0002e0 7e 99 11 3c e3 b5 15 3c 73 76 8d bb 23 57 2b bc
       0.008886693 0.009137603 -0.0043170988 -0.010457787
0002f0 5d 6b 35 bc 44 0d a0 bc d4 c9 a7 bb e3 24 cc 3c
       -0.011072961 -0.019537576 -0.0051204953 0.024919933
000300 b7 b8 c9 3c f2 9e 95 3a af 7d 44 bc 73 bc 46 bc
       0.024624212 0.0011415167 -0.011992856 -0.012129891
000310 0c 79 80 3c 12 cf 83 3c bd b5 08 3d 5c c8 5a bb
       0.01568272 0.01608995 0.033376444 -0.0033383584
000320 c3 df be 3b 99 67 57 3c 51 7d 62 3c 40 70 a2 3c
       0.0058250143 0.013147258 0.013823823 0.019828916
000330 a0 f5 c5 bc 45 e5 3d bb 84 57 82 bc ce 18 97 3b
       -0.024164975 -0.0028975767 -0.015910871 0.0046111112
000340 39 46 0e 3c 7d a7 71 3c 9c 84 66 3b cd db d9 3b
       0.008683735 0.014749405 0.0035174256 0.0066485167
000350 f7 bd 56 bc 75 ac 8e 3c 8f 00 8b 3c ca d3 85 3c
       -0.013106815 0.017416218 0.01696804 0.01633634
000360 96 9f 83 3c 9f 18 c6 3b a5 8a 32 ba 33 90 ad 3b
       0.016067307 0.0060454155 -0.0006810821 0.005296731
000370 b4 97 25 bc 9c ee 17 bc 6b be bd bc b3 46 5d bc
       -0.01010697 -0.0092731975 -0.023162087 -0.013505626
000380 99 dc 05 3d 9b 46 44 bc 9d 52 95 3c f8 85 33 bc
       0.03268108 -0.011979724 0.01822787 -0.010957234
000390 ee 8b b7 bc ef 0c ba bc cf 1e 50 3c 04 f6 e1 bc
       -0.02240559 -0.022711245 0.012702658 -0.02758313
0003a0 ab 1c 0a 3c ed 71 68 3c 16 fc 06 bd 3c e2 aa 3c
       0.008429687 0.014187318 -0.03295525 0.02085983
0003b0 fa d2 03 3c 3a 94 26 3c 0f 3b ef 3c 00 3a 0d 3c
       0.008045906 0.010167176 0.029202966 0.008619785
0003c0 cb 10 22 bc 1b a8 8d bc 7f 34 d9 38 b0 48 a8 3c
       -0.009891699 -0.017292073 0.000103571445 0.020542473
0003d0 85 e9 0b bc 54 cf c3 bc 6b 70 b5 3c 6a 1d 0c 3c
       -0.008539562 -0.023902573 0.022148332 0.008551935
0003e0 a0 2f be bc b6 b2 ba bc 57 ee d8 3c 9b 25 02 bd
       -0.023216069 -0.022790294 0.026480837 -0.031774145
0003f0 d5 c1 92 3c 64 9d b0 bb a8 1d f6 bb 1a 48 50 bb
       0.017914692 -0.005389856 -0.0075108595 -0.0031781257

linear.bias f4 [8]
000000 e3 ab 91 39 ae 53 c8 ba f1 ff 3c 3a 7b ce 08 bb
       0.0002778462 -0.0015283728 0.0007209769 -0.0020875025
000010 d7 47 0f bb ac d4 09 bb 01 62 e2 ba 1c 9f 04 3b
       -0.0021862888 -0.0021031303 -0.0017271639 0.0020236438
