trained_models/regression_linear_gammas_m1.pth (torch, 34960 bytes, 2 tensors)

linear.weight f4 [8, 1039]
00000000: 264e 9e3c cded b1bc 1b87 80bc e0c2 703c
00000010: 395e fb3b ba19 823c ff68 c73c 7d22 0e3a
00000020: f57e 493b 1532 0bbc d9f3 7b3c 723c 19bb
00000030: d2ae e0bb ff04 a5bb 8968 7f3a 7533 acbc
00000040: ec96 acbc 30fd 2dbc 43a9 8f3c 0e41 633b
00000050: 52f5 993c 647e b53b b712 d839 07df 94bc
00000060: 109a ab3c 68fe 9e3c 2865 92ba 3c01 ebba
00000070: 757e 2e3c 0395 853b 89e8 c13c 1c9c 0dbc
00000080: 2e1e c63c a113 6f3b cde2 953c 9b5c 32bc
00000090: 172a c4bb 880e 9bbc 7ca8 653c ebad 053b
000000a0: 9e49 12bb 7d6f 31bc c0f7 ef3c f894 2dbc
000000b0: f039 50bc 6cc4 8b3c 559c c8bc 9367 c93c
000000c0: 7edf dabb 22e9 833b 75d3 c43b 87c8 1ebc
000000d0: 4b33 23bc c87a 09bc 8a6a e1bb c57e 07bc
000000e0: b2db 433b ba91 323c e06c b1ba 2dc4 24bc
000000f0: 83ec ca3c 971d 363c 3847 5abb e253 40bc
00000100: 6957 783c b5bb 563c f908 21bc 9b22 ce3b
00000110: 781a c8bb 9aeb aa3c 9322 23bc 6a3b c2bb
00000120: 62ea 24bc 59e8 99bb b8b6 2a3c cc85 a7bc
00000130: be2d c53b 4f89 13bc 7de8 b83c 16e9 10bc
00000140: 8c0c e43c 0dfa 09bc 1945 b33c 3459 cb3c
00000150: 8f8f c4ba 005d 4fbb 2e3e 0e3c 035e 4fbc
00000160: 511d be3c 1cd0 973c 70bc 8ebb bfd6 933c
00000170: 5767 8fbc 7afc f43b 42a3 02bc 006c e73b
00000180: 5cf8 863b 26d8 0e3c 3f6e 52bc cf34 b2bc
00000190: 4600 da3c b77f 54bb d839 5f3c b60e 513c
000001a0: 7456 ba3c 06be a63c f7f4 11bc 2756 0d3c
000001b0: 4842 703a 5666 863c 3429 773b 370e 1bbc
000001c0: 1be2 8039 d0af 683c 30f9 c0bc 2253 bf3c
000001d0: 8eef 7dbc ea09 0c3b dce5 503c ae7c 1b3b
000001e0: 6240 e7b8 0393 b53b eb40 80bb d676 9fbc
000001f0: aaf9 d7bb 7e2e 5abc 2920 17bc be7d fabb
00000200: 53fd c63c 7592 223c b07e 893b acd9 563c
00000210: 1609 83bc 6fa0 a73b 1597 533c c34d 8d3c
00000220: 5895 a63c fd30 3c3b 19b4 7ebc 4efa 4abc
00000230: 7260 873b f792 24b9 1a48 b1bb 5371 d1bc
00000240: c93c 07bc d1cf ca3b fffe a63b 46ae cc3b
00000250: e239 773c fffc d4bc 6cc2 75bb f5c4 9b3b
00000260: 48d0 953b 5ca8 863c fe61 933c e3ea 2a3b
00000270: ccff c1bc aeb1 3e3c cbfd a7bc 7cfc 0dbc
00000280: d07b 873b ca55 d43a 42c3 0bbb 462d 013c
00000290: 9558 543c 808d 933c 5c6f bf3c 1cdb 8ebb
000002a0: 2a5d 443b 423a f23b 5b8f b7ba a787 40bc
000002b0: 779b 463c 082e 3abc eaeb a23c b370 943c
000002c0: 4b07 cdbc 45e8 843c 0333 e8bc 7b13 bfbc
000002d0: 4a64 853c c92c 3a3c d26b 41bc c593 8b3c
000002e0: 3d2f 60bc 7e19 bb3c ab18 acbb bf22 b33c
000002f0: 4abc b93c 4d4a 783c 3e22 193c c6f4 02bc
00000300: 5ccf 8f3b cd79 1f3a a0eb ec3b 5607 d93c
00000310: f660 8abb 47ad 3bbc 0e7f 633b 5207 24bc
00000320: 0067 eebb bb38 a53b ae92 de3c ef73 6839
00000330: 8d90 c13c 418d 563c 7620 20bc fd9a 5d3c
00000340: 262f ca3b de42 97bc c391 d63c 310f 343c
00000350: 706a 6abc 644e 113b 40d7 683c 73eb 243a
00000360: 79cf 96bc cad6 bebc 7420 913c 8b5a 29bb
00000370: 3d85 6c3b c5ae 743c f9c1 21bc e5ef 71bc
00000380: f265 183c cc30 0e3c 28d9 51bc b67e 263c
00000390: 5594 d13b ec34 f73c 618d 75bc 2765 6a3c
000003a0: 118f 483a 29da 38bb 6bec cb3c 55b8 0dbb
000003b0: c161 40bc 08a4 3abc 04ca 5bbc ad48 a13a
000003c0: 2744 f93a 9df0 093c fbf7 7dbc bf6c 51bb
000003d0: f4fc 323c 6d17 22bc f73a 0fbc 9131 6a3c
000003e0: 31f4 87bb 9d26 8dbb a408 8f3c 49ff 51bc
000003f0: 8844 02bc 8c03 ad3c bf03 92bc 11a5 103c
0.019324373 -0.021719838 -0.015689423 0.014694899 0.0076711443 0.015881408 0.024342058 0.0005422009
0.0030745838 -0.008495827 0.015377962 -0.0023381975 -0.0068567777 -0.005035996 0.0009743055 -0.02102063
-0.021068059 -0.010619447 0.017536765 0.0034676227 0.018793736 0.0055387486 0.00041212674 -0.018172754
0.020947486 0.01940842 -0.0011169063 -0.0017929445 0.010650267 0.0040766015 0.023670452 -0.008643176
0.024184313 0.0036480206 0.018296624 -0.010886337 -0.005986463 -0.018927827 0.014017221 0.0020397853
-0.0022321711 -0.0108298035 0.029292941 -0.010594599 -0.012709126 0.017061435 -0.024488607 0.02458552
-0.0066794744 0.0040255943 0.006006653 -0.009691364 -0.00996096 -0.00839109 -0.0068791555 -0.00826997
0.0029885587 0.010899002 -0.0013536476 -0.010056538 0.02477098 0.011115453 -0.003330661 -0.011738749
0.015157559 0.013106276 -0.009828799 0.0062907464 -0.006106671 0.020864297 -0.009956974 -0.005927493
-0.010065647 -0.0046968875 0.01041954 -0.020449542 0.006017416 -0.009004905 0.022571797 -0.0088446345
0.027838014 -0.008421433 0.021883534 0.024822809 -0.0014996397 -0.0031641126 0.008681817 -0.0126566915
0.023207339 0.018531851 -0.0043559596 0.018046735 -0.017505331 0.0074763866 -0.007973494 0.007062435
0.004118962 0.008718526 -0.0128436675 -0.021753697 0.026611459 -0.0032424757 0.013624631 0.012759855
0.022746302 0.020354282 -0.008908502 0.008626497 0.000916515 0.01640622 0.0037713768 -0.009463838
0.00024582524 0.014202073 -0.023556322 0.02335507 -0.015499009 0.0021368214 0.012750115 0.0023725438
-0.000110269306 0.005541207 -0.003913989 -0.019465845 -0.0065910416 -0.013316749 -0.009223976 -0.007644384
0.024290716 0.009922613 0.0041960105 0.01311342 -0.015995543 0.0051155607 0.012914439 0.017248994
0.020334885 0.0028715723 -0.015545868 -0.012388779 0.00413137 -0.00015695007 -0.0054102065 -0.025566733
-0.008254238 0.0061893244 0.005096316 0.006246361 0.015089484 -0.025999544 -0.0037499918 0.0047537037
0.004571948 0.016437702 0.017991062 0.0026079945 -0.023681544 0.011639042 -0.02050676 -0.008666154
0.0041346326 0.0016199884 -0.00213261 0.007884329 0.012960573 0.018011808 0.02336853 -0.004359616
0.0029962757 0.007392199 -0.0014004515 -0.011751092 0.012122027 -0.011363514 0.019887883 0.018120145
-0.025027892 0.016224036 -0.028344637 -0.023324719 0.016283173 0.011363217 -0.0118054915 0.017038235
-0.0136831375 0.022839304 -0.005251964 0.021867154 0.022672791 0.015154433 0.009346543 -0.007992929
0.004388733 0.00060835184 0.007230237 0.026492756 -0.0042229844 -0.011454887 0.0034713182 -0.010011511
-0.007275462 0.005042163 0.027169552 0.00022168433 0.023628497 0.013095201 -0.009773364 0.013525722
0.0061701713 -0.018464502 0.026192551 0.01098995 -0.014307603 0.0022171969 0.014211476 0.0006291188
-0.018409478 -0.023295779 0.01771567 -0.0025841321 0.0036090158 0.014934246 -0.009872907 -0.014766668
0.009301649 0.008678626 -0.012808122 0.010162046 0.0063958564 0.030176602 -0.014987321 0.014306343
0.0007650713 -0.0028206205 0.024893006 -0.0021624763 -0.011742056 -0.011391647 -0.0134148635 0.0012304984
0.0019017503 0.008419183 -0.015501018 -0.0031955687 0.010924567 -0.00989328 -0.008742086 0.014294044
-0.004148983 -0.0043075816 0.017460175 -0.012817212 -0.007950909 0.021119855 -0.017824052 0.008828417

linear.bias f4 [8]
00000000: c765 16bb 16f1 c3ba cfe6 04bb 6cb9 b6b9
00000010: 3f8d 16ba aa6d 02bb 5d32 d43a 0498 1c3b
-0.0022948848 -0.0014949169 -0.0020279174 -0.00034851895 -0.0005743093 -0.001990179 0.0016189326 0.002389432
