trained_models/regression_linear_gammas_m2.pth (torch, 34960 bytes, 2 tensors)

linear.weight f4 [8, 1039]
0	0xbc28a7a1	-0.010293872
1	0x3b882a13	0.0041554063
2	0x3afb824c	0.0019188612
3	0x3b942bc5	0.0045218193
4	0xbb9ddccc	-0.004817581
5	0xbc21adde	-0.009868113
6	0x3ca85119	0.020546483
7	0xbb210771	-0.0024571086
8	0x3cea14d8	0.028574392
9	0xbc96e225	-0.018418381
10	0x3cbaa66f	0.02278444
11	0xbc8a7b4d	-0.016904498
12	0xbc1efcd2	-0.009703832
13	0x3c169392	0.009190457
14	0x3cd556da	0.02604239
15	0xba54b0e6	-0.0008113518
16	0x3b9180d4	0.0044404063
17	0x3c1c7291	0.009548799
18	0xbb80ed33	-0.0039345264
19	0x3a36e26b	0.0006976488
20	0xbc22ea63	-0.009943577
21	0xbbe783fc	-0.0070652943
22	0x3bc214e4	0.0059229005
23	0xbc33726c	-0.010952573
24	0x3cfe5701	0.031047346
25	0x3c988ebb	0.018622747
26	0xba8a380d	-0.0010545269
27	0x3c3307b5	0.0109271305
28	0x3cc3357d	0.023829216
29	0xbca3de1e	-0.020003375
30	0xbc18e607	-0.009332187
31	0x3bc92d3d	0.006139426
32	0x3c20ca2e	0.009813828
33	0xbc1c56de	-0.009542195
34	0x3c5169f5	0.01278161
35	0xbc47e531	-0.01220064
36	0x3b1130ce	0.0022154334
37	0xbbdb6b1e	-0.006696119
38	0xbbf49d7e	-0.0074650636
39	0x3cdb2543	0.026751166
40	0xbad61814	-0.001633408
41	0xbb6d1be3	-0.0036179952
42	0xbb892f8f	-0.0041865776
43	0xbabad7b7	-0.0014254962
44	0xbc7f7649	-0.015592166
45	0xbb392ace	-0.0028254273
46	0xbbf92c38	-0.0076041482
47	0x3c8b5288	0.017007127
48	0x3b7edee5	0.003889018
49	0xbc50f160	-0.012752861
50	0xbc77c85d	-0.015123454
51	0x3cae294f	0.021259932
52	0xbc905f10	-0.017623454
53	0x3c8fb14c	0.017540596
54	0xbb0dff64	-0.0021667117
55	0xbc12f5ab	-0.008969705
56	0xbafc40bf	-0.001924537
57	0x3c1fe9fb	0.009760375
58	0x3aa5a656	0.0012638073
59	0x39ef8476	0.00045684323
60	0x3ca50939	0.020146
61	0x3c3669c4	0.011133615
62	0x3c0c8b0b	0.008578072
63	0x3b23faa5	0.0025021222
64	0xbc8a2089	-0.016861217
65	0x3c6fff00	0.014648199
66	0x3c70afbd	0.014690337
67	0x3c82d0a9	0.015968638
68	0xbc3ded40	-0.011592209
69	0x3c881617	0.016612096
70	0x399d2036	0.00029969373
71	0x3cbceef7	0.023063166
72	0x3c26fc02	0.010191919
73	0xbb8dcccd	-0.0043273927
74	0xbcd2d99a	-0.025738526
75	0xbc370b39	-0.011172109
76	0x3c5ce1cf	0.013481571
77	0x3c1614a5	0.0091601955
78	0x3c6c50d2	0.014423566
79	0x3ccad9bf	0.024762033
80	0x3c852f8d	0.016258026
81	0xbcbdf672	-0.023188803
82	0xbbbc97e2	-0.0057554105
83	0x3aee817f	0.0018196552
84	0x3cbeec2a	0.023305971
85	0x3c6a1493	0.014287132
86	0xbc93d030	-0.018043607
87	0x3c1fe46a	0.009759048
88	0x3bd6225c	0.0065348577
89	0x3b3cadd0	0.0028790124
90	0x3c349844	0.011022631
91	0xba7afdb6	-0.0009574549
92	0x3c23beb9	0.009994202
93	0x3b190d3c	0.0023353836
94	0xbc530949	-0.012880632
95	0x3cb62955	0.022236506
96	0x3bce39dc	0.0062935185
97	0x3c3f1e1e	0.011664895
98	0xbc9b1115	-0.018929044
99	0xbc424860	-0.011858076
100	0x3c8b58fc	0.017010204
101	0xbbe3c14a	-0.006950532
102	0xbc809f99	-0.015701102
103	0x3c9429b9	0.018086301
104	0xbc4d3c9a	-0.012526656
105	0xbc27db3b	-0.01024514
106	0x3c7fc98a	0.0156120155
107	0x3cbea7ed	0.023273433
108	0x3c07f233	0.008297491
109	0x3b8b25d3	0.0042464524
110	0x3c82a0df	0.01594585
111	0xbc94983e	-0.018139001
112	0xbc435e60	-0.011924356
113	0xbc677780	-0.014127612
114	0x3c35484b	0.011064599
115	0xbc41dfac	-0.011833113
116	0x3cda58fd	0.026653761
117	0x3c838513	0.016054666
118	0x3be7b0ae	0.0070706224
119	0xbc905a37	-0.017621143
120	0xbcb741ea	-0.022370297
121	0x3cf72bfe	0.030172344
122	0x3c1399b9	0.009008818
123	0xbb88f13a	-0.004179147
124	0xbc0a98c3	-0.008459273
125	0x3bde8606	0.006790879
126	0xbcaea58e	-0.021319177
127	0x3c787f31	0.015167044
128	0xbcbb5390	-0.022866994
129	0x3cae541b	0.021280339
130	0xbb060ce2	-0.0020454456
131	0xbc993a35	-0.018704513
132	0xbc1d50bf	-0.009601771
133	0xbc8e652d	-0.017382229
134	0x3cb07da9	0.021544294
135	0xbb516b3b	-0.0031954783
136	0x3babc5e4	0.0052420963
137	0x3c7093c8	0.014683671
138	0x3cba665d	0.022753889
139	0xbc1d9002	-0.009616854
140	0xbc1b77e8	-0.009489037
141	0xbc7f1b4a	-0.015570471
142	0x3ac17ef6	0.0014762569
143	0x3c9bcc05	0.019018183
144	0xbc8f9826	-0.017528605
145	0x3c6b4d9c	0.014361765
146	0xbcbd98c4	-0.023144133
147	0xbbfba3f1	-0.0076794554
148	0x3cbc52ef	0.022988765
149	0xbbd571bd	-0.006513803
150	0x3b81cdcb	0.0039613
151	0x3c112a88	0.008860238
152	0xbbfe3b6f	-0.00775855
153	0x3cf0bbc4	0.029386409
154	0xbc66cdfc	-0.014087196
155	0xba3b878b	-0.00071536814
156	0x3bca3736	0.0061711324
157	0xbb20e253	-0.0024548962
158	0xbcd032d3	-0.02541486
159	0x3c2298ac	0.009924095
160	0x3c5425dc	0.0129484795
161	0x3b3c33e0	0.0028717443
162	0x3c1f7000	0.009731293
163	0x3a8d496c	0.0010779328
164	0xbc59e95b	-0.013300265
165	0xbba3a476	-0.0049939705
166	0x3c099d06	0.008399254
167	0x3be3f0d4	0.006956199
168	0x3c374a9b	0.011187221
169	0x3c8a0153	0.016846335
170	0xbcce7328	-0.025201395
171	0x3cf2c67b	0.029635658
172	0xbc65811a	-0.014007831
173	0x3c5d24e5	0.013497566
174	0x3c552b76	0.01301085
175	0xbc985e1f	-0.018599568
176	0x3c56215d	0.013069478
177	0xbc8dc931	-0.01730785
178	0x3c1f9c18	0.0097418055
179	0xbc316489	-0.010827192
180	0x3c0ba26a	0.008522609
181	0x3ada34f9	0.0016647867
182	0xbc0afa3a	-0.00848251
183	0x3c32c07d	0.010910151
184	0x3bae224c	0.005314147
185	0xbbf4eca7	-0.0074745
186	0x3c29d142	0.010364832
187	0x3c2a89e8	0.010408856
188	0x3a219538	0.0006163898
189	0xbb83bb21	-0.0040201102
190	0x3d0e73a9	0.03477827
191	0x3b9a2e84	0.004705252
192	0xbc92edef	-0.017935721
193	0x3c5207e6	0.012819266
194	0x3c2f08a3	0.0106832115
195	0x3bf6edf4	0.0075356904
196	0x3b3eabe8	0.0029094163
197	0x3bbb3587	0.005713168
198	0xbc7e047a	-0.015503997
199	0x3d0d8161	0.034547213
200	0xbb339525	-0.002740213
201	0x3c283bec	0.010268193
202	0xbbc793e9	-0.0060906303
203	0x3c5b3263	0.013378712
204	0x3cdfb1e4	0.027306505
205	0xbc36538e	-0.011128319
206	0x3cb856ab	0.022502264
207	0xbca70a8f	-0.020390777
208	0x3c2aaa70	0.010416612
209	0x3ca82832	0.02052698
210	0xbcfa06eb	-0.030520877
211	0x3cc8f8c7	0.024532689
212	0xbb85bd25	-0.0040813857
213	0x3cf902df	0.030396877
214	0xbbf4a0a9	-0.0074654412
215	0xbc7cdff6	-0.015434256
216	0x3cda09b1	0.02661595
217	0xbb5ee3f4	-0.0034010382
218	0xbb1ae35a	-0.0023634047
219	0xba90615c	-0.0011015343
220	0x378af229	1.6563647e-05
221	0xbba08704	-0.0048989076
222	0x3c4b9370	0.012425289
223	0x3c88cebd	0.016700143
224	0xbc299d6a	-0.010352472
225	0x3cc1c7c4	0.023654826
226	0xbc8ac49f	-0.01693946
227	0xbc1f1c8c	-0.009711396
228	0x3cb2b71c	0.021815829
229	0xbc9bab67	-0.01900263
230	0x3c9f664c	0.019457959
231	0xbca9c8c5	-0.020725617
232	0x3c966d98	0.018362805
233	0x3c6082e8	0.0137030855
234	0x3ca8aaa1	0.020589175
235	0x3c1f645b	0.009728516
236	0x3c969356	0.018380802
237	0xbbfa9505	-0.007647159
238	0xbc30eb4c	-0.010798287
239	0xbaf6494e	-0.0018790157
240	0x3c4745d4	0.012162644
241	0xbbc49475	-0.005999143
242	0xbb8041bc	-0.003914086
243	0xbbdc84fc	-0.00672972
244	0x3c984859	0.018589186
245	0xbba10125	-0.0049134665
246	0xbca65e47	-0.020308627
247	0x3ca5e5bc	0.020251147
248	0x3bd22c25	0.006413954
249	0xbc98642f	-0.018602459
250	0x3c39993f	0.011328041
251	0xbb8e2558	-0.004337948
252	0xbcadd49d	-0.021219546
253	0x3c9b45d4	0.018954195
254	0xbb39b5fb	-0.0028337229
255	0xbbce5105	-0.0062962794

linear.bias f4 [8]
0	0x3adadd8c	0.0016698106
1	0x3b1eb47a	0.002421646
2	0xbaf838fb	-0.001893788
3	0x3a30371b	0.00067220785
4	0xb9aadd7d	-0.00032589948
5	0xbb172f1c	-0.002306885
6	0xbb19c95a	-0.0023465962
7	0x39f4de4f	0.0004670494
